data/saved_models/discriminator_epoch_0.pth (torch, 758398 bytes, 14 tensors)

fc1.bias f4 [512]
0	0x3e04acbc	0.12956518
1	0x3d7e716f	0.062119897
2	0xbc06f2a5	-0.008236562
3	0x3e16b2fa	0.14716712
4	0x3d9374f8	0.072000444
5	0xbcc97e86	-0.024596464
6	0xbdb355ed	-0.087566234
7	0x3d9ce082	0.07660009
8	0xbcc211af	-0.023690073
9	0xbe110744	-0.14162928
10	0x3da94ab7	0.08266204
11	0x3de16693	0.110058926
12	0x3d3c40b5	0.045960147
13	0xbdb4c5df	-0.088268034
14	0xbe0e737f	-0.13911246
15	0x3e021325	0.12702616
16	0xbd898e8a	-0.0671664
17	0x3e12bff3	0.14331035
18	0xbd63727c	-0.055529103
19	0xbda7d472	-0.081948176
20	0xbd44edc8	-0.04807833
21	0x3dc49b7a	0.09599967
22	0x3d2c8b40	0.042124987
23	0x3b3c204d	0.0028705776
24	0x3e1f9488	0.15584004
25	0x3e15ad99	0.14617004
26	0xbdf6ab8c	-0.12044439
27	0x3e08144b	0.13288991
28	0x3ddcb1e7	0.1077612
29	0x3e0800f6	0.13281617
30	0x3e1df7f7	0.15426622
31	0xbdc62047	-0.09674125
32	0xbdd4d6b4	-0.10392514
33	0xbc877098	-0.016533181
34	0x3e156d1c	0.14592403
35	0xbe113547	-0.1418048
36	0xbdb71a4f	-0.08940565
37	0x3e0b9e07	0.13634501
38	0x3e19dcb0	0.15025592
39	0x3dee3bf2	0.116325274
40	0xbd90e9f2	-0.070758715
41	0xbca576bb	-0.020198217
42	0x3e162302	0.14661792
43	0x3dad7090	0.08468735
44	0x3e050ecd	0.12993927
45	0x3d29c525	0.041447777
46	0x3dc9f080	0.09860325
47	0x3d8eaccc	0.06966552
48	0xbe0f76e5	-0.14010198
49	0x3bf49f5d	0.0074652866
50	0xbd859fbf	-0.0652461
51	0x3e1591cf	0.14606403
52	0x3e0e753a	0.13911906
53	0x3cd9bb87	0.026578678
54	0xbd928cf4	-0.07155791
55	0xbd9df89f	-0.07713436
56	0x3c7ccf00	0.015430212
57	0xbb0faa6a	-0.0021921643
58	0xbe1a8c91	-0.15092684
59	0x3bb19dd2	0.005420425
60	0x3d622fd6	0.0552214
61	0x3deabb59	0.11461515
62	0x3be7bfd8	0.00707243
63	0x3db08b89	0.08620364
64	0x3db90ba7	0.09035426
65	0xbdf6c132	-0.12048568
66	0x3db740d5	0.089479126
67	0xbd5e1772	-0.054221578
68	0xbcc2473d	-0.02371561
69	0xbdb432f7	-0.08798783
70	0x3cac5516	0.021036666
71	0x3d61f7e2	0.05516804
72	0x3dc8011a	0.09765835
73	0x3ddf6725	0.10908345
74	0xbdd67717	-0.10471933
75	0xbd25d526	-0.040486477
76	0x3db2e2ea	0.08734687
77	0x3dc8ed1b	0.09810849
78	0xbd1cd616	-0.038290106
79	0x3e13ea3e	0.14444825
80	0x3de26840	0.1105504
81	0xbd893937	-0.06700366
82	0xbc87c955	-0.016575495
83	0x3d9bab6d	0.07601056
84	0x3e003e45	0.12523754
85	0xbc826036	-0.015915018
86	0x3df832bb	0.12119051
87	0xbe133ffe	-0.1437988
88	0x3cb4aa23	0.022053784
89	0x3e04fdad	0.12987395
90	0xbdb7a1ca	-0.08966406
91	0xbda5f129	-0.08102638
92	0x3c5c18fe	0.013433693
93	0xbe002673	-0.12514667
94	0x3db76a51	0.08955825
95	0xbd9c3c27	-0.07628661
96	0x3db5edae	0.088832244
97	0x39e5fac8	0.0004386513
98	0x3d541959	0.051781986
99	0x3e0da4a4	0.13832337
100	0xbe0eaa39	-0.13932122
101	0x3d27632d	0.040866066
102	0x3e00cd73	0.12578373
103	0xbe0e7f23	-0.13915686
104	0xbe0f4c6d	-0.13993998
105	0xbe03efcd	-0.12884445
106	0x3d435df8	0.047697037
107	0x3e17d7d4	0.14828426
108	0xbda59ae0	-0.08086181
109	0xbdcb0507	-0.09913068
110	0xbe1cd524	-0.15315682
111	0xbd66a84d	-0.056312848
112	0x3cd09793	0.025462901
113	0x3b354b15	0.002766316
114	0x3d1f9763	0.038962733
115	0xbdfcefac	-0.12350401
116	0xbdc75792	-0.097334996
117	0xbbf4ff07	-0.0074766907
118	0x3cc48444	0.02398885
119	0x3c2ee21f	0.010674029
120	0xbe0ea486	-0.13929948
121	0x3d96e229	0.073673554
122	0x3db7b483	0.08969977
123	0xbd3eb5ad	-0.04655998
124	0xbdb98265	-0.09058074
125	0x3dbbbc9a	0.09166832
126	0x3dd3be3c	0.10339019
127	0xbd4be989	-0.049783263
128	0xbdf7e9fb	-0.12105175
129	0x3d320ace	0.043467335
130	0x3de8dfd1	0.113708146
131	0x3d84085c	0.06446907
132	0x3e07a53e	0.13246629
133	0x3d0ef357	0.034900036
134	0x3db04c3d	0.08608291
135	0xbd5aceb8	-0.0534198
136	0x3dbe7e5b	0.09301444
137	0xbe0e9fbd	-0.13928123
138	0x3c7d23d9	0.015450441
139	0xbe1d9634	-0.15389329
140	0xbd044c64	-0.032299414
141	0xbde2f041	-0.11080981
142	0x3c906c77	0.017629845
143	0xbcf29627	-0.029612614
144	0x3de8ac11	0.11360944
145	0xbd9c2c76	-0.07625668
146	0x3e1342b6	0.14380917
147	0x3c5e6e44	0.013576094
148	0xbcf5b2de	-0.029992517
149	0x3e0940c1	0.13403608
150	0x3e0c4a59	0.13700236
151	0x3da65af5	0.081228174
152	0x3e14875e	0.14504763
153	0xbde54f79	-0.11196799
154	0xbdb0e371	-0.08637131
155	0xbdb74dfd	-0.08950422
156	0x3d63fcc4	0.055660978
157	0xbda49c51	-0.080376275
158	0x3e150cf4	0.14555722
159	0x3dfb187f	0.12260532
160	0xbd180959	-0.03711829
161	0xbc91847e	-0.017763373
162	0xbdee75a3	-0.11643531
163	0xbd9388e8	-0.07203847
164	0xbd9e0201	-0.07715226
165	0x3d24725a	0.040148117
166	0xbe00c174	-0.12573797
167	0xbca28cf1	-0.019842597
168	0xbdff0923	-0.124529146
169	0xbdb305dd	-0.08741353
170	0xbc82a838	-0.015949354
171	0x3e114c68	0.14189303
172	0x3d1b9f69	0.037993822
173	0xbdfcd806	-0.12345891
174	0xbd684876	-0.05670973
175	0xbd711c7a	-0.058865048
176	0xbcf2e496	-0.029650014
177	0xbe03c243	-0.12867074
178	0xbd586fcc	-0.052840993
179	0x3da00d07	0.07814985
180	0xbe109210	-0.14118218
181	0x3ddf8ea8	0.109158814
182	0x3dffff13	0.124998234
183	0xbd90169d	-0.07035563
184	0xbe0f16ba	-0.13973513
185	0xbc7c6b35	-0.0154064195
186	0xbe03ca10	-0.1287005
187	0xbe131650	-0.1436398
188	0x3df5d7ee	0.12004076
189	0xbdc663f1	-0.09687031
190	0xbe0bf043	-0.13665871
191	0x3e148ca1	0.1450677
192	0xbcf42fae	-0.029807892
193	0xbe102677	-0.14077173
194	0xbdd07beb	-0.101798855
195	0xbdac583e	-0.08415268
196	0xbe095836	-0.13412556
197	0x3e084d33	0.13310699
198	0xbd3c7deb	-0.046018522
199	0xbd69e1c7	-0.057100084
200	0xbdddda63	-0.108326696
201	0xbd9483be	-0.0725169
202	0x3d5fc69d	0.05463277
203	0xbd36ea73	-0.044657182
204	0x3e0c349f	0.13691948
205	0x3d2d6a8a	0.04233793
206	0xbdfbe291	-0.122990735
207	0x3b98b461	0.0046601747
208	0xbe176b49	-0.1478702
209	0xbe034d34	-0.1282242
210	0xbe1d93a3	-0.1538835
211	0xbdae779d	-0.08518908
212	0x3e0de43b	0.13856594
213	0xbc30dc71	-0.010794745
214	0x3d8490ef	0.064729564
215	0x3b5bd60d	0.0033544332
216	0xbb8df503	-0.004332186
217	0x3e1156cf	0.14193271
218	0xbdd9d921	-0.10637117
219	0xbc6e6416	-0.01455023
220	0x3cfa32e9	0.030541854
221	0x3d79a132	0.060944743
222	0x3df14005	0.11779789
223	0x3d8f2706	0.06989865
224	0xbdb75396	-0.089514896
225	0xbc6dd5c1	-0.014516295
226	0x3d826987	0.06367784
227	0x3e11b933	0.14230804
228	0xbc3f4a33	-0.011675405
229	0x3c7e12a0	0.01550737
230	0xbdb86b71	-0.09004868
231	0x3ddea682	0.108716026
232	0xbe1d6e1c	-0.15374035
233	0xbe0b295d	-0.13589998
234	0x3dfe2813	0.12409987
235	0x3d31104a	0.043228425
236	0xbdab5179	-0.08365149
237	0xbbcab239	-0.0061857966
238	0xbe0af92f	-0.13571618
239	0xbcf8b58c	-0.030360006
240	0xbd264c6b	-0.04060022
241	0xbd9d51c6	-0.07681613
242	0x3e1630a8	0.14666998
243	0xbdb53fdd	-0.088500716
244	0xbdc9c0e6	-0.098512456
245	0x3c763373	0.015026915
246	0xbdd55686	-0.10416894
247	0xbd87f4fc	-0.06638524
248	0x3d3f70f1	0.04673857
249	0x3d3e7647	0.046499517
250	0x3df6de0e	0.12054072
251	0xbdf98fb1	-0.1218561
252	0x3c57640d	0.013146413
253	0x3b89f087	0.0042095813
254	0x3b9738b9	0.004614916
255	0xbd8f8ab5	-0.07008878

fc1.weight_orig f4 [512, 42]
0	0xbd86cb87	-0.065817885
1	0xbd847499	-0.06467552
2	0xbccb77d2	-0.024837408
3	0x3dd0b9e6	0.10191707
4	0xbd94a636	-0.07258265
5	0x3d4ed3fc	0.050495133
6	0x3e1f72d7	0.15571152
7	0xbd4b6e8f	-0.049665984
8	0x3e18e089	0.14929403
9	0xbdf89f26	-0.1213973
10	0x3d826631	0.06367148
11	0x3d8a7af7	0.06761735
12	0xbd2566e5	-0.04038133
13	0xbdae6543	-0.08515408
14	0x3dc00267	0.09375458
15	0xbde6365b	-0.11240836
16	0x3cce6027	0.025192333
17	0xbdb2a5a6	-0.08723001
18	0x3d8de905	0.069292106
19	0x3d9cbb98	0.07652968
20	0xbce6fc97	-0.028196616
21	0x3d57342a	0.052539982
22	0xbd92abcd	-0.07161675
23	0x3d038e8a	0.032118358
24	0x3d1f888f	0.03894859
25	0xbcbe2165	-0.023209283
26	0xbc7f919a	-0.015598679
27	0xb967b31c	-0.000220966
28	0xbd644839	-0.05573294
29	0xbd6a21cf	-0.05716115
30	0x3dc7eb56	0.09761684
31	0xbe02a776	-0.12759194
32	0x3dd1774d	0.10227833
33	0xbdca6b6f	-0.098837726
34	0xbdcb6845	-0.09931997
35	0x3e0e351a	0.13887444
36	0xbd6da498	-0.058018297
37	0x3dd0508b	0.10171612
38	0xbdfc4c43	-0.12319233
39	0xbce25fa9	-0.027633505
40	0xbd137223	-0.03599752
41	0x3e2dc167	0.16968308
42	0xbd9bef4f	-0.07614004
43	0xbdd88ebf	-0.10574102
44	0x3da59761	0.08085514
45	0x3debb96a	0.11509974
46	0x3e0c5d4a	0.13707462
47	0xbd414569	-0.047185335
48	0xbda1d2b9	-0.0790152
49	0xbc661d56	-0.01404508
50	0x3d959c65	0.073052205
51	0x3d1a9cfd	0.037747372
52	0x3a1b96aa	0.00059352315
53	0x3e0c74b0	0.13716388
54	0x3db947c1	0.09046889
55	0xbe07db31	-0.13267209
56	0xbc13f7b7	-0.009031228
57	0xbdebdc74	-0.115166575
58	0x3d0fb611	0.03508574
59	0x3d9a66a6	0.0753911
60	0x3d4e0d52	0.050305672
61	0xbda6a1f8	-0.08136362
62	0x3d6ee95c	0.058328018
63	0x3de3be22	0.11120249
64	0x3b8285cc	0.003983235
65	0xbd777111	-0.060410563
66	0xbdd34e83	-0.10317709
67	0x3cf9a150	0.030472428
68	0xbcb481fa	-0.022034634
69	0xbe041b37	-0.12901007
70	0x3d021b44	0.031764284
71	0xbdc07574	-0.093974024
72	0xbd749d95	-0.059720594
73	0x3d810f52	0.0630175
74	0x3c9287cc	0.017887019
75	0xbe0bf132	-0.13666227
76	0xbe0e44dd	-0.13893457
77	0xbdb412ed	-0.08792672
78	0xbe1b2f41	-0.15154745
79	0x3df34b0a	0.11879547
80	0xbddda88e	-0.10823165
81	0x3bb747f1	0.005593293
82	0x3dfb28e5	0.122636594
83	0xbd0bd173	-0.034135293
84	0x3bf0f6fa	0.0073536607
85	0x3c4a2c2d	0.012339634
86	0xbc76148d	-0.015019548
87	0xbd95de24	-0.073177606
88	0xbdc72b63	-0.09725072
89	0xbd9ff089	-0.0780955
90	0x3d630dc5	0.055433054
91	0xbdb78eb5	-0.08962766
92	0xbdcab57a	-0.09897895
93	0xbdcd02d4	-0.10010305
94	0xbd0d50b1	-0.03450078
95	0xbd65eeda	-0.05613599
96	0xbdf671d4	-0.1203343
97	0x3ddea477	0.10871213
98	0xbe14638d	-0.144911
99	0xbdd2fab1	-0.10301722
100	0xbd6a92f6	-0.05726906
101	0x3deb2633	0.11481895
102	0xbd506b8f	-0.050883826
103	0x3df451a3	0.119296335
104	0xbe069615	-0.13143189
105	0x3d8a523c	0.06753966
106	0x3d4af850	0.049553216
107	0xbd8018f7	-0.06254762
108	0xbcfd13ba	-0.030893195
109	0x3e015b51	0.1263249
110	0xbdbe12f4	-0.09280959
111	0xbc2667b5	-0.010156562
112	0x3de06368	0.1095646
113	0x3dc09f95	0.09405438
114	0xbe02228e	-0.12708494
115	0xbde3092a	-0.11085732
116	0xbdb25b97	-0.087088756
117	0x3d28ed6d	0.041242052
118	0xbe04e020	-0.12976122
119	0x3da8f05a	0.082489684
120	0xbd79a1e0	-0.06094539
121	0xbdcd479f	-0.10023426
122	0x3c8a9b75	0.01691983
123	0xbde64e2c	-0.11245379
124	0xbc754ba7	-0.01497165
125	0x3c245593	0.010030168
126	0x3d918252	0.07104935
127	0x3dbf6a47	0.09346443
128	0xbe05a390	-0.13050675
129	0x3d9cc947	0.07655578
130	0x3e074f08	0.13213742
131	0x3e1fa0de	0.1558871
132	0x3b8f47f9	0.0043725935
133	0xbe1d0633	-0.15334396
134	0x3df60991	0.120135434
135	0x3dc60270	0.09668434
136	0x3dc7b0c0	0.09750509
137	0x3d1c5981	0.038171295
138	0x3cf93c72	0.03042433
139	0x3d9923ad	0.07477508
140	0x3e128b98	0.14311063
141	0x3e243f21	0.16039707
142	0xbdbc5a0e	-0.09196864
143	0x3de2b75d	0.1107013
144	0x3c4e0c75	0.012576212
145	0x3d4755a7	0.04866567
146	0x3e145eaf	0.14489244
147	0xbd135d4a	-0.03597764
148	0xbe18c1f4	-0.14917737
149	0x3d7d9359	0.0619081
150	0xbd9cb1d4	-0.076511055
151	0xbe08b597	-0.13350521
152	0xbd2c5ae9	-0.042078886
153	0x3da9541d	0.082679965
154	0xbd5d6e3b	-0.054060202
155	0xbdf7297a	-0.12068458
156	0xbd52f3c7	-0.051502015
157	0x3db93697	0.09043615
158	0xbdb827dd	-0.08991978
159	0x3e0a7d68	0.13524401
160	0x3da000c4	0.07812646
161	0xbdb83b39	-0.08995671
162	0x3d77848a	0.060429133
163	0x3ce5f2bb	0.028069844
164	0xbdff999f	-0.12480473
165	0x3d2d9df0	0.04238695
166	0x3e0ef5a7	0.13960896
167	0x3dc8a8b3	0.09797802
168	0xbd675f14	-0.056487158
169	0xbdbe3a3b	-0.0928845
170	0xbd248661	-0.040167216
171	0xbde1942b	-0.11014589
172	0xbd86449d	-0.06556056
173	0x3c7ec3b1	0.015549586
174	0x3c7bf727	0.01537875
175	0x3d855b73	0.06511583
176	0x3cb4e714	0.022082843
177	0xbdf2fea3	-0.11864974
178	0xbdc9fb6d	-0.09862409
179	0x3a18c439	0.00058275793
180	0x3cfe3667	0.0310318
181	0x3c389e44	0.011268202
182	0x3d62d415	0.05537804
183	0xbd2a34f0	-0.04155439
184	0x3df7b1c0	0.1209445
185	0xbdfc6686	-0.12324242
186	0x3d10d4f5	0.03535934
187	0x3dc7d623	0.0975764
188	0xbd9a7cb6	-0.07543318
189	0xbe08e0bd	-0.13366981
190	0x3d0b4989	0.034005675
191	0xbe0380dc	-0.12842125
192	0xbdcfad8d	-0.10140524
193	0x3d58a2b1	0.05288953
194	0x3cbc03f9	0.022951113
195	0xbc9f4d51	-0.019446047
196	0x3e150e22	0.14556172
197	0xbe1afdb5	-0.15135844
198	0xbcca15f0	-0.024668664
199	0x3d8d88e0	0.069108725
200	0xbdb1e335	-0.086859144
201	0x39ea623c	0.00044705148
202	0x3dd1e332	0.10248412
203	0x3da068ae	0.07832466
204	0xbd5dadbf	-0.054120775
205	0xbd56df7a	-0.052459218
206	0x3ddad26d	0.10684667
207	0xbd93d773	-0.07218828
208	0x3e103176	0.14081368
209	0xbe049826	-0.12948665
210	0xbd508bc4	-0.05091454
211	0x3d9d24f9	0.076730676
212	0xbdb8a0e3	-0.09015062
213	0xbd1c348b	-0.038136046
214	0x3e03e4c7	0.1288024
215	0x3da33ae0	0.07970214
216	0xbd98dec4	-0.07464364
217	0x3db8e7c0	0.09028578
218	0xbe0ede3f	-0.13951968
219	0x3e24feaa	0.16112772
220	0xbb671abe	-0.0035263742
221	0x3dd3438d	0.10315619
222	0xbd509fde	-0.05093371
223	0x3d93e5b7	0.07221549
224	0xbda38c08	-0.07985693
225	0x3dc4d733	0.096113585
226	0x3c5f3129	0.013622561
227	0xbde118fc	-0.109910935
228	0x3d9d731a	0.076879695
229	0x3e1d5f3e	0.15368363
230	0x3d92ba6a	0.07164462
231	0x3d1ab145	0.037766714
232	0x3d731f13	0.059355807
233	0x3cfdd2f6	0.030984383
234	0xbc9ed16b	-0.019386968
235	0x3e0a9bf3	0.13536052
236	0xbe1f9412	-0.15583828
237	0x3de9890c	0.11403093
238	0x3db24e45	0.08706335
239	0xbe021dc5	-0.12706669
240	0xbdd28422	-0.102791086
241	0xbd6ea1d5	-0.058259804
242	0x3e19246b	0.14955299
243	0x3d01e6a3	0.031714093
244	0x3e0659a2	0.1312013
245	0x3debce29	0.11513931
246	0xbe03a9aa	-0.1285769
247	0x3b9416f4	0.004519338
248	0xbe184598	-0.14870298
249	0xbe016872	-0.12637499
250	0xbdc3a2f8	-0.09552568
251	0x3dcfd0c4	0.10147241
252	0xbe0a6e13	-0.13518552
253	0xbd5a6617	-0.053320017
254	0xbcd96668	-0.026538089
255	0x3d0e867b	0.03479622

fc1.weight_u f4 [512]
0	0xbd78d569	-0.0607504
1	0xbd664346	-0.0562165
2	0xbcb2d8c6	-0.021831881
3	0x3dce506b	0.10073932
4	0x3cfdbd02	0.030973915
5	0x3d847e12	0.064693585
6	0xbcaf85ab	-0.021426043
7	0xbdae4916	-0.08510034
8	0xbd1d8691	-0.03845841
9	0x3d1919ba	0.03737805
10	0xbd2e0aa5	-0.04249062
11	0xbd0452a4	-0.032305375
12	0xbd18f890	-0.037346423
13	0xbc67eef3	-0.014156091
14	0xbd099026	-0.033584736
15	0x3d002478	0.03128478
16	0xbd4a3b3d	-0.0493729
17	0xbd6eccf1	-0.058300916
18	0xbbc30489	-0.0059514684
19	0x3d386510	0.045018256
20	0xbd0e8ca3	-0.03480209
21	0x3ce33a60	0.027737796
22	0x3ccffff2	0.025390599
23	0x3c34b7a0	0.011030108
24	0x3c8b6575	0.017016152
25	0xbc968e19	-0.018378304
26	0x3ca5a9ed	0.020222628
27	0xbd0669a2	-0.032815583
28	0x3d6ec7e6	0.058296107
29	0xbd5422a4	-0.05179085
30	0x3c326ed0	0.010890678
31	0xbc41d4bd	-0.011830506
32	0x3b1c3ea2	0.0023841043
33	0x3d1f3640	0.038870096
34	0xbcbb7306	-0.022881996
35	0x3d894647	0.067028575
36	0x3d0bf2bb	0.034167033
37	0x3cf9edc5	0.030508885
38	0x3dbb6d5a	0.091517165
39	0x3d8317cb	0.064010225
40	0xbc25a72e	-0.0101106595
41	0xbdab7418	-0.083717525
42	0x3d960033	0.07324257
43	0x3d454d3d	0.048169363
44	0xbd275d80	-0.040860653
45	0x3dfd6fcc	0.12374839
46	0xbe0af880	-0.13571358
47	0xbd1c0344	-0.03808905
48	0x3d1b4967	0.0379118
49	0x3cbaf381	0.02282119
50	0x3c4b5e15	0.012412568
51	0x3d8e354d	0.0694376
52	0xbd84d8b1	-0.06486643
53	0xbd5fddaa	-0.054654755
54	0xbba4a2c8	-0.005024288
55	0x3c02c4e5	0.007981514
56	0x3bff3771	0.0077885916
57	0x3cba7d30	0.022764772
58	0x3cbd2f69	0.023093896
59	0x3c0d81f2	0.008636938
60	0xbd2c97ca	-0.042136945
61	0xbae38b22	-0.001736019
62	0xbccdb815	-0.025112191
63	0xbdd0eded	-0.10201631
64	0x3da42543	0.080149196
65	0x3d23d6be	0.039999716
66	0xbd2cd12f	-0.04219168
67	0x3ae3d3d0	0.0017381851
68	0x3d236829	0.039894257
69	0x3cffe978	0.031239256
70	0xbba6209b	-0.005069805
71	0x3d2fb26a	0.04289476
72	0xbd910c41	-0.07082415
73	0x3da846fc	0.08216664
74	0xbd32a722	-0.04361642
75	0x3d87a13a	0.066225484
76	0x3c9735a2	0.018458191
77	0x3d609b65	0.054835696
78	0xbc20f6c0	-0.009824455
79	0x3d1a1de7	0.037626173
80	0xbd9e9870	-0.07743919
81	0x3da76a7d	0.08174608
82	0xbd0b0b21	-0.03394616
83	0xbd827bc8	-0.06371266
84	0x3d114120	0.0354625
85	0x3db3c447	0.08777671
86	0xbdad1c63	-0.0845268
87	0x3bde8a0f	0.00679136
88	0x3d151f0a	0.036406554
89	0x3daa9e1a	0.08330937
90	0x3ac4cbc0	0.0015014336
91	0xbda33358	-0.079687774
92	0x3d014114	0.031556204
93	0xbccb8db2	-0.024847839
94	0xbc6a74d9	-0.014310085
95	0xbc22c9f5	-0.009935846
96	0xbd92be3c	-0.071651906
97	0x3be9759f	0.007124617
98	0x3a166c69	0.00057382
99	0x3d57c466	0.052677535
100	0x3d0547a8	0.03253904
101	0xbd2c2cc4	-0.04203488
102	0xba01eb64	-0.00049560354
103	0x3c264384	0.010147933
104	0x3cf34860	0.029697597
105	0x3ccfd5d2	0.025370512
106	0x3d87b2c6	0.06625895
107	0x3c9ad16f	0.018898694
108	0xbcde2a26	-0.027119707
109	0xbcf317bc	-0.029674403
110	0x3cb955ff	0.022624014
111	0x3cd82133	0.026383018
112	0x3db68343	0.08911755
113	0x3cc30b93	0.02380923
114	0x3d7b8147	0.061402585
115	0xbd012312	-0.031527586
116	0x3ba43c29	0.0050120545
117	0xbd816b2b	-0.06319269
118	0x3d445603	0.04793359
119	0xbd95658f	-0.072947614
120	0x3b9457b6	0.0045270575
121	0x3d8c07a1	0.068373926
122	0x3c9ea61c	0.019366316
123	0x3cd0fa19	0.02550988
124	0xbd5dc34e	-0.054141335
125	0x3d0a239e	0.033725373
126	0xbe087dc8	-0.13329232
127	0x3aa985d9	0.0012933566
128	0x3c8fbb6e	0.017545428
129	0xbcdebf6f	-0.027190892
130	0xbd9a9420	-0.07547784
131	0xbd400450	-0.046879113
132	0xbb366a4e	-0.0027834359
133	0xbd3c6228	-0.045992047
134	0x3da610d6	0.0810868
135	0xbd1bc6f5	-0.038031537
136	0xbdf037db	-0.117294036
137	0xbc972989	-0.018452423
138	0x3bf94e09	0.0076081795
139	0xbb868319	-0.0041049835
140	0x3c9767fb	0.018482199
141	0x3db9814d	0.09057865
142	0xbc26cbf3	-0.010180461
143	0x3cb86fb4	0.022514202
144	0xbd174222	-0.036928304
145	0xbd4d037c	-0.05005215
146	0xbd13be61	-0.03607023
147	0xbc2d5954	-0.0105803795
148	0xbd1c6af8	-0.03818795
149	0x3bae0822	0.005311028
150	0xbd607107	-0.05479529
151	0x3b882a5f	0.0041554417
152	0xbd34718a	-0.04405359
153	0xbb9c5739	-0.00477114
154	0x3d1c546e	0.038166456
155	0x3d4dcbfe	0.05024337
156	0x3d849773	0.06474199
157	0xbb3b952e	-0.0028622854
158	0x3d3e83d8	0.046512455
159	0x3d3f66fb	0.04672907
160	0xbc97079f	-0.018436251
161	0x3d8bc715	0.06825081
162	0x3d1f5032	0.03889484
163	0xbc0cccd0	-0.008593753
164	0x39c19e19	0.0003692962
165	0x3c5ed3dc	0.013600316
166	0x3cf3bd3f	0.029753326
167	0x3bd93a09	0.006629233
168	0x3cb648ae	0.022251453
169	0x3ce02e94	0.02736596
170	0x3ccb2b3d	0.024800891
171	0x3cb54b19	0.022130536
172	0xbc832d7f	-0.016012905
173	0xbc804b3f	-0.01566088
174	0xbb086d0e	-0.0020816955
175	0x3ce7cb8f	0.028295306
176	0x3b5a9579	0.0033353253
177	0xbc7d2803	-0.015451434
178	0xbd564ffd	-0.052322377
179	0x3cb5b37e	0.022180315
180	0x3c84d473	0.016214585
181	0x3d792be1	0.06083286
182	0xbdbcbd92	-0.09215845
183	0xbcb2a644	-0.021807797
184	0xbdbad603	-0.09122851
185	0xbc7e5c3b	-0.015524919
186	0xbbea37c3	-0.0071477606
187	0x3c583a2b	0.013197462
188	0xbd88bafb	-0.06676289
189	0x3cdfba04	0.027310379
190	0x3df0ead1	0.11763538
191	0x3d39c877	0.045357194
192	0x3d26a47a	0.0406842
193	0x3cd19495	0.025583545
194	0xbd5b27ad	-0.053504635
195	0x3d220faa	0.03956572
196	0xbce3c4b2	-0.027803753
197	0xbd13e226	-0.036104344
198	0xbcaaa00e	-0.020828273
199	0x3c6f8c76	0.014620891
200	0xbc6c0ce4	-0.01440737
201	0xbb80b595	-0.0039278963
202	0xbd715ec0	-0.05892825
203	0x3d1d6d8a	0.038434543
204	0xbd66c77f	-0.056342598
205	0x3d07592d	0.03304403
206	0xbc715dd6	-0.014731845
207	0x3d17e4c9	0.03708342
208	0xbb7c2e11	-0.0038479606
209	0x3b81f5d8	0.0039660744
210	0xbb0bff44	-0.0021361867
211	0x3c4cf33f	0.012509166
212	0x3dcd9b60	0.10039401
213	0x3d4fabac	0.05070083
214	0xbd7b3584	-0.061330333
215	0x3c9fb85d	0.019497091
216	0xbd6760f6	-0.056488954
217	0xbd81ba95	-0.06334416
218	0xbd6ec7f4	-0.05829616
219	0xbdad49af	-0.0846132
220	0xbcce7e53	-0.02520672
221	0xbc887dcc	-0.016661547
222	0xba8c982b	-0.0010726502
223	0x3b106bcd	0.002203691
224	0x3d247570	0.04015106
225	0xbc8cd1df	-0.017189918
226	0xbda214ed	-0.079141475
227	0xbda490a2	-0.08035399
228	0x3d545a61	0.051844005
229	0x3d756615	0.059911806
230	0xbd1d3f06	-0.038390182
231	0x3d4149c3	0.047189485
232	0x3c4fff78	0.012695186
233	0x3d10e466	0.035374068
234	0x3ce9b1fd	0.028527254
235	0xbd18d152	-0.037309
236	0x3d287197	0.041123953
237	0xbce8ed18	-0.028433368
238	0x3cb12821	0.02162558
239	0xbceed72e	-0.02915534
240	0xbcce7872	-0.025203917
241	0xbbeee33b	-0.0072902716
242	0xbc956d61	-0.018240632
243	0x3c80aa36	0.015706163
244	0xbc83e2d2	-0.016099367
245	0x3cf76738	0.030200586
246	0xbc82f890	-0.015987664
247	0xbb9843e9	-0.0046467674
248	0x3d49685e	0.049171798
249	0xbd78f08f	-0.06077629
250	0x3d90897e	0.070574746
251	0xbd8d2bce	-0.06893121
252	0x3d02151a	0.031758405
253	0x3dae2977	0.085040025
254	0xbce3d41b	-0.0278111
255	0xbd50d215	-0.0509816

fc1.weight_v f4 [42]
0	0x3d0dbad6	0.03460201
1	0x3e48d438	0.19612205
2	0xbe8941c4	-0.26807988
3	0xbdef9552	-0.116984025
4	0x3e04756a	0.12935415
5	0x3df1b81f	0.118026964
6	0xbe130419	-0.14357032
7	0xbd8037b5	-0.06260625
8	0xbd51144a	-0.05104474
9	0xbd9e3899	-0.07725639
10	0x3e4824b8	0.19545257
11	0xb8e0521c	-0.000106964464
12	0x3e31fb04	0.17380911
13	0x3e1ea8d8	0.15494096
14	0x3d677975	0.056512315
15	0x3e399c20	0.18125963
16	0x3d71f512	0.059071608
17	0xbdf27485	-0.118386306
18	0xbe3e7fab	-0.18603389
19	0x3ea0adcf	0.31382605
20	0x3db71ffc	0.089416474
21	0x3d86b4a5	0.06577424
22	0xbe015224	-0.1262899
23	0x3e0f6653	0.14003877
24	0xbe01fe1c	-0.12694591
25	0x3e292f34	0.16521913
26	0x3d965145	0.0733972
27	0x3e328f2d	0.1743743
28	0x3e288320	0.1645627
29	0xbe4d5dc9	-0.20055307
30	0xbda22bd8	-0.07918519
31	0x3d82f666	0.06394653
32	0xbd8bbad8	-0.06822747
33	0x3d81cda7	0.06338053
34	0x3e5a4b95	0.21317895
35	0xbdf4b6c3	-0.119489215
36	0x3ea24438	0.31692672
37	0xbe32529b	-0.17414324
38	0xbe536879	-0.20645322
39	0x3dea57bb	0.114425145
40	0xbcef494a	-0.029209752
41	0xbe88e044	-0.267336

fc2.bias f4 [256]
0	0xbccc69ed	-0.024952853
1	0xbcab69a5	-0.020924399
2	0x3cd8b820	0.026454985
3	0x3c37e7ac	0.0112246685
4	0xbc5604ee	-0.013062699
5	0xbc1452f7	-0.0090529835
6	0xbcc19fee	-0.02363583
7	0xbcf78130	-0.030212969
8	0x3ce9fc76	0.028562766
9	0xbcb8bbf9	-0.02255057
10	0x3c6349bc	0.01387256
11	0xbc2aa442	-0.010415139
12	0xbd336fea	-0.0438079
13	0x3c3102d8	0.010803901
14	0xbd0488d5	-0.032357056
15	0x3d040146	0.032227777
16	0xbc3b5c25	-0.011435543
17	0x3bc26cae	0.005933366
18	0x3b098d15	0.0020988632
19	0xbbd0a605	-0.0063674473
20	0x3cd7e574	0.026354529
21	0xbd34919f	-0.044084188
22	0xbba45d42	-0.005016
23	0xbb337edf	-0.0027388853
24	0x3c2fa28f	0.010719909
25	0xbc167dab	-0.009185235
26	0xbd24ddae	-0.040250473
27	0xbc071051	-0.008243636
28	0x3cf8f4b2	0.030390117
29	0xbd24f3ad	-0.04027145
30	0xbc19e0da	-0.009391988
31	0x3bdfe968	0.006833244
32	0xbc192bbb	-0.009348805
33	0xbd3a3b5f	-0.045466777
34	0xba90cd15	-0.0011047447
35	0xbce72ba2	-0.028219048
36	0x3bba867d	0.005692302
37	0x3b84b531	0.00404992
38	0xbc11a372	-0.008889066
39	0xbc00d30c	-0.0078628175
40	0xbd077b09	-0.03307632
41	0xbd00b8fc	-0.031426415
42	0xbb669729	-0.0035185313
43	0xbcf2273e	-0.029559728
44	0xbcc000e3	-0.023437923
45	0xbd10efbd	-0.035384882
46	0x3c84e294	0.016221322
47	0xbd2b968f	-0.04189163
48	0x3d4ca1bd	0.049958933
49	0x3c0f3f9b	0.008743192
50	0x3c482826	0.012216603
51	0x3d12c572	0.03583283
52	0x3b2f2ad1	0.0026728401
53	0xbca47eac	-0.020079933
54	0x3cbf9a8b	0.023389122
55	0x3ccff6bf	0.025386212
56	0x3d017031	0.031601135
57	0x3b875cb1	0.0041309227
58	0x3bc7bb88	0.0060953535
59	0x3b10c7b8	0.0022091698
60	0xbd2570bc	-0.040390715
61	0xbd1cc125	-0.038270134
62	0x3cd4ce53	0.02597729
63	0xbcf57c1e	-0.02996641
64	0xbca52cce	-0.020162966
65	0xbd1d3d31	-0.038388435
66	0x3d1f2052	0.038849182
67	0xbd292052	-0.04129059
68	0xbcf27538	-0.02959691
69	0xbba7ed57	-0.0051247287
70	0xbc1dadab	-0.009623925
71	0xbc9c0e5f	-0.019049821
72	0x3cd04ea1	0.025428118
73	0xbc9e0be0	-0.019292772
74	0x3abb29be	0.0014279408
75	0x3c849147	0.016182555
76	0x3d0e2943	0.03470732
77	0xbce300f6	-0.02771042
78	0xbcea13b0	-0.02857384
79	0xbd003d3a	-0.03130839
80	0x3c530a0d	0.012880814
81	0xbcfc05d6	-0.030764502
82	0xbcb8f0b7	-0.02257572
83	0x3b7857eb	0.00378942
84	0xbce8c071	-0.028412076
85	0xbcaa5d9c	-0.02079659
86	0xbd353b11	-0.044245783
87	0x3cf1117a	0.029427279
88	0xbd0bb2af	-0.034105953
89	0xbb840bc1	-0.0040297215
90	0x3ca48885	0.020084629
91	0xbd0aa852	-0.03385193
92	0xbcfc1b9e	-0.030774888
93	0xbc8c688b	-0.017139694
94	0xbc1ea3cf	-0.00968261
95	0xbce6b342	-0.028161649
96	0x3c4371f9	0.011929029
97	0x3bdabcd5	0.0066753426
98	0xbb382556	-0.0028098426
99	0x3cd1f73f	0.025630591
100	0xbced102d	-0.028938377
101	0x3cbe2982	0.023213152
102	0xbd2ba527	-0.04190555
103	0xbd0bba8c	-0.03411345
104	0x3cc95348	0.024575844
105	0x3c84353c	0.016138665
106	0xbd14b21a	-0.036302663
107	0x3c99ef20	0.018790781
108	0x3cb4fe49	0.022093909
109	0x3c434200	0.011917591
110	0xbb25c6d5	-0.0025295515
111	0x3c3043e3	0.010758373
112	0x3b2aace5	0.0026042995
113	0xbaec081b	-0.0018007787
114	0xbce14946	-0.02750076
115	0x3d2ad345	0.04170539
116	0x3b5c7fc0	0.003364548
117	0x3c866ec2	0.016410235
118	0xbc9f6ef5	-0.019462088
119	0xbd2a8070	-0.041626394
120	0x3d0c4d26	0.034253262
121	0x3cd88669	0.02643128
122	0x3c53c6e9	0.012925842
123	0x3cfc13bc	0.030771129
124	0x3c02fdd6	0.0079950895
125	0x3cd8fedf	0.02648872
126	0xba80e80a	-0.0009834778
127	0x3caaed38	0.020865068
128	0x3d0bbf0b	0.03411774
129	0x3c977237	0.01848708
130	0x3cb9ae71	0.022666188
131	0xbc9a647f	-0.018846748
132	0x3c5d7b04	0.013518099
133	0x3d10162a	0.035177387
134	0x3c168201	0.009186269
135	0x3c888aca	0.016667742
136	0x3cbf44f4	0.02334831
137	0x3bde4822	0.0067835012
138	0x3cb2d1d6	0.021828573
139	0x3ccb6a69	0.024831014
140	0x3d1e54bc	0.038655028
141	0x3bedd9e1	0.007258639
142	0xbc3141ab	-0.010818879
143	0x3d06462d	0.03278177
144	0x3cc63c6f	0.024198739
145	0x3bab21a9	0.0052225185
146	0x3d38a123	0.045075547
147	0x3d0f3570	0.03496307
148	0x3c18ca22	0.009325536
149	0x3c6396ff	0.013890981
150	0x3cb09936	0.021557432
151	0xbd27ae7e	-0.040937893
152	0xbbc1753b	-0.0059038675
153	0x3d1077b0	0.035270393
154	0x3b51224c	0.0031911312
155	0xbc8a8e68	-0.016913608
156	0xbc10d9d7	-0.008841
157	0x3bdcbe61	0.006736562
158	0xbc5ac1c3	-0.01335186
159	0x3d01b311	0.03166491
160	0xbd2dfda3	-0.042478215
161	0xbbb7b5a0	-0.005606368
162	0xbd23ac63	-0.039959323
163	0xbd21b1bb	-0.039476138
164	0x3cd17551	0.025568636
165	0x3c92155e	0.017832454
166	0xbcb7ff69	-0.022460656
167	0xbc9b6d0d	-0.018972898
168	0xbd2825ca	-0.041051663
169	0xbd10ae99	-0.03532276
170	0x3c19cce3	0.009387228
171	0xbc9d457b	-0.01919817
172	0x3d36caa2	0.04462684
173	0xbc362051	-0.011116103
174	0xbc06f041	-0.008235992
175	0xbd36a4d8	-0.0445908
176	0x3d10d8c2	0.035362966
177	0x39033105	0.00012511395
178	0xbc83d910	-0.016094714
179	0xbc760076	-0.015014758
180	0xbce5b7ed	-0.028041804
181	0x3b9a32e0	0.004705772
182	0x3cc32e58	0.02382581
183	0x3c00f6ea	0.007871369
184	0x3c3d29f5	0.011545648
185	0x3c35be5f	0.011092751
186	0xbc8eab31	-0.017415615
187	0x3b598854	0.003319283
188	0x3cbd6cd9	0.023123192
189	0x3cf5a85e	0.02998751
190	0xbadeef22	-0.0017008523
191	0xbcf54461	-0.029939832
192	0xbc5d5b63	-0.013510558
193	0xbc4581e4	-0.012054894
194	0x3d15627a	0.036470868
195	0x3d5e01c5	0.054200906
196	0xbc868070	-0.016418666
197	0xbcf29b86	-0.029615175
198	0xbca08111	-0.019592794
199	0xbd09fbf2	-0.03368754
200	0x3cb02aae	0.021504726
201	0xbd282839	-0.041053984
202	0xbd2d3a49	-0.042291913
203	0x3c6be41b	0.014397646
204	0x3d144fdd	0.036208976
205	0x3c4c0f17	0.01245477
206	0xbcb7b4ee	-0.022425141
207	0x3b15b297	0.0022842044
208	0xbd21bd57	-0.03948721
209	0x3d08e6f2	0.03342337
210	0x3cb93b81	0.022611381
211	0x3b324e3e	0.002720728
212	0xbc67f8f8	-0.01415848
213	0x3d1b600b	0.03793339
214	0x3cc17f02	0.023620132
215	0x3d2665b6	0.040624343
216	0xbd00fcd2	-0.03149111
217	0xbc98a0b9	-0.018631326
218	0x3ce24b94	0.02762393
219	0xbb26e859	-0.002546808
220	0x3b13b0e1	0.0022535848
221	0x3d000872	0.031258054
222	0xbc50ff83	-0.012756231
223	0xbd156d2a	-0.03648106
224	0xbad6a3ed	-0.0016375758
225	0x3c277d45	0.010222738
226	0xbd157338	-0.036486834
227	0x3ccc3e61	0.024932088
228	0x3b86877d	0.004105507
229	0xbd18fbd9	-0.037349556
230	0xbc2c6926	-0.010523116
231	0x3ce0509c	0.027382188
232	0x3cbe0cdb	0.02319949
233	0xbce20a20	-0.027592719
234	0xbc8c8690	-0.017154008
235	0x3d0d80da	0.03454671
236	0xba938000	-0.0011253357
237	0x3cd2a922	0.025715414
238	0x3c513a92	0.012770312
239	0xbc1949ae	-0.0093559455
240	0x3d05506d	0.032547403
241	0x3b9d918c	0.0048086103
242	0xbc30e75d	-0.010797349
243	0x3cc16fe0	0.023612916
244	0xbc3cca88	-0.011522897
245	0xbc88cc0b	-0.016698858
246	0x3c77b197	0.015118024
247	0x3d05e53f	0.03268933
248	0xbccc2734	-0.024921037
249	0x3ca397ec	0.019969903
250	0xbd18bcc8	-0.03728941
251	0x3be6708a	0.0070324587
252	0x3b6a881b	0.0035786692
253	0xbc9eed85	-0.019400368
254	0xbb73c82f	-0.0037198176
255	0x3c4cf686	0.012509948

fc2.weight_orig f4 [256, 512]
0	0xbca3525b	-0.019936731
1	0x3ca31e8d	0.019912029
2	0x3cb54eae	0.022132244
3	0xbcb836cf	-0.022487072
4	0x3b74c36c	0.0037347926
5	0x3b0bdaa4	0.0021340037
6	0x3c5a72be	0.013333021
7	0xbd1e9b00	-0.03872204
8	0x3cc44a3d	0.02396118
9	0x39a749c1	0.00031907673
10	0xbc2ba12f	-0.010475441
11	0xbb990cf4	-0.0046707336
12	0xbcdd3a4a	-0.027005333
13	0x3b9e1b26	0.0048250137
14	0x3c5bd3ae	0.013417168
15	0xbcd8573b	-0.026408782
16	0xbc36f4a0	-0.011166722
17	0x3d104bbc	0.035228476
18	0xbcd103e0	-0.025514543
19	0xbbddc4d1	-0.006767847
20	0x3be0955b	0.006853742
21	0xbd1c3b22	-0.03814233
22	0x3bee210e	0.007267124
23	0x3d12603e	0.035736315
24	0x3b9d235c	0.004795475
25	0xbd203f2c	-0.039122745
26	0x3c74f51b	0.014951016
27	0xbd157c6d	-0.036495615
28	0x3d2035ff	0.039113995
29	0xbd0f25ff	-0.034948345
30	0x3ccee641	0.025256278
31	0xbbe49bbe	-0.0069765737
32	0xbcfc883b	-0.030826678
33	0xbc80e4cb	-0.015734097
34	0xbcd50029	-0.026001053
35	0x3c7655a2	0.015035065
36	0x3d109515	0.035298426
37	0x3d2ad479	0.041706536
38	0x3b02412a	0.0019875267
39	0xbccc1b39	-0.024915325
40	0xbcb643a5	-0.022249052
41	0xbd1e22a6	-0.038607262
42	0xbc9bff59	-0.019042658
43	0x3a82c75a	0.0009977624
44	0xba4c22c4	-0.0007787163
45	0x3cfafbf5	0.03063772
46	0xbb9ce7e7	-0.004788387
47	0xbc46bbc0	-0.012129724
48	0xbd2a56cf	-0.041586693
49	0xbd0ed01d	-0.03486644
50	0xbab4b5f6	-0.0013787139
51	0xbd3b3518	-0.04570493
52	0xbb82374f	-0.0039738785
53	0x3c63e4c3	0.0139095215
54	0xbb50be41	-0.0031851681
55	0x3c910212	0.017701183
56	0x3ccea413	0.025224721
57	0x3d1d8ba5	0.038463254
58	0x3caafeae	0.020873394
59	0xba7258da	-0.00092448073
60	0x3d2491e7	0.040178206
61	0x3c4ebf38	0.012618832
62	0x3d00c5ed	0.031438757
63	0x3d26cc8e	0.040722422
64	0x3d1e1fdc	0.038604602
65	0x3ca65ecd	0.020308876
66	0xbcba7426	-0.022760462
67	0xbcca3122	-0.024681631
68	0xbcaeb194	-0.02132491
69	0x3d21ce71	0.03950352
70	0xbc266d21	-0.010157854
71	0xbcd4f54c	-0.025995873
72	0xbbbfdf9c	-0.0058555137
73	0x3d1fecc9	0.039044175
74	0x3cf6b94f	0.030117659
75	0x3bb83afd	0.0056222663
76	0xbd17862e	-0.036993198
77	0xbd2814f0	-0.041035593
78	0xbd1467f4	-0.03623195
79	0xbd03ab67	-0.032145884
80	0xbc702ed2	-0.0146596
81	0x3d10c0d1	0.035340134
82	0xbcace185	-0.02110363
83	0x3aae6dcd	0.001330787
84	0x3c245f98	0.010032557
85	0x3d1298b6	0.035790168
86	0x3b92a28f	0.004474945
87	0xbc91a3ba	-0.017778266
88	0x3d17b766	0.037040137
89	0x3bdb5ae2	0.0066941837
90	0xbd00b90c	-0.031426474
91	0xbc2a0dbc	-0.010379251
92	0x3c3e0346	0.01159746
93	0xbc31c598	-0.010850333
94	0x3d0eedeb	0.034894865
95	0xbce3966b	-0.027781686
96	0xbc624313	-0.013809937
97	0x3cb0134f	0.021493582
98	0x3d16d45a	0.036823608
99	0x3d11249e	0.03543531
100	0xbc11a15e	-0.008888571
101	0x3c57b3ec	0.013165455
102	0x3d0865d9	0.033300254
103	0x3b546ba3	0.003241279
104	0xbcdfb125	-0.027306149
105	0x3c4f36a2	0.012647303
106	0xbd31cf99	-0.04341087
107	0xbc9fcc87	-0.019506706
108	0x3b3a751d	0.0028451153
109	0xbd1c6def	-0.03819078
110	0xbd046b12	-0.032328673
111	0xbd3244d4	-0.04352267
112	0xbd3d9948	-0.04628876
113	0x3c208862	0.009798141
114	0x398a3cca	0.00026366703
115	0x3c4abfde	0.012374846
116	0xbc3b52ef	-0.011433347
117	0x3cd84a8e	0.026402738
118	0x3cd6638f	0.02617052
119	0xbcbf9081	-0.023384335
120	0x3908aa84	0.00013033493
121	0x3cd5a861	0.026081266
122	0xbc9d8001	-0.019226076
123	0xbc812858	-0.015766308
124	0x3d02ebe3	0.03196324
125	0x3cdb4a19	0.026768731
126	0xbc78fb82	-0.015196683
127	0xbd258779	-0.0404124
128	0xbc27ac89	-0.010234007
129	0x3a7bbad9	0.00096027326
130	0xbc808881	-0.01569009
131	0xbcbfe4ff	-0.023424624
132	0xbd18a9e2	-0.037271388
133	0x3bedb006	0.0072536496
134	0x3cc3c1cc	0.02389612
135	0xbce7f298	-0.02831392
136	0xbd38073d	-0.044928778
137	0x3bb2bcd1	0.0054546376
138	0xbcdce691	-0.026965411
139	0x3d2b44e9	0.041813765
140	0xbd02f04b	-0.031967442
141	0xbcfc3bf8	-0.030790314
142	0xbc9a656f	-0.018847195
143	0x3c736adc	0.01485702
144	0xbb868c28	-0.0041060634
145	0xbc302bbb	-0.010752614
146	0x39936d09	0.00028119262
147	0x3d02b82c	0.03191392
148	0x3d19c5ba	0.037542082
149	0xba396c6f	-0.0007073348
150	0xbca5e60b	-0.020251295
151	0x3d2605b2	0.040532775
152	0xbcdd2008	-0.026992813
153	0x3cf9bec0	0.030486465
154	0xb83f13e7	-4.5556484e-05
155	0x3abf82f5	0.0014611172
156	0x3bd2c29b	0.00643189
157	0xbbafbcf8	-0.005363103
158	0x3c4222f5	0.011849155
159	0xbd3d7865	-0.046257395
160	0x3ca2ef93	0.019889629
161	0xbcd69b72	-0.026197169
162	0x3d0c5ddc	0.0342692
163	0xbadeda47	-0.0017002308
164	0x3d1f8d18	0.038952917
165	0xbca3676f	-0.019946782
166	0x3c94ba24	0.018155165
167	0xbd0221e4	-0.031770602
168	0x3cbf9b56	0.0233895
169	0x3cc37d10	0.023863345
170	0xbd108d76	-0.035291158
171	0x3d1a565f	0.037680026
172	0x3c4239dd	0.011854616
173	0xbb360686	-0.0027774884
174	0xbcf3710e	-0.029716995
175	0xbbe8ae04	-0.0071008224
176	0x3ad992ec	0.0016599572
177	0xbc8b04f6	-0.016970139
178	0xbc67bc85	-0.014144068
179	0x3ca6805b	0.020324877
180	0xbc16909d	-0.009189752
181	0x3c6a4a15	0.014299889
182	0xbd2d8118	-0.04235944
183	0x3d3f3063	0.046677005
184	0xbb94dfe7	-0.004543293
185	0xbd0f7451	-0.035023037
186	0x3cb93695	0.022609035
187	0xbcc92d0a	-0.02455761
188	0xbc1dba50	-0.00962694
189	0x3ca8ef18	0.020621821
190	0xbb9e2d76	-0.0048271967
191	0x3d1b9ed6	0.037993275
192	0xbd2eebb6	-0.04270526
193	0xbd01e2e2	-0.031710513
194	0xbc1fa337	-0.009743503
195	0x3bf73fec	0.007545462
196	0x3b98fd23	0.004668848
197	0x3ba168dc	0.0049258303
198	0x3d4133e5	0.04716863
199	0x3c3c5c05	0.011496549
200	0xbbd247db	-0.0064172572
201	0xbc8b0937	-0.016972167
202	0xbc10d4c5	-0.008839791
203	0x3b87b44d	0.0041413666
204	0x3d39fc37	0.045406546
205	0xbd42c3da	-0.04755006
206	0x3d1f59fd	0.03890418
207	0x3d1b0f77	0.037856545
208	0xbcbd8840	-0.023136258
209	0x3cded659	0.027201818
210	0xbcf799a3	-0.030224627
211	0xbcf9fcc4	-0.030516036
212	0x3cf8649a	0.030321408
213	0x3c169e2c	0.009192985
214	0xbcf56bb8	-0.02995859
215	0xbc9dbfd6	-0.019256514
216	0xbbcbc732	-0.0062188143
217	0xbcf7dd44	-0.030256875
218	0x3d10da63	0.03536452
219	0x3c20bb6e	0.009810312
220	0xbd0ef24d	-0.034899045
221	0x3bc72236	0.0060770763
222	0x3cf5b35f	0.029992757
223	0x3d37f5ed	0.044912267
224	0xbcb1b9a4	-0.021694966
225	0x3d0e41c7	0.0347307
226	0xbc3bdfca	-0.01146693
227	0x3d105a07	0.035242107
228	0x3cf8acbf	0.03035581
229	0x3cff71b7	0.031182153
230	0x3af53ea2	0.0018710683
231	0x3d1db65d	0.038503993
232	0xbd02c023	-0.031921517
233	0xbc4f0f54	-0.012637932
234	0x3d196569	0.037450228
235	0x3cf8ed64	0.030386634
236	0x3d15c54e	0.036565118
237	0xbcaf5086	-0.021400701
238	0xbbbde088	-0.0057945885
239	0x3d0846eb	0.033270758
240	0xbbe9b6a5	-0.0071323686
241	0x3b8abe93	0.004234144
242	0x3c0d3e86	0.008620864
243	0xbb9bbc85	-0.004752698
244	0x3d32e875	0.04367872
245	0x3cb65d75	0.02226136
246	0x3d0b051f	0.03394043
247	0xbc60f03f	-0.013729154
248	0x3cbc7a07	0.023007406
249	0x3b840c98	0.0040298216
250	0xbcbef40e	-0.023309734
251	0xbd0b82dc	-0.034060344
252	0x3c00b486	0.00785554
253	0xbd1f2704	-0.038855568
254	0xb7c9840d	-2.4022558e-05
255	0xbc7d1015	-0.015445729

fc2.weight_u f4 [256]
0	0xbd430804	-0.047615066
1	0xbc0f8088	-0.008758672
2	0x3d3473b4	0.044055656
3	0x3d9ee8e3	0.07759263
4	0x3ccd2a43	0.025044566
5	0x3c38d18e	0.0112804305
6	0xbdd9e083	-0.10638525
7	0xbad0bdb1	-0.0015925673
8	0x3d6b6c72	0.05747647
9	0x3d96b694	0.07359043
10	0x3b0f9fc3	0.0021915294
11	0x3c8f11e5	0.017464587
12	0x3db112e5	0.08646182
13	0xbb51f6f0	-0.0032038055
14	0x3b94127f	0.0045188065
15	0xbd746481	-0.05966616
16	0xbb27fad2	-0.0025631678
17	0x393e42f6	0.00018144757
18	0xbbd838fb	-0.0065985895
19	0x3c36e280	0.0111624
20	0x3d29cf1a	0.041457273
21	0x3bf801af	0.00756856
22	0xbc5c5f47	-0.01345045
23	0xbcb7eb6f	-0.02245113
24	0xbbdd59cf	-0.006755091
25	0x3c0fc848	0.008775778
26	0xbba825ba	-0.0051314505
27	0x3b7e8dcc	0.0038841842
28	0x3b12b3a9	0.0022384918
29	0x3c0fac63	0.008769128
30	0x3c9b9853	0.018993532
31	0xbc334568	-0.010941841
32	0xbcd73763	-0.026271528
33	0xbdacd6bc	-0.08439395
34	0xbc2bd3a7	-0.010487474
35	0xbb35996a	-0.002770985
36	0xbe132101	-0.14368059
37	0x3dac3960	0.08409381
38	0xbcc8a5c2	-0.024493102
39	0x3b6c4329	0.0036050773
40	0x3b251994	0.0025192248
41	0x3a0feb9a	0.00054901245
42	0x3d93d23c	0.072178334
43	0x3ca2516f	0.019814221
44	0x3c6fff01	0.0146482
45	0x3a77865e	0.00094423245
46	0x3c63fa36	0.013914635
47	0x3ca6a7d8	0.020343706
48	0xbe30bbd7	-0.17259155
49	0x3d80aa32	0.06282462
50	0x3d719b8e	0.05898624
51	0x3cbc98de	0.023022112
52	0xbbb17657	-0.0054157185
53	0xbd830c10	-0.06398785
54	0x3db318dd	0.08744977
55	0xbdc0d5c0	-0.094157696
56	0xbd99aecf	-0.07504045
57	0x3d6ff4e0	0.05858314
58	0xbb81a8f8	-0.00395691
59	0x3b37890b	0.0028005268
60	0x3b2f020f	0.0026704108
61	0x3b6d93dc	0.003625146
62	0xbdae0e23	-0.0849879
63	0xbc05df71	-0.008170948
64	0x3dd4fb94	0.10399547
65	0x3da16ab9	0.07881684
66	0x3d977285	0.0739489
67	0x3c163d36	0.009169867
68	0x3a0c9e40	0.0005364157
69	0xbda4d670	-0.08048713
70	0x3d39357d	0.045217026
71	0x3d078ed3	0.033095192
72	0x3c543d75	0.012954106
73	0xbd542b63	-0.05179919
74	0xbc242715	-0.0100190835
75	0x3b516584	0.0031951377
76	0x3dacd066	0.08438186
77	0x3d4f78ae	0.0506522
78	0x3b8d11c9	0.0043050987
79	0x3a475538	0.0007603946
80	0x3ba53678	0.0050418936
81	0xbcbb2573	-0.022845006
82	0x3d3a9ec4	0.045561567
83	0x3c5ecce7	0.013598657
84	0x3c2d5903	0.010580304
85	0x3bf33c53	0.0074229627
86	0x3bc5b950	0.006034054
87	0x3dd05e4e	0.10174237
88	0x38977545	7.222084e-05
89	0x39698ec1	0.00022273792
90	0x3d681181	0.056657318
91	0x3d85aab8	0.06526703
92	0x3a49601a	0.0007681862
93	0x3d4f7724	0.05065073
94	0xba0309ac	-0.00049986946
95	0x3c2f95e1	0.010716886
96	0xbd1c1dd9	-0.038114402
97	0x3ab88ab6	0.0014079425
98	0x3d6cb424	0.057788983
99	0x3de46374	0.11151782
100	0x3d58c098	0.052918047
101	0x3c846d8f	0.016165523
102	0xba1c4d79	-0.0005962472
103	0xbbaf5f96	-0.005351971
104	0x3d237aa3	0.039911877
105	0xbb86b42e	-0.0041108346
106	0x3ceaaaf0	0.028645962
107	0x3c0c87b8	0.00857728
108	0xbe0059de	-0.12534282
109	0xbddd3879	-0.10801787
110	0x3caf300f	0.02138522
111	0x3d488cbf	0.04896235
112	0x3e02859e	0.12746283
113	0x3d09af4f	0.033614453
114	0xbc80a284	-0.015702493
115	0xbdaba434	-0.08380929
116	0x3ba19b07	0.004931811
117	0x3bee39f5	0.0072700926
118	0x3dd8285c	0.10554573
119	0x3d8d83e7	0.06909924
120	0x3d88f7e5	0.06687907
121	0xba3f6329	-0.0007300848
122	0xbc09677d	-0.00838649
123	0x3db60657	0.08887928
124	0x3c6bda55	0.014395316
125	0x3dac0e58	0.08401173
126	0xbd443704	-0.04790403
127	0x3d79e004	0.061004654
128	0xbe3211ac	-0.17389554
129	0x3c0e5042	0.008686127
130	0xbde01f22	-0.10943438
131	0xbd5b2183	-0.053498756
132	0x3d1168ce	0.03550034
133	0x3d40ed45	0.047101278
134	0x3e0f9b82	0.14024165
135	0x3b9806da	0.0046394886
136	0xbc2386fc	-0.009980913
137	0xbd922d7b	-0.07137581
138	0xbd2a2e2b	-0.041547935
139	0x3e187d7a	0.14891616
140	0x3da93c84	0.082634956
141	0xbdbc7f9e	-0.092040285
142	0x3cd2b62a	0.025721628
143	0x3d6dc1c6	0.058046125
144	0x3e17edc8	0.148368
145	0x3c58bfc4	0.013229314
146	0xbe0072d1	-0.12543799
147	0xbe1293cb	-0.14314191
148	0xbe0557c0	-0.13021755
149	0x3cc47ab1	0.023984285
150	0xbd2d8536	-0.042363368
151	0x3c00c493	0.007859367
152	0x3b987071	0.004652076
153	0x3da8de3d	0.082455136
154	0x3c00f82c	0.007871669
155	0xbda31eb9	-0.07964844
156	0x3cf712b4	0.030160286
157	0x3d85f6ef	0.065412395
158	0x3d63cd29	0.055615578
159	0x3d1283b0	0.03577012
160	0xbb9f5fe0	-0.004863724
161	0x3d7de429	0.06198517
162	0xbb854e07	-0.0040681395
163	0xbb0a746b	-0.002112652
164	0xb9c9602f	-0.0003840937
165	0x3b9c09fa	0.0047619315
166	0x3da07840	0.07835436
167	0x3bb86518	0.0056272857
168	0x3d624c39	0.055248473
169	0xbbe7a97e	-0.0070697656
170	0xbdc953b9	-0.09830422
171	0x3d7d9f29	0.061919365
172	0xbd9f144a	-0.07767542
173	0xbb519e9e	-0.0031985412
174	0xbdd320c0	-0.10308981
175	0x3d0b37cb	0.033988755
176	0x3e149954	0.14511615
177	0x3d92785d	0.07151864
178	0x3da41d97	0.08013456
179	0xbcb7e210	-0.022446662
180	0x3d2ec383	0.042666923
181	0x3d6997bb	0.057029467
182	0x3d9f0910	0.077654004
183	0xbd3210af	-0.043472942
184	0x3ba1f4f4	0.0049425308
185	0x3bef2b0e	0.0072988337
186	0x3b14ef0e	0.0022725496
187	0x3d848dc1	0.0647235
188	0x39d77ddd	0.0004110177
189	0x3d9b540e	0.075843915
190	0x3ddc10cb	0.107453905
191	0x3d814f85	0.06313995
192	0xbcbe0fa5	-0.02320082
193	0x3e0397a6	0.12850818
194	0x3da35ff9	0.0797729
195	0xbddf28a1	-0.10896421
196	0x3baf8c9e	0.005357339
197	0x3b0fc08d	0.0021934838
198	0xbd2390a3	-0.03993286
199	0x3b0ca7a4	0.0021462226
200	0xbdaac48d	-0.0833827
201	0xbb135a46	-0.0022484227
202	0xbb74b50e	-0.0037339362
203	0x3e192b49	0.14957918
204	0x3dd0a849	0.10188348
205	0x3d6a5800	0.05721283
206	0x3c0e58b8	0.008688144
207	0x3c4e80dd	0.012603966
208	0x3dccfc35	0.10009042
209	0x3ddd1192	0.10794367
210	0xbdd6ddd3	-0.10491528
211	0x3d8712ab	0.065953575
212	0x3dd2d02f	0.10293614
213	0xbe014dc9	-0.12627329
214	0xbb304bf5	-0.0026900743
215	0xbdef4b13	-0.11684241
216	0x3b6c4b73	0.0036055713
217	0xbd30a06b	-0.043121736
218	0x3dbd2a25	0.09236554
219	0x3d820d3f	0.06350183
220	0xbd7ee7a4	-0.06223263
221	0x3d8e3ccc	0.0694519
222	0x3d476e29	0.04868904
223	0xbd85b73e	-0.06529091
224	0x3cb2a998	0.021809384
225	0x3da0059b	0.07813569
226	0x3a407e21	0.00073430134
227	0xbbe13a5a	-0.006873411
228	0xbcd730b3	-0.026268339
229	0x3b19ea41	0.0023485573
230	0x3daba5aa	0.08381207
231	0x3c677d34	0.014128972
232	0xbdd2e84d	-0.10298214
233	0xbddd4dde	-0.108058676
234	0x3d0fcaef	0.035105642
235	0xbc7e632a	-0.015526572
236	0xbd9d5b36	-0.07683413
237	0xbcddf006	-0.027091991
238	0x39aa142f	0.00032439965
239	0x3e3ac2d1	0.18238379
240	0x3adb13fb	0.0016714329
241	0x3caccb56	0.021093052
242	0x3c5f02f0	0.01361154
243	0x3dcb08ad	0.09913764
244	0x3b38db38	0.0028206836
245	0x3dbf5811	0.09342969
246	0xbbeab07c	-0.007162152
247	0xbd8b8f14	-0.06814399
248	0x3b69822a	0.0035630562
249	0x3d6018b4	0.05471106
250	0xbb87320a	-0.004125838
251	0x3c9f4512	0.019442115
252	0x3d659e80	0.05605936
253	0xbd97372d	-0.07383571
254	0xbdf1ff93	-0.11816325
255	0x3c644147	0.013931579

fc2.weight_v f4 [512]
0	0x3da2f61c	0.07957098
1	0x3d4bc8db	0.049752098
2	0x3c8e16ff	0.01734495
3	0xbe003b59	-0.1252264
4	0xbced24f7	-0.02894829
5	0xbd0c1b27	-0.034205582
6	0x3bf8bc0c	0.0075907763
7	0x3dbb25b4	0.09138051
8	0x3cd2fdc6	0.025755774
9	0xbb949bf8	-0.0045351945
10	0x3d358ad4	0.04432185
11	0x3c130f3a	0.008975798
12	0x3d0b6273	0.034029435
13	0x3b2a910e	0.00260264
14	0x3aaa748d	0.0013004706
15	0xbc866af5	-0.016408423
16	0x3cfd2c49	0.030904906
17	0x3da96cd7	0.08272713
18	0x3b49becc	0.003078389
19	0xbcaec806	-0.021335613
20	0x3cd730a9	0.02626832
21	0xbd054846	-0.03253963
22	0x3b57a611	0.003290538
23	0xbca8d847	-0.020610942
24	0xbcf3a403	-0.029741293
25	0x3c000928	0.007814683
26	0x3a1e2a91	0.00060335646
27	0x3d59e3b4	0.05319567
28	0xbd8c187b	-0.06840607
29	0x3d890660	0.06690669
30	0xbcc03d67	-0.023466779
31	0x3b733365	0.003710949
32	0x3bdacb45	0.0066770636
33	0xbd1f5f5b	-0.038909297
34	0x3cea7aea	0.028623063
35	0xbc388d40	-0.011264145
36	0xba0f2f4a	-0.0005462064
37	0xbcc64747	-0.02420391
38	0xbe01074f	-0.12600444
39	0xbd869110	-0.06570637
40	0x3c317ac9	0.010832497
41	0x3d922d45	0.07137541
42	0xbda8c482	-0.08240606
43	0xbd644267	-0.05572739
44	0x3d835acc	0.064138025
45	0xbe03ceb5	-0.12871821
46	0x3e22fa92	0.15915897
47	0x3d1b2f74	0.03788705
48	0x3ad165d1	0.0015975778
49	0xbc07a557	-0.008279166
50	0x3c34f7ee	0.011045439
51	0xbdaac002	-0.08337404
52	0x3da9b686	0.08286767
53	0x3d8041c9	0.062625475
54	0x3bc2956c	0.0059382226
55	0xbab07774	-0.0013463334
56	0xbba6bbae	-0.005088291
57	0xbca01b11	-0.019544156
58	0xbb87a8e5	-0.004140007
59	0x3b865fcf	0.0041007767
60	0x3d295678	0.04134223
61	0x3c1cf98f	0.009580984
62	0x3d015402	0.031574257
63	0x3dc5a52c	0.09650645
64	0xbde1a151	-0.11017097
65	0xbc8d9734	-0.017284013
66	0x3d60d59a	0.054891206
67	0xbb71d8ea	-0.0036902972
68	0xbce04309	-0.027375715
69	0xbca1fda8	-0.019774273
70	0x3bd43753	0.0064763217
71	0xbd17a2fb	-0.037020665
72	0x3db5c268	0.08874971
73	0xbde0750a	-0.109598234
74	0x3c6040f4	0.013687361
75	0xbd2fb6f9	-0.042899106
76	0xbca21d21	-0.01978928
77	0xbd87323d	-0.06601379
78	0x3c79d993	0.015249628
79	0xbd8a9617	-0.067669086
80	0x3db5791a	0.08860989
81	0xbd210ca9	-0.039318714
82	0x3d1ba05c	0.037994727
83	0x3d8dfcd8	0.06932992
84	0xbd36e375	-0.044650514
85	0xbd97c236	-0.0741009
86	0x3dc18494	0.094491154
87	0x3b9a5066	0.0047092913
88	0xbd0a5dfc	-0.033781037
89	0xbdd6da1c	-0.1049082
90	0x3c5b9a5f	0.013403504
91	0x3cdb5195	0.0267723
92	0xbca54be0	-0.020177782
93	0x3bd4639d	0.0064816014
94	0x3d1cca76	0.03827902
95	0x3c5cd964	0.013479564
96	0x3daaa8ad	0.083329536
97	0xbc5a3308	-0.013317831
98	0x3bbc5feb	0.005748739
99	0xbd740083	-0.0595708
100	0xbc2b54a0	-0.010457188
101	0x3d267c19	0.040645692
102	0xbb63d747	-0.0034765766
103	0xbb0eda47	-0.0021797584
104	0xbb58eb77	-0.0033099332
105	0xbc38324f	-0.011242463
106	0xbd7ea60a	-0.062170066
107	0xbadd7b48	-0.0016897703
108	0x3bc3bed4	0.005973676
109	0x3a5fca6e	0.0008536939
110	0xbaf207df	-0.001846548
111	0xbca0284f	-0.01955047
112	0xbdbf36bf	-0.09336614
113	0xbc8dd57d	-0.017313713
114	0xbd4a266c	-0.04935305
115	0x3c0319f9	0.008001798
116	0xbb866cb2	-0.004102313
117	0x3d37d4dc	0.044880733
118	0xbd8b53b0	-0.068030715
119	0x3db67c5b	0.08910438
120	0xbb6491d4	-0.003487696
121	0xbdb96724	-0.09052876
122	0xbcc1cb33	-0.023656463
123	0xbc819732	-0.015819166
124	0x3c754283	0.014969471
125	0xbd2ce485	-0.04221012
126	0x3e0aa913	0.13541059
127	0x3b86d963	0.00411527
128	0xbba105f6	-0.0049140407
129	0x3d03d1ff	0.03218269
130	0x3dcf0357	0.10108059
131	0x3d7902d5	0.060793716
132	0xbc30a8eb	-0.010782461
133	0x3d776399	0.060397718
134	0xbda99e66	-0.08282165
135	0x3c297384	0.0103424825
136	0x3decf86d	0.11570821
137	0x3b3ebffb	0.0029106128
138	0xbbaade33	-0.0052144765
139	0xbb4851af	-0.0030566265
140	0xbba92419	-0.005161774
141	0xbcc22f69	-0.023704248
142	0x396eb5bd	0.00022765152
143	0xb8ee6bdc	-0.00011368815
144	0x3d3068dd	0.043068755
145	0x3c93f569	0.018061357
146	0x3d60ed18	0.05491361
147	0x3c915f1b	0.017745545
148	0x3c92d03c	0.01792156
149	0xbcafcca7	-0.02145989
150	0x3d8b1d2c	0.067926735
151	0xbc00bf3e	-0.007858096
152	0x3d5aec8f	0.053448256
153	0xbb4e6813	-0.0031495139
154	0xbcab98a4	-0.020946808
155	0xbc16c418	-0.009202026
156	0xbd94377e	-0.07237147
157	0x3a655ea8	0.00087497616
158	0xbd897db6	-0.067134306
159	0xbd2e24cc	-0.04251556
160	0x3c86a713	0.01643709
161	0xbd4e3b91	-0.050349776
162	0xbc60a659	-0.013711535
163	0x3b33d348	0.0027439166
164	0x3b005cfa	0.0019586668
165	0xbcff34ce	-0.031153109
166	0xbc05f475	-0.008175959
167	0x3c0ccebf	0.008594214
168	0xba6563e8	-0.0008750544
169	0xbc254a36	-0.010088494
170	0xbb94a186	-0.0045358567
171	0xbcffe9f9	-0.031239497
172	0x3c1ab5de	0.009442775
173	0x3bf2def9	0.0074118343
174	0x3c12c224	0.00895742
175	0xbc55c993	-0.013048547
176	0x3bdf63f1	0.006817334
177	0xbaf7b783	-0.0018899295
178	0x3d05b122	0.03263963
179	0xbd207919	-0.039177988
180	0xbb908068	-0.0044098385
181	0xbdad3ef3	-0.08459272
182	0x3df57311	0.11984838
183	0x3c008c7b	0.007845993
184	0x3c59fd15	0.013304968
185	0xba972189	-0.001153038
186	0xbafdc15f	-0.0019359997
187	0xbbc25776	-0.0059308363
188	0x3dacc999	0.08436889
189	0xbc887248	-0.016656056
190	0xbcfc3e08	-0.030791298
191	0xbd9e25d4	-0.07722059
192	0xbd178a75	-0.036997277
193	0xbbf09deb	-0.007343044
194	0x3b808700	0.0039223433
195	0xbc69fddd	-0.014281717
196	0x3bb831e4	0.005621182
197	0x3d108254	0.03528054
198	0x3c997ba0	0.018735707
199	0xbc3bdc11	-0.011466042
200	0xbbb60b1a	-0.0055555226
201	0x3badf5f1	0.0053088595
202	0x3d49e13c	0.049287066
203	0xbc971e18	-0.018446967
204	0x3daab15d	0.083346106
205	0xbced67aa	-0.028980095
206	0x3aa58fb7	0.0012631331
207	0xbcc6404a	-0.024200577
208	0x3bd2bc54	0.006431142
209	0x3a23bd3c	0.00062461547
210	0xbb2bb910	-0.0026202835
211	0xbb9b2515	-0.004734645
212	0xbe020d40	-0.12700367
213	0xbcf920bc	-0.030411117
214	0x3d9a389a	0.07530327
215	0xbce52242	-0.027970437
216	0x3d4b7048	0.049667627
217	0x3dc5a044	0.09649709
218	0x3c39dab2	0.011343645
219	0x3d8c9797	0.06864851
220	0x3c6cbf60	0.014449924
221	0x3c698cbf	0.014254748
222	0xbcfa5254	-0.030556835
223	0xbc6f074c	-0.014589142
224	0xbc694d24	-0.014239583
225	0x3bf2d19d	0.0074102418
226	0x3d7bed16	0.0615054
227	0x3da13a7b	0.078724824
228	0xbd16029a	-0.036623575
229	0xbd816632	-0.0631832
230	0x3ba89e73	0.0051458417
231	0xbd941c98	-0.07232016
232	0xbbcb5038	-0.006204631
233	0x3a97428f	0.0011540222
234	0xbd45b8e6	-0.048272036
235	0x3d0b706b	0.034042757
236	0xbc9451a2	-0.018105332
237	0x3c909201	0.017647745
238	0xbb871b57	-0.004123132
239	0x3c78b96e	0.015180929
240	0x3ba16b3d	0.004926114
241	0xba8a94fe	-0.0010572968
242	0x3d434114	0.047669485
243	0xbc398c62	-0.011324974
244	0xbb836f08	-0.0040110387
245	0xbcc04ee5	-0.02347512
246	0xb9f30c24	-0.00046357617
247	0x3bdbe21c	0.006710304
248	0xbd6f5241	-0.058428053
249	0x3d8038cc	0.06260833
250	0xbd7f3051	-0.062301937
251	0x3cb27af0	0.021787137
252	0xbce2def2	-0.0276942
253	0xbd3a1c34	-0.045437053
254	0x3cb41c92	0.02198628
255	0x3cce0575	0.025149086
