data/saved_models/discriminator_epoch_2000.pth (torch, 758522 bytes, 14 tensors)

fc1.bias f4 [512]
000000 e3 fd 8d bf 35 ff 47 be 2d d6 9d bf e0 9f 11 bf
       -1.1093105 -0.19530948 -1.2330986 -0.56884575
000010 f3 0e ba bf 92 d1 c9 be d0 17 32 bf 97 31 eb be
       -1.4535812 -0.39417702 -0.69567585 -0.45936272
000020 b0 f9 39 bf 7b 26 19 c0 53 d5 59 bf 1d 18 26 bf
       -0.7264662 -2.3929737 -0.8509113 -0.64880544
000030 05 65 56 bf 6a b2 69 bf 86 57 33 bf 5d 93 18 bf
       -0.83747894 -0.91287863 -0.70055425 -0.5959986
000040 32 c3 5f bf 06 3c 05 be e8 8d 30 bf 19 f4 a7 be
       -0.8740722 -0.13011178 -0.6896653 -0.3280342
000050 bd b5 c9 be 67 ce c1 be 1a db ab bf f0 b8 a8 be
       -0.39396468 -0.37852785 -1.342624 -0.32953596
000060 ca 87 86 be f7 6d 2c bf 95 bf 1e bf f1 db 35 bf
       -0.26275474 -0.67355293 -0.6201108 -0.7103873
000070 e8 21 0d bf 75 13 9c be dc 0e 1e bf 26 6e 1e c0
       -0.5512986 -0.30483595 -0.61741424 -2.475473
000080 86 5b 47 bf 97 5d 0c bf 5e 30 3d bf db 25 25 c0
       -0.7787403 -0.54830307 -0.7390193 -2.5804355
000090 38 75 5e bf da 7a a2 be ad 3f 3a bf 39 bc a0 be
       -0.8689761 -0.31734353 -0.7275341 -0.31393602
0000a0 1a e6 82 be f2 b3 91 be 37 7b df be ab 52 dc be
       -0.2556618 -0.284576 -0.43648693 -0.4303182
0000b0 9e 3e 1f bf dc 34 98 be ef 8f 8c bf 81 39 26 bf
       -0.6220492 -0.29727829 -1.0981425 -0.64931494
0000c0 a6 af 13 c0 f3 df 01 be 5a 4c 21 bf 7f 6b 5a bf
       -2.3075957 -0.12683086 -0.6300713 -0.85320276
0000d0 bd 00 b0 bf 42 d0 56 bf 63 c2 72 bf 29 a5 69 bf
       -1.3750225 -0.83911526 -0.9482786 -0.9126764
0000e0 a8 02 7c bf ac a9 d9 bf e0 b0 67 bf a6 32 65 bd
       -0.98441553 -1.7004905 -0.90504265 -0.055956505
0000f0 e6 0c 37 bf 07 66 a0 be fd 8e 4e be 8d e4 f1 be
       -0.71504056 -0.3132784 -0.20171733 -0.47244683
000100 8f 45 02 be 02 c1 07 bf 78 c5 93 be 27 0f d5 bf
       -0.12721847 -0.5302888 -0.28861594 -1.6645249
000110 55 e8 5a bf f4 ca f4 bf 8a 4a 55 bf 79 d4 4f bf
       -0.8551076 -1.9124436 -0.8331686 -0.8118358
000120 a2 e0 f9 be 31 4d 41 bf 09 87 3f bf c6 96 d9 be
       -0.48804194 -0.7550841 -0.7481542 -0.42497844
000130 85 e4 97 bf ea e3 b0 bf fe 8e eb bf 3d b6 8b be
       -1.1866614 -1.3819554 -1.8403013 -0.27287474
000140 e3 c5 0f bf 28 42 31 bf 17 52 9e be eb d6 5f bf
       -0.56161326 -0.6924157 -0.30922005 -0.87437314
000150 0b 79 24 bf f4 fb 29 bf 6c 49 0a be 32 ba 57 bf
       -0.64247197 -0.66400075 -0.1350457 -0.84268486
000160 0c 2e bf bf 73 58 47 bf 44 2e 80 be d1 af aa be
       -1.4935927 -0.7786934 -0.25035298 -0.33337262
000170 91 b3 66 bf ef 8b 92 bf 3b a8 d6 be d3 d2 23 bf
       -0.90117747 -1.1448954 -0.41925225 -0.6399357
000180 f4 37 10 bf 67 41 4f bf 1e b7 89 be 95 56 95 be
       -0.5633538 -0.8095917 -0.2689752 -0.2916762
000190 6d 54 85 bf 89 4b 17 be 92 f4 a5 be ff 05 04 c0
       -1.041639 -0.14774908 -0.32413155 -2.062866
0001a0 15 37 5f bf d3 04 10 c0 92 68 fe be 5f f1 26 bf
       -0.87193424 -2.2502944 -0.49689156 -0.65212053
0001b0 48 fe 53 bf 0d cb 54 bf 53 c2 9a be fd 46 4d be
       -0.8280988 -0.8312233 -0.30226383 -0.20046611
0001c0 a2 40 30 bf 4a 01 1e bf 57 7f 89 bf 79 f3 86 bf
       -0.6884862 -0.61720717 -1.0741986 -1.0543052
0001d0 38 57 2f bf 28 b8 c3 be 24 56 5d be c3 79 27 bf
       -0.6849246 -0.38226438 -0.21614891 -0.6542017
0001e0 a6 e8 2e c0 ec 5e 96 be 4f eb 3a be b3 8e 38 bf
       -2.7329497 -0.29369295 -0.18253826 -0.7209274
0001f0 78 6a 5f bf 96 d1 45 bf a8 bb 11 bf 1e 88 1f bf
       -0.87271833 -0.7727293 -0.56926966 -0.62317073
000200 df 70 db be 7f d1 2e bf fc e8 ac be 88 b7 f6 be
       -0.4285955 -0.68288416 -0.33771503 -0.48186898
000210 9d e0 39 bf d9 7d aa be b9 a8 51 bf 33 56 82 bf
       -0.7260836 -0.3329914 -0.81898075 -1.0182556
000220 f0 3b 32 bf 17 78 2d c0 4b 4d 3f bf ef 79 0e c0
       -0.6962271 -2.7104547 -0.74727315 -2.2261922
000230 fc 66 a2 be 77 a6 07 c0 ad 36 1d be 84 80 6f bf
       -0.31719196 -2.1195352 -0.15352888 -0.93555474
000240 05 a5 1c bf 69 ee 6f bf b7 9d 2b bf 60 bd 9b be
       -0.611893 -0.9372316 -0.6703753 -0.3041792
000250 43 93 99 bf 98 54 30 be 5a d5 09 bf 50 cc d6 be
       -1.1998066 -0.1721977 -0.53841174 -0.41952753
000260 ba ea 0b bf 68 4b bc be ec fa fd be f8 a7 70 be
       -0.5465504 -0.3677628 -0.496055 -0.23501575
000270 5d a0 9c bf a3 05 71 bf f6 6a 42 bf f9 4f f5 be
       -1.2236439 -0.94149226 -0.7594446 -0.47912577
000280 c4 d6 42 bf f4 68 5c bf 65 2b 1a bf f6 bb 22 bf
       -0.76108956 -0.86097646 -0.60222465 -0.63568056
000290 7e dd 9f be af e1 b5 be 86 ab 12 c0 0d 3c 1d bf
       -0.31223673 -0.35523745 -2.291719 -0.61419755
0002a0 81 00 56 bf 26 c4 92 bf 60 4f 2d bf bb 4d c0 be
       -0.8359452 -1.146611 -0.6769924 -0.37559304
0002b0 d7 f2 35 bf 7f ba 48 bf 20 9b 36 be 21 8b b1 bf
       -0.7107367 -0.7840957 -0.17832613 -1.3870584
0002c0 2e d5 78 be 3b 69 1f c0 c7 46 8f be 2a d2 0f bf
       -0.24300072 -2.4907978 -0.27983686 -0.5618006
0002d0 ce 3a 26 c0 ed b1 c5 be 61 02 1d be f4 8e 21 bf
       -2.5973392 -0.3861231 -0.15332939 -0.63108754
0002e0 78 a0 18 c0 c8 c1 20 bf 7e 9d 33 c0 21 a5 9e be
       -2.3847942 -0.62795687 -2.8064876 -0.30985358
0002f0 d3 4e a8 be 5a a5 5b bd ab fa 17 c0 d6 20 f5 be
       -0.32872638 -0.05362449 -2.3746746 -0.47876614
000300 71 be 93 bf 0a 18 c4 be 29 a4 6f bf c7 8f ca be
       -1.1542493 -0.3829959 -0.93609864 -0.39562818
000310 5a 23 71 bf 50 85 0f bf 74 97 a3 bf 27 0c 24 bf
       -0.9419457 -0.56062794 -1.2780595 -0.64081043
000320 58 36 67 be 87 f8 4e bf c1 91 53 bf da eb fb be
       -0.22579324 -0.8084797 -0.8264428 -0.49203378
000330 8c 0c 3e bf 2f 85 33 bf 87 c0 21 c0 9b 21 cd be
       -0.74237895 -0.701251 -2.527376 -0.400647
000340 21 10 14 bf 9e 51 43 bf bc 02 26 c0 69 0f ad bf
       -0.5783711 -0.7629641 -2.593917 -1.3520328
000350 35 94 b2 bf 9a 68 19 bf 8a aa 37 bf 87 56 55 be
       -1.3951479 -0.59925234 -0.71744597 -0.20833789
000360 c3 4c c8 be d2 4f 3a bf fc d1 17 c0 74 b4 04 bf
       -0.39121065 -0.72778046 -2.3721914 -0.5183785
000370 b4 e1 83 bf fb 11 e2 bd c9 ca ce be ff 2f 04 bf
       -1.0303254 -0.11038586 -0.40389088 -0.51635736
000380 4b 9a 19 c0 c1 3e 31 bf 23 0c 0e bf 15 ee 2c be
       -2.4000423 -0.6923638 -0.5548727 -0.16887696
000390 f7 a0 eb bf 74 c7 1c bf 30 4a 0a bf 69 80 e7 bf
       -1.8408498 -0.6124184 -0.5401945 -1.8086063
0003a0 84 16 1f c0 f5 53 80 bf 94 7c a4 be 58 4f 12 bf
       -2.4857492 -1.0025622 -0.32126296 -0.5715232
0003b0 29 49 e4 be 93 91 6c bf 20 d2 4e bf 92 87 16 bf
       -0.44587067 -0.9240963 -0.80789375 -0.58800614
0003c0 ce 35 e2 be 30 93 93 be b8 7c 84 bf d6 e6 84 bf
       -0.44181675 -0.28823233 -1.0350561 -1.0382946
0003d0 6e dd 6f be 2c f9 b8 bf 52 36 87 bf 54 a1 4d bf
       -0.23424312 -1.4451041 -1.0563452 -0.8032429
0003e0 b6 38 45 bf 2e 90 44 bf a3 81 24 bf 86 48 43 bf
       -0.7703966 -0.767825 -0.6426031 -0.76282537
0003f0 37 a1 6a bf b8 90 51 bf eb 6e 70 bf 9e cd 83 bf
       -0.91652244 -0.8186145 -0.9391925 -1.0297124

fc1.weight_orig f4 [512, 42]
000000 b7 3d 62 bc 67 be 06 3c d1 20 1c bc 90 dd d6 3b
       -0.013808659 0.008224106 -0.009529308 0.006557174
000010 4d 9b a7 3b 1c 38 39 3c 41 aa 7f 39 59 8e a3 bb
       0.005114949 0.011304881 0.0002438212 -0.0049913344
000020 54 f9 89 3b b5 e5 e3 3b 7b 51 e9 bc 8d ca 0f 3b
       0.0042106304 0.0069548734 -0.028481236 0.0021940798
000030 1c fb b5 bc 2c b6 55 bb 6f a7 12 bc 8d f4 d8 3b
       -0.022214465 -0.0032609804 -0.008951052 0.0066209496
000040 47 e3 63 bc 49 fb 82 b8 96 7e 9d bc 40 35 cd ba
       -0.013909168 -6.2456886e-05 -0.0192254 -0.0015656129
000050 1a d3 cb bc 70 e4 ae bc 5f ca 17 bc c7 fb b0 bc
       -0.024880935 -0.021349162 -0.009264558 -0.021604432
000060 0f 0d a4 bc 7e 79 4c 3c 61 1d e6 38 c8 e1 2c ba
       -0.020025758 0.012480138 0.00010972727 -0.00065949233
000070 4e a3 f1 ba d6 5c 15 3c dd 54 c0 3c 9e e1 eb bc
       -0.0018435509 0.009116372 0.023477966 -0.028794106
000080 26 75 6a bb f1 00 81 3a f0 92 b7 bc 7b b8 3b bc
       -0.0035775392 0.00098422 -0.022408932 -0.011457558
000090 21 2a a1 bc 17 2d 92 bc 28 cf 4d bc e6 ce f4 3b
       -0.019673409 -0.017843766 -0.012561597 0.0074709533
0000a0 14 b9 ec ba 12 82 f1 3b b8 fa 83 bc 69 04 12 bc
       -0.0018060529 0.007370242 -0.016110763 -0.008912184
0000b0 8f 03 21 3c 13 c3 39 3c 98 c0 54 ba 55 4e 3c bc
       0.009827509 0.011338013 -0.0008115857 -0.011493285
0000c0 c5 c8 81 ba f0 2b 27 3c 2c d1 18 3c fb 65 e9 ba
       -0.0009901753 0.010203347 0.009327214 -0.0017806882
0000d0 2f 05 6c 3a 1d 60 2e 3c 69 a9 a8 3b 40 38 54 3c
       0.0009003458 0.010643032 0.0051471484 0.012952864
0000e0 f4 15 cb 3c f7 49 fc bc 3f 4f 89 3c 6e 95 45 bb
       0.024790742 -0.030796988 0.01676142 -0.0030148881
0000f0 e4 81 59 3c 89 4f 06 3c 33 b5 a8 bc ca dc 64 3b
       0.013275597 0.008197674 -0.020594215 0.003492164
000100 a5 49 02 bc c3 5d 2b bb 9b 20 be b9 c1 d5 90 bc
       -0.007952129 -0.0026148416 -0.00036263917 -0.01768005
000110 66 5a d4 3a fa 80 fd 3b 05 bf 11 3c 07 d7 8f bc
       0.0016201257 0.0077363225 0.00889564 -0.017558588
000120 fc c1 5f bc 7f 5d 69 3c d7 60 5a 3c 50 08 c1 bb
       -0.013657089 0.014243483 0.0133287525 -0.0058908835
000130 20 c0 5e bb 93 2f 84 3c 7e fc 87 3a c8 33 35 bc
       -0.0033989027 0.016135966 0.0010374931 -0.011059709
000140 2c 43 c3 bb 67 70 d2 3c a7 5c 24 bb 3d 4e 76 bc
       -0.0059589352 0.025688363 -0.002507964 -0.015033302
000150 1b e2 94 ba c3 f8 37 bc fd d6 f4 3b e1 64 2f bc
       -0.0011358889 -0.011228743 0.0074719177 -0.010705204
000160 b5 a7 90 3b 7a 5c 3c bc 9d 17 82 3b 9b f9 e7 ba
       0.0044145235 -0.0114966575 0.0039701 -0.001769829
000170 b3 95 58 3c e1 cd 25 bb 8f 31 e3 bb 36 8e 73 3c
       0.013219285 -0.0025299715 -0.006933398 0.014865449
000180 19 27 09 3b d1 c6 27 bc 75 81 2a 3b fc f7 be 3a
       0.0020927845 -0.010240273 0.0026017104 0.0014569755
000190 ef b3 87 3b 27 10 5f bc 0a 58 b2 3c 6d 67 58 bc
       0.004141323 -0.013614691 0.021770496 -0.013208252
0001a0 c8 d2 7f 3b ba 60 1e 3c 5d c2 62 bc c5 13 98 3c
       0.0039035548 0.009666616 -0.013840285 0.018564114
0001b0 45 ee af 3b 06 20 d9 bb b5 db 84 bb 65 93 d1 bc
       0.00536898 -0.006626132 -0.0040545114 -0.025582979
0001c0 1a 65 25 3c 12 1d 2a 3b 8a 14 8e 3c 0f 91 cb 3c
       0.010094905 0.0025957269 0.017343778 0.024849443
0001d0 41 31 62 bc 5a 52 0a 3c 26 3d 62 3b 4f a5 f2 3b
       -0.013805688 0.008442486 0.003452131 0.00740496
0001e0 26 b1 6c 3c 3e 35 3a 3c 39 49 3e 3c ec 8d 85 3c
       0.014446532 0.011365233 0.011614137 0.016303025
0001f0 e6 66 b5 39 cf dc 1e bc b1 8a ae ba 7e 20 2e 39
       0.00034599676 -0.0096962 -0.001331648 0.00016606037
000200 bf 97 90 3c 00 21 c5 3b 36 18 7b 3a bb 0f 88 3b
       0.017650483 0.006015897 0.0009578498 0.004152266
000210 18 79 66 bb bb d4 c6 3b 74 39 86 bc 8e 93 7d 3c
       -0.0035167392 0.00606784 -0.016384818 0.015477074
000220 36 c8 ef 3b ce 56 c5 3b 69 03 5b bc 16 bf 26 3b
       0.007317568 0.006022311 -0.013367512 0.0025443486
000230 49 be 12 3b 47 0e 8a 3c 20 7b 4b 3c 04 87 18 3c
       0.002239125 0.016852511 0.012419492 0.009309534
000240 a6 31 a3 bb 5a a6 5a 3a 54 0c c4 3b e4 cc ca 3a
       -0.004980284 0.00083408284 0.005982915 0.0015472439
000250 50 25 dd 3c 4e 3f a1 3b f9 fd c4 b9 06 9b 74 bb
       0.026995331 0.0049208766 -0.00037573258 -0.0037323846
000260 59 64 32 bc 29 bb 16 3b 83 62 f7 bb f9 78 95 3b
       -0.010888183 0.002299974 -0.0075495853 0.00456154
000270 33 8a 0d bc d7 8d 5a 3c 39 06 45 ba e0 eb 35 bb
       -0.008638906 0.013339481 -0.0007515881 -0.0027759
000280 91 1f a3 3c 92 4d 4c 3b ad d8 12 bb 85 77 ae 3c
       0.019912513 0.0031174165 -0.002240698 0.021297226
000290 eb 11 05 bb 76 e4 86 bc 63 f6 65 3c 2d 36 b7 bc
       -0.002030487 -0.01646636 0.014035794 -0.0223647
0002a0 0e 22 8e 3b e0 20 3d bc 9f 9a 51 bb 0b bf 86 bc
       0.0043375557 -0.011543483 -0.003198303 -0.016448518
0002b0 1f 25 79 3c 11 0d c2 bc 3a 49 56 bb 11 0f 5c bc
       0.015206604 -0.023687871 -0.0032697455 -0.0134313265
0002c0 26 4a 92 3c f7 0c 02 bc b2 61 e2 ba dd b8 d0 ba
       0.017857622 -0.007937661 -0.0017271547 -0.0015924234
0002d0 0f 17 5f bc 3e 5e 85 bc 3b bc 1c 3c 80 52 5c bc
       -0.013616337 -0.01628029 0.009566362 -0.013447404
0002e0 c4 63 7d bc 3c 9f 88 bb 92 46 c5 3c b2 27 78 3a
       -0.0154656805 -0.004169373 0.024081502 0.0009466364
0002f0 37 b3 0c bc a2 17 66 3c e5 f2 f2 bc 99 25 1f bc
       -0.00858765 0.01404372 -0.029656837 -0.009713554
000300 cc 15 40 3c 3a 88 4c 3b 9f 2b 22 bc 82 5a 39 3a
       0.011723947 0.0031209127 -0.009898095 0.00070706767
000310 39 e4 e8 3b 9f 86 9b 3c 5e 09 1d 3c 04 84 e8 3c
       0.0071072844 0.01898509 0.009584753 0.028383262
000320 77 44 d2 3c 0d dd dd 3b 8d 3f 56 bb 18 e7 12 bc
       0.025667412 0.006770736 -0.0032691688 -0.00896623
000330 ee 4d 60 3c 54 fc c0 bc fa 52 53 3a c8 10 42 3b
       0.013690455 -0.02355782 0.00080613757 0.0029612053
000340 f4 96 31 3b 2a 5e d2 3b 9b 14 91 3b a1 46 03 3c
       0.0027098032 0.0064199166 0.004427505 0.008012445
000350 e2 97 8b bb 0a 88 b3 3b 66 01 57 bc de f7 7f 3b
       -0.004260049 0.0054788636 -0.013122892 0.0039057652
000360 f4 f0 61 3b 0b 70 db bb 83 f1 27 bc 93 90 0d 3c
       0.0034475895 -0.006696706 -0.010250452 0.008640426
000370 fc 08 20 3b e2 48 b2 bb 2a 62 5d bc a7 58 0a bb
       0.0024419418 -0.005440817 -0.013512174 -0.002110997
000380 95 8e cc bc aa 07 9b 3a 8a b4 54 bb ae a7 10 3c
       -0.024970332 0.0011827846 -0.0032456242 0.00882904
000390 85 90 91 3c 13 23 60 bc 60 19 cb 3c d6 a2 0d 3b
       0.017769108 -0.013680237 0.024792373 0.002161195
0003a0 39 ff 18 3d 5a 03 41 bc ca 3b da bc 76 38 52 bc
       0.037352774 -0.011780584 -0.026639838 -0.012830844
0003b0 43 1a cd ba b2 77 e7 3b 0a ef 8f bc 7b 5f 1a bc
       -0.0015648085 0.0070638293 -0.017570037 -0.009422178
0003c0 9e 75 46 bc 4e fb d0 ba 5d 83 8d 3c 6a 11 42 bb
       -0.012113003 -0.0015944035 0.017274553 -0.002961243
0003d0 d8 d3 6b bb 75 66 79 bc 6f 55 33 bb 21 6d ce bb
       -0.0035984423 -0.015222182 -0.0027364155 -0.0062996303
0003e0 bf 9c a5 3c 95 1f 91 bc ee 39 35 3b da 99 d2 bb
       0.020216344 -0.017715255 0.0027652937 -0.006427032
0003f0 3a b7 49 bc c9 a3 93 bc 1f cb 60 3c 06 83 a9 bb
       -0.012311751 -0.018022435 0.013720303 -0.00517309

fc1.weight_u f4 [512]
000000 ce 56 09 ba 61 c4 46 3b bf b7 22 3b d2 10 0b ba
       -0.000523907 0.0030329453 0.002482876 -0.00053049356
000010 44 fa 19 3b 26 26 11 bb 48 a9 8a 3a 66 56 57 bb
       0.0023495117 -0.0022147982 0.0010579014 -0.0032857894
000020 75 af 15 ba c1 e7 60 b9 45 f7 85 bb 31 f0 80 3a
       -0.0005710044 -0.0002144864 -0.0040883147 0.0009837208
000030 44 b7 a9 bb a4 6f 51 3b c1 20 12 ba 5e 79 1a bb
       -0.0051793177 0.0031957412 -0.0005574339 -0.0023570876
000040 d7 82 37 3a f7 73 39 3b d8 fd 01 3b 61 8b 82 3c
       0.00070003927 0.002829788 0.001983514 0.015935602
000050 23 a9 78 bb 77 f7 02 3b 9e 10 d4 ba 2f c8 1c bb
       -0.003794261 0.0019983926 -0.0016179269 -0.002392303
000060 84 41 22 bb 11 3b 11 bb 13 79 3f 3b ed 95 33 bb
       -0.0024758289 -0.002216045 0.0029216453 -0.0027402595
000070 e3 75 93 bb a1 66 7b ba 6a 2d 40 3a fb 8a 94 ba
       -0.004500137 -0.0009590183 0.0007330986 -0.0011332923
000080 1f 8a b5 ba 27 7e 68 3a 7c 28 92 b8 d4 7d a9 ba
       -0.0013850367 0.0008868896 -6.969363e-05 -0.0012931176
000090 b3 6d 34 3b 80 e7 56 bd 1e b5 b7 3a de 1c ae bb
       0.0027531206 -0.05246687 0.0014015769 -0.0053135
0000a0 c5 60 25 3a 22 13 65 ba 71 11 a3 bb df d5 1c ba
       0.000630867 -0.0008738508 -0.0049764444 -0.0005982797
0000b0 8f 04 5a bb 50 e1 0d bd 2e 69 1b 3b d0 08 63 3b
       -0.0033266877 -0.034638703 0.0023713815 0.0034642704
0000c0 86 4a 56 3b 68 8b a5 ba 7c 3d 83 ba ab bb 51 3a
       0.0032698228 -0.0012630047 -0.0010012831 0.0008000682
0000d0 cc f9 7c ba 11 fa 5d bb 1a d1 2c 3b dc 27 09 bb
       -0.000965026 -0.0033870975 0.0026369751 -0.00209283
0000e0 3a 96 7c ba 39 09 2e ba 5d 7d 98 b9 b5 4d 33 bd
       -0.00096354226 -0.00066389475 -0.00029085102 -0.04377528
0000f0 ab 2c 0a bb e8 91 75 bb 20 dc 1f 39 d2 0d 9b 3a
       -0.0021083753 -0.0037471 0.00015245425 0.001182968
000100 f9 30 94 bd 39 84 89 3b bf 19 50 bb 92 5f b9 ba
       -0.07235903 0.0041966704 -0.0031753627 -0.0014142862
000110 3f 8c 4d ba 52 ab 08 3b da 4e 62 3a 71 6b 1b ba
       -0.00078410277 0.0020854068 0.00086329656 -0.0005928791
000120 59 af 8d bb e4 f9 69 3a 1d 9d 95 3a f3 1b 99 ba
       -0.0043238816 0.0008925481 0.0011414621 -0.0011681303
000130 c2 b6 8f ba 47 c0 1a b8 40 ed 3e 3a 0e 03 35 3a
       -0.00109645 -3.6895533e-05 0.0007283278 0.0006905057
000140 77 87 cd ba 9d 80 0d ba f7 cf a0 3a c4 ac 94 3a
       -0.001568063 -0.0005397888 0.001226901 0.0011342992
000150 98 07 cd ba 5e 90 91 3b d0 dd b5 39 2a d4 8e ba
       -0.0015642522 0.0044422587 0.00034688273 -0.001089697
000160 49 4b 0b 3b cc 45 89 ba a4 1d 9b b9 49 db 21 3e
       0.002125459 -0.0010473072 -0.00029585988 0.15806307
000170 97 21 56 ba ea 20 42 bb e5 e2 65 38 6d f1 5a 3a
       -0.00081684574 -0.002962167 5.4809167e-05 0.0008352015
000180 12 1f 9b 3b 4a 80 27 bb ff 65 17 ba ca c0 a7 3a
       0.0047339285 -0.0025558644 -0.00057753915 0.0012798544
000190 2e 0e 1e bb 2f 09 8f bb 69 be 81 bb 65 d2 b5 3a
       -0.0024117338 -0.0043651084 -0.0039594662 0.0013871907
0001a0 d9 bc ae 3a 86 a0 1b bb b9 6d 95 3a a8 ed b6 b8
       0.0013331427 -0.0023746802 0.0011400498 -8.722703e-05
0001b0 15 36 b0 ba 8e cb 48 3b b8 b0 de bd 5d cd 72 ba
       -0.0013443852 0.0030638906 -0.1087355 -0.0009262169
0001c0 3f a0 20 ba 36 7b b7 3a 2f 3f 46 3b e7 79 47 3b
       -0.0006127394 0.0013998512 0.0030250063 0.003043765
0001d0 5d c6 91 bb 1b 60 b8 b8 ea f8 b8 bc 1c 58 df bd
       -0.0044486956 -8.791705e-05 -0.022579629 -0.109054774
0001e0 15 17 8c 3a 1a 0c 61 3d ab aa b9 3a a4 c7 89 3b
       0.0010688031 0.05494318 0.0014165243 0.004204707
0001f0 86 16 22 3b f3 2c 86 bd 81 ba 81 3a 50 df 0e 3b
       0.0024732663 -0.06551542 0.0009897501 0.0021800585
000200 ca cd b6 ba b7 a2 c5 38 9f b6 54 3a a6 25 e4 3a
       -0.0013946828 9.424e-05 0.0008114371 0.001740624
000210 8d 91 fc 3a d0 6c 75 3b c7 68 bf b9 d6 ec 26 bb
       0.0019269452 0.003744889 -0.00036508424 -0.0025470755
000220 9d 26 00 bb 9c 16 21 3b f6 d6 b7 3b 7a f8 55 3a
       -0.0019554265 0.0024580127 0.005610342 0.0008162331
000230 4e 45 2f 3e f9 4c 42 3b 2f 6a 16 ba 4a 7c b3 ba
       0.17116281 0.002964793 -0.00057378685 -0.0013693657
000240 e3 8f 04 bb a1 50 83 bb 95 6c 15 ba 16 80 26 b9
       -0.0020227365 -0.0040074144 -0.0005700079 -0.0001587871
000250 50 a2 d1 3a e0 cb 66 3b 00 32 a3 bd 35 69 01 3d
       0.0015993807 0.0035216734 -0.07968521 0.031594474
000260 0d f4 9f 3e a7 51 87 bb ff 03 6b bd 82 a3 f4 bb
       0.31240883 -0.0041296068 -0.057376858 -0.0074657807
000270 39 e7 47 ba 29 5e 01 ba c1 4d cb ba 30 a9 d4 ba
       -0.00076257024 -0.00049349904 -0.0015510843 -0.0016224738
000280 94 18 13 3a a7 bf 5e 39 94 20 35 3e 46 46 9b 3b
       0.00056112674 0.00021242966 0.17688209 0.004738602
000290 93 c8 8f 3c c5 60 3e bd f9 d4 1d bb e8 af ac ba
       0.017551696 -0.046479005 -0.002408324 -0.0013174983
0002a0 71 74 23 bb e3 0c 68 ba 08 8e 0b bb 20 e0 ed 39
       -0.002494123 -0.0008852018 -0.0021294374 0.0004537115
0002b0 b1 2f 5d 3b 36 41 f3 3b 8b fc b8 bc 7a 9b f5 3a
       0.003375035 0.0074235452 -0.02258136 0.0018738352
0002c0 b1 8c 9f bd f0 ba 53 bb e5 27 80 3b 16 a5 20 3b
       -0.07790507 -0.0032307468 0.003911006 0.0024512461
0002d0 7f cd 05 b9 07 00 72 bb 1b 9c 35 bc 67 64 87 ba
       -0.00012760422 -0.0036926286 -0.011084582 -0.0010329605
0002e0 ea 8a 1e 3b 06 ed c2 bb f7 5f 4c ba 22 92 22 bd
       0.0024191686 -0.0059486656 -0.00077962823 -0.039690144
0002f0 21 c1 3b 3b 5d 1e b8 3a e8 85 4e 3b 23 65 f4 3d
       0.002864905 0.0014047135 0.003151292 0.11933353
000300 93 93 6e 3a ee e2 30 3a 39 29 db b9 a9 70 cc 3d
       0.000910097 0.00067476823 -0.00041801648 0.09982426
000310 d9 36 9b bc 20 ce 60 ba a5 b7 78 3a c6 56 76 ba
       -0.018947052 -0.0008575637 0.00094878144 -0.00093970855
000320 8b 23 3d bd 7e 5a 3c bb e6 bb 73 bb cb 86 9b 3a
       -0.046176475 -0.002874046 -0.0037190854 0.0011865733
000330 b0 e4 e8 3a 69 73 c5 be 6c cd 35 bb a9 8f f2 3a
       0.001776835 -0.38564613 -0.002774085 0.0018505949
000340 2b 0c bf b9 b4 83 b0 39 92 db 45 3b ed c2 38 bb
       -0.00036439425 0.00033667462 0.0030190689 -0.0028192357
000350 69 20 02 3b 1a 9d c7 ba 97 3c 25 bb bc 99 e4 3a
       0.0019855744 -0.0015229315 -0.0025213116 0.0017440836
000360 77 fe 99 bb 0d 6b 98 3a a1 64 81 3a 6d 8a 7e b7
       -0.004699524 0.0011628583 0.0009871909 -1.51718095e-05
000370 80 98 82 3b bc ba 64 b8 27 41 7b bb d2 88 35 bb
       0.0039854646 -5.4533346e-05 -0.0038338394 -0.002769996
000380 11 46 ac 3a 1d d5 8f 3b 02 20 db 39 76 31 94 bc
       0.001314344 0.0043894188 0.00041794783 -0.018089991
000390 d9 6c 13 bb 2a a6 e9 ba e1 25 4b 3b c7 38 dd ba
       -0.0022495298 -0.001782601 0.003099792 -0.0016877883
0003a0 00 f1 9a 39 bf c9 f5 3a 89 93 b7 bc 1a bb 2d 3b
       0.00029552728 0.0018752142 -0.022409217 0.0026509226
0003b0 d8 bd e6 ba b2 8f 7b bb 3a 62 fd ba 8e ac 54 3a
       -0.0017604185 -0.003838521 -0.0019331642 0.0008112871
0003c0 a6 5f 9a bb e6 4c 68 3d a4 39 04 bb 97 10 f6 b9
       -0.004711109 0.05671396 -0.0020175958 -0.00046933137
0003d0 5b 3b b1 3a 3a 41 a1 ba 9e bc 92 b8 4f e8 2a bb
       0.0013521718 -0.0012302764 -6.996955e-05 -0.0026078408
0003e0 6e 5c f1 ba 0c 3b 83 3a 31 4b 32 bb 60 46 2a 39
       -0.0018414387 0.0010012104 -0.0027205462 0.0001623868
0003f0 af 84 3d 3b 29 c3 48 bb 78 b8 41 bb ca 4c c4 b8
       0.0028918197 -0.0030633903 -0.0029559415 -9.3603114e-05

fc1.weight_v f4 [42]
000000 b3 ce e6 bd e3 0e 2e 3e 9d 49 1f 3e 3a e6 42 3d
       -0.112698935 0.16997866 0.15555425 0.047582842
000010 98 dc 9c 3e 37 f7 a0 3d 55 a5 9e 3e 8a 60 0e 3c
       0.3063705 0.078596525 0.30985513 0.008690009
000020 7b b0 09 3e 62 20 34 be 43 13 a9 bd 4c 59 fb bd
       0.13446228 -0.17590478 -0.08255627 -0.122728914
000030 c1 f7 6b 3d d1 37 8d 3c b3 02 3d 3b a5 82 f0 bd
       0.057609323 0.01723853 0.002884072 -0.117436685
000040 f1 37 0c be c8 f4 1e 3e ad f7 31 3e cc 5c d0 3e
       -0.13693215 0.15523064 0.17379637 0.40695798
000050 c0 8c 38 3c 59 b5 c6 bc 0e 3e 1a 3e d6 15 28 3e
       0.011264026 -0.024256395 0.15062734 0.1641458
000060 c1 d6 1a 3d 1b 7e 37 3e 7c 0d e7 bd b2 e9 dd 3c
       0.03780246 0.17919199 -0.11281869 0.027088974
000070 47 26 0d 3e 1e 0e 1a 3e bf bd 5a 3d ef 23 c3 bd
       0.13784133 0.15044448 0.053403612 -0.09528338
000080 1d 99 01 3e 3f a6 41 bd 38 df 20 be fc b4 b5 bc
       0.12656064 -0.047277685 -0.15710151 -0.022181027
000090 42 9f a0 3d 23 ea 40 3e 8d 22 7b 3e 78 e2 77 3e
       0.07842876 0.18839316 0.24524899 0.24207485
0000a0 6e 38 a1 3d db 22 60 be
       0.07872091 -0.21888296

fc2.bias f4 [256]
000000 f8 ee 03 bf e9 a5 5a be c6 ae 54 be 53 9b 6e be
       -0.5153651 -0.21352352 -0.20769796 -0.23301439
000010 5f 4c c8 be 47 2c aa be d2 8b a8 be 0b 9d 43 bf
       -0.39120767 -0.33236906 -0.32919174 -0.76411504
000020 6a 1c 8e be 3c a9 be be 90 05 81 be 90 98 d3 be
       -0.27756053 -0.3723849 -0.25199556 -0.41327333
000030 df 23 23 be 2c 00 67 be 87 5a 69 be 67 33 0c bf
       -0.15931652 -0.2255866 -0.2278844 -0.54765934
000040 9e 33 c5 be f3 04 af be 54 4a 9f be c3 e2 72 be
       -0.38515943 -0.34183463 -0.31111395 -0.23719315
000050 f3 72 19 be 5c 96 30 be 8a c1 a7 be e2 06 05 be
       -0.14985256 -0.17244858 -0.32764846 -0.12990907
000060 97 08 92 be bf 44 1a bf 18 22 df be 51 a5 99 be
       -0.2852218 -0.6026115 -0.435807 -0.3000894
000070 8c 80 3d be f5 a7 5d be 9e 1e b6 be c1 e6 5a be
       -0.18506068 -0.21646102 -0.35570234 -0.21377088
000080 af 07 8e be 75 5c 35 be e1 f1 a1 be f2 be b8 be
       -0.27740237 -0.17711051 -0.3162985 -0.3608318
000090 b7 60 8b be 7c 58 12 bf 2b 47 ee be 3a 67 6f be
       -0.27222225 -0.57166266 -0.46538672 -0.23379222
0000a0 99 5a 46 be 14 b3 11 bf 16 29 b3 be 19 ff 82 be
       -0.19370498 -0.56913877 -0.34992284 -0.2558525
0000b0 2f b6 1c bf 72 9a b0 be 81 10 af be 0d 10 4e be
       -0.6121549 -0.34492832 -0.3419228 -0.2012331
0000c0 65 cd 0c be eb 39 04 bf 4e d6 40 be 07 f0 5c be
       -0.13750227 -0.51650876 -0.18831751 -0.21575938
0000d0 4c ff 41 be 0b 6b 7e be f6 98 56 be 70 20 31 be
       -0.18945044 -0.24845521 -0.20956787 -0.1729753
0000e0 b5 b3 54 be 4c 7e 0a bf 00 e0 fe be ad 1b aa be
       -0.20771678 -0.54098964 -0.49780273 -0.3322424
0000f0 82 32 71 be c3 49 65 be f9 7e 0b be b3 84 6a be
       -0.23554423 -0.22391419 -0.13622655 -0.22902183
000100 35 e4 13 bf 77 06 d9 be 7f 56 ca be bd c0 99 be
       -0.5777009 -0.42387745 -0.39519116 -0.3002986
000110 49 77 30 be 76 ba 0b bf c9 18 4a be 05 43 1e bf
       -0.17233004 -0.5458139 -0.19736017 -0.61821014
000120 38 fd 53 be 11 df 92 be 15 11 cc bd a4 d3 88 be
       -0.20702064 -0.2868581 -0.09964196 -0.2672397
000130 ec 19 87 be e5 a2 f6 bd 29 37 96 be a1 a9 8e be
       -0.26386964 -0.120427884 -0.2933896 -0.27863792
000140 9c c0 2b bf da 36 95 be 73 f9 a4 be a1 7a 4c be
       -0.67090774 -0.2914341 -0.32221565 -0.19968654
000150 20 03 04 bf 8b db 11 bf 76 77 06 bf ac 5f 33 be
       -0.5156727 -0.5697562 -0.5252603 -0.17516965
000160 93 26 4c be 32 37 a2 be 0f a2 c5 be ac d1 43 bf
       -0.1993659 -0.31682736 -0.38600203 -0.7649181
000170 2e 92 3b be 0d c0 5b be 2b 75 83 be f3 05 18 be
       -0.18317482 -0.2145998 -0.2567533 -0.1484602
000180 99 76 ac be 58 c6 b5 be 78 0a af be 4f 4d bf be
       -0.33684233 -0.35502887 -0.34187675 -0.3736367
000190 a0 15 df be 97 17 32 be a3 91 88 be 0c bd 36 be
       -0.43571186 -0.17391811 -0.26673612 -0.17845553
0001a0 bb bf 9c be 41 53 4e be bd 49 99 be 29 b2 8a be
       -0.3061503 -0.20148946 -0.2993907 -0.2708905
0001b0 75 70 a0 be 10 ad 09 bf 87 f1 52 be 74 c1 82 be
       -0.31335798 -0.537797 -0.20599948 -0.25538218
0001c0 8a f7 7e be 32 ad a1 be 35 fc da be 96 f2 3e be
       -0.24899116 -0.3157745 -0.42770544 -0.18647227
0001d0 e2 d4 26 bf e8 c5 57 be af 04 6d be 7e 9a b8 be
       -0.65168583 -0.21071589 -0.23146318 -0.36055368
0001e0 99 67 da bd 6b ad a0 be 73 64 0e bf 75 0c 32 be
       -0.10664291 -0.31382307 -0.55622023 -0.17387564
0001f0 2a 53 6e be ff e1 b7 be d1 35 45 be e0 3f f6 be
       -0.23273912 -0.3591461 -0.1925881 -0.48095608
000200 59 4f 92 be 8c 52 9f be ed db ad be db b3 75 be
       -0.28576162 -0.31117666 -0.33956853 -0.2399439
000210 af 30 84 be 57 ae 2e be 4f 13 1f be 90 7c 38 be
       -0.25818393 -0.17058693 -0.1553471 -0.18016267
000220 28 74 26 be cb 12 57 be 5e 95 e0 be 92 cb 35 be
       -0.16255248 -0.21003263 -0.43863958 -0.17753437
000230 c5 27 e3 be 96 4a 53 be 0a 21 35 be d4 41 1e be
       -0.4436628 -0.20633921 -0.17688385 -0.15454799
000240 d8 84 b7 be 83 e5 94 be 93 c0 46 be bd cc 03 be
       -0.3584354 -0.29081354 -0.19409399 -0.1287107
000250 03 31 f5 be 4c 97 e2 be da 36 7c be 4a 3e 5a be
       -0.47888955 -0.44256055 -0.24630299 -0.21312824
000260 0a af 8e be df 5c 98 be c2 5e 7d be 6c 51 c1 be
       -0.2786792 -0.29758355 -0.24743178 -0.37757432
000270 99 0e b1 be f0 ab f4 be 08 c3 9a be de 56 81 be
       -0.3458145 -0.47787428 -0.30226922 -0.25261587
000280 94 2a d4 be 40 2c 4e be 7f 21 9d be da ce 44 bf
       -0.41438735 -0.20134068 -0.30689618 -0.7687813
000290 68 15 63 be ee 60 c6 be 22 10 27 bf d8 15 9f be
       -0.22176135 -0.38745826 -0.6525899 -0.31071353
0002a0 fb ef 3d be c7 bd 1b bf 6b ed 85 be f7 8d ee bd
       -0.18548577 -0.6083645 -0.26157698 -0.116481714
0002b0 65 42 c3 be ad bd 24 be 0d 4e ff be d6 f8 0f be
       -0.38136593 -0.1608798 -0.49864236 -0.14059767
0002c0 6a 2e 73 be 55 b5 0a bf fe a8 76 be 20 bb 14 be
       -0.23748174 -0.5418294 -0.24087903 -0.14524508
0002d0 1b 58 8f be 1a 55 98 be 75 45 04 bf 87 be a2 be
       -0.27996907 -0.29752427 -0.51668483 -0.31785986
0002e0 87 0f 66 bf 3b fb 84 be e9 c0 08 be 4b 01 81 be
       -0.8986744 -0.25972924 -0.1335484 -0.251963
0002f0 a8 1d b5 be 50 51 f9 be 8a 7e 9b be 1b d0 b7 be
       -0.35374188 -0.4869485 -0.3036998 -0.3590096
000300 fd 41 d4 be bc c5 e3 be da e0 97 be 54 61 83 be
       -0.41456595 -0.44486797 -0.29663736 -0.25660193
000310 7b 1e b1 be 5c 89 1b bf 3f 3e 01 bf 06 bc a7 be
       -0.34593567 -0.6075647 -0.50485605 -0.32760638
000320 48 5e a3 be 2d fa 08 be e0 7c b3 be c8 6e 80 be
       -0.31907868 -0.13376684 -0.3505621 -0.2508452
000330 b6 a1 19 be 24 d0 ab be 62 2c 84 be 8b 8b 9b be
       -0.15003094 -0.33557236 -0.2581511 -0.303799
000340 9b 70 fb be 73 61 f8 be 53 6f 80 be 48 35 1a bf
       -0.4910935 -0.48511848 -0.25084934 -0.6023755
000350 79 40 f6 be b8 1f 16 be 02 79 90 be 0d 2f 67 be
       -0.48096064 -0.14660537 -0.28217322 -0.22576542
000360 bb c0 54 be c3 de b7 be d6 f0 7e be a4 30 94 be
       -0.20776646 -0.3591214 -0.24896559 -0.2894336
000370 39 0a 07 bf 10 5c 1f be 52 9d 32 be 96 2d 3c be
       -0.52749974 -0.15562463 -0.17442825 -0.18376765
000380 06 7d d2 be 90 85 88 be 5a b0 19 be a7 63 a9 be
       -0.4111101 -0.266644 -0.15008679 -0.3308384
000390 b4 59 e7 be 26 9d ec be 5b 43 9b be 64 38 87 be
       -0.45185626 -0.46213645 -0.30324826 -0.2641021
0003a0 21 18 03 bf 77 c1 95 be 86 6e 84 be cf 7a ad be
       -0.5120869 -0.29249164 -0.25865573 -0.33882758
0003b0 86 75 85 be e0 3a 84 be 4e ae 88 be 5c 5c a5 be
       -0.26066226 -0.25826168 -0.26695484 -0.32297027
0003c0 19 3c 6e be 25 40 8d be 9a 58 94 be 11 5f 82 be
       -0.23265113 -0.27588 -0.28973848 -0.25463155
0003d0 05 6b 5a be 25 e2 2d be c4 1f 45 be b4 ae 7e be
       -0.21329887 -0.16980799 -0.19250399 -0.24871331
0003e0 4f 50 7d be 3c 59 28 bf c9 03 a1 be cb a8 33 be
       -0.24737667 -0.6576116 -0.314482 -0.17544858
0003f0 ae 05 a1 be 39 ec b8 be 5a d5 64 be 22 29 89 be
       -0.31449646 -0.36117724 -0.22347012 -0.26789194

fc2.weight_orig f4 [256, 512]
000000 32 4b 39 bc 04 87 4a 3c 15 1f 41 bc cd d9 30 bd
       -0.011309432 0.012361292 -0.011787196 -0.04317646
000010 8f 35 d8 3c 92 4b c1 bc 78 2d 4f bc 4d 0d 6a bc
       0.026392726 -0.023595605 -0.012645118 -0.014285398
000020 b8 8a e3 3b 20 d1 7f bc 63 ab 0f 3d 1a db bd bc
       0.006944027 -0.015613824 0.035075556 -0.023175765
000030 df b7 fe bc 09 8e eb bb 6b 24 73 3c 03 7c 85 ba
       -0.031093536 -0.007188563 0.014840226 -0.0010184053
000040 ed 45 5a 3c c5 d2 a7 3c 2c 32 b0 3b 9d 22 7b 3c
       0.013322336 0.020486245 0.0053770747 0.015328077
000050 2f d5 8e 3c 75 a0 be 38 8d e4 c1 bc f6 6c 98 bc
       0.017435638 9.0897935e-05 -0.023668552 -0.018606644
000060 58 e2 e9 3c 96 6f be bc 8e 3a ae bc 81 88 f0 3b
       0.028550312 -0.023246568 -0.021268155 0.0073404913
000070 1b fd bf b8 12 f5 17 bd cb b1 fb bb c7 c7 2f bb
       -9.154734e-05 -0.03709895 -0.0076811067 -0.0026821957
000080 d5 87 d0 3b 98 1c 10 3c 45 ac 26 3d 51 ba fb bc
       0.0063638487 0.00879588 0.040691633 -0.030728491
000090 41 ea ef bb 49 2b 66 3c f1 b7 b1 3c 54 d4 98 3c
       -0.0073216264 0.014048406 0.021694155 0.018655933
0000a0 ee b4 0f bd 21 83 77 3d 50 9c 0e bc df 52 09 bc
       -0.035084657 0.06042779 -0.00870426 -0.008381574
0000b0 2a bb 10 3c ac 6a d7 3b 05 63 7a bc 96 3b 90 bb
       0.008833686 0.0065739956 -0.015282397 -0.0044016344
0000c0 82 fb 93 3c 96 b7 01 bc 84 f3 95 bc 69 c2 a1 bc
       0.018064264 -0.007917305 -0.018304594 -0.019746022
0000d0 87 5a 9f bb 46 6f 03 3c f4 b5 89 bc 9e 25 31 3c
       -0.0048630866 0.008022135 -0.016810395 0.010812191
0000e0 56 b6 22 3c e6 d6 fc bb f9 20 c4 3a 55 b8 c8 3c
       0.009931168 -0.0077160476 0.001496344 0.024501959
0000f0 74 31 3e 3c e9 7c 9c bc 46 5c 74 3c cf 11 bb bc
       0.01160847 -0.01910253 0.014914578 -0.02283564
000100 99 7d 39 bc fe 26 a3 3c d8 35 26 3d 73 22 a9 bc
       -0.011321449 0.019916054 0.040578693 -0.02064631
000110 c0 a6 6d 3c 12 cd f4 3c 53 93 28 3c 56 37 e6 3b
       0.014505088 0.029882941 0.010289031 0.0070256395
000120 2a a4 29 3a 0c 45 f2 bb 80 e9 1a bc 7b 08 a7 3b
       0.0006471301 -0.007393485 -0.009455085 0.0050974465
000130 4f 13 18 3c c5 47 8c 3a 5b 27 28 ba 32 dd 99 bc
       0.009281947 0.0010702541 -0.0006414556 -0.018782232
000140 cb 5b 7e bb 87 e0 e1 3c 60 ba 35 3c 96 d7 70 3c
       -0.0038812037 0.027572883 0.011091799 0.014699837
000150 e6 89 d4 3b d4 9b 1f 3d 5c ca 0b 3d 1d 4e 3a 3c
       0.0064861653 0.03896697 0.03412853 0.011371163
000160 45 d7 82 bc 69 f2 ef bb 1c cd 86 bb 2b aa fe 39
       -0.01597179 -0.0073225987 -0.0041138064 0.0004857344
000170 89 ed 02 3c c8 78 ec bc 19 70 c0 bc b4 37 b0 bc
       0.007991203 -0.028866187 -0.023490952 -0.021510936
000180 ec ff 9f 3b e2 60 15 3c 0f 52 9c bc 4a 0e 90 3c
       0.004882803 0.009117337 -0.019082097 0.017584939
000190 f8 84 95 3c 71 13 1c bd d6 a5 75 bd 62 42 47 bc
       0.018251881 -0.03810448 -0.059972607 -0.012161823
0001a0 40 61 f4 3c 14 8f bc bb a0 3a 5a 3c b7 77 2e 3c
       0.029831529 -0.005754361 0.013319641 0.010648659
0001b0 4f d6 a9 bc 75 75 c7 3c 1b 3a f5 bb 02 fc fd bb
       -0.020732073 0.024348 -0.0074837334 -0.007750989
0001c0 70 49 30 bb 4a fd f8 3b 4e 9f eb 3c 05 a0 21 3c
       -0.002689924 0.007598554 0.028762486 0.009864812
0001d0 3f 31 43 bc 03 7a 90 bc f7 88 7b 3c 30 8c a9 3a
       -0.011913597 -0.017636305 0.015352479 0.0012935456
0001e0 ab a1 8a 3c 90 a6 3d ba 18 b3 08 3d c5 a9 e9 3b
       0.016922792 -0.00072345976 0.033373922 0.007130834
0001f0 88 d4 f4 3a 02 b8 85 bb 7f af ac 3b ae d5 a2 3a
       0.0018679062 -0.0040807733 0.005269944 0.0012423301
000200 20 bb 9e bc 1a 70 74 bc 74 ac 94 3b 56 22 a8 bc
       -0.019376338 -0.014919305 0.0045371596 -0.020524185
000210 84 83 20 3c ad cf ed 3c 42 19 9b bc 2e 9b aa bc
       0.009796981 0.029029692 -0.018932942 -0.020825949
000220 07 22 89 3c 8f f3 b8 bb ea a4 3b 3b 52 4f 00 3a
       0.016739858 -0.005644269 0.0028632232 0.0004894632
000230 b6 9e a4 bb 69 ef 21 bc 98 79 3e bd a6 36 c1 bc
       -0.0050238026 -0.00988374 -0.04650268 -0.023585629
000240 e6 d5 ac bc 61 42 63 3c cc ab e1 bc 68 dd 8a bc
       -0.021098088 0.013870806 -0.02754774 -0.016951278
000250 43 e1 61 bb 80 c3 c1 3b 2e 4f 8b bb ef e5 5d 3c
       -0.0034466542 0.005913198 -0.0042513823 0.01354359
000260 a5 a8 f8 bb 60 21 6f 3c 65 eb 8f 3b aa 04 31 bc
       -0.0075884634 0.01459536 0.004392075 -0.010804335
000270 c9 73 8c bc ae f7 cb b9 2c ae 5d 3c 2c b8 43 3c
       -0.017145054 -0.00038903713 0.013530295 0.011945765
000280 e5 fa 5c bb 44 3a fa bc a9 87 71 bb 45 e9 c4 3c
       -0.003371888 -0.030545361 -0.0036854541 0.024037013
000290 83 73 9a 3c 44 8a a4 bc fd 15 5b 3c e6 ad b2 3c
       0.018853908 -0.020085461 0.013371942 0.021811437
0002a0 e0 93 9b 3b 86 77 f7 bb f5 1a 55 3b 1c 05 4b 3c
       0.0047478527 -0.00755209 0.0032517288 0.012391355
0002b0 ea 03 c9 bc af 39 fe bc 09 d7 a2 3c ef 68 91 3b
       -0.024538 -0.031033365 0.019877927 0.004437558
0002c0 38 cd 1e 3c e9 ec 06 3b 21 69 b9 3c a4 f4 b0 ba
       0.009692483 0.0020587987 0.022633137 -0.0013500643
0002d0 22 45 9a bc a3 01 f5 bc f8 2d 0b 3d df e2 03 3c
       -0.018831793 -0.029908007 0.033979386 0.008049696
0002e0 ec c3 eb bc 2f c2 f5 3a 11 08 db 39 8a b4 c8 bc
       -0.028779946 0.0018749888 0.00041776945 -0.02450015
0002f0 32 96 a8 3c 39 81 31 bc 01 ee fe 3c ee 58 0e bb
       0.020579431 -0.010834032 0.031119348 -0.0021720487
000300 5b 4e 36 3c d4 4e da bb bf 41 19 bc 58 29 e8 ba
       0.01112708 -0.006662229 -0.009354054 -0.0017712517
000310 cc 11 b0 bb d7 28 72 3c 20 1c de 3c 1a 50 06 3d
       -0.0053732153 0.014780245 0.02711302 0.032791235
000320 e4 e4 48 3b 42 57 e3 3b f3 c8 1b bc 96 28 2b 3d
       0.0030654008 0.006937892 -0.009508359 0.041786753
000330 87 ce d5 3c 30 3e 31 3b f9 b2 2f ba 8f 16 c4 ba
       0.026099456 0.0027045123 -0.0006702389 -0.0014960336
000340 b8 3a 93 bc 4c c8 a1 3c 3b be a5 3b 8d 18 9c bc
       -0.017972335 0.01974883 0.0050580776 -0.019054675
000350 f7 84 78 3c 56 3e eb bc 4b f2 13 3c d4 61 e9 bb
       0.01516842 -0.028716248 0.009029935 -0.0071222577
000360 3e 90 a5 3c 42 1a 26 3b d3 72 b2 bc 6b 08 17 3c
       0.020210382 0.002534524 -0.021783268 0.009218316
000370 ae a2 3f 3c c1 63 56 3c e8 6f 91 3d 9b 96 5b bc
       0.011696501 0.013085307 0.071014225 -0.013402606
000380 3e e9 8a 3b 8d 20 1d 3d 54 52 45 bc 7b db ae bb
       0.0042392304 0.03836112 -0.012043554 -0.0053362227
000390 fe 91 39 3c 98 aa 88 3c 6c e2 85 3c 4f 15 f3 bc
       0.011326311 0.016682908 0.016343318 -0.029673247
0003a0 8e 34 9f bc e7 f5 74 bb 0a c0 0c 3c cb 33 7a 3c
       -0.01943424 -0.0037378015 0.008590708 0.0152711375
0003b0 e0 4f 3e 3c aa 22 bf bb 0e cf b7 3c ee 11 3b bc
       0.011615723 -0.0058329897 0.022437599 -0.011417849
0003c0 c1 76 4f bc 9d 4e df bb 2c 66 6f bc e1 93 8c 3b
       -0.0126625905 -0.0068147914 -0.014611762 0.0042900895
0003d0 a6 7a 0f 3d 6f 7f 0a bd 6b ef be bc d6 6a 27 bb
       0.035029076 -0.033812936 -0.023307523 -0.0025545857
0003e0 16 ca 09 b9 74 71 b0 3c 86 16 a1 3b 0c 95 ad 3c
       -0.00013140621 0.021538474 0.004916015 0.021189235
0003f0 e1 98 25 bc c3 99 fc bc 9d 17 9e 3c ba 56 8f bb
       -0.01010725 -0.030835038 0.019298369 -0.0043743523

fc2.weight_u f4 [256]
000000 5c 17 9a b8 d2 83 8d ba 72 50 6a be db ba e2 bb
       -7.347643e-05 -0.0010796732 -0.2288225 -0.0069192476
000010 0b a2 53 bb cf 2c 51 3b 94 99 2d 3a eb ba 7b bb
       -0.003229263 0.0031917577 0.0006622311 -0.0038410972
000020 cc 93 a2 b8 57 0d fb ba c1 b5 7b ba f4 32 bc ba
       -7.752291e-05 -0.0019153756 -0.00096019736 -0.0014358447
000030 15 38 12 3c ed e0 5c 3b db 2d 4c 3d 6b 23 65 ba
       0.008924504 0.0033703402 0.04984842 -0.00087409344
000040 a8 7c ae 3d b2 80 a5 bb 4d 3c de 3a f9 53 20 3a
       0.0851987 -0.005050742 0.0016955227 0.00061160285
000050 2f c3 ab bb 0d ff 54 ba 4b c8 f6 bb 11 5d 58 3a
       -0.0052417736 -0.0008125164 -0.007531201 0.0008253614
000060 52 48 0c be 79 07 ee 39 5d 4b 61 ba 0c 0a bd 3b
       -0.13699463 0.00045400465 -0.0008594299 0.00576902
000070 5c fd 90 3a d4 4c 23 3a f6 80 70 bb 66 4f 65 bb
       0.0011061835 0.0006229405 -0.003669796 -0.0034989952
000080 19 cb 14 39 27 c5 c4 3a 0d 24 8d 3b 82 3f 07 bb
       0.0001419004 0.0015012369 0.004307276 -0.002063722
000090 d6 7c 4c bd c8 1c 63 3d 33 27 9f ba 4b ad 1b bb
       -0.04992374 0.05544737 -0.001214242 -0.0023754414
0000a0 a0 aa a2 3b 07 ab a7 3b 23 12 03 bb 08 da cd bb
       0.0049641877 0.0051168236 -0.0019999824 -0.006282095
0000b0 bc 46 ef b9 f3 09 de ba 7a 5e da ba 66 37 0a bc
       -0.00045638334 -0.0016940221 -0.0016660236 -0.00843606
0000c0 12 d8 81 3e e9 24 50 3b 7a 7a 0a bb 0c ca b9 3b
       0.2536016 0.0031760281 -0.002113013 0.005669838
0000d0 bc 8e 72 3b 84 cb 86 ba e9 e3 e0 3a a8 f1 c9 bc
       0.0037011346 -0.0010284041 0.0017157766 -0.024651363
0000e0 31 8b c4 ba 6c 92 c1 ba c2 0c ff ba 92 fb 87 3c
       -0.0014995096 -0.0014768369 -0.0019458758 0.01659945
0000f0 88 76 b7 3a e3 38 36 3b 8e 9f 6e bb 1a d9 ed 39
       0.0013997117 0.0027804903 -0.003641102 0.00045365916
000100 ce ca 20 36 1d e3 8a bb 81 82 11 3c 8b 8c da ba
       2.3959906e-06 -0.0042385 0.008881212 -0.0016673965
000110 33 e1 26 be 7d ef fe bd f6 27 a4 39 e3 b5 db 39
       -0.16296844 -0.124480225 0.0003131029 0.0004190645
000120 79 e3 92 3b 79 ac 67 3b f7 bd e3 3d 16 74 0a 3a
       0.0044826833 0.0035350604 0.11120217 0.00052815804
000130 21 d4 da bd ac 97 a5 bb 4e 5b 99 3b 15 40 0e bc
       -0.10684992 -0.005053481 0.004680074 -0.0086822705
000140 39 fa e3 b8 18 cd 9b 39 a4 98 fb b9 57 2c 81 39
       -0.00010870811 0.0002971671 -0.00047988177 0.00024637833
000150 cb 5e 5e ba 61 bb 6c 3a 6c b0 c7 ba 8a 8f d6 3a
       -0.0008482753 0.0009030607 -0.0015235073 0.0016369682
000160 d2 65 38 3c 1e 58 90 3b 85 5d 4d bb 2d d4 99 b9
       0.011254745 0.0044050356 -0.003133626 -0.00029340517
000170 46 7c 3d 3a 48 f3 12 ba 09 98 82 bd 0b 97 37 b8
       0.0007228296 -0.000560571 -0.06376655 -4.377127e-05
000180 67 b0 79 ba 92 e4 07 3d b1 12 8b 3a 98 d0 55 bb
       -0.0009524882 0.033176966 0.0010610429 -0.0032625552
000190 ef 49 54 3b 6c 22 82 bb 8f b7 87 bd ff f6 2b 3d
       0.00323927 -0.0039713886 -0.06626808 0.0419836
0001a0 b8 ba 09 bb 90 65 2e 3c af b3 9c bb 24 f4 12 3b
       -0.0021015834 0.010644332 -0.004782162 0.0022423351
0001b0 2b b1 0c bb 2a 1b 72 3e 0b 1d 2d 3d 9b e1 e5 3b
       -0.0021467905 0.23643175 0.042264026 0.0070154197
0001c0 61 7d 11 3b 77 6e 2c b9 bd bc 9f 3b b4 50 aa 3a
       0.0022199976 -0.0001644435 0.0048747943 0.0012994022
0001d0 99 cf 6c ba 3f e1 1f bb 0c 6a 6e bb fa 67 b7 39
       -0.000903362 -0.0024395732 -0.0036379127 0.0003498195
0001e0 db d5 42 3e 06 da 07 3b 27 e0 39 bb aa d2 fa 3b
       0.19026892 0.0020729317 -0.0028362365 0.0076545076
0001f0 19 40 fc 3d 8f df 17 3b 8b ce 74 3a b4 b7 19 bb
       0.12316913 0.0023174023 0.00093386386 -0.0023455443
000200 d7 5b 64 3c 8c 87 ac bb 1a 9a 14 3b 75 fc e7 3a
       0.013937912 -0.005265182 0.002267486 0.001769914
000210 7d 19 9a bc be 1f 11 be 61 c4 b9 3d 3c 8f d4 3d
       -0.018810982 -0.14172265 0.090706594 0.10378882
000220 d6 8b 55 39 15 aa 2a bb d6 bf 92 ba 5c fa 73 3a
       0.00020365356 -0.0026041318 -0.0011196088 0.0009307021
000230 02 43 8a bb d3 a3 a8 ba 5a 3e 6d 3b c1 2a 79 3a
       -0.0042194137 -0.0012866206 0.0036200495 0.0009504967
000240 3e 63 a8 3a 81 53 74 bb e2 fa 88 ba dc fd 12 3d
       0.0012846959 -0.0037281218 -0.0010450745 0.03588663
000250 1a 84 83 bb 26 3a cd 3b 2f d9 92 bb e6 db 34 bb
       -0.0040135505 0.0062630353 -0.0044814567 -0.002759689
000260 e2 65 74 be 87 11 2d bc 54 0c 70 ba 9a c8 de 3b
       -0.2386699 -0.010563261 -0.00091571105 0.006798816
000270 c2 41 e0 3a dd 94 20 3b f6 6b a4 3b 6c 57 72 bb
       0.0017109441 0.0024502792 0.0050177528 -0.0036978377
000280 42 66 72 3a 51 64 b4 3a 6d 37 7d bb df 9e 1b 3b
       0.0009246805 0.0013762807 -0.0038637773 0.0023745818
000290 a7 ed a4 bb 60 3e 1b bc b3 7a 32 bb f3 50 8d ba
       -0.005033213 -0.009475321 -0.002723378 -0.0010781571
0002a0 44 fd 84 3c 88 62 25 ba 56 2b 35 3c c2 1e 16 bc
       0.016234048 -0.0006308933 0.011057695 -0.009162607
0002b0 83 d8 d4 bd 16 1c ce 3d dc 71 be bb e0 4b 52 b9
       -0.10392859 0.10063951 -0.005811913 -0.00020055426
0002c0 d4 fe 27 3a de c8 cb ba e5 5b 77 ba 9a 4f 5d bb
       0.0006408517 -0.0015547534 -0.00094359956 -0.003376937
0002d0 ec 27 6c 3b c1 9a 73 bb f3 d2 06 3b 5a 04 36 b8
       0.0036034537 -0.0037171098 0.0020572513 -4.3396234e-05
0002e0 79 f5 23 3f 2c 12 3b bb 8f 53 77 bd 96 ed 16 bb
       0.64046437 -0.0028544767 -0.060382422 -0.0023029796
0002f0 4a a5 42 3a 5f 0c 03 3b 26 d5 4c 3a 38 25 a5 ba
       0.00074251427 0.0019996387 0.0007813744 -0.0012599593
000300 6d 50 70 3a e6 4d 7d bb 19 d9 07 bb 37 63 03 bb
       0.0009167258 -0.0038651167 -0.0020728766 -0.002004815
000310 e3 1e a7 bb 6c 58 4c bb d1 a7 9e bb 95 b7 3b be
       -0.0051001175 -0.0031180633 -0.0048417826 -0.1833175
000320 cf ae 44 bb ca e0 37 3b 16 79 02 3c 03 7d 88 bc
       -0.003001142 0.0028057569 0.007963439 -0.016661173
000330 59 9a 9d bb 9d 60 49 bb 29 ac 2b 3b 0d 9c 14 be
       -0.0048096594 -0.0030727752 0.0026195145 -0.14512654
000340 d4 21 35 ba 4d cc b6 ba 66 7b 33 bb c4 96 d6 bb
       -0.0006909643 -0.0013946384 -0.0027386784 -0.0065487344
000350 ee bf c7 39 02 48 1d 3c 9e 21 39 bb 0e ad c6 bd
       0.00038099237 0.0095996875 -0.0028248797 -0.09700976
000360 95 42 56 3e bf d4 10 ba 46 82 36 3b 9d d1 85 3d
       0.20923837 -0.00055248657 0.0027848645 0.06534121
000370 ce d2 48 bb 03 0e 42 3b 10 6a 8c bb c0 65 92 ba
       -0.0030643228 0.0029610402 -0.0042851046 -0.001116924
000380 43 ca ef 3b 2f b0 c1 bb d2 14 10 bc a5 a1 b9 3b
       0.0073178126 -0.0059108953 -0.008794026 0.0056650215
000390 af 84 94 bb b0 c0 bf bb 7f a8 47 bb 67 22 79 3c
       -0.0045324187 -0.0058518276 -0.0030465422 0.015205956
0003a0 fd 66 cf bb d7 70 48 39 e1 cb 27 bb 3d 00 ad b9
       -0.006329416 0.00019115522 -0.00256037 -0.0003299731
0003b0 d0 9c 4a 3a 6e 4e 0a bb 9f bd 30 bb 50 ad fa 39
       0.00077290554 -0.0021103877 -0.0026968492 0.00047812844
0003c0 00 46 e5 bd 06 a2 12 3b 90 ff ea 3a d4 97 c9 bb
       -0.11194992 0.0022374406 0.0017928947 -0.0061521325
0003d0 41 1b c4 ba e7 e7 8f 3a 96 ef 96 ba 26 f0 81 3a
       -0.0014961736 0.0010979146 -0.0011515494 0.0009913489
0003e0 f2 05 fa bc 0a 4b 93 bb fe dc 18 bb 61 0d 63 3b
       -0.030520413 -0.0044950293 -0.002332508 0.0034645426
0003f0 a9 3d a1 3b 21 cf 4b ba ff a3 01 bb 93 2f a7 39
       0.0049206805 -0.00077747 -0.0019781587 0.00031888168
