data/saved_models/discriminator_epoch_7000.pth (torch, 758522 bytes, 14 tensors)

fc1.bias f4 [512]
00000000: 049b 2cbf ca03 d1be b243 debf e93b 15bf
00000010: 74d4 c3bf 4552 aebe 4104 e0be ca37 17bf
00000020: 8a75 35bf d3e2 4bc0 12ab 60bf 6783 e4be
00000030: e7a8 5dbf 34b4 8bbf f9d6 30bf c88d f1be
00000040: 6f43 87bf bb6a 7dbe ff39 3bbf 0630 04bf
00000050: b4e7 03bf 11cf 96be 0a1e c3bf 1dac 41bf
00000060: 9f68 31bd 558e 4bbf f0d4 43bf ee9b 8abf
00000070: bae2 30bf caa0 96be 8abb 15be 205a 36c0
00000080: 2376 03bf 2cf6 42bf 99ad 57bf f46d 34c0
00000090: e1e4 4cbf 886a a6bf b520 5cbf 7781 f9be
000000a0: 385b 01bf 6753 dbbe 1da6 f6be 14c1 c9be
000000b0: 5a09 51bf 1a77 6bbe 0a82 7dbf 6017 61bf
000000c0: 0c25 2bc0 52d9 b8be 42b2 61bf 224d 21bf
000000d0: ae70 cfbf be45 30bf 188b 4bbf 729c 6fbf
000000e0: a4c0 8fbf 5424 f0bf 7496 52bf 6c15 87be
000000f0: ca96 10bf 4386 12bf 692d bfbe 0fa3 11bf
00000100: fc03 a6be 3912 ccbe 8deb 99be 6c58 f8bf
00000110: 0fd4 49bf 417a 07c0 bff5 50bf aa1d dbbe
00000120: cf22 f3be cde0 1ebf 5542 45bf ff45 91be
00000130: ea19 b0bf dee0 d7bf f9a2 08c0 4350 e6be
00000140: 2014 f7be 8900 0abf da4e b2be edd2 5fbf
00000150: 66b4 45bf c925 15bf 9eb8 a1be b72a 77bf
00000160: 1877 febf cb38 50bf 162a 4dbe dc88 debe
00000170: 4b1b 93bf 4a0c 87bf 4804 94be 96ea f0be
00000180: 51a6 97be 5898 43bf cf32 12bf a7c1 b3be
00000190: 7870 82bf d157 d1be e8b7 cdbe b6e4 2bc0
000001a0: 0b57 80bf a7ec 22c0 c5ab 25bf 43c5 1fbf
000001b0: 6617 4cbf dbd2 61bf 6bf5 b9be 2ea4 b6be
000001c0: 76f4 1bbf 61e4 6bbf 8d60 a1bf 2bc8 83bf
000001d0: 4aaf 5bbf c70a c7be ab99 1dbf d227 1dbf
000001e0: 0b62 51c0 0f42 acbe 754f 67be d04b 2ebf
000001f0: 584c 63bf 2d01 92bf 9426 86be 0df5 2cbf
00000200: 6ffb 7fbe d3d5 0abf c3d9 d6be eaa5 dabe
00000210: dc1c 19bf 8a01 1bbf 1474 65bf df38 90bf
00000220: fea5 10bf bd41 35c0 14df d4be e253 2ac0
00000230: b144 bbbe 9a87 11c0 d7be 9ebe d157 77bf
00000240: d5ef 44be 3857 a8bf dab7 1fbf 0398 cfbd
00000250: 9f3e a1bf 5cf1 85be 85ed 13bf d22d 09bf
00000260: 00a6 d7be c06e 5dbe 0681 7cbe 3e58 00bf
00000270: 5263 b9bf f841 47bf 712e 94bf 7dd8 24bf
00000280: ad78 53bf 1c47 7fbf 8898 6bbf 8773 1fbf
00000290: f4fc aabe bff8 05bf ab6e 21c0 5de8 22bf
000002a0: 4ead 75bf 2b01 aabf 212c f2be 352e 3bbd
000002b0: 9bef 63bf fd87 0bbf cf2b d2be bbd6 bcbf
000002c0: 6538 10bf e323 3dc0 e369 c4be 1155 51bf
000002d0: 821f 34c0 d064 21bf 3578 b0be 047f 39bf
000002e0: cb75 32c0 52b3 87bf e5eb 40c0 9fe5 bdbe
000002f0: 4653 5dbe 82a7 13bf 88d5 25c0 b9c5 10bf
00000300: 7a6e a5bf 3c50 8dbe dd72 6abf c404 8abe
00000310: bddc 46bf 2239 2cbf e756 b6bf 7565 1cbf
00000320: 6b55 96be 6a80 32bf d41c 49bf 3396 29bf
00000330: f9d0 30bf a230 41bf 3ca9 29c0 cbfc eebe
00000340: dc71 36bf cb80 18bf 1cdc 4ac0 229d a6bf
00000350: 2871 debf cb22 37bf 7b56 1cbf 136c 8dbe
00000360: 4d85 95be 7459 3ebf 10d5 33c0 7036 f7bd
00000370: 819a 59bf 3aed 16bf 49c2 b4be 04bf 18bf
00000380: d1f7 2fc0 74db 5cbf 1eff bcbd cfd6 89bd
00000390: e3fe 03c0 078b c2be 2ee7 4ebe 6325 f3bf
000003a0: cb6e 35c0 a721 4cbf 3184 0dbf 6323 93be
000003b0: 338a c9be e902 37bf ecf2 7dbf 980f 1dbf
000003c0: 4d38 13bf 0e8c a0bf e55f b7bf bd31 94bf
000003d0: 6135 41be 9856 c8bf a81f 96bf ae21 28bf
000003e0: afe5 1bbf ca27 1ebf 654d 61bf 0bbd 1cbf
000003f0: 4e3b 4ebf d310 7fbf 6715 c3bf 27ba 75bf
-0.67424035 -0.40823203 -1.7364409 -0.5829454 -1.529921 -0.34047142 -0.43753245 -0.590695
-0.70882475 -3.1857193 -0.8776103 -0.44631502 -0.8658585 -1.0914369 -0.6907802 -0.47178483
-1.0567454 -0.24747746 -0.7313537 -0.5163578 -0.51525426 -0.29454854 -1.5243542 -0.7565325
-0.043312665 -0.79514056 -0.7649679 -1.0828836 -0.6909596 -0.29419547 -0.14622322 -2.8492508
-0.5135214 -0.7615688 -0.84249264 -2.819211 -0.8003674 -1.3001261 -0.85987407 -0.48731586
-0.50529814 -0.42837068 -0.4817361 -0.3940512 -0.81654894 -0.22994652 -0.9902655 -0.8792629
-2.6741362 -0.36103302 -0.88162625 -0.6300832 -1.6206262 -0.6885642 -0.79509115 -0.9359809
-1.1230664 -1.8761086 -0.82260823 -0.2638353 -0.56480086 -0.5723612 -0.37339333 -0.5688943
-0.32424915 -0.39857653 -0.30062523 -1.9401984 -0.788392 -2.1168368 -0.8162498 -0.4279607
-0.47487494 -0.6206177 -0.7705434 -0.28373715 -1.3757908 -1.6865499 -2.134947 -0.4498311
-0.48257542 -0.53907067 -0.34825784 -0.8743122 -0.7722839 -0.5826078 -0.31586164 -0.9654955
-1.9880095 -0.8133666 -0.20035586 -0.4346379 -1.1492704 -1.0550625 -0.28909516 -0.47053975
-0.29619077 -0.76404333 -0.5710878 -0.35108683 -1.0190573 -0.4088731 -0.40179372 -2.6858344
-1.0026563 -2.545694 -0.64715225 -0.6241037 -0.79723203 -0.88212365 -0.36320052 -0.35672134
-0.6091989 -0.92145354 -1.260759 -1.0295461 -0.85814345 -0.3887541 -0.61562604 -0.61388886
-3.271609 -0.3364415 -0.22588904 -0.6808443 -0.88788366 -1.1406609 -0.26201308 -0.6756142
-0.24998258 -0.5423252 -0.41963014 -0.42704707 -0.5980966 -0.60549223 -0.89630246 -1.1267356
-0.56503284 -2.8321373 -0.41576445 -2.6613698 -0.36575845 -2.2739015 -0.31004974 -0.9661837
-0.19232114 -1.3151617 -0.6238991 -0.10136416 -1.2597235 -0.26160705 -0.577843 -0.5358554
-0.42118835 -0.21624279 -0.24658594 -0.50134647 -1.4483435 -0.77835035 -1.1576673 -0.64392835
-0.8260601 -0.9971788 -0.9202962 -0.62285656 -0.33396113 -0.5233268 -2.5223796 -0.6363581
-0.95967567 -1.3281606 -0.47299293 -0.045698363 -0.89037484 -0.54504377 -0.41049048 -1.475303
-0.5633605 -2.9553154 -0.38362035 -0.81770426 -2.814423 -0.6304445 -0.3446671 -0.72459435
-2.7884395 -1.0601599 -3.0143979 -0.3708925 -0.21613798 -0.5767747 -2.591158 -0.565517
-1.292434 -0.27600276 -0.9158152 -0.2695676 -0.7768057 -0.6727468 -1.424527 -0.6109231
-0.29362044 -0.69727194 -0.78559613 -0.6624481 -0.69068867 -0.7546483 -2.6509542 -0.4667724
-0.71267486 -0.5957152 -3.1696844 -1.3016703 -1.7378283 -0.71537465 -0.6106946 -0.27621517
-0.29203263 -0.74355245 -2.8098793 -0.1207093 -0.8500138 -0.5895573 -0.35304478 -0.59666467
-2.7495005 -0.8627236 -0.09228347 -0.067304246 -2.062432 -0.37996694 -0.20205376 -1.8995785
-2.8348873 -0.7973885 -0.55279833 -0.28737935 -0.3936325 -0.71488816 -0.99198794 -0.6135192
-0.57507783 -1.2542741 -1.432614 -1.1577679 -0.18868019 -1.5651426 -1.1728411 -0.6567639
-0.60897344 -0.61779463 -0.8800872 -0.61225957 -0.8055924 -0.99635047 -1.5240906 -0.9598717

fc1.weight_orig f4 [512, 42]
00000000: a155 38b9 d397 c83b 0b86 e7ba 5ce0 79ba
00000010: f77d af3b 69da 67ba 047f 003a 3108 093b
00000020: 5b73 3b3c a864 45bc f8dd 9a3b e71a 70bc
00000030: b970 32bc 2b0c 19bb 1d64 213c 692c 483c
00000040: 3fd8 49bc 9159 7d3a 45b0 84bc 1d05 33bc
00000050: 069f 9fbc f29e 7bbc 6b14 26ba c35f 48bb
00000060: 9104 5e3a 1f1b 1dbc a7f4 86bb 269b 853b
00000070: 87cf 9a3b 778b 963c 3394 06bc 74c3 d2bb
00000080: 7e5b b7bb 1d68 833a c3c8 ddbb 7738 613a
00000090: 5c1e 16ba 9cf6 63bc ea0b 863c 4cb4 f63b
000000a0: d9e6 f3bb 2bc4 fdbb 3e9f 3b3c 7e87 8d3a
000000b0: 105e 883c e988 78bb 5329 97bb f1c4 293c
000000c0: 6f15 d039 d943 d23c fb67 32bc eac9 88bb
000000d0: 8673 7c3c 4a5e b3bc 9ce9 fbbb 8948 ee3b
000000e0: 18b0 183c 8f3a 74bb bbe0 0c3c 7165 923b
000000f0: ad3d f939 ee6a 1a3c fb17 03bc 4b97 723c
00000100: 3cf2 34bc 9109 49bc 1e28 e63c 50e5 923c
00000110: ee65 e93b 662b 17bc 51a1 b43c 3333 4abc
00000120: c041 6c3b 917f 9bbb 7445 7cbc 47e6 1f3c
00000130: 93df 113c c77a 8bbb 6fdc 083c f5a1 783c
00000140: 2ca6 e4bb 32a2 313b 0bd7 5c3b 16cf ac3b
00000150: ea3b 39bc 2fbb 0a3c 1cb5 4ebc a1ca 3cbc
00000160: 9acb 4abc 5d6d 5a3c 086d e338 aca3 0fbc
00000170: 09f2 c0ba 81c1 513c adbf 87ba 82ee 78b9
00000180: 12d8 623c 1a04 d8bb 1f91 cdba ab43 49bc
00000190: 809f 5cbc 1404 88bc d1fc 83bc 127b c73c
000001a0: 3a64 8fbc feee 86bc 4836 12bb 9a5d 0a3b
000001b0: 3214 aabc 2aff 59bc 551f 61bc fbc3 1e3c
000001c0: 09ad e73a 8b93 6eb8 f780 9dbc 6cc2 a2bb
000001d0: 45bf 193c 465a acbc b62a fabb 714b ca3b
000001e0: 93b6 38bc b598 f239 ee77 2f3c c951 e5bb
000001f0: 196d 353c ec83 2c3b c68d 3c3c 0b1f e6bb
00000200: aaca 31bc a8e1 cc3b 709e a43b 532d 22b9
00000210: fc7a 1ebc 43e2 f53b 93fc c93b ddfa 9fb9
00000220: 6b7f 8d3b 7a8e d6bb ba83 71bc 0dd3 4c3b
00000230: d8ac ebbc feb2 163c ca00 b9bb 5f73 c93c
00000240: 3987 483b 2973 04bd 3c38 55bc 6a34 d7bc
00000250: e109 453c 8a0a 583a b2f3 b5bc 9b07 93bc
00000260: e297 48bc f81a 863a f19e 8e3b 9136 393b
00000270: 8727 eabb c6ec 463c e38c f73a 2cb4 5ebb
00000280: f3c2 59bc 4320 e7ba 2bcf 153c cb00 893c
00000290: d39a 673b ee56 a1bc ec8b 6f3c c088 f6bb
000002a0: 67b3 343c 7717 7f3b 5ba8 f73b da9d 013c
000002b0: 5407 243c 5d58 923a 136f 4dbb 6176 853b
000002c0: f892 06ba c9b1 263c 862b 423b 4084 47bc
000002d0: d1f9 853b c1d6 843b 3523 7a3b 6a70 0d3a
000002e0: e489 a33b 294e 433c 75e4 6dbb 853b 04bc
000002f0: d481 673c 12bc d53b 85b4 bbbc 5ad1 0ebc
00000300: 4562 533c f79e 0c3c bcba 8c3b 06c6 80bb
00000310: a67b 8f3b fe48 91bb 2676 9bbb 5db0 8ebc
00000320: e30f c13b a131 b5bb 2819 bb3c fc35 dabc
00000330: f72f dcbc 3628 47bc 18c3 eebb e50a 313c
00000340: b6dd bebb 0f9c a8bb 9315 9ebb 90df 5fbb
00000350: a083 f63b adf6 2e3c a90a 1ebc 3c98 42bb
00000360: d30d 0e3a 5dff 653b f31b a9bb 7083 ebbb
00000370: 1857 dfba cd6b 3a3c 3c72 72ba bb43 a639
00000380: cd00 fa3b b84d 85bc 1eff 11bb b2d1 b2bb
00000390: 3883 bc39 7ae1 a7bc 8a8c 79bb 6cb5 e2bb
000003a0: 58c4 3abc 375f 74bb c5a0 253b 74ff e6bb
000003b0: 8cb3 15bc 7628 8c3b 8b23 8d3b 0508 23bc
000003c0: 1369 213c ef11 5fbb 55f3 d73c 0865 883c
000003d0: fc88 c4ba e243 1fbc 8679 f0bc 5a5d 3c3c
000003e0: 6f1e a73c 6c39 12bb 7fab 61bb 2f91 8f3b
000003f0: a46a a23b 49b8 fc3b 5a70 74ba cd99 ab3b
-0.00017579507 0.0061216145 -0.0017663849 -0.00095320283 0.0053555924 -0.00088444963 0.00049017393 0.0020909423
0.011441077 -0.012047924 0.004726168 -0.0146548515 -0.010891133 -0.00233532 0.009850529 0.012217619
-0.0123196235 0.00096645305 -0.016197333 -0.010926512 -0.019485008 -0.01535772 -0.000633544 -0.0030574657
0.00084693084 -0.009588986 -0.0041185203 0.004077333 0.004724446 0.018377049 -0.008214044 -0.0064319912
-0.0055956235 0.0010025535 -0.0067683174 0.0008591483 -0.000572657 -0.013913777 0.016363103 0.0075288173
-0.0074432907 -0.0077443323 0.0114515405 0.0010797826 0.016646415 -0.0037923402 -0.0046130805 0.010361896
0.0003968882 0.025667118 -0.010889049 -0.0041744607 0.015408402 -0.021895546 -0.0076877605 0.0072718305
0.009319328 -0.003726635 0.008598502 0.004467659 0.00047538933 0.009424908 -0.008001323 0.014806579
-0.011044081 -0.012270347 0.028095301 0.01793161 0.0071227467 -0.009226656 0.022049578 -0.012341308
0.0036049932 -0.0047454317 -0.015397418 0.009759492 0.008903402 -0.0042565796 0.008353337 0.015175332
-0.006977817 0.0027104733 0.0033697512 0.00527371 -0.0113057885 0.00846748 -0.012616422 -0.01152292
-0.012377644 0.013331738 0.00010844512 -0.00876705 -0.001472057 0.012802483 -0.0010356806 -0.00023739974
0.0138454605 -0.006592286 -0.0015683508 -0.0122842 -0.013465762 -0.016603507 -0.016111763 0.024350677
-0.017503846 -0.016471382 -0.0022310186 0.002111292 -0.020761583 -0.013305465 -0.01374038 0.00969028
0.001767547 -5.6881032e-05 -0.019226534 -0.0049670245 0.009383981 -0.02103914 -0.007634486 0.006173544
-0.011273998 0.00046271613 0.010709746 -0.006998275 0.011073374 0.0026323749 0.011508411 -0.0070227436
-0.0108515415 0.0062524863 0.00502377 -0.00015466409 -0.009672876 0.007503779 0.0061641424 -0.0003051375
0.004318168 -0.0065477462 -0.014740879 0.0031253726 -0.028768942 0.0091979485 -0.005645846 0.024591146
0.0030598177 -0.032336388 -0.013013896 -0.02627011 0.012026281 0.00082413165 -0.02221093 -0.017947963
-0.012243243 0.0010231426 0.0043524434 0.0028261284 -0.0071458253 0.012141412 0.0018886592 -0.0033981903
-0.013291108 -0.0017633516 0.009143631 0.01672401 0.0035340085 -0.019694772 0.014620762 -0.007523626
0.011029101 0.0038923898 0.0075579113 0.00791117 0.010011513 0.001116525 -0.0031346723 0.0040729498
-0.00051335944 0.010174223 0.0029627993 -0.012177527 0.0040886183 0.004053921 0.0038167958 0.0005395474
0.004990803 0.01192049 -0.00362995 -0.008070831 0.0141300745 0.006522664 -0.022913227 -0.0087169055
0.012901847 0.008582822 0.0042947214 -0.0039298562 0.0043787537 -0.00443375 -0.004744309 -0.017418081
0.0058917864 -0.005529598 0.022839144 -0.02663707 -0.02687834 -0.012155583 -0.0072864406 0.01080582
-0.00582477 -0.0051455568 -0.004824349 -0.0034160353 0.007523015 0.010678929 -0.009646096 -0.002969279
0.000541893 0.0035094835 -0.0051608025 -0.0071872994 -0.0017039506 0.011378241 -0.00092485896 0.0003171245
0.00762949 -0.01627241 -0.0022277306 -0.0054571265 0.0003595592 -0.020493258 -0.0038078153 -0.0069186
-0.011399351 -0.0037288198 0.0025272828 -0.0070494954 -0.009137046 0.0042772843 0.0043072156 -0.0099506425
0.009851712 -0.003403779 0.026361147 0.016649738 -0.0014994438 -0.009720774 -0.029354822 0.011496866
0.020400254 -0.0022312058 -0.0034434495 0.004381321 0.00495656 0.007712398 -0.0009324603 0.0052368403

fc1.weight_u f4 [512]
00000000: 9ea2 baba ed8e eeba a8a3 9839 69bf 9b3b
00000010: 26ac 2b3b 9ff2 6739 3ede e7ba fcbc 9fbb
00000020: 96b5 b839 456b c63b a8aa 93ba 97da 0c3b
00000030: 5494 5dbb 1553 baba d2a8 e6b9 a42c 833b
00000040: 3ef4 833b b66b d7bb 77e9 b43b 4e5d d93a
00000050: 849f afba 60b7 1939 85cc 0fb9 fdba 1ebd
00000060: a686 3bbc 5c06 693b ce0a a738 c424 8f3b
00000070: 6115 8dba 85ec 6f3a a46c 4fbb 8f0a 493b
00000080: 1a1b 643b f7cd 0b3c b539 e5ba 4fa1 b03b
00000090: 8724 27ba c732 0fbc 9240 a8bb 5f7f 5f3b
000000a0: ab80 0e3b bbcb 6b3b c938 753a 622a 6a3b
000000b0: 32f6 983b 1d58 643b ca10 753b 60ea df3a
000000c0: 1a0c 173b c717 2f3d bb62 473b fc95 693b
000000d0: 8380 2a3b 5175 f63a 051a cf3a c403 2a3b
000000e0: 8b17 663a ebff c23a 2f8f 083b 6df3 7cbc
000000f0: 4307 91ba dcf0 6a3a d30c 6d3a 5027 b23a
00000100: b2e7 a53d 251a 97ba aa2f cdba 2a45 48ba
00000110: ae48 d4ba 186f a53b 3d02 3839 b8e2 6b3b
00000120: 8598 aebb b176 b93b fce4 e23a aa48 7dbb
00000130: 4470 5f3b 4df7 833a d0ac f1b9 f39d 79bc
00000140: 3e81 e03a 20e1 4abb cb2e 203b d9e1 60ba
00000150: 0ae5 09bb 46ef b93b 17fc 25bd 84e2 aa3a
00000160: 972a 5ab8 ac6f 97ba 5b5b b93b a6fc 2abb
00000170: f517 863b b985 4c3b 0d9e 563b c8bd e3ba
00000180: 0fd0 053a a8f1 af3a c644 803b dbf9 59bb
00000190: b8e6 043b dff5 e13b c643 a43b 7ed1 0e3c
000001a0: de57 b2ba 5153 9f3b 7db2 fc3a 0b8d 04bb
000001b0: 73d8 c13b b395 583a 9952 09bd 7ab5 c73c
000001c0: 367f f23a 63f1 893a 96b9 183b 715c 7b3a
000001d0: ae7f 93ba fe4f deba 26ad 4ebd a168 2abc
000001e0: 248a 9e3b f954 b539 4768 e8ba 9f3f 853a
000001f0: 1108 743a ce27 3c3f 4920 c63b e3a2 7c3b
00000200: 50ae 7c3b 129f 47ba cef5 ae3a 7194 2ebb
00000210: 3244 5f3a 1cfe f6bc 4152 153b 3ddf 533a
00000220: d7c6 3e3b 1c90 d73a 3ac5 96bb 175e ef3a
00000230: 62ce c33b a9c9 753b af38 553c ed52 d1ba
00000240: ab61 f63a f66e 7b3a 24dd ad3b 00b5 d6bb
00000250: 3a0d dd3a c3fb 1c3a 6d83 513c 96b0 8139
00000260: dba6 a93d 5a10 253b 7f8c a0bb fff1 a73b
00000270: d560 c33a 92f1 383b 0df9 f1b9 a6e4 a639
00000280: d4bc d1b8 227f 8f3b d8e2 9cbe 65cc 86bb
00000290: 2e6f 8abd 5791 84ba f2bc 443b 8b56 453b
000002a0: 652f 943b e52f 083a 1479 183b 6e42 893b
000002b0: 9739 1d3b 5fbd 1e3b ae62 12b9 e641 253b
000002c0: ccdb 42bd b3c2 b93a 3dfe 073a 6cb9 553b
000002d0: e142 b03b 2ed3 ac3b 6c00 45bd af5b 3c3b
000002e0: bb16 f73a d75c af39 ac50 643b de48 44ba
000002f0: c98b 663b 2753 5d3c 1856 f23b c759 053d
00000300: 9842 443b 4ea2 92ba b2ec 253b 5ea0 00bd
00000310: 3294 a0be b30e f83b 87ac 773b b16f 4837
00000320: c2ef a2bd 9678 443b 2ea4 583b 903f 803a
00000330: e5ea 0e3b c3a7 cf3b 9e74 ae3b 2105 a23a
00000340: dfb2 91ba 6b53 b53b b46a 6f3b 7e77 7438
00000350: 4d7d a33b 624c 2d3a 9363 8d3b cf35 413d
00000360: 9e23 923b 1660 0ebb 6499 b53b f379 a3bb
00000370: 2fc5 ce3a bfd6 203b 63bb 033b ebcf 263b
00000380: 2897 c43b a495 c43a bc13 1b3d 957d 793d
00000390: 1149 543b e328 403b b37a afba 9e8f 413b
000003a0: e12e 283b 825a 933b f222 9f3a 184e d43b
000003b0: 9443 1a3b bb46 6c3a 48a7 723b 4137 ed3b
000003c0: 91ea df3a 69be 07bd 76f3 0a3b fd24 c03b
000003d0: ff81 da3d 13e5 bb3b 9bc0 9d39 6c34 5d3b
000003e0: bbc8 053c 6fe8 a03b 305a f23a b7ca 023b
000003f0: 9a69 0a39 8289 b7ba 12e9 e73b 0ea1 803b
-0.0014239138 -0.0018200554 0.00029113633 0.0047530425 0.0026195138 0.0002212026 -0.0017690135 -0.0048748236
0.00035230507 0.006055268 -0.001126607 0.0021492594 -0.0033810334 -0.0014215434 -0.000439948 0.0040031243
0.0040269187 -0.0065741194 0.0055209952 0.0016583593 -0.001339898 0.0001465953 -0.00013713732 -0.038752545
-0.011445677 0.003555677 7.965193e-05 0.0043683965 -0.0010763818 0.00091523706 -0.0031650448 0.003067646
0.0034806193 0.008532993 -0.0017488512 0.0053903232 -0.00063759874 -0.008740134 -0.0051346505 0.0034103019
0.0021744173 0.0035979587 0.000935447 0.0035730829 0.0046680206 0.0034842559 0.003739404 0.0017083399
0.0023047985 0.042747285 0.0030423838 0.0035642376 0.002601654 0.0018803274 0.0015800601 0.0025942186
0.0008777312 0.0014877295 0.0020837297 -0.015438897 -0.0011064786 0.00089622824 0.00090427435 0.0013592038
0.08100833 -0.0011528177 -0.0015654464 -0.0007639701 -0.0016195977 0.005048644 0.00017548441 0.003599329
-0.0053282403 0.005659901 0.0017310674 -0.0038648047 0.0034094015 0.0010068208 -0.00046095857 -0.015235412
0.0017128361 -0.003095694 0.0024441953 -0.0008578576 -0.002104106 0.0056742756 -0.040523615 0.0013037478
-5.2014915e-05 -0.0011553667 0.0056566424 -0.0026090532 0.0040922114 0.0031207635 0.0032748014 -0.0017375285
0.00051045505 0.001342346 0.0039144484 -0.0033260498 0.002027912 0.006895765 0.005012962 0.008716939
-0.0013606509 0.004862227 0.0019279268 -0.002022567 0.0059156953 0.0008262053 -0.033526037 0.024378527
0.0018501047 0.0010524209 0.0023303977 0.0009588665 -0.0011253261 -0.0016961095 -0.050458096 -0.010400922
0.004838245 0.0003458632 -0.0017731272 0.0010166055 0.00093090633 0.7349824 0.006046329 0.0038549236
0.0038556047 -0.0007614951 0.0013348402 -0.002663877 0.0008516937 -0.030150466 0.0022784623 0.00080822763
0.0029110217 0.0016446146 -0.004601148 0.0018262294 0.0059755305 0.0037504232 0.013014003 -0.0015970148
0.0018797418 0.00095914246 0.005305903 -0.0065523386 0.0016864904 0.0005988443 0.012787682 0.00024736364
0.08283778 0.0025186748 -0.004899561 0.0051252837 0.0014906178 0.002822016 -0.0004615266 0.00031832344
-0.000100010686 0.004379169 -0.30641818 -0.004113721 -0.06759487 -0.0010114115 0.0030019847 0.0030111398
0.0045222514 0.0005195125 0.0023265528 0.0041888272 0.0023990625 0.002422176 -0.00013960406 0.002521628
-0.047572896 0.0014172405 0.0005187726 0.003261174 0.0053790663 0.005274198 -0.048096105 0.002874117
0.0018851379 0.00033447772 0.0034838123 -0.00074876647 0.0035178533 0.013508595 0.007395517 0.03255632
0.002994692 -0.0011187287 0.0025318083 -0.031402938 -0.31363064 0.0075701117 0.0037792043 1.1946934e-05
-0.079558864 0.0029979101 0.0033056843 0.0009784568 0.0021807489 0.0063371374 0.0053239604 0.0012361148
-0.001111593 0.005533626 0.0036532106 5.828542e-05 0.0049893023 0.0006610808 0.0043148487 0.047170456
0.0044598123 -0.0021724752 0.005541967 -0.0049889027 0.0015775318 0.002454206 0.0020100705 0.0025453519
0.0059994645 0.001499821 0.037860617 0.06091078 0.0032392184 0.0029321245 -0.0013388008 0.0029535065
0.0025662708 0.0044968734 0.0012141152 0.006479036 0.0023538815 0.0009013225 0.0037025977 0.007239253
0.0017083456 -0.033140574 0.0021202243 0.0058637843 0.10669326 0.005734095 0.00030088876 0.003375317
0.008165534 0.0049105207 0.0018490013 0.0019957253 0.00013200045 -0.0014002773 0.0070773447 0.003925449

fc1.weight_v f4 [42]
00000000: cc05 c73d 8ae6 94be 6486 f9be 75f0 51bd
00000010: 4244 65bd 1c14 1fbe 7196 2bbf 8bb3 9a3c
00000020: 28d5 0fbe eaf0 ab3c 21b3 b33d efcb 3ebc
00000030: 7b3b 6f3d 71aa 86bd 00eb 6bbd ecdb db3d
00000040: f578 b33c 3b37 c93d 5245 85bc 491e 61bc
00000050: 09bc 3a3d 43dc 3c3c f530 34bd 4184 bfbd
00000060: 0a94 e0bd 5eb0 41bd 8de6 aebc 2f99 dfbc
00000070: c69e 3c3d b34a 95bd d585 213e ea17 18be
00000080: f170 9fbc ecfd 88bd 44ee 573d 0060 e9bc
00000090: 6d3d 1fbe d000 3b3d 1193 56bd 6ff3 91bb
000000a0: 12a7 c1bc 1eb6 abbd
0.097179025 -0.29082137 -0.48735344 -0.05125471 -0.0559733 -0.15535015 -0.6702643 0.01888444
-0.14046156 0.0209889 0.087744005 -0.011645301 0.058406334 -0.06575478 -0.05759716 0.10735306
0.021908263 0.098249875 -0.016268406 -0.013740131 0.04558948 0.011527124 -0.043992 -0.09351397
-0.10965736 -0.047287337 -0.02135017 -0.027294723 0.046049856 -0.07289638 0.15773709 -0.14852872
-0.019463034 -0.06689057 0.052717462 -0.02848816 -0.15550776 0.04565507 -0.052386347 -0.0044540684
-0.023639236 -0.083843455

fc2.bias f4 [256]
00000000: 42af 50be fef6 0abf a3d1 84be dd14 77be
00000010: 8c3d 89be 7fbe 85be df53 dfbe 072a 2dbf
00000020: 4d8d 08bf 270d b0be f6ec 02bf 0249 87be
00000030: 10ed 4fbe 4a2f 63be a771 b0be b40c fdbe
00000040: d237 90be e495 d2be 05c1 5cbe 91f0 b7be
00000050: 7e14 5fbe 8c69 c1be 86e3 35be fbad 1fbe
00000060: 7fb8 a5be 61bb 1dbf cbf2 2ebe 5b03 91be
00000070: afe1 8bbe 5e14 27be 22f6 a7be 67a3 87be
00000080: 5ddd 57bd cc48 a8be 203c b5be 0d3e 1dbe
00000090: 8f44 19be 463c 67bf dbb0 a3be ecb0 92be
000000a0: d7eb 39be de50 65bf 0da5 71be 8449 ffbe
000000b0: 5677 59be 9ab7 aabe d75d bbbd 621c a4bd
000000c0: 7a27 66be 15a6 a3be 974c 23bf bc2c d1be
000000d0: 6f0a 51be 0f2e 2bbe ca4d 7ebe 7f5c 58be
000000e0: 74b7 1dbf 1f46 b1be 4441 ccbe 6f9d a3be
000000f0: 141d 81be 9e63 b6be 379d 46be 227c a9be
00000100: bb5b a1be 6055 05bf da73 0abe 5cec 85be
00000110: 5dd0 00bf aee7 11bf 5280 45be f5af 96be
00000120: 0b9f 47be eb07 cdbe 52f1 83be 7b0b ebbe
00000130: 6b3a a2be d11a 62be 6a1f 52be 149c b2be
00000140: 1a5d 21bf 45a2 73be 7054 20be babc bebe
00000150: 01a8 e1bd 239e f1be 1246 8bbe ebce 0cbe
00000160: 7cee 47be 4429 2fbe c354 41be 06ba 4cbf
00000170: 1edf 68be a992 53be d105 b6bd 5010 82be
00000180: c08a 47be c544 91be 442d c3be d4e5 efbd
00000190: a31d ebbd 8bc4 06be 2df6 35be 4bea 4bbe
000001a0: 3780 93be f3cc b9be 8120 31be a3ac babe
000001b0: 2813 81be 1769 50bf 6838 ffbd 2177 4abe
000001c0: 8da5 86be 0b99 88be 872f 2cbe 778f 90bd
000001d0: c9a9 80be 7209 3fbe c768 e7bd 2697 c8be
000001e0: f286 7ebe a844 34be 59ab 87be 603f a3be
000001f0: 8a0f cbbe 3c94 62be a1b6 d3be 3538 0dbe
00000200: 8e98 a2be bfa4 44be 0650 bbbe cf49 a0be
00000210: a69a 22bf 33df 2ebf 8bf3 eebe 1d60 87be
00000220: 9258 b0be 9915 36be 29c1 91be c25c 30be
00000230: 1d0e 43be fa3c 0abe 5c8f 84be 506f 79be
00000240: be39 02be b62a a7be 3964 83be 773f 87be
00000250: b59b 3cbe f203 e1bd 0f35 09be 8f06 37be
00000260: b859 a4be 7f07 87be f2a7 64be b628 83be
00000270: efa3 4dbe c16d 85be 2935 9dbe ea92 e1be
00000280: 9380 5abe 8223 27be 2b7e 31be ce3c 33bf
00000290: 49a0 97be 63da 1dbe 31e5 2fbe aeaf b8bd
000002a0: f85d 48be 05d1 49be 8539 b4be 4f8f 66be
000002b0: 2ced 86bf 9750 01bf 1dab a0be 9675 61be
000002c0: ffd9 2bbe 0494 8abe db41 94be ffbb 91be
000002d0: 901b 84be e4c8 9cbe ed9a c3be 797f c9be
000002e0: 9c84 0bbf 1db6 aebe d899 37be d6cc 15be
000002f0: 88a5 3dbe abc9 12be 3b66 afbd 943b 7cbd
00000300: fc93 19be 4959 81be 3a1a 86be 6411 b4be
00000310: dd75 53be 5b1c d7be 5494 28be 5058 00bf
00000320: 9e41 83be 76c8 9dbe 3f09 65be dbc7 06be
00000330: ee8b 78be 47fb 3fbe 91ee 87be 4d09 fabd
00000340: f3a1 85be 7326 67be 0b58 f2be 1b57 03be
00000350: ed72 d2be 4829 56be af94 25be 8c33 8bbe
00000360: 25fd 87be 55b0 7dbe 37a0 72be fdb1 26bf
00000370: 5726 46be 02e0 95be 1ba2 bbbe cd23 27be
00000380: 99ec cbbe 4e65 96be 181c 3bbd 7fde aabe
00000390: 841f 9dbe 25c7 ecbe aaee 8fbe d637 92be
000003a0: c2a6 3dbe fb1a 9bbe 7d49 b8be c47a bfbe
000003b0: 1737 71be ddc9 b9bd 3010 d6be ae51 3bbe
000003c0: d720 3fbe 9d41 95be c03a 56be fe85 40be
000003d0: 0cd8 9cbe 232b 3fbe 318e 97be e1f8 12be
000003e0: 9cf5 efbe 8f8c 48be b869 a6be 57f7 a7be
000003f0: 706e 79be 25d6 84be d9fe e4be 79e3 72be
-0.20379356 -0.5428313 -0.2594119 -0.24129052 -0.2680477 -0.261219 -0.43618676 -0.67642254
-0.5334061 -0.34385034 -0.51142824 -0.26422888 -0.20305276 -0.22186008 -0.3446171 -0.49423754
-0.28167588 -0.41129982 -0.21558006 -0.35925725 -0.21785161 -0.37775838 -0.17762575 -0.15593712
-0.32367322 -0.6161404 -0.17084806 -0.28322873 -0.2732062 -0.16316363 -0.32804972 -0.26491854
-0.052701343 -0.3286804 -0.35397434 -0.15355702 -0.1496756 -0.90326345 -0.31970868 -0.28650606
-0.18156372 -0.8957652 -0.23598118 -0.49860775 -0.2123693 -0.33343202 -0.09148758 -0.08013226
-0.22475997 -0.31962648 -0.6378874 -0.40854442 -0.20414136 -0.16716789 -0.24834362 -0.21129034
-0.6160805 -0.3462381 -0.39893544 -0.3195605 -0.25217497 -0.35622877 -0.1939591 -0.33102518
-0.31515297 -0.52083397 -0.13520756 -0.2615689 -0.5031794 -0.5699414 -0.19287232 -0.2943112
-0.19494264 -0.40045103 -0.2577005 -0.45907196 -0.31685194 -0.22080542 -0.20519796 -0.34884703
-0.63032687 -0.2379237 -0.1565721 -0.37253362 -0.11018372 -0.4719096 -0.27201897 -0.13750808
-0.19524568 -0.17105585 -0.1887999 -0.7997135 -0.22741362 -0.20661415 -0.08887828 -0.2540307
-0.19486523 -0.2837278 -0.38120472 -0.11713758 -0.11480262 -0.13160913 -0.1776969 -0.19913594
-0.28808758 -0.36289176 -0.17297556 -0.36459836 -0.25209928 -0.81410354 -0.124619305 -0.19772007
-0.2629818 -0.26679263 -0.16815005 -0.07058614 -0.25129536 -0.18655947 -0.112992816 -0.39177817
-0.24856165 -0.17604315 -0.26497915 -0.3188429 -0.39660293 -0.2212686 -0.41350272 -0.13790973
-0.31757015 -0.1920347 -0.3658449 -0.3130631 -0.63517225 -0.68309325 -0.46670184 -0.26440516
-0.34442574 -0.17781676 -0.28467682 -0.17222884 -0.19048353 -0.13499823 -0.25890625 -0.24358869
-0.1271734 -0.32649773 -0.256624 -0.26415607 -0.18418773 -0.10987081 -0.13399146 -0.17873596
-0.320997 -0.26372907 -0.22329691 -0.25616997 -0.20082067 -0.26060298 -0.3070462 -0.440574
-0.2133811 -0.16322139 -0.17333286 -0.70014656 -0.29614475 -0.15415339 -0.17177273 -0.09017883
-0.19567096 -0.19708641 -0.35200134 -0.22515605 -1.0541129 -0.50513595 -0.3138055 -0.22017512
-0.16782378 -0.27066052 -0.28956494 -0.28463742 -0.2580228 -0.30622017 -0.38204136 -0.39355066
-0.5449922 -0.34123316 -0.1792978 -0.1462892 -0.18520176 -0.14334743 -0.08564421 -0.061580256
-0.14997858 -0.25263432 -0.26191884 -0.35169518 -0.2065043 -0.4201382 -0.16462833 -0.50134754
-0.25636 -0.30817002 -0.22366808 -0.13162176 -0.24272129 -0.18748198 -0.265492 -0.12208805
-0.2610012 -0.22573261 -0.47332796 -0.12826197 -0.41103306 -0.20914185 -0.1617 -0.27187765
-0.2656032 -0.24774297 -0.2369393 -0.6511534 -0.19350563 -0.29272467 -0.36647114 -0.1632225
-0.39828947 -0.29374164 -0.04568109 -0.33372876 -0.30688107 -0.46245685 -0.28111774 -0.28558224
-0.18520644 -0.30294022 -0.35993567 -0.3739835 -0.23556171 -0.090717055 -0.41809225 -0.18292877
-0.18664871 -0.2915162 -0.20920849 -0.18801114 -0.3063358 -0.18668799 -0.2960067 -0.14352752
-0.46867073 -0.19584869 -0.32502532 -0.32805893 -0.24358535 -0.2594463 -0.44725683 -0.23719586

fc2.weight_orig f4 [256, 512]
00000000: 0367 55bc faee ad3c 3060 96b9 2664 1a3c
00000010: ab9d 80bc 55f9 2cbc d894 4f3c ab6f fc3b
00000020: c3fa 8e3c 3a56 94bb e53f 5a3c 0514 0abc
00000030: 4ac6 b8bc a88a 5a3a 1090 f3ba ce4b 983b
00000040: 70be 8c3c 5830 9d3a 5974 273c 15a0 55bb
00000050: 4012 f63b 97f2 cebc b066 b73c cef7 f93b
00000060: 210b df3c d780 903b c384 d3bb d952 09bb
00000070: c1fa 053d a473 40bc 55e8 abbc a982 b5bc
00000080: a8a9 333c 8737 87bc 5940 63bb d244 223c
00000090: 43cb ad3b ae30 a83a 1652 d93b 5e9d 86bc
000000a0: 5983 173c 1b29 f1bc d03f 5fbc 98a3 aa3c
000000b0: 9be2 c4bb 5735 3f3c 13d7 0139 880a 653c
000000c0: e782 093b bc75 37bc cadc 54bc 468f dc3c
000000d0: 39bd 8abc 4e4a 5dbc 4106 0c3c 8132 bd3c
000000e0: 5434 be3b 1acb aabc 6bf8 883b a376 ee3b
000000f0: 3535 8b3b d34d b4bb 0946 6bbc c7d9 553a
00000100: 4638 01bc 1dd2 bcbc 81de fbb9 7f19 0bbc
00000110: 6c79 213c 6f66 02bd 13fd 16bc df9e 803c
00000120: 9515 6f3c 6024 60bc 5bba 48bc 96dc 0fbc
00000130: f8e5 c8bb cec6 403c ec08 b0bc c02a 8cbc
00000140: f359 01bc d5d8 883c 249f e93b ad74 723b
00000150: 9112 703c dc6d 613b b44f f93b 845f 82bc
00000160: e250 453c 44a8 10bc 625c 843c 9403 9c3a
00000170: 4586 e43b 51c2 773b 9590 973c f454 813c
00000180: ec3e acba b0a7 31bc 0380 903c 4567 59bc
00000190: 6965 fd3c 1421 44bb 6f3a 193b 3f71 a6bc
000001a0: bedf f3bc 7a85 dc3b a2a5 233b c7a2 583c
000001b0: a1ae 543c 5d33 1c3c c601 97bc fc9d 40bc
000001c0: 03dd dabb 3d77 ba3c 9787 e8bb ff99 30bc
000001d0: ace0 6bbc f5b3 5a3c 8074 57bc 3ade d3bb
000001e0: 3611 b5bc 4d9c 603c 0d9b 243d fdc3 2cba
000001f0: 13ad b1bc c2e8 9e39 5ae6 003b 4d8b b5bc
00000200: ab97 12bc 8a17 9b3c 035b cebb 4ca2 903b
00000210: 6c60 d43c c239 43bc 58ae 34bb 2fc7 52bc
00000220: c493 95bc 1408 86bc 5ec9 223b 0d7d cc3c
00000230: a268 cf3b e67f 8a3c 3d16 bfbb c6d4 3bbc
00000240: bafe c73c 6f96 b2bc c7cd d3bc ed52 14bb
00000250: c268 cfbc acef 503c 7a06 c4bb e7e3 863b
00000260: 181b a8bb a329 3f3a 6b25 8dbc 804b 703b
00000270: 86ec d93a 832f 01bc 6cd3 e73c f9c6 febb
00000280: d8ee 9b3c 9e81 cbba 723b 72ba d2ed 2dbd
00000290: 6d04 8d3c ff04 48bc ef38 02bd 0831 c23b
000002a0: 638c eabc 1948 d5bb 75c1 51bb 1d4a 2f3c
000002b0: 2f44 7abc 48d4 03bd 7ff9 523c 60d5 04bd
000002c0: 31cd f5ba 1225 173b 7e7c 85bc e0da 023c
000002d0: e4e3 81bc 9a94 f8bc f108 2e3c cb01 8fbc
000002e0: 227e b5bb fde6 33bc b727 183d da98 4ebc
000002f0: 2a8a e13b bf45 98bc a6b7 4abc 4480 263d
00000300: d0c8 97bc d6be b5ba 95f8 823c 2bd5 cabc
00000310: bc5c 343b 6aba 1f3c 4d31 7e3b 1d15 3c3c
00000320: 985e 053c b21b 11bc a17d 313b 5ca2 573c
00000330: 4144 643c c358 a1bc d2d4 3fbd de18 7abb
00000340: 8113 9b3c 41b2 ea3b 8217 c8bc 5228 09bc
00000350: 1d16 c83c b4ae 523c e81f 66bc 0938 bdb8
00000360: 0c4c a4ba 6105 9c3b 11b2 66bc 8f81 54bc
00000370: b4c7 3dbc c701 173b 365b 0abc 91c3 863b
00000380: bca0 7abc c703 9ebc ccad b03c 6130 203d
00000390: 4adb c839 cbdb acbc 494a c0bb b707 e03a
000003a0: 0a1d 7d3b d947 b83c c51f 8c3b f09f 4a3b
000003b0: 43b9 ea3b f378 823b 9421 853c 0f7c 453c
000003c0: 19ce 423c c064 d23b a449 043c 54b4 8abc
000003d0: bd98 0d3c 8acf a039 0b23 a3bc b666 f5bb
000003e0: 1d34 c3bc 9d85 38ba c71a 5fbc bf95 833c
000003f0: 73ef b239 debc df3c 75a0 063d e232 5238
-0.013025048 0.021232117 -0.00028681895 0.009423291 -0.015700182 -0.010557492 0.012669764 0.0077037415
0.017453557 -0.0045268806 0.013320898 -0.008427625 -0.02255549 0.00083367014 -0.0018582363 0.0046477085
0.017180651 0.0011992557 0.010220611 -0.0032596637 0.0075095 -0.02526216 0.022387832 0.0076284176
0.027226986 0.00440989 -0.0064550354 -0.0020953922 0.03270984 -0.011746321 -0.020984808 -0.02215703
0.010965742 -0.01650597 -0.0034675805 0.009904103 0.0053037717 0.001283189 0.0066321 -0.01643246
0.009247624 -0.029438546 -0.013626054 0.02082996 -0.006008459 0.011670432 0.0001238252 0.013979562
0.0020982565 -0.011197504 -0.012992093 0.026923787 -0.016935932 -0.013506485 0.008546413 0.023095371
0.005804578 -0.0208488 0.0041800044 0.007277326 0.004248286 -0.0055024414 -0.014359959 0.00081577565
-0.007886952 -0.023049409 -0.0004804023 -0.008489965 0.009855609 -0.03183597 -0.009215611 0.015700756
0.014592548 -0.0136805475 -0.012251462 -0.008780619 -0.00613093 0.011766149 -0.02148863 -0.017110229
-0.007894981 0.016704956 0.0071295667 0.0036995814 0.014652864 0.0034397757 0.0076083783 -0.015914686
0.01204321 -0.00882918 0.016157333 0.0011902922 0.006974014 0.003780503 0.01850156 0.01578758
-0.0013141311 -0.0108432025 0.017639166 -0.01326925 0.030932145 -0.0029926943 0.0023380776 -0.020317672
-0.029769775 0.006729779 0.002497055 0.013222403 0.012981088 0.00953373 -0.018433463 -0.011756416
-0.0066791787 0.022761935 -0.0070962417 -0.010778903 -0.014396828 0.013348569 -0.013150334 -0.0064657005
-0.022102933 0.01370914 0.04018693 -0.0006590484 -0.021688974 0.00030309526 0.001966855 -0.02216115
-0.008947293 0.018932123 -0.0062974705 0.0044138785 0.025924884 -0.011915626 -0.0027569737 -0.012864872
-0.018258937 -0.016361274 0.0024839262 0.024961973 0.006329612 0.01690669 -0.0058315084 -0.011464303
0.024413455 -0.021800248 -0.025854958 -0.0022632435 -0.025318507 0.012752455 -0.0059822174 0.0041165235
-0.005130183 0.0007292276 -0.017229756 0.0036666095 0.0016626276 -0.007884863 0.028299056 -0.007775184
0.019034788 -0.00155263 -0.00092404254 -0.04246313 0.017214024 -0.012208222 -0.031792577 0.005926255
-0.028631395 -0.006508839 -0.0032006179 0.010698822 -0.015275045 -0.03218487 0.012876867 -0.032430053
-0.0018753168 0.0023062867 -0.016294714 0.007986754 -0.015855737 -0.030344296 0.010622249 -0.01745691
-0.005538718 -0.010980365 0.03714725 -0.012609685 0.0068829255 -0.018587945 -0.012372887 0.040649667
-0.018528372 -0.0013866078 0.015987674 -0.02475985 0.0027521094 0.009749034 0.003878671 0.011479643
0.008140229 -0.008856701 0.0027082937 0.013161268 0.013932289 -0.019695645 -0.04683382 -0.0038161795
0.018930199 0.007162363 -0.024425272 -0.0083714295 0.024424607 0.012859035 -0.014045693 -9.02266e-05
-0.0012534871 0.0047613834 -0.01408054 -0.012970342 -0.0115832575 0.002304183 -0.008444598 0.004112669
-0.015297111 -0.01928891 0.021567248 0.039108638 0.00038310356 -0.0211009 -0.0058682305 0.0017092143
0.0038622045 0.022495197 0.004276248 0.0030918084 0.007163198 0.0039817034 0.016251363 0.012053504
0.011889958 0.0064207017 0.008074198 -0.01693169 0.008642373 0.00030672207 -0.01991417 -0.0074890507
-0.02382856 -0.0007038953 -0.013617224 0.016062615 0.0003412921 0.027311739 0.032867867 5.011529e-05

fc2.weight_u f4 [256]
00000000: 3042 13bb e1ca ebba 677f f1b9 7f4f 83bd
00000010: dd4e e5bb 4231 0fbb 03cc 033c ae47 c0b8
00000020: e94a 963b ecfc 6a3a 550c 323b 170b dcba
00000030: ec67 39bb a227 23bd 2877 ccb9 cd30 393a
00000040: dec4 5b3b 5a54 82bb ae3c 05bc dd55 61bb
00000050: 49aa 07ba f2d3 9abb 77fd 53bc 14c4 4d3a
00000060: 8342 ef3b 01ff 41bb a5f5 2a3b b30f 29be
00000070: 98c9 8abb 949c 573a 5420 693a d904 dabb
00000080: f343 7dbc fecb 353a 7f09 beba 8902 a23c
00000090: 82f7 213d 63a6 35ba dbf4 d63a 787e 17bb
000000a0: e2da 04be 4e81 8f3b a438 4aba 965a 8c3c
000000b0: 664e 1bbb 7d6b 563c cbf7 ba3b 971c fe3b
000000c0: 35ee ddbb 9894 ed3a 7ea9 18bb c917 71bd
000000d0: 65dc a1b9 dc53 fbba 5b29 9abc a31f 04bd
000000e0: 119b 313b 9f0c 81bb 1e02 31bb 87dc 7b3c
000000f0: a111 2e3b 5637 81bb 310f ebba d180 32ba
00000100: ef3a 1cba c4bf 983a 6780 03bd b527 a1ba
00000110: a91b 943b 1840 8b3d 7dd8 1bbd f3ff 28bb
00000120: df43 1db9 041b 95bb 2997 5d3b 54af eebe
00000130: d235 a5bd c8f0 6a3b 488e 32bc 8ccc 333a
00000140: 884c 863b 11ec 16bb 953b d53b b269 65bb
00000150: 3f27 403b 485d 16ba eb9d 7a3b ffe8 bfbb
00000160: 7ead 66ba e1f6 72bc 99a5 803a f1d7 2b3a
00000170: 993c d8b9 ae46 d2ba 0a32 1cbb aea1 833b
00000180: 3afb 1fbd 3689 20bb 9678 fdba b8d6 ddbb
00000190: c37f 72bb 6f28 bfbd 5437 5dbe 99ae b13a
000001a0: 6cd7 173c 7003 5f3a dfd9 5ebc 6d4b 70bb
000001b0: dfa4 24bc 17d5 133f ded2 273d ee37 4e3c
000001c0: 8edd a4bb 60f2 203b 3dd4 f2ba b6ab 87bd
000001d0: bdcf a33a 2700 72bd d370 803b 3ee3 e4ba
000001e0: dfa6 65bb b929 213b cc82 b2b8 1dab f0ba
000001f0: 5009 bdbb dbe9 7fba 551d 083a 0164 87bb
00000200: c056 75bb feef 873b 8854 c43a 38be 303b
00000210: c66a 0e38 55fb c239 49f7 e43b 710f 993b
00000220: f1ab e43c bc5d 743c 1cac 7f3a 9a1e 58ba
00000230: 467e eeba ab1b b0bb 43dc ddba f5f1 b3bb
00000240: 635d 0cbc ff22 793b 423e ca3a 2871 22bb
00000250: cff4 53bb ef38 cbbb 312b 463c c354 eeba
00000260: dcce 1d3d 77ed 2ebb 0ac8 96bb 7c37 a8bb
00000270: 98c8 333b 4502 48bb e09d d23b 3614 d6ba
00000280: e37d debb 340d 53bc 002f f739 77f5 37bb
00000290: f084 5aba 3d72 e1ba 5f60 08b9 2de3 2d3b
000002a0: 36af 94ba 2e3e 27bb 4985 183b a5d7 9c38
000002b0: 7b00 c93e 56ad 933b b607 783b f3b4 66bb
000002c0: 94dd 723b c02d 94bd c4ed 233c 504c 183c
000002d0: f991 b539 e84a f13a caf7 a53a 857b 88bb
000002e0: 7869 d5bd c1aa 22bb 61c3 99bd f440 87bb
000002f0: 8b7f 55bb 3dc7 77bb e195 8abb 4cdf 133b
00000300: 3c2e 873b 2dfa f2ba 5a2f a0ba 997f aa3a
00000310: 4acf a4bc f054 abb9 267c 96bb 8e90 94bb
00000320: d875 6f3b b0b9 893b 90cb 20bd 6710 343e
00000330: 11cd 5bbd 1e3b 03bb 26bc bd3b d5a3 76bd
00000340: e7a3 7bbd 73b1 70ba b8f4 8bbb 980f 603b
00000350: 08a3 dcba 6e85 243b 75d9 bfbd e509 afbb
00000360: a58f ba3a 1afc 023b c9d2 a53c 32d6 203a
00000370: 99ef 253b bdf6 85bb b931 cc39 fe4a 543b
00000380: 4082 deba 9e79 333b 46c5 75bd d964 363c
00000390: 2d09 b0b9 ba57 1fbb 487c 58bb be79 78bb
000003a0: 03f9 6b3a b606 c83a 240e 88bb 7383 42bb
000003b0: c63f a43a 1071 52be 98e9 9c3b 67a0 173b
000003c0: e065 cd3a 6e1d c039 dcf9 baba d4c0 b8bc
000003d0: 12d3 28b9 1f70 96bb 5eb9 323c 2c7f 84bb
000003e0: 53a9 3bba 2a7d cfba d1d1 103b 6d13 33be
000003f0: 3eb5 e2ba 0cbf 04bb 7d2c 76bb 40ea bcba
-0.002246987 -0.001798954 -0.00046062024 -0.06411647 -0.0069979266 -0.0021849428 0.008044246 -9.168625e-05
0.0045865667 0.000896408 0.0027167995 -0.0016787973 -0.0028290702 -0.03983272 -0.0003899869 0.0007064462
0.003353409 -0.0039773406 -0.008132143 -0.0034383454 -0.0005175216 -0.004724973 -0.012938849 0.00078493473
0.00730163 -0.0029601457 0.0026086357 -0.16509895 -0.0042354576 0.0008224931 0.0008893062 -0.00665341
-0.015458095 0.0006934999 -0.001449868 0.0197766 0.039542682 -0.00069293956 0.0016399877 -0.0023116153
-0.12974122 0.004379428 -0.00077141286 0.017133038 -0.0023697852 0.013087151 0.0057058088 0.007754873
-0.0067727813 0.001812595 -0.0023294385 -0.058860574 -0.0003087252 -0.0019174772 -0.018818548 -0.032256734
0.0027100483 -0.003938272 -0.0027009319 0.015372402 0.00265608 -0.003943364 -0.0017933605 -0.0006809356
-0.00059597095 0.001165383 -0.032104876 -0.0012295159 0.004519899 0.06799334 -0.038048256 -0.0025787323
-0.0001499797 -0.0045503397 0.0033812022 -0.4661814 -0.08066906 0.0035849083 -0.01089818 0.0006858788
0.0040984787 -0.002302889 0.006507347 -0.0035005626 0.0029320267 -0.0005735946 0.00382411 -0.0058566327
-0.0008799656 -0.014829368 0.0009814977 0.000655531 -0.0004124388 -0.0016042793 -0.0023833537 0.0040170765
-0.039057948 -0.0024495847 -0.0019338306 -0.0067699812 -0.0037002421 -0.09333884 -0.21603137 0.0013556062
0.009267669 0.0008507287 -0.013601749 -0.003666605 -0.010049074 0.57747024 0.040972583 0.012586577
-0.005031294 0.002455853 -0.0018526387 -0.06624548 0.0012497824 -0.059082177 0.0039196997 -0.0017462743
-0.003504209 0.002459152 -8.512064e-05 -0.0018361543 -0.0057689324 -0.0009762325 0.0005192359 -0.0041317944
-0.003743574 0.0041484823 0.0014978806 0.0026968848 3.395488e-05 0.0003718982 0.0069874865 0.00467103
0.02791402 0.014914926 0.00097531243 -0.0008244306 -0.0018195591 -0.005374392 -0.0016926605 -0.00549149
-0.008567187 0.0038015244 0.0015429931 -0.0024786685 -0.0032341962 -0.0062018554 0.012095259 -0.001818322
0.038527355 -0.0026691833 -0.0046014832 -0.0051335674 0.0027432796 -0.003051893 0.0064275116 -0.0016332928
-0.006789909 -0.012881566 0.0004714653 -0.0028069892 -0.0008335849 -0.0017200183 -0.00013005872 0.0026533112
-0.0011343721 -0.002551924 0.0023272804 7.4788266e-05 0.3925818 0.0045067472 0.0037846393 -0.003520307
0.003705834 -0.072352886 0.010005418 0.009295538 0.00034631768 0.0018409165 0.0012662348 -0.0041651153
-0.10420507 -0.0024821016 -0.07507969 -0.004127616 -0.0032577242 -0.0037807964 -0.0042292927 0.0022563515
0.0041253846 -0.0018537693 -0.0012221143 0.0013007998 -0.020118374 -0.00032678945 -0.0045924364 -0.004533834
0.0036538746 0.004203044 -0.039256632 0.17584382 -0.053662363 -0.002002425 0.0057902513 -0.060214836
-0.061435606 -0.00091817154 -0.004271116 0.0034188982 -0.0016833255 0.0025103944 -0.093676485 -0.0053417557
0.0014233483 0.001998669 0.020242112 0.0006135433 0.0025319813 -0.0040882514 0.00038946958 0.0032393332
-0.0016976073 0.0027385722 -0.060002588 0.011132442 -0.00033576172 -0.0024313764 -0.0033033062 -0.003791436
0.0009001644 0.0015260789 -0.0041520763 -0.00296804 0.0012531213 -0.20550942 0.0047885887 0.0023136379
0.001567062 0.0003664302 -0.0014265138 -0.022552885 -0.00016100358 -0.0045910026 0.010908453 -0.0040434804
-0.0007158715 -0.0015830148 0.0022097717 -0.17487879 -0.0017296446 -0.0020255474 -0.0037563138 -0.0014413074

fc2.weight_v f4 [512]
00000000: 6fe0 d1bb d718 6ebb 5588 50bc de27 93ba
00000010: ecca f6bb 4f4b b9bb 26dc 94bb f502 51bb
00000020: 7c53 a1bb 4540 86bc 0855 48bb 2a20 a9bb
00000030: 41bb 04bc ff24 d0bb a3d8 40bc ebef 0b3a
00000040: 8466 05bc fdf4 0fbc b5f9 f33a c601 d73a
00000050: 2f41 e4bb ddf9 073b cdd3 11bc ea0c 7cbd
00000060: 1dc3 86bc 0ffe dcbb 091a b1bb 53b9 a9ba
00000070: 3186 15bc 132b 653a 85f9 1cba aec9 9abc
00000080: efb0 14bb 0512 043a d150 5ebb 2dbf 90bc
00000090: 3409 7abb ac31 ca3e 2897 aebb ba30 f43a
000000a0: dc10 41ba 2c83 0eba be5a b339 b2ac deba
000000b0: 466c cbb9 f907 573b 75b1 d0ba e60f 06bc
000000c0: cd75 eabb edca c93b 4e79 b4bb bcc0 283b
000000d0: fdaa 00bc db35 a0bb 0cea d0bb 6ff9 ecba
000000e0: 6a88 c9ba 7525 1bbc aa98 11bc 94c9 1abd
000000f0: a616 a1ba 57d7 07bc f932 88bb 32b4 fcbb
00000100: a7d0 c53c 585e f3bb 5457 59bb e648 53bc
00000110: 2306 93bb fc99 11bc fd95 d6bb 8527 5a3b
00000120: b741 aabb 359e 02bb 509b a6bb 49e0 bcbb
00000130: 5925 dbbb 3c25 bbbb e05b 13bc aa90 c7bd
00000140: b63a 23bb 0db8 ecbb 9b58 c236 e998 d1bb
00000150: 2d0a e1bb 7468 c33a e983 12bc c79c b9bb
00000160: 9e27 ccbb de63 22bc a795 a13b 46c7 84bd
00000170: 7e28 e5bb 637d eabb 91e4 1d3a b8ff cabb
00000180: bead c7ba a2af cdbb 5ee8 8739 fcf6 e4ba
00000190: 43a4 22bc be67 003b 68b1 073b 5bd6 63bc
000001a0: c923 c5bb 5b35 4dbc 3bb9 80bb 3a05 8dbb
000001b0: 527a 6fbb 91f0 d5bb a241 eb3b d587 6ebd
000001c0: 5499 b7bb b9e0 9bbb 78f3 8ebb d209 b2bb
000001d0: 86d0 fbbb feef 70bb 8c08 dcbb 34c2 1dbd
000001e0: a10b 54bc f8e3 993a 9e8b c1bb e72c 56bb
000001f0: 1a16 cfbb d960 103f 949c b939 536f 8eba
00000200: 19c5 4cb9 da35 70bb 385b 1ab9 8e23 beb9
00000210: 852a 7bba 88b0 903c c840 98bb 9503 e3bb
00000220: 1fc6 41bb 41ff 28bc 9bf1 81bb 3535 8fbc
00000230: 3dd8 19be 0966 84bc 2bf6 783c 03f7 4abc
00000240: df74 a1b9 5237 14bc b58f 9139 b9cf d5bb
00000250: 368a 2dbc 92c3 44ba 5635 d3bc 3e0a 1abb
00000260: 836b ed3c c323 ee3b ce03 a6bb 30ab 8b39
00000270: 5fc1 27bc 8dc7 6dbb 9cab a2bb c7ee 1cbc
00000280: 728a a5bb 09a0 5e3b cb5d 7ebe 66b8 d8bb
00000290: e258 e8bd d60c 3abb 6613 2cbc 39c6 94bb
000002a0: 24b0 18bb 7072 11bc 8581 8c3a 7a73 f339
000002b0: 0840 9abb c1f5 9dbb 5d1e 50bb 421b bdbb
000002c0: 9acc bdbd 9d71 3ebc c08f bcba 834a 78bb
000002d0: 382d 5fbc 3ccc 433a 73a9 63bd b24c 1cbb
000002e0: 012a 24bc 6f86 e6bb 4713 6bbc 1222 c1bb
000002f0: 4bd3 aa3b 39e7 6439 f13f 41bc 5d67 1b3b
00000300: d147 d1bb 82c7 b8ba fd9e 2abc 59e5 4d3c
00000310: 90f1 8dbe 52da 9cba 61dc b3bb 7d18 f9b9
00000320: 2eed 8a3c 40e7 3dbb 8e2c 71bb 97db 6aba
00000330: a7eb 24bb f8b4 b23b 5a40 fbbb 9a11 0dbb
00000340: 2677 a6bb afa5 9cba 1506 75bc 0a81 cabb
00000350: f4d0 11bc b9f3 5ebb 5cda 5ebb 5958 17be
00000360: ad8f acba b295 f5bb 4b02 89bc bfba 99bb
00000370: 4eff 44bb 5a68 3437 958a 87ba dd53 7fba
00000380: 5a26 51bc 65d1 9abb 2fbf e13b 9d62 5ebe
00000390: 10dd 8cbc d5a2 f33a 2adc 94b9 096c 35bc
000003a0: 9f4f 8dbc 822f 5d3a 59d0 3c3a 2d55 8f3b
000003b0: 9fe7 e639 ddcf a5bb 1e2e d1bb 2ea7 8d3b
000003c0: 42f9 feba e315 a83d 6035 36bc 93dd e9bb
000003d0: 47db 79be abf4 89bb 6b85 b2bb 458b 11bb
000003e0: 928d deba 7ff9 2abb bb34 c6bb 8875 b03a
000003f0: 86cf cfbb ec74 9bbb 6c1b 0cbc 2de8 4fbb
-0.0064049284 -0.0036330724 -0.012727817 -0.0011227091 -0.0075315144 -0.0056547294 -0.0045428453 -0.0031892632
-0.004923282 -0.016388068 -0.003056826 -0.005161305 -0.008101285 -0.0063520665 -0.0117704 0.000533818
-0.008142117 -0.008786437 0.0018613847 0.0016403727 -0.0069657783 0.0020748295 -0.008900595 -0.061535753
-0.01645046 -0.0067441533 -0.005404715 -0.0012948908 -0.009126232 0.00087420753 -0.0005988109 -0.018894996
-0.0022688468 0.00050380855 -0.0033922682 -0.017669285 -0.0038152458 0.39491022 -0.005328078 0.0018630244
-0.0007364878 -0.0005436416 0.0003420915 -0.0016988723 -0.00038799847 0.0032811149 -0.0015922027 -0.008182501
-0.007155156 0.006158224 -0.0055076247 0.0025749644 -0.007853267 -0.0048892326 -0.006375557 -0.0018079708
-0.0015375738 -0.00946938 -0.008886496 -0.037789896 -0.0012290075 -0.008291087 -0.004156467 -0.0077119106
0.024147345 -0.007427018 -0.0033163624 -0.012895798 -0.0044868155 -0.00888681 -0.0065486417 0.0033287716
-0.005195822 -0.0019930725 -0.0050844327 -0.0057640416 -0.006687802 -0.005711226 -0.008994073 -0.09744389
-0.002490682 -0.007224089 5.7919656e-06 -0.006396402 -0.006867668 0.0014908449 -0.008942583 -0.0056644413
-0.0062303087 -0.0099115055 0.00493117 -0.06483321 -0.0069933524 -0.0071560605 0.0006023134 -0.006195035
-0.0015234274 -0.0062770406 0.00025922334 -0.0017468627 -0.009926858 0.0019593085 0.0020705108 -0.013906087
-0.006016229 -0.012524928 -0.003928331 -0.0043036016 -0.0036541414 -0.006528922 0.007179455 -0.05823501
-0.005602995 -0.0047570136 -0.00436252 -0.0054332996 -0.00768477 -0.003676414 -0.006714886 -0.038515285
-0.012942226 0.0011740914 -0.0059065362 -0.0032680572 -0.0063197734 0.5639778 0.0003540261 -0.0010866917
-0.0001952838 -0.0036653192 -0.00014720566 -0.00036266114 -0.0009581226 0.017662302 -0.0046463944 -0.0069279172
-0.0029567552 -0.0103147635 -0.003965569 -0.017481426 -0.15023895 -0.016161935 0.01519541 -0.012387994
-0.0003079539 -0.0090463925 0.00027763625 -0.0065250066 -0.010592034 -0.0007505949 -0.025782268 -0.002350464
0.02898193 0.0072674467 -0.0050663715 0.0002663969 -0.010238974 -0.0036282272 -0.004964305 -0.009578413
-0.0050519044 0.00339699 -0.24840467 -0.006613779 -0.11345078 -0.0028388998 -0.010502672 -0.0045402315
-0.0023298347 -0.008877382 0.0010719752 0.00046434609 -0.00470734 -0.004820556 -0.003175638 -0.0057710717
-0.0926754 -0.011623767 -0.0014386103 -0.003788621 -0.013621621 0.0007469093 -0.05558152 -0.0023849425
-0.01001978 -0.0070350687 -0.014347858 -0.005893954 0.0052131764 0.00021829912 -0.01179503 0.0023712732
-0.006386735 -0.0014097544 -0.010413882 0.012566888 -0.2772336 -0.001196692 -0.0054889177 -0.00047511226
0.0169588 -0.0028976947 -0.0036800238 -0.0008959113 -0.0025164874 0.005453702 -0.0076675834 -0.0021525384
-0.0050801216 -0.0011951233 -0.014955063 -0.0061799334 -0.008899916 -0.0034019782 -0.0034004664 -0.14779796
-0.0013165377 -0.0074946517 -0.016724726 -0.0046914513 -0.00300594 1.0753132e-05 -0.0010340983 -0.00097399746
-0.012765491 -0.004724669 0.006889246 -0.21717305 -0.017195255 0.0018587956 -0.00028392795 -0.011073121
-0.01724988 0.000843756 0.0007202677 0.0043741674 0.0004404159 -0.0050601796 -0.0063836714 0.004322908
-0.0019452947 0.082072996 -0.011121124 -0.0071370094 -0.24400054 -0.004210075 -0.0054480336 -0.0022208255
-0.0016979447 -0.0026088653 -0.0060487664 0.0013462761 -0.0063418774 -0.004744163 -0.00855146 -0.003172408

fc3.bias f4 [128]
00000000: f36f 9bbe 10a6 bbbd e615 38be 959e c1be
00000010: 8feb f8be a967 1dbe 7736 3cbe f7b7 b1bd
00000020: 0be3 dabe bb05 79be d6f3 b2be 0a52 42bf
00000030: 7294 22bf 686a bfbe 85e3 dcbe d9b3 debe
00000040: fd2e c8be facb ecbe 78af 02bf 6f4c 44bf
00000050: cf94 3abd b2d6 48bd 3eec a2be e5a9 aabe
00000060: 1008 40be 7053 b3be 709e 1bbf c7bb 12be
00000070: 6843 d7be 989a b1be 15bc 5cbe e62c b3bd
00000080: c745 bebe 93c8 39bf a12b 89be a917 0fbf
00000090: 313d 46be 163c 8abe 9a6d 7fbe 8286 acbe
000000a0: 2f96 a7be f3c9 a8be 27d1 46bf 6ab0 52be
000000b0: 1e5f 5abd b404 4abd 835e 4cbf 40ad cfbe
000000c0: e32d f9bd b882 23bf 21d1 edbd c2c7 f0be
000000d0: 5e5d f1bd bc5b e0be 162d b7bd 71f6 44be
000000e0: ae55 84be cac1 51bd 9f95 cebe 2967 48be
000000f0: f7a7 8abe 0a1e aabe 9306 87be ba8e 20be
00000100: e711 3dbf 63f3 14be 1b39 58be 6635 15bf
00000110: 299d 45be cc16 cabd 42d3 74bd 869a 87be
00000120: 1f3d 0cbe 5c24 5cbe db63 1bbe 4cb2 63be
00000130: 83f9 f1be 4d88 bdbe 3c91 39bf 385a 20be
00000140: 0a50 2cbe 5ca7 fbbe 49d8 eabd f38a 5cbd
00000150: 4e55 e4be 3d92 39be 442e eebd ced4 f2be
00000160: 7944 efbe 2687 49be 77c1 d6be 2ae3 4fbf
00000170: 8f2c 4ebe cc30 bebd 000d 1ebe ea48 9bbe
00000180: 8f2a 67bd 805f e6be 454c ebbe fa3b 19bf
00000190: d70c fdbe e291 e2bd 7253 a4be 92e0 1fbe
000001a0: 7c5f 03bf 568a 81be e41b 7fbd c19d 8abd
000001b0: 67fc 10be 6bd0 b1be 21d9 55bf f5e6 c2be
000001c0: da08 65be 3109 c0be bc78 16bf 8258 97be
000001d0: c6c4 25be 4951 86be 7e7b 23be af73 8abd
000001e0: 483d 34be a36f 9bbe def0 47be 78ce 5abe
000001f0: 7eff fabe ae92 57be 8970 26be fc2c 34bd
-0.30358848 -0.09162533 -0.17977104 -0.378163 -0.48617217 -0.15371574 -0.18380152 -0.08677667
-0.42751345 -0.24318592 -0.34951657 -0.7590643 -0.6350776 -0.3738587 -0.43142334 -0.43496588
-0.3909835 -0.46249372 -0.51048994 -0.7667913 -0.04555207 -0.049032874 -0.31820863 -0.33332744
-0.18753076 -0.35024595 -0.6078863 -0.14329444 -0.42043614 -0.34688258 -0.21556123 -0.08748798
-0.3716261 -0.72571677 -0.267911 -0.5589548 -0.1935928 -0.26998967 -0.24944153 -0.3369637
-0.32731768 -0.32966575 -0.7766289 -0.20575109 -0.053313367 -0.04932089 -0.79831713 -0.40561867
-0.12166955 -0.63871336 -0.11612154 -0.47027403 -0.117853865 -0.43819988 -0.08944146 -0.19234635
-0.25846618 -0.051210202 -0.40348527 -0.19570602 -0.27081272 -0.33226043 -0.26372203 -0.15679446
-0.7385544 -0.1454597 -0.21115534 -0.58284605 -0.19298233 -0.098676294 -0.059771784 -0.2648508
-0.13695191 -0.21498245 -0.1517481 -0.22235984 -0.47260675 -0.37018052 -0.72487235 -0.15659416
-0.16827407 -0.49151123 -0.11467034 -0.05384345 -0.44596332 -0.18122192 -0.11629918 -0.47427982
-0.46731928 -0.19680461 -0.41944477 -0.81206 -0.20134185 -0.09286651 -0.15434647 -0.30329067
-0.05643707 -0.44994736 -0.45956627 -0.5985714 -0.4942386 -0.11062981 -0.32094914 -0.1561301
-0.5131757 -0.25300854 -0.062282458 -0.067683704 -0.14158784 -0.34729323 -0.8353444 -0.3806683
-0.22366658 -0.37507012 -0.58777976 -0.29559714 -0.16188344 -0.2623389 -0.15965077 -0.06760346
-0.17601502 -0.3035861 -0.19525477 -0.21367824 -0.4902305 -0.21052048 -0.16253866 -0.043988213
