data/saved_models/discriminator_epoch_8000.pth (torch, 758522 bytes, 14 tensors)

fc1.bias f4 [512]
0	0xbf4b26b2	-0.7935592
1	0xbed30a66	-0.4121887
2	0xbfda8de9	-1.7074558
3	0xbf03abef	-0.51434225
4	0xbfc240c9	-1.5176021
5	0xbe410f34	-0.18853456
6	0xbef448f9	-0.47711924
7	0xbf3d96cf	-0.7405824
8	0xbf6dac77	-0.92841285
9	0xc05fc23b	-3.49623
10	0xbf596e1e	-0.8493365
11	0xbee61a89	-0.4494212
12	0xbf4c25a0	-0.7974491
13	0xbf8efaa9	-1.1170245
14	0xbf28da1f	-0.65957826
15	0xbef3ed49	-0.47641972
16	0xbf76863f	-0.96298593
17	0xbe8233a7	-0.25430033
18	0xbf28044d	-0.6563156
19	0xbf2ed4b1	-0.6829329
20	0xbf199fe1	-0.6000958
21	0xbe9bab73	-0.30404243
22	0xbfc6febb	-1.5546488
23	0xbf2785f9	-0.654388
24	0xbe160df8	-0.14653766
25	0xbf71d627	-0.94467396
26	0xbf44eb72	-0.7692176
27	0xbf6d8d77	-0.92793983
28	0xbf3ee1e0	-0.7456341
29	0xbebc1220	-0.36732578
30	0xbe12b507	-0.14326869
31	0xc03dd2ee	-2.9659991
32	0xbecf221d	-0.40455714
33	0xbf5e4021	-0.868166
34	0xbf70cf98	-0.9406676
35	0xc035ec83	-2.8425605
36	0xbf50abc3	-0.8151209
37	0xbfa9dec2	-1.3271105
38	0xbf70183e	-0.9378699
39	0xbf059836	-0.5218538
40	0xbf0740aa	-0.52833045
41	0xbebafc47	-0.36520597
42	0xbef85aaf	-0.48506686
43	0xbeb3e3e0	-0.35134792
44	0xbf4a28be	-0.7896842
45	0xbe1e38fb	-0.15451424
46	0xbf5e8723	-0.8692495
47	0xbf3668bf	-0.7125358
48	0xc02cb06f	-2.6982687
49	0xbea169f1	-0.3152614
50	0xbf56b301	-0.8386689
51	0xbf282254	-0.6567738
52	0xbfe4f4ad	-1.7887169
53	0xbf1d8455	-0.6153005
54	0xbf42c04a	-0.7607466
55	0xbf548fa8	-0.830317
56	0xbf845e10	-1.0341206
57	0xbffbe034	-1.9677796
58	0xbf4ced0d	-0.8004921
59	0xbe9771d9	-0.29579046
60	0xbf0b8ce1	-0.5451184
61	0xbf1508a3	-0.58216304
62	0xbea4533b	-0.3209475
63	0xbf00c9ae	-0.5030774
64	0xbe2c079d	-0.16799779
65	0xbeb56fc4	-0.35436833
66	0xbe82563f	-0.25456426
67	0xbffa62c0	-1.9561386
68	0xbf310fd8	-0.691648
69	0xc0069ede	-2.1034465
70	0xbf451a51	-0.7699328
71	0xbeeea64c	-0.4661125
72	0xbf10e6ee	-0.5660237
73	0xbee903f7	-0.45510837
74	0xbf3ad300	-0.7297821
75	0xbe721e98	-0.23644483
76	0xbfb41137	-1.4067754
77	0xbfd0b71c	-1.630588
78	0xc00b1278	-2.1730022
79	0xbf0182c8	-0.5059018
80	0xbeed321e	-0.463273
81	0xbee42591	-0.4455991
82	0xbeaa09e5	-0.33210674
83	0xbf5488f1	-0.83021456
84	0xbf465e11	-0.77487284
85	0xbf0e8172	-0.5566627
86	0xbe6f5eb2	-0.23375967
87	0xbf5c73ac	-0.86114
88	0xc0077b56	-2.1169028
89	0xbf52c52e	-0.8233212
90	0xbe7d8c9a	-0.24760666
91	0xbe496a65	-0.19669493
92	0xbf9a070e	-1.2033403
93	0xbf89e58b	-1.0773176
94	0xbe82f70f	-0.25579116
95	0xbece2d52	-0.40268952
96	0xbef36db7	-0.47544643
97	0xbf1272cd	-0.5720642
98	0xbf0b167e	-0.54331195
99	0xbef1f435	-0.47256628
100	0xbf7023d9	-0.938047
101	0xbeb0ef69	-0.34557655
102	0xbea6379f	-0.3246431
103	0xc032288e	-2.7837253
104	0xbf7e2bb5	-0.9928544
105	0xc02d26ff	-2.7055051
106	0xbf1f6e91	-0.62278086
107	0xbf1ec173	-0.6201393
108	0xbf368546	-0.7129711
109	0xbf6f2e5a	-0.934301
110	0xbec663c9	-0.38748005
111	0xbebd70b6	-0.37000054
112	0xbf08010b	-0.5312659
113	0xbf7725f8	-0.9654231
114	0xbf9f9dbe	-1.2470014
115	0xbf839c54	-1.0282083
116	0xbf4a8f86	-0.7912525
117	0xbeec3634	-0.46135104
118	0xbf01c4cd	-0.5069092
119	0xbf160168	-0.58595896
120	0xc059c472	-3.402615
121	0xbeaf6784	-0.34258664
122	0xbe086195	-0.13318475
123	0xbf3243a0	-0.6963444
124	0xbf5eaf8b	-0.8698661
125	0xbf90be82	-1.1308138
126	0xbe9063fe	-0.28201288
127	0xbf22e320	-0.63627815
128	0xbe8a6cd3	-0.2703615
129	0xbf1a48cc	-0.6026733
130	0xbee868e0	-0.45392513
131	0xbf0fd458	-0.56183386
132	0xbf0183b9	-0.5059162
133	0xbf067dca	-0.5253569
134	0xbf628da3	-0.8849737
135	0xbfa0e541	-1.2569963
136	0xbeffaa3a	-0.4993456
137	0xc035b446	-2.839128
138	0xbef33b9c	-0.47506416
139	0xc031898f	-2.774021
140	0xbeb9e1e7	-0.36305162
141	0xc0140d23	-2.3133018
142	0xbe905167	-0.28187105
143	0xbf7a8924	-0.9786551
144	0xbe177382	-0.14790156
145	0xbfb68606	-1.4259651
146	0xbf1c71c7	-0.6111111
147	0xbe330cc6	-0.17485341
148	0xbf9ef2a4	-1.2417798
149	0xbeb87167	-0.3602402
150	0xbf8bd705	-1.0924994
151	0xbebbdfef	-0.36694285
152	0xbedeb5e5	-0.4349815
153	0xbe1d4e86	-0.15361986
154	0xbe14d2dd	-0.14533563
155	0xbf10b9e0	-0.5653362
156	0xbfc1f521	-1.5152932
157	0xbf26cff9	-0.6516109
158	0xbf98b6cc	-1.1930785
159	0xbef795e6	-0.4835655
160	0xbf58995f	-0.84609026
161	0xbf89c704	-1.076386
162	0xbf8acb2a	-1.0843251
163	0xbf321950	-0.69569874
164	0xbebea186	-0.37232608
165	0xbf0170c3	-0.50562686
166	0xc0249e10	-2.5721474
167	0xbf2aad9f	-0.66671175
168	0xbf5a3396	-0.85234964
169	0xbfaee15b	-1.3662523
170	0xbed283b1	-0.41116098
171	0xbe92f3a5	-0.2870151
172	0xbf62edb9	-0.88643986
173	0xbf1c3491	-0.6101771
174	0xbeef78e6	-0.46771926
175	0xbfbb20bf	-1.4619368
176	0xbf0e836e	-0.55669296
177	0xc0421b77	-3.0329263
178	0xbebb9d9c	-0.36643684
179	0xbf37293e	-0.71547306
180	0xc03cb0b8	-2.948286
181	0xbf0f9560	-0.56087303
182	0xbed6fe09	-0.41990688
183	0xbf481fbb	-0.78173417
184	0xc041e830	-3.0297966
185	0xbf8824d2	-1.0636237
186	0xc04aad11	-3.1668131
187	0xbec1aa1b	-0.37825093
188	0xbe97f9b8	-0.29682708
189	0xbecf095b	-0.40436825
190	0xc0256282	-2.5841374
191	0xbf1975a4	-0.5994513
192	0xbfaffcc3	-1.3749012
193	0xbe910cdf	-0.28330132
194	0xbf8a0779	-1.078353
195	0xbf08eeaf	-0.534892
196	0xbf5a9123	-0.8537771
197	0xbf1697fd	-0.58825666
198	0xbfb5defc	-1.4208674
199	0xbf3135bf	-0.69222635
200	0xbf34274c	-0.7037246
201	0xbf22d630	-0.63608074
202	0xbf6b67ef	-0.91955465
203	0xbf2ec350	-0.68266773
204	0xbf31f178	-0.6950908
205	0xbf308115	-0.68946964
206	0xc0246370	-2.5685692
207	0xbf0ca901	-0.5494538
208	0xbf3ff5e1	-0.74984556
209	0xbf169747	-0.5882458
210	0xc0533db0	-3.30064
211	0xbfa38127	-1.2773789
212	0xbfdce821	-1.725834
213	0xbf28f9f8	-0.6600642
214	0xbf0d6015	-0.55224735
215	0xbe9f008c	-0.31055105
216	0xbe8c8fe9	-0.27453545
217	0xbf3b2010	-0.730958
218	0xc038c628	-2.8870945
219	0xbe8054e0	-0.25064754
220	0xbf54f5c9	-0.8318754
221	0xbf380984	-0.7188952
222	0xbeb75085	-0.3580362
223	0xbeff828d	-0.4990429
224	0xc03b113b	-2.9229267
225	0xbf62a85b	-0.8853814
226	0xbe955fbd	-0.29174605
227	0xbeee6ff2	-0.46569782
228	0xc0062f44	-2.0966349
229	0xbe6f6946	-0.23380002
230	0xbe30147b	-0.17195313
231	0xc0006915	-2.0064137
232	0xc03bf28e	-2.9366794
233	0xbf4c380f	-0.7977304
234	0xbf1413d2	-0.57842743
235	0xbe66401f	-0.22485398
236	0xbecb0b55	-0.39657083
237	0xbf28c9cd	-0.65932924
238	0xbf6238e3	-0.8836805
239	0xbf1f2cc4	-0.6217768
240	0xbf0cc8df	-0.54994005
241	0xbf949500	-1.1607971
242	0xbfb1eac1	-1.3899766
243	0xbf965294	-1.1743951
244	0xbf2fc969	-0.686667
245	0xbfc6d6af	-1.5534266
246	0xbf8e4181	-1.111374
247	0xbf04d0aa	-0.51880896
248	0xbf06d456	-0.5266775
249	0xbf08e496	-0.53473794
250	0xbf44e258	-0.76907873
251	0xbf35718b	-0.7087638
252	0xbf573d19	-0.840776
253	0xbf684383	-0.90728015
254	0xbfccb7dc	-1.599361
255	0xbf59bf1f	-0.8505725

fc1.weight_orig f4 [512, 42]
0	0xbaf2ddd8	-0.0018529249
1	0x3b71e85c	0.0036912179
2	0x3ab21396	0.0013586159
3	0xbc9c5866	-0.01908512
4	0x3b582f1f	0.003298707
5	0xba6acf3e	-0.0008957273
6	0x3b94e6f6	0.0045441343
7	0x3a9bb331	0.0011878965
8	0xbb85e1fb	-0.004085777
9	0x3c5b3ff5	0.013381948
10	0xbc9f3d2c	-0.019438349
11	0x3c40dbc7	0.011771149
12	0xbc08413d	-0.008316335
13	0x3b591e33	0.0033129572
14	0xbc19eebe	-0.0093952995
15	0x3bc94545	0.006142291
16	0x3c918540	0.017763734
17	0xbb6e43df	-0.0036356372
18	0x3bbb72c5	0.0057204687
19	0xbc0832b9	-0.0083128745
20	0x3baf7d74	0.0053555313
21	0xba2b143f	-0.0006526149
22	0x3b1cd4da	0.002393058
23	0xbbeade8f	-0.0071676443
24	0xbc5cd23d	-0.013477859
25	0x3bbc3e22	0.0057447115
26	0x3ba3dac4	0.005000444
27	0xbbf60b87	-0.0075086984
28	0xba8e60b7	-0.0010862564
29	0xbc9c8e9e	-0.019110974
30	0x3c2882d0	0.010285094
31	0x3c4e1f58	0.012580715
32	0x3bb530e3	0.0055295094
33	0x3b1410a9	0.0022592938
34	0xbb4cf21e	-0.0031272243
35	0x3bdd567b	0.006754694
36	0x395ccf49	0.00021058055
37	0xba891eaa	-0.0010461409
38	0x3bc246d8	0.0059288554
39	0x3ae4e1f9	0.0017462365
40	0xbb843ca9	-0.0040355516
41	0x3bb1d97d	0.005427538
42	0xbc8d49ab	-0.017247042
43	0x3b5f931b	0.0034114781
44	0xbc0d722b	-0.008633177
45	0xbcc743de	-0.024324354
46	0xbc84ce6c	-0.01621171
47	0xbbef7f5c	-0.0073088836
48	0x3c5129fc	0.0127663575
49	0xbc08aa46	-0.008341378
50	0x3adf1385	0.0017019367
51	0x3ad0691f	0.0015900469
52	0x3bd42f33	0.006475353
53	0xbb106b0b	-0.0022036459
54	0xbb1b8f4d	-0.0023736537
55	0xbb2cfb6d	-0.0026394979
56	0x3cb4c427	0.022066189
57	0x3b0f9fb4	0.002191526
58	0xba4a3496	-0.00077135244
59	0xba5c6696	-0.00084076205
60	0x3bc14d75	0.005899126
61	0xbb56c702	-0.0032772426
62	0x3bce1a65	0.0062897676
63	0xbc0ed454	-0.008717615
64	0x3c4f510f	0.012653603
65	0x3bc1ca54	0.005914012
66	0x3b07e6f0	0.0020737015
67	0x3b3a4854	0.0028424459
68	0xbb8a787e	-0.0042257896
69	0xbc3c197b	-0.011480684
70	0xbc3a5e35	-0.011375
71	0xbb807b88	-0.003920976
72	0xbc3bda19	-0.011465573
73	0xba5b4251	-0.0008364069
74	0xbc7562e7	-0.014977193
75	0xbcc6bdc0	-0.024260402
76	0xbb2983a1	-0.002586581
77	0x3c350306	0.011048084
78	0xbc137c17	-0.009001753
79	0xbb5a0494	-0.003326689
80	0xbbc31947	-0.005953941
81	0x3abc6ad9	0.0014375105
82	0x3ac668b5	0.0015137406
83	0xbc470970	-0.012148246
84	0xbbe81c0c	-0.0070834216
85	0xb920e760	-0.00015344983
86	0xbc33c3a7	-0.01097194
87	0x3c432c5b	0.011912431
88	0xbb5d4a8c	-0.0033766357
89	0xbbb42a5c	-0.0054982137
90	0xbb4d97cb	-0.0031370993
91	0xbb681bad	-0.0035416887
92	0xbcc86de7	-0.024466468
93	0x3c1b026a	0.009461025
94	0xbc5239e7	-0.012831188
95	0x3bd4d7c6	0.0064954488
96	0xbc898223	-0.016785687
97	0xb76bf7a2	-1.4064748e-05
98	0xbc00cff1	-0.007862077
99	0x3c2f8823	0.01071361
100	0xba87e3b2	-0.0010367541
101	0xbbac77ab	-0.005263289
102	0xba7b9fc1	-0.00095986953
103	0xbbbfce62	-0.00585346
104	0xbc503f33	-0.01271038
105	0x3c57e0d7	0.013176165
106	0xbca4da64	-0.020123668
107	0xbc4f76f2	-0.012662636
108	0xbbdb4ad0	-0.006692268
109	0xb99b84bd	-0.00029662802
110	0xba44f528	-0.0007513338
111	0x3b9ca137	0.0047799605
112	0x3c14f03f	0.009090482
113	0xbc576cab	-0.013148467
114	0x3cafbf27	0.021453453
115	0x3c01b217	0.007915995
116	0x3bda20a0	0.0066567212
117	0xbb75f398	-0.0037529226
118	0x3c932fc2	0.017967109
119	0x3b6fad57	0.0036571824
120	0x39f04387	0.0004582668
121	0xbb340eb1	-0.0027474577
122	0x3c48e5d9	0.012261831
123	0x3adf3dd9	0.0017031982
124	0x3c56272a	0.013070861
125	0x3c32bd0b	0.010909329
126	0xbbceef74	-0.006315166
127	0x3b242098	0.0025043841
128	0x3a607c61	0.0008563456
129	0xbc4766d8	-0.012170516
130	0x3c42bf6b	0.011886458
131	0xbc307116	-0.010769149
132	0xba0c4d90	-0.0005352134
133	0x3b062c1b	0.0020473066
134	0xbac55795	-0.0015056009
135	0xbb2166eb	-0.0024627994
136	0xbc462524	-0.012093816
137	0xbbcb8e8c	-0.0062120613
138	0x3c262bcf	0.010142281
139	0xbbb30d12	-0.0054642046
140	0x3c15c850	0.0091419965
141	0xbb79c2c4	-0.0038110474
142	0x3a1d455b	0.00059994095
143	0xbc557894	-0.013029236
144	0xbbeaf48c	-0.0071702655
145	0x3ad85ef0	0.0016507786
146	0x3bf24d4e	0.0073944693
147	0xbc02135a	-0.007939184
148	0x3cec17c0	0.028819919
149	0xbc5c697c	-0.013452884
150	0xbc255573	-0.010091173
151	0x3c1b4179	0.009476059
152	0xbccf508d	-0.025306964
153	0xbbf95ba7	-0.0076098028
154	0xbc0d7640	-0.00863415
155	0x3be8f00f	0.0071086953
156	0xbc24297b	-0.010019655
157	0x3ba7dd06	0.0051227836
158	0xbc3f69ef	-0.011682971
159	0x3c13be0a	0.009017477
160	0x3b7ec6aa	0.0038875737
161	0x3b0b3112	0.0021238965
162	0xbc46a2ca	-0.012123773
163	0x3c18a94f	0.00931771
164	0x3c0a2f1a	0.008434081
165	0x3bd8d639	0.006617334
166	0x39946a31	0.00028307879
167	0x3b417859	0.0029521196
168	0x3acc3865	0.0015580772
169	0xbbe379c7	-0.006942007
170	0xbc98c1b5	-0.018647054
171	0x3c87d594	0.016581334
172	0xbb6462f9	-0.0034849031
173	0xbb727cfd	-0.0037000768
174	0x3b3165c3	0.0027068711
175	0x3cbca84f	0.023029475
176	0xbcb84e9e	-0.022498425
177	0xbb738428	-0.0037157629
178	0xbbcdeb74	-0.0062841717
179	0xbb6af41a	-0.0035851062
180	0x3b74e2c5	0.003736661
181	0xbaa9a333	-0.0012942314
182	0xbaad9703	-0.0013243858
183	0x3adee993	0.0017006866
184	0x3c0c2ece	0.008556081
185	0x3c7dabfa	0.015482897
186	0x3bd7603d	0.006572752
187	0xbbc8eff8	-0.006132122
188	0x3a169ab9	0.00057451014
189	0x3b4ecdba	0.0031555728
190	0x3c9416b6	0.018077236
191	0xbc02898c	-0.007967364
192	0xbc315401	-0.010823251
193	0x3b19cf85	0.0023469639
194	0x3b170e67	0.0023049356
195	0xbbd9924b	-0.006639754
196	0x39173ca2	0.0001442307
197	0x3b0cb8e7	0.0021472515
198	0x3c950b70	0.01819393
199	0x3b13e47a	0.0022566603
200	0x3b9dc366	0.004814553
201	0xbadbe7cb	-0.0016777454
202	0x3c023a89	0.007948526
203	0x3c2162fe	0.009850262
204	0x3c0f6add	0.008753506
205	0x3b2112f5	0.002457795
206	0x3bbd4703	0.0057762875
207	0xba2904ee	-0.0006447573
208	0x3bcce6b5	0.0062530884
209	0xbc54d61c	-0.012990501
210	0x3ba16030	0.0049247965
211	0xbbf8cb7e	-0.0075926175
212	0x3c16e1d1	0.009209112
213	0xbb4a8ed7	-0.0030907893
214	0xbc328911	-0.010896937
215	0x3c8c8faf	0.017158357
216	0xbc4323a0	-0.011910349
217	0xba710264	-0.00091937766
218	0xbbe9f79b	-0.0071401126
219	0xbb4c23c8	-0.0031149257
220	0x3bb79e9c	0.0056036245
221	0x3bc45f5d	0.0059928135
222	0x3bb5ac59	0.005544227
223	0xbb14d839	-0.0022711887
224	0xbb95ac31	-0.004567646
225	0xbc83c445	-0.0160848
226	0xbc77660a	-0.015100012
227	0x3b0bef9f	0.0021352542
228	0x3a6b50dc	0.00089765876
229	0x3c57f685	0.013181333
230	0xbaa0c1ce	-0.001226479
231	0xbc5eb181	-0.013592125
232	0x3b38f2bc	0.0028220853
233	0x3b88b4a4	0.0041719247
234	0x3b908980	0.0044109225
235	0x3cff8668	0.03119202
236	0x3ba679c1	0.005080432
237	0x3b573c3b	0.0032842297
238	0xbc06173f	-0.008184253
239	0x3ca70d95	0.020392219
240	0xbca4d65a	-0.020121742
241	0x3b5af415	0.0033409644
242	0xbbfa7896	-0.0076437695
243	0xbbaba707	-0.005238417
244	0xbc31de1a	-0.010856176
245	0x3c6ccb97	0.0144528365
246	0x3c482d2e	0.012217803
247	0x3c90efee	0.017692532
248	0xbc868f32	-0.016425703
249	0xbc0ca8d8	-0.008585177
250	0xbc22a816	-0.00992777
251	0x3c3f19b3	0.011663842
252	0xbb441398	-0.0029918905
253	0x3c08b04e	0.008342816
254	0xbb8522e7	-0.0040629986
255	0xbb90b74d	-0.0044163824

fc1.weight_u f4 [512]
0	0xb9d3986e	-0.00040358625
1	0x39105faa	0.00013768548
2	0xbabf2531	-0.0014583227
3	0xba94e036	-0.0011358324
4	0xba7f5181	-0.0009739623
5	0xba137979	-0.0005625706
6	0xba3eed30	-0.00072832685
7	0x3ac054b2	0.0014673679
8	0xb930303c	-0.00016802637
9	0xba27221a	-0.0006375626
10	0xba9e673a	-0.0012085207
11	0xba5790ce	-0.00082231767
12	0xba97fffe	-0.0011596677
13	0x3866d9ca	5.5039105e-05
14	0x3a918339	0.001110173
15	0xb9f9ca10	-0.0004764353
16	0x3a9e6fb1	0.001208773
17	0xba9d6f3c	-0.00120113
18	0xb736a03e	-1.0885355e-05
19	0x3a8c6033	0.0010709822
20	0xba2dd7ae	-0.0006631565
21	0x395881c3	0.00020647705
22	0xb99c4663	-0.0002980708
23	0xbbf25c66	-0.0073962687
24	0x3ba2d6df	0.0049694623
25	0x38d4670c	0.00010128142
26	0x393bf164	0.00017923635
27	0xba56ed00	-0.0008198768
28	0xb984db8c	-0.00025340577
29	0xbb205ab2	-0.002446812
30	0x39b8bffc	0.00035238254
31	0xba42fdbe	-0.0007438323
32	0x3a810818	0.0009844331
33	0x3aad0388	0.0013199905
34	0xba9a8cc9	-0.0011791225
35	0xba57c80b	-0.0008231408
36	0xba09385a	-0.00052345323
37	0xbc1aec0d	-0.009455693
38	0x39aa0ba5	0.00032433603
39	0xba77c1ce	-0.00094511814
40	0xba627cd8	-0.0008639819
41	0xb8e8cd23	-0.00011100832
42	0xba153b40	-0.0005692728
43	0xb91255d9	-0.00013955626
44	0x3a1e5fad	0.00060414785
45	0x3908d428	0.00013049005
46	0xba5245e7	-0.00080212805
47	0x3891bb5d	6.949038e-05
48	0x37d8e3ab	2.5855223e-05
49	0x3c0e4c2a	0.008685151
50	0x3a0bc78c	0.0005332164
51	0xba5d2df9	-0.00084373314
52	0xb9bb368c	-0.0003570806
53	0xbb04de48	-0.0020274092
54	0xbac068ca	-0.0014679667
55	0xba752371	-0.00093512895
56	0xb96c197d	-0.00022516209
57	0xba3d54a0	-0.0007222388
58	0xba4d3a65	-0.0007828831
59	0x3cfecf27	0.031104637
60	0xb9cbded9	-0.00038885212
61	0x3a2f7b0d	0.0006694056
62	0xba724148	-0.0009241295
63	0xb9f02548	-0.00045804144
64	0xbc39959f	-0.011327176
65	0xba8703ed	-0.0010300853
66	0xba3f27c4	-0.00072919973
67	0xba8ef60d	-0.0010907069
68	0x3a1a97d9	0.0005897261
69	0xba51b177	-0.00079991616
70	0xb8889553	-6.512799e-05
71	0xba613dd8	-0.0008592284
72	0xba8d877f	-0.0010797827
73	0xba66e6ba	-0.00088081846
74	0xb9efae87	-0.00045715665
75	0xba569353	-0.0008185405
76	0xba03ed6c	-0.0005032632
77	0xb9a1f48c	-0.00030890515
78	0x398af81b	0.00026506264
79	0x3c064363	0.008194777
80	0xba027aaa	-0.0004977385
81	0xb9bbbd0a	-0.00035808265
82	0x39c4e44d	0.0003755413
83	0xb9ecaef7	-0.00045143787
84	0x39c385ab	0.0003729289
85	0xb96e22b3	-0.00022710375
86	0x3b8fbb54	0.004386345
87	0xba53afa8	-0.0008075186
88	0xb94f282f	-0.00019756028
89	0x39916848	0.0002773425
90	0xba8b081d	-0.0010607276
91	0x3c5cff05	0.013488536
92	0xba80467a	-0.0009786629
93	0xb8794d86	-5.9438426e-05
94	0xba253a63	-0.0006302951
95	0xba95a6b1	-0.0011417476
96	0xbac2fd75	-0.0014876561
97	0x3795011d	1.7762703e-05
98	0xb8afa8dd	-8.3761035e-05
99	0xba218e8d	-0.00061629043
100	0x3a5ee3e3	0.00085025857
101	0xbb079ea3	-0.002069392
102	0xbad4c6da	-0.0016233579
103	0xb9d172a8	-0.00039949012
104	0x3a5e9008	0.000849009
105	0xbadc4684	-0.0016805683
106	0xb9a16e20	-0.00030790363
107	0xba056391	-0.0005088384
108	0xb92fdef8	-0.00016772363
109	0xb9ea3905	-0.0004467444
110	0xbd2f9111	-0.042862955
111	0xbc095e01	-0.008384229
112	0xbac0b145	-0.0014701268
113	0xbb07258c	-0.0020621745
114	0xb98032af	-0.00024451825
115	0xba79049a	-0.0009499282
116	0x39aa83f4	0.0003252324
117	0xb9ec0856	-0.00045019638
118	0xbc12f4e8	-0.008969523
119	0xbd6a90d8	-0.05726704
120	0xbacfea85	-0.0015862739
121	0x39ea8d17	0.00044737078
122	0x39f67ca9	0.00047013655
123	0x399ff982	0.0003051274
124	0x3a10939c	0.00055151596
125	0xbf7b4dfc	-0.9816587
126	0x3a333bd8	0.00068372255
127	0x393515ab	0.00017269577
128	0xba998ba8	-0.0011714594
129	0xba3968be	-0.0007072798
130	0xba7dac2f	-0.00096768414
131	0x3994f7cc	0.00028413383
132	0xb9eb8b79	-0.00044926608
133	0xbc85509f	-0.016273795
134	0x3aa376cf	0.0012471321
135	0x39cf1742	0.00039499445
136	0x3acd0ec5	0.001564466
137	0xb8a91105	-8.061718e-05
138	0xba9b1034	-0.001183039
139	0xbad6d385	-0.0016389942
140	0x39734dcd	0.00023203269
141	0xba0a35e2	-0.00052723114
142	0xbba5c722	-0.005059139
143	0xba10c559	-0.0005522571
144	0xbaa7b635	-0.0012795391
145	0xb9493499	-0.00019188448
146	0xb9941fc7	-0.00028252436
147	0xbdd76b9b	-0.10518571
148	0x37a8336d	2.0051108e-05
149	0xbb1f7b5b	-0.0024335
150	0x3a97cd90	0.0011581648
151	0xba853a00	-0.001016438
152	0xbbe7e68a	-0.007077043
153	0xba1b6fab	-0.00059294206
154	0x39fba887	0.00048000013
155	0xba73aaa1	-0.000929514
156	0xba260d7c	-0.0006334407
157	0xba61f187	-0.0008619059
158	0x398d6f5d	0.00026976588
159	0xba872e24	-0.0010313434
160	0x3999e2a8	0.00029351306
161	0x3a45dce7	0.00075478706
162	0xbc9528e9	-0.018207984
163	0xba533214	-0.00080564735
164	0x3c1019c1	0.008795203
165	0x3a8ea28e	0.0010882185
166	0xba3fa05d	-0.0007309968
167	0x394e315a	0.00019664076
168	0xbaaad1b5	-0.0013032468
169	0x39727613	0.00023122905
170	0x39c5ee73	0.00037752427
171	0xbceb1655	-0.028697172
172	0xba90f6ba	-0.0011059858
173	0x3a93af1c	0.0011267397
174	0x3a1d277a	0.0005994957
175	0xb9b5b011	-0.0003465419
176	0x3c547e9f	0.012969642
177	0xbaba38ed	-0.0014207639
178	0xb9dde775	-0.00042324854
179	0xbadb8989	-0.0016749363
180	0x389749f1	7.214014e-05
181	0x3aca5fd7	0.001543994
182	0x3d93c741	0.07215739
183	0xb98039b7	-0.00024457063
184	0xba5b8cb0	-0.0008375151
185	0xb97243b3	-0.00023104138
186	0xba881009	-0.0010380755
187	0xba7af2b6	-0.000957291
188	0xba0d660e	-0.00053939305
189	0xba8d4100	-0.0010776818
190	0xb8f8f94d	-0.000118719974
191	0x3631f168	2.6515572e-06
192	0xb9ed956c	-0.0004531549
193	0x38afaddb	8.3770334e-05
194	0xbadcc783	-0.0016844127
195	0xbc1b87f0	-0.009492859
196	0x3cbd723e	0.023125764
197	0x39c3e70c	0.00037365442
198	0xb982ed7f	-0.0002497248
199	0xba6f1339	-0.0009119991
200	0x3bbc6021	0.005748764
201	0x3a373dea	0.0006990122
202	0x3a00e95c	0.0004917586
203	0x3a771a8a	0.0009426257
204	0xbad69e56	-0.0016374092
205	0x399e9c2c	0.00030252466
206	0x3a0273d7	0.0004976368
207	0x39e5bf28	0.00043820706
208	0x3980403a	0.00024461915
209	0xb993ba38	-0.0002817677
210	0xb9dacf63	-0.00041734715
211	0xb9a1334d	-0.00030746535
212	0x3aa92712	0.0012905321
213	0x3977848e	0.00023605136
214	0xb96e0169	-0.00022697974
215	0xbc4265c1	-0.01186508
216	0x395c44e2	0.00021006496
217	0x3a5efe39	0.000850651
218	0xba291073	-0.00064492895
219	0x395bcc29	0.00020961523
220	0x3a01779a	0.00049387815
221	0xb9af090a	-0.00033385336
222	0x39e2c15c	0.00043250143
223	0x3a8b48be	0.0010626537
224	0xbab10de2	-0.0013508166
225	0xb9882355	-0.00025966266
226	0xbca4881e	-0.020084437
227	0x3bb6cc6a	0.0055785673
228	0xb97a0391	-0.00023843187
229	0xb9a313f1	-0.0003110464
230	0x37f4d2e3	2.9185268e-05
231	0xba95572e	-0.001139378
232	0xba8b6540	-0.0010635033
233	0xb94a9ff7	-0.00019323813
234	0xb8bb42f2	-8.9293244e-05
235	0xba5bf8f9	-0.0008391287
236	0xb772e3db	-1.4477376e-05
237	0x399f722a	0.00030411902
238	0x3a171e44	0.0005764703
239	0x39ae90af	0.00033295664
240	0xbaddd507	-0.0016924449
241	0xbcde0ce5	-0.027105758
242	0xb95aeed0	-0.00020879065
243	0xbae3148f	-0.0017324853
244	0xbc12010a	-0.008911381
245	0xba8a095e	-0.0010531356
246	0xb9522932	-0.00020042507
247	0xba993aba	-0.0011690476
248	0x3a0ad231	0.0005295603
249	0xba7f9ec3	-0.00097511354
250	0x39357b8b	0.00017307528
251	0xba8e3537	-0.00108496
252	0x3a8a7327	0.0010562883
253	0xb922607f	-0.00015485472
254	0xba621811	-0.0008624802
255	0xbab22c52	-0.0013593531

fc1.weight_v f4 [42]
0	0x3e11e216	0.14246401
1	0xbc886d42	-0.01665366
2	0x3e00ec59	0.1259016
3	0x3e11a9b9	0.142249
4	0x3d6e070e	0.058112197
5	0x3d853ec3	0.065061115
6	0x3f60b5e2	0.8777753
7	0xbd8e575d	-0.06950257
8	0xba8fac35	-0.0010961356
9	0xbd43ea83	-0.04783107
10	0xbdf31dbe	-0.11870907
11	0x3de830d4	0.11337438
12	0xbdb776a8	-0.08958179
13	0xbd9a2be5	-0.075279035
14	0xbb87b643	-0.0041416003
15	0xbd76d29d	-0.06025945
16	0xbc957b7a	-0.018247355
17	0x3d7a7d80	0.061154842
18	0xbe2b755e	-0.16743991
19	0xbb4b756f	-0.0031045338
20	0xbd0aa484	-0.0338483
21	0xbc06c1be	-0.008224903
22	0x3b1e3dc3	0.00241457
23	0x3e0bf78e	0.13668653
24	0x3d65e49f	0.056126233
25	0xbd1f52c8	-0.038897306
26	0xbdacc7d3	-0.08436551
27	0x3d949a1a	0.07255955
28	0x3d0737ed	0.03301232
29	0x3df66f7c	0.12032983
30	0xbcd6b6b8	-0.026210174
31	0x3daeb386	0.08530335
32	0x3ce2e2a2	0.027695958
33	0x3c191d88	0.00934542
34	0xbcf14202	-0.02945042
35	0x3cb646fe	0.022250649
36	0x3c5feab8	0.013666801
37	0xbd3a9d18	-0.045559973
38	0xbdd30246	-0.10303168
39	0xbc92c14a	-0.017914433
40	0xbd3f7ae2	-0.04674805
41	0x3d76f6f0	0.06029409

fc2.bias f4 [256]
0	0xbeccc671	-0.3999515
1	0xbf27928a	-0.65457976
2	0xbe48b777	-0.19601236
3	0xbe8a7cc2	-0.27048308
4	0xbecdab68	-0.40169835
5	0xbe5d2b4b	-0.21598546
6	0xbee86881	-0.4539223
7	0xbf301845	-0.6878703
8	0xbf13e017	-0.5776381
9	0xbe50b5ad	-0.20381804
10	0xbee7174b	-0.4513496
11	0xbe947b82	-0.2900048
12	0xbe74e6c7	-0.2391616
13	0xbe94d537	-0.2906892
14	0xbea2e924	-0.31818497
15	0xbf00896d	-0.50209695
16	0xbed17871	-0.40912202
17	0xbe9152ef	-0.28383586
18	0xbecdf2bc	-0.40224254
19	0xbe5ea6f5	-0.21743377
20	0xbe85264f	-0.2600579
21	0xbeaa15c3	-0.33219728
22	0xbe863959	-0.26215628
23	0xbe7b0f33	-0.24517517
24	0xbeebec9b	-0.46078953
25	0xbf14c70d	-0.5811623
26	0xbe26ad01	-0.16276933
27	0xbece2f46	-0.40270442
28	0xbe634bd2	-0.22196892
29	0xbe1c42b2	-0.15259817
30	0xbebb91f4	-0.3663479
31	0xbe6c90c8	-0.23102105
32	0xbe75b438	-0.23994529
33	0xbe90f6da	-0.28313333
34	0xbec6b434	-0.3880936
35	0xbe66ef88	-0.22552311
36	0xbe2e4751	-0.17019393
37	0xbf63147d	-0.8870314
38	0xbec292fd	-0.38002768
39	0xbec30f2e	-0.3809752
40	0xbf137ad0	-0.5760927
41	0xbf654371	-0.8955603
42	0xbeae066d	-0.33989277
43	0xbf04ee30	-0.51925945
44	0xbe485809	-0.19564833
45	0xbec188aa	-0.3779958
46	0xbd717e55	-0.05895837
47	0xbed78dd7	-0.42100403
48	0xbe476423	-0.19471793
49	0xbe9fa2b1	-0.3117881
50	0xbf3be45f	-0.7339534
51	0xbf01053c	-0.5039861
52	0xbe4d4269	-0.20044865
53	0xbe48e4cd	-0.1961853
54	0xbe5788d7	-0.21048294
55	0xbe78c252	-0.24292877
56	0xbf43eb57	-0.76530975
57	0xbec352d7	-0.3814914
58	0xbe46bed4	-0.19408733
59	0xbebd10a0	-0.36926746
60	0xbdcabfc0	-0.09899855
61	0xbe804fd0	-0.25060892
62	0xbdf26000	-0.11834717
63	0xbe9100c0	-0.28320885
64	0xbe0f1daa	-0.1397616
65	0xbf0c0ef5	-0.5471032
66	0xbe065676	-0.1311892
67	0xbe9999f0	-0.30000257
68	0xbf044180	-0.51662445
69	0xbec8f149	-0.39246586
70	0xbe0e5267	-0.13898621
71	0xbe687f76	-0.22704872
72	0xbe4310e8	-0.19049418
73	0xbe83f0af	-0.25769565
74	0xbe848ea9	-0.2589009
75	0xbf07c261	-0.53030974
76	0xbf1cf8d8	-0.61317205
77	0xbe755cbf	-0.23961161
78	0xbeb0eed6	-0.34557217
79	0xbe1d48b0	-0.1535976
80	0xbf1bc0cd	-0.60841066
81	0xbeacb545	-0.33732048
82	0xbe3965e8	-0.1810528
83	0xbeb88c3b	-0.36044487
84	0xbe9f8bb5	-0.31161276
85	0xbee136fc	-0.43987262
86	0xbec0cb2d	-0.3765501
87	0xbe820d3f	-0.2540073
88	0xbe9b5790	-0.30340242
89	0xbe53128f	-0.20612548
90	0xbe629916	-0.2212871
91	0xbf457851	-0.77136713
92	0xbe866f4b	-0.26256785
93	0xbe1378a8	-0.14401495
94	0xbea08e2f	-0.31358477
95	0xbe4de2a1	-0.20105983
96	0xbe2e887c	-0.17044252
97	0xbeaf1165	-0.34192958
98	0xbeb25a45	-0.34834495
99	0xbeaab541	-0.3334141
100	0xbe651fbb	-0.22375385
101	0xbe82f45e	-0.25577062
102	0xbdef1854	-0.11674562
103	0xbe0e1eba	-0.13878909
104	0xbea18df5	-0.31553617
105	0xbef54dab	-0.47910818
106	0xbe06ff66	-0.13183364
107	0xbe2f3cf2	-0.17113093
108	0xbdf56025	-0.11981229
109	0xbf47dc8c	-0.780709
110	0xbe044990	-0.12918687
111	0xbe60fd61	-0.21971656
112	0xbe967438	-0.29385543
113	0xbe8f5c2e	-0.28000015
114	0xbe09a2be	-0.13440987
115	0xbe16e888	-0.14737141
116	0xbe0ba3bc	-0.13636678
117	0xbe78323a	-0.2423791
118	0xbe7dffa2	-0.24804547
119	0xbede1590	-0.43375826
120	0xbea0c396	-0.3139922
121	0xbe8d1b38	-0.2755983
122	0xbe3ee8b5	-0.18643458
123	0xbe90b21c	-0.28260887
124	0xbecfc7e1	-0.40582183
125	0xbdee0c64	-0.11623457
126	0xbebaf2bf	-0.36513326
127	0xbe053df0	-0.13011909
128	0xbeb2f09c	-0.34949195
129	0xbeaf2e8c	-0.342152
130	0xbe82c587	-0.25541326
131	0xbe7208f4	-0.23636228
132	0xbf2e8391	-0.68169504
133	0xbf3995a9	-0.7249399
134	0xbe8a98a2	-0.27069575
135	0xbe5824fb	-0.21107857
136	0xbef92e13	-0.48667964
137	0xbec02d52	-0.37534577
138	0xbe886dd0	-0.2664628
139	0xbe04cb24	-0.12968117
140	0xbe8d0e9a	-0.27550203
141	0xbe9c7730	-0.30559683
142	0xbe8a8c74	-0.27060282
143	0xbdfeec1e	-0.124473795
144	0xbe9bfeec	-0.30467927
145	0xbee024c6	-0.43778056
146	0xbe528569	-0.20558704
147	0xbe4f6adc	-0.20255607
148	0xbe9cc885	-0.30621734
149	0xbed298b6	-0.41132134
150	0xbe6dcecb	-0.23223417
151	0xbea2f796	-0.31829518
152	0xbe9077ac	-0.28216302
153	0xbe543714	-0.20724136
154	0xbdd48daf	-0.103785865
155	0xbe75ba02	-0.23996738
156	0xbe83386e	-0.2562899
157	0xbe3635ed	-0.17794009
158	0xbe787504	-0.24263388
159	0xbec86565	-0.39139858
160	0xbe2d0170	-0.1689508
161	0xbee953dc	-0.45571792
162	0xbe95229d	-0.2912797
163	0xbf19d33d	-0.6008795
164	0xbe4419d4	-0.19150478
165	0xbe0ebfd6	-0.13940367
166	0xbee9a280	-0.4563179
167	0xbe515128	-0.20441115
168	0xbf071e30	-0.5278044
169	0xbe8041f1	-0.2505031
170	0xbede211b	-0.43384632
171	0xbe043220	-0.12909746
172	0xbf7bab0f	-0.9830789
173	0xbf191383	-0.597954
174	0xbe762f40	-0.24041462
175	0xbe88e2b9	-0.26735476
176	0xbe40ea3a	-0.1883935
177	0xbe889b79	-0.26681116
178	0xbec560a4	-0.38550293
179	0xbe293e04	-0.16527563
180	0xbe21887e	-0.15774724
181	0xbe56c88e	-0.20974943
182	0xbed05ec0	-0.4069729
183	0xbef304a3	-0.47464475
184	0xbf040785	-0.51573974
185	0xbecb3edd	-0.39696398
186	0xbe7731a1	-0.24140026
187	0xbe33ae64	-0.17546993
188	0xbe5ad0d9	-0.21368732
189	0xbe69fcb5	-0.22850306
190	0xbe4a37cd	-0.19747849
191	0xbe1d7bca	-0.15379253
192	0xbe535dab	-0.206412
193	0xbe3d0a83	-0.18461041
194	0xbe699a4d	-0.22812767
195	0xbe657462	-0.22407678
196	0xbe900d17	-0.28134987
197	0xbe903ffe	-0.28173822
198	0xbe57c65f	-0.21071766
199	0xbf077b80	-0.5292282
200	0xbe8753a6	-0.26431006
201	0xbe98414e	-0.29737324
202	0xbe2e8f64	-0.17046887
203	0xbde5148b	-0.11185559
204	0xbdc671dd	-0.096896864
205	0xbe3b92ff	-0.18317793
206	0xbe566872	-0.2093828
207	0xbe42d1b0	-0.19025302
208	0xbebb9017	-0.3663337
209	0xbe3dab26	-0.18522319
210	0xbe8f3836	-0.27972573
211	0xbdcbb2b9	-0.09946198
212	0xbeb62361	-0.35573867
213	0xbde44c2f	-0.11147343
214	0xbeb426ea	-0.3518594
215	0xbec10d30	-0.37705374
216	0xbe9ddc7a	-0.30832273
217	0xbe8a1786	-0.26971072
218	0xbe575010	-0.21026635
219	0xbf1ca80c	-0.6119392
220	0xbed39fe9	-0.4133294
221	0xbedc162d	-0.4298567
222	0xbec17f2c	-0.37792337
223	0xbe95c9dc	-0.2925557
224	0xbee7ba3c	-0.45259273
225	0xbe379e7c	-0.1793155
226	0xbdeb8163	-0.11499288
227	0xbea15623	-0.3151103
228	0xbeaa031e	-0.33205503
229	0xbf013999	-0.5047851
230	0xbe6d4892	-0.23172215
231	0xbf2c785e	-0.67371166
232	0xbe60a686	-0.21938524
233	0xbebf66ce	-0.3738312
234	0xbe7f7077	-0.24945246
235	0xbebd6dfc	-0.36997974
236	0xbe916c9b	-0.28403172
237	0xbe162403	-0.14662175
238	0xbeddb3d2	-0.43301255
239	0xbe45c71f	-0.1931424
240	0xbe63204e	-0.22180292
241	0xbed0f226	-0.40809745
242	0xbe6e1f9a	-0.23254243
243	0xbf028326	-0.50981367
244	0xbe33940c	-0.17536944
245	0xbe3fb508	-0.18721402
246	0xbeb4dc3a	-0.3532427
247	0xbef618fa	-0.4806593
248	0xbed1a4c6	-0.40946025
249	0xbe3345d4	-0.17507106
250	0xbea1f7bc	-0.3163432
251	0xbf2c9032	-0.67407525
252	0xbec4514a	-0.3834327
253	0xbe5812ac	-0.21100873
254	0xbedf2ead	-0.43590298
255	0xbe71da8d	-0.23618527

fc2.weight_orig f4 [256, 512]
0	0x3ab5f2c3	0.0013881553
1	0x3b0adafb	0.0021187651
2	0xbcc3ead1	-0.02391568
3	0x3cbf2913	0.023335015
4	0x3c08d87f	0.008352398
5	0x3c85ce0a	0.016333599
6	0x3c4a68c5	0.012354081
7	0xbc5ad2bc	-0.013355907
8	0xbcaea700	-0.021319866
9	0xbd1b519d	-0.03791963
10	0xbc2e20d9	-0.010627949
11	0xbc14661d	-0.009057549
12	0xbc62d400	-0.01384449
13	0x3a81aaef	0.0009892861
14	0x3b3f99dc	0.0029235994
15	0x3c3bc6ac	0.011460941
16	0x3c68e5e0	0.014214963
17	0xbbaf70b4	-0.0053540114
18	0x3aa819cf	0.0012825074
19	0xbc9d1ebf	-0.0191797
20	0xbc1e2bc5	-0.00965399
21	0x39840c2e	0.00025186077
22	0x3b6deadc	0.0036303317
23	0x3c7986a8	0.015229858
24	0xbd3c1ff6	-0.045928918
25	0x3c6f1ae4	0.014593814
26	0xbcee7a27	-0.029110981
27	0x3c588a82	0.013216617
28	0xb9961d96	-0.00028632273
29	0xbccdd95d	-0.025128061
30	0x3bb25b53	0.0054430156
31	0x3d12b9c3	0.035821687
32	0x3c2e7d60	0.010650009
33	0x3c1d985b	0.009618844
34	0x3c1515e2	0.009099456
35	0x3d03f879	0.032219384
36	0xba26ef62	-0.0006368068
37	0xbc1a7f6a	-0.009429792
38	0x3b872d2b	0.0041252575
39	0xbc8a805b	-0.016906908
40	0xbc58e4db	-0.013238157
41	0x3b12d550	0.0022404976
42	0xbb174065	-0.0023079154
43	0xbca60953	-0.020268118
44	0x3ab6d315	0.0013948405
45	0xbc932df7	-0.017966254
46	0x3c56bdbc	0.01310676
47	0x3cbd621f	0.023118077
48	0x3cf8e040	0.030380368
49	0x3a29c59c	0.00064762845
50	0xbb6fdba8	-0.0036599431
51	0x3d0042b6	0.03131362
52	0xbc4254e8	-0.011861064
53	0xbcf07754	-0.029353775
54	0xbc1da400	-0.00962162
55	0xbb4c6c15	-0.0031192352
56	0x3c8507a1	0.01623899
57	0x3aabcf4c	0.0013108044
58	0x3c36fae9	0.01116822
59	0xbc03de76	-0.008048644
60	0x3c2ff4d8	0.010739528
61	0xbb73907a	-0.0037164972
62	0xbca6803f	-0.020324824
63	0x3c64f9bd	0.013975558
64	0x3daba7e6	0.083816335
65	0x3beaa9ed	0.00716137
66	0x3b8be742	0.0042695114
67	0x3c53e4e4	0.01293299
68	0x3bdfe61b	0.0068328506
69	0xbb0399a8	-0.00200806
70	0xbcbf1265	-0.0233242
71	0xbb08d529	-0.0020879006
72	0x3cb3a606	0.021929752
73	0x3b3dd5b3	0.0028966486
74	0xbb43a292	-0.0029851538
75	0x3cc07972	0.02349541
76	0xbc1e27d6	-0.009653052
77	0xbca35aba	-0.019940723
78	0x3c86f64e	0.01647487
79	0xbd337bc8	-0.04381922
80	0x3c578c8c	0.013156068
81	0x3c3d0c3d	0.011538562
82	0xb9d52798	-0.00040656026
83	0xbbb85f9f	-0.0056266333
84	0x3c615fd0	0.013755754
85	0x3ab0ffc0	0.0013503954
86	0x3d83b3a0	0.06430745
87	0xbba31ee9	-0.00497805
88	0x3b404a6b	0.0029341232
89	0xbbbe4978	-0.005807098
90	0x3cacd59f	0.021097956
91	0xbe3ee5ff	-0.18642424
92	0xbc97bc42	-0.018522386
93	0xbc57bfef	-0.013168319
94	0x3b87c937	0.0041438597
95	0x3c1665d5	0.009179552
96	0x3b8e3703	0.004340054
97	0xbc5961c2	-0.013267936
98	0x3be3ab0f	0.006947882
99	0x3cf05c89	0.029341
100	0xbab58404	-0.0013848548
101	0xbc45746d	-0.012051684
102	0x3cc0d854	0.023540653
103	0x3b80a342	0.003925712
104	0xbb1d847f	-0.0024035273
105	0x3bae57c2	0.00532052
106	0x3c61492e	0.013750358
107	0x3c51222d	0.012764496
108	0x3c4045b2	0.011735367
109	0xbbcd947e	-0.006273805
110	0xbd6f9a19	-0.05849657
111	0xbd8f425d	-0.0699508
112	0x3b862e87	0.004094902
113	0xbb1ec82f	-0.0024228205
114	0x3c5e3de2	0.013564559
115	0xbd05a881	-0.0326314
116	0xbc6af2a0	-0.014340073
117	0xbc49a72d	-0.012307924
118	0xbd46e878	-0.048561543
119	0x3d0535e3	0.032522094
120	0x3d0623c0	0.032748938
121	0x3c253e29	0.010085621
122	0x3c16b77b	0.009199019
123	0xbc3e60d2	-0.011619763
124	0x3c2cacdf	0.010539263
125	0xbc8fed18	-0.01756911
126	0xba80967d	-0.0009810474
127	0xbce6782b	-0.028133472
128	0x3be86938	0.007092621
129	0x3c105afe	0.008810757
130	0x3c7dd899	0.015493535
131	0xbad982fd	-0.0016594824
132	0xbcd8d341	-0.026467921
133	0x3e09776f	0.13424467
134	0xbcca9af7	-0.024732096
135	0xbbb9b2d3	-0.0056670695
136	0x3ccaa885	0.02473856
137	0x3c0159f7	0.007894984
138	0xbc898f21	-0.016791882
139	0x3c8d6f28	0.017264917
140	0xbc93b371	-0.0180299
141	0x3af463f6	0.0018645513
142	0xbe247625	-0.16060694
143	0x3cc86026	0.02445991
144	0x389940a7	7.307651e-05
145	0x3b3d4a1a	0.002888328
146	0xbbde750a	-0.0067888545
147	0x3d98b509	0.07456405
148	0xbbd29413	-0.006426343
149	0x3c22eb46	0.009943789
150	0x3d2feb13	0.042948794
151	0x3b71ee9c	0.0036915904
152	0xbd340338	-0.043948382
153	0x3c9cd7b1	0.019145818
154	0x3c82a724	0.01594884
155	0xbc36f9cb	-0.011167954
156	0x3cc94ecd	0.024573708
157	0x3bc9dce8	0.0061603673
158	0x3bc0d699	0.005884957
159	0xbc28881f	-0.01028636
160	0x3d377bc6	0.044795774
161	0x3c261f0c	0.010139238
162	0x3cace896	0.021107
163	0xbba8fd77	-0.0051571685
164	0x3d0e7f93	0.034789633
165	0x3c88e987	0.016712917
166	0x3c9bba37	0.019009693
167	0xbc389782	-0.011266591
168	0xbc424480	-0.011857152
169	0x3c590b73	0.013247359
170	0x3aff75f8	0.0019490113
171	0x3d89e02e	0.06732212
172	0x3c5e5efb	0.01357245
173	0x3a10f064	0.0005528985
174	0xbbc94971	-0.006142788
175	0xbb2c994e	-0.0026336494
176	0xbd0b1a16	-0.033960424
177	0x3cf66afb	0.03008031
178	0x3cfd3e68	0.030913547
179	0x3c454b11	0.012041823
180	0x3be66572	0.007031136
181	0xbc2f1575	-0.010686268
182	0xbe1c5fc1	-0.15270902
183	0xbcf22dad	-0.029562796
184	0xbbbcbd77	-0.0057598907
185	0x3cf9343b	0.030420413
186	0xbbcf2ca8	-0.006322462
187	0x3c4b13a9	0.012394824
188	0x3b6e2b52	0.003634174
189	0x3b76d6b0	0.0037664585
190	0x3bd6010d	0.006530887
191	0xbc1b8c7a	-0.009493941
192	0xbbe03202	-0.006841899
193	0xbcc75fbe	-0.024337646
194	0xbbb2e7c9	-0.00545976
195	0x3e32df2e	0.17467949
196	0xbbe0c52e	-0.006859443
197	0xbbbe8823	-0.0058145686
198	0x3d1bd476	0.038044415
199	0xbacc15bf	-0.0015570446
200	0x3d3fc68f	0.04682022
201	0x3c5c508b	0.013446937
202	0xbc5c2268	-0.013435937
203	0xbc6ad1d5	-0.014332254
204	0x3c32c366	0.010910844
205	0xbce8f5e0	-0.028437555
206	0x3cc698e1	0.02424282
207	0x3d05408e	0.032532267
208	0xbc1f645a	-0.0097285155
209	0xbc8a6873	-0.016895508
210	0x3c692744	0.014230553
211	0x3c31bffc	0.010848995
212	0xbc3ab26f	-0.011395081
213	0x3ce1ef9e	0.027580079
214	0xbbaaf2f4	-0.0052169506
215	0x3d9ec8c1	0.077531345
216	0x3c6aabcb	0.014323185
217	0x3b9b04b0	0.0047307834
218	0x3cea3f6b	0.028594693
219	0x3bd75801	0.00657177
220	0xbc96e350	-0.018418938
221	0xbd134a6a	-0.03595964
222	0x3c9d95c8	0.01923646
223	0xb85d24f3	-5.2724918e-05
224	0xbb92934b	-0.004473125
225	0x3bbe499f	0.005807116
226	0x3d6c7601	0.057729725
227	0xbdfffc4e	-0.12499295
228	0xbc45017d	-0.012024281
229	0x3c244ac1	0.010027588
230	0x3b3e9a82	0.0029083793
231	0x3ae2c8de	0.0017302295
232	0x3c19ddd2	0.009391265
233	0xbb31b625	-0.0027116623
234	0xbc9bd7f3	-0.019023871
235	0x3d0d947a	0.034565426
236	0x3c79efc7	0.015254921
237	0x3bf07c62	0.0073390463
238	0xbca8e34d	-0.020616198
239	0x3d240fbd	0.04005407
240	0xbc23c88c	-0.009996545
241	0x3be47431	0.006971859
242	0xbc3dae3e	-0.011577187
243	0x3b28e672	0.0025772122
244	0x3ddc6ebf	0.10763311
245	0xbcb74a78	-0.022374377
246	0x3b34a58a	0.002756449
247	0x3d202cbd	0.039105166
248	0x3c7f5870	0.01558505
249	0xbc482aaa	-0.012217203
250	0x3c433cce	0.011916352
251	0xbc0eb012	-0.008708971
252	0xbc4d44e9	-0.0125286365
253	0xbaf8f724	-0.0018994552
254	0xba4eb5ef	-0.00078853866
255	0xbc1cf25b	-0.009579266

fc2.weight_u f4 [256]
0	0x3c53d28b	0.012928615
1	0x3ba17faf	0.004928551
2	0x3ba34f04	0.0049837846
3	0x3b566553	0.0032714203
4	0xbb50ad92	-0.0031841737
5	0xbbb2f457	-0.0054612565
6	0x3bdb9517	0.0067011225
7	0x3b9ed1ac	0.004846772
8	0xbb983cb0	-0.0046459064
9	0x3ba59e96	0.0050543053
10	0xba8cce71	-0.0010742677
11	0xba60d4f0	-0.0008576652
12	0xbbd4d7b2	-0.0064954394
13	0xb9e0d40b	-0.00042882594
14	0xbbc4a688	-0.0060012974
15	0x3bdbff4a	0.0067137824
16	0x399811fd	0.00029005102
17	0x3b9c364d	0.0047672153
18	0xba77bcc9	-0.00094504334
19	0x3bfb3977	0.0076667625
20	0xb9c0bc5c	-0.00036761432
21	0x3acf2b1d	0.0015805695
22	0x3a95d18c	0.0011430248
23	0x3b871624	0.0041225124
24	0x3b8b1bcf	0.0042452584
25	0xba3a9420	-0.0007117409
26	0x3b898e86	0.0041978983
27	0xbc87f557	-0.01659648
28	0xbc1eb0ab	-0.009685676
29	0x3bc0c7ab	0.0058831773
30	0xbb027b40	-0.0019909889
31	0x3ba3625e	0.0049860915
32	0x3b47a402	0.0030462747
33	0x3b8a9dd5	0.004230241
34	0xbacddba5	-0.0015705718
35	0x3bae96fc	0.0053280573
36	0xbd3926ff	-0.045203205
37	0x3bd3383f	0.006445914
38	0xbb1b6f01	-0.0023717287
39	0xbaaa9d7b	-0.0013016904
40	0xba5a2690	-0.00083217863
41	0xbb7c4ef5	-0.003849921
42	0xbb7fb97c	-0.003902047
43	0x3a8c926f	0.0010724793
44	0x3a28971b	0.0006431208
45	0xbaaece27	-0.0013336585
46	0xbc1d4672	-0.009599315
47	0x3c866fa1	0.01641065
48	0x3bcd7c11	0.0062708934
49	0xbbbad5b0	-0.005701743
50	0xbb02dd6d	-0.0019968406
51	0x39952fc2	0.00028455077
52	0xbc1af077	-0.009456745
53	0xbc2455b3	-0.010030198
54	0x3ca8f8b6	0.020626407
55	0xbc295ca6	-0.0103370305
56	0x3a8d8088	0.0010795752
57	0xbb19051a	-0.0023348988
58	0xba4ef884	-0.0007895308
59	0x3a592c1f	0.00082844676
60	0x39bb66c6	0.00035743992
61	0x3bae96bc	0.0053280275
62	0xbaae042c	-0.001327639
63	0xbb0fd550	-0.0021947213
64	0xbc401af0	-0.011725172
65	0xbb9970fd	-0.0046826587
66	0xbd1dcc1d	-0.038524736
67	0xbb16214f	-0.0022908037
68	0xbb5332ff	-0.003222644
69	0xbd30ea15	-0.043191988
70	0xbcf3ebc1	-0.029775502
71	0xb92fb336	-0.00016756062
72	0xbb7824a5	-0.0037863639
73	0xbb83ce31	-0.0040223827
74	0xbb107cf3	-0.0022047132
75	0x3e8bd06f	0.2730746
76	0xbaea5201	-0.0017877222
77	0xbb8d56cf	-0.004313327
78	0xbb5b1156	-0.003342708
79	0x39ad113e	0.00033009978
80	0xbb417986	-0.0029521897
81	0xbb05574e	-0.0020346227
82	0xba5b25d2	-0.00083598227
83	0xbb931a2f	-0.0044892053
84	0xbb965f12	-0.00458897
85	0x3b8e0211	0.0043337424
86	0xbbfe3aa6	-0.0077584563
87	0x3a660d31	0.00087757694
88	0xbb815ad4	-0.003947595
89	0xbb1bd0b5	-0.0023775522
90	0x3a066fdd	0.0005128363
91	0xbbadca47	-0.0053036544
92	0xba5f3b70	-0.0008515632
93	0xb9dae92e	-0.00041753933
94	0x3c4382e7	0.011933065
95	0x3c16828a	0.009186396
96	0xbacfa2e0	-0.0015841387
97	0xbb527d03	-0.003211797
98	0x3a12243f	0.0005574859
99	0xbb571d62	-0.003282391
100	0xbbd0db00	-0.006373763
101	0x3d3d7a81	0.046259407
102	0x3cab747d	0.02092957
103	0x3b3aba53	0.0028492406
104	0xbb7fc03c	-0.0039024493
105	0xb9ac9e46	-0.0003292432
106	0x3b583652	0.0032991362
107	0x3aa24987	0.0012381532
108	0x3bf31d18	0.0074192397
109	0x3f5ddad5	0.86662036
110	0xbd76a9e7	-0.060220625
111	0x3c8c8030	0.017150968
112	0x3be18c82	0.006883205
113	0x3ba3992b	0.0049926243
114	0x3c342c05	0.010996823
115	0xbd777bf9	-0.060420964
116	0x3b5e5808	0.0033926982
117	0x3d42bdb9	0.047544215
118	0xbc4bb359	-0.0124328965
119	0xbb081296	-0.0020763031
120	0xbb62d22e	-0.003461014
121	0xbb0adf90	-0.0021190383
122	0xb953faba	-0.00020215931
123	0xbb39868f	-0.0028308963
124	0x3c1cc906	0.009569412
125	0x3bdc9af4	0.006732339
126	0x3b2ab132	0.0026045558
127	0xba9df755	-0.001205186
128	0xba4d81c2	-0.0007839465
129	0xbbf5f80f	-0.0075063775
130	0x3bc87a7f	0.0061181183
131	0x3b8e427e	0.0043414226
132	0xbb452ab4	-0.0030085267
133	0x39f36f03	0.00046431282
134	0xbbee3005	-0.007268908
135	0x3c3935a6	0.011304295
136	0x39fa0241	0.00047685395
137	0xbaaeeb0a	-0.0013345194
138	0xbaa1ae0c	-0.0012335195
139	0xbcc12fea	-0.023582418
140	0xbb240378	-0.0025026482
141	0xb8cee3ad	-9.8652534e-05
142	0x3ac11f87	0.0014734127
143	0x3c2b621b	0.010460402
144	0x3b114ab7	0.0022169778
145	0xbb405a35	-0.0029350643
146	0x3b92af54	0.004476467
147	0x3bc70586	0.0060736565
148	0x3b41951c	0.002953834
149	0x3be1d6a5	0.0068920427
150	0x3bcd9f49	0.006275092
151	0xb999be5d	-0.00029324266
152	0xbcc8682d	-0.024463737
153	0xbae5323c	-0.0017486284
154	0x3c39cf64	0.01134095
155	0x3ba1b11a	0.004934442
156	0x3aedca6c	0.0018141991
157	0x3be045d7	0.006844263
158	0xbb365b7b	-0.0027825523
159	0xbb3f55d9	-0.0029195456
160	0x3b79e145	0.0038128656
161	0xbb4709f0	-0.0030370913
162	0xbc2afa36	-0.0104356315
163	0xbb9528f8	-0.004552003
164	0xbb0d9bdb	-0.002160779
165	0x3b2441d6	0.0025063655
166	0xbc449d24	-0.012000356
167	0xbc117382	-0.008877637
168	0xbc494169	-0.012283661
169	0xbb736529	-0.0037139154
170	0x3b2c0b43	0.002625183
171	0x3bb1bea3	0.005424337
172	0x3cbebc9a	0.023283292
173	0x3822f71d	3.8853952e-05
174	0xbb5a75a2	-0.0033334275
175	0x3becc09b	0.007225109
176	0x38754d80	5.848473e-05
177	0x3bfb73cf	0.0076737176
178	0x3b66c20c	0.0035210876
179	0x3a9e03c9	0.0012055571
180	0xbb106b49	-0.0022036603
181	0x3ae5599a	0.0017498017
182	0x3a7efeab	0.00097272795
183	0xbb454209	-0.0030099174
184	0x3e05416a	0.13013235
185	0x3a62e3f9	0.00086551864
186	0x3d573ac6	0.052546285
187	0x3c1dfd0f	0.009642853
188	0xbc82f647	-0.015986575
189	0xbb5957d4	-0.0033163922
190	0xbc2061d8	-0.009788953
191	0x3cd975b0	0.026545376
192	0x3ba84e6c	0.0051363017
193	0x3b823ac8	0.0039742924
194	0xbba2e022	-0.0049705664
195	0x3b5c97fc	0.0033659926
196	0x3bc1b647	0.0059116217
197	0x3b91a54d	0.004444754
198	0x3d142b27	0.036173966
199	0x3ba4776e	0.00501912
200	0x3c1210ba	0.008915121
201	0xbc70c669	-0.014695742
202	0xbd2b830e	-0.04187303
203	0x3e8153f2	0.25259358
204	0xbb9e2301	-0.00482595
205	0xbae038e9	-0.0017106804
206	0x3b27b9ad	0.002559285
207	0xbe390f88	-0.18072331
208	0x38010770	3.0762923e-05
209	0xb8bef373	-9.105252e-05
210	0x3bc6c9f7	0.0060665566
211	0xba40e314	-0.0007358056
212	0x3b08aa98	0.0020853635
213	0x3b13e074	0.0022564204
214	0x3bb001e4	0.005371319
215	0x3a3fc728	0.00073157484
216	0xbb2c268f	-0.00262681
217	0xbb61e1ba	-0.003446682
218	0x3cfaeb8e	0.0306299
219	0x3b4f2e65	0.0031613347
220	0xbb23ddb2	-0.0025003967
221	0xba5ec61f	-0.000849815
222	0xbb6e01c6	-0.0036316975
223	0x3abcea3c	0.0014413069
224	0x3b451476	0.003007201
225	0x39f99b7d	0.0004760883
226	0xbb2c60ab	-0.0026302736
227	0x3ad2506f	0.00160457
228	0xbb4e08d8	-0.0031438377
229	0x3a2766f4	0.00063858856
230	0x38acce75	8.240055e-05
231	0xbcfdd95e	-0.030987438
232	0xbc154ba3	-0.0091122715
233	0xba64f2e8	-0.00087337056
234	0x3a86b660	0.0010277741
235	0x3b39e659	0.0028366058
236	0xbba93c8e	-0.0051646894
237	0xbd8ae97b	-0.06782814
238	0x3abc1448	0.0014349306
239	0xbc67e389	-0.01415337
240	0xbb76cbd0	-0.0037658103
241	0xbacd8bef	-0.0015681962
242	0x3aa38fd5	0.0012478778
243	0x3e12eb33	0.14347534
244	0x3b9082f8	0.004410144
245	0xbb32df67	-0.0027293803
246	0x3babb46f	0.005240015
247	0xbc023a25	-0.007948433
248	0xba1621ea	-0.00057270995
249	0x3a8241e8	0.0009937854
250	0x3bc15044	0.005899461
251	0x3b5ced1b	0.0033710662
252	0x3b3fface	0.0029293778
253	0xbb98a5a8	-0.0046584196
254	0x3a9f85d2	0.0012170619
255	0x3bd8296a	0.006596734

fc2.weight_v f4 [512]
0	0x3ac05e76	0.0014676589
1	0x3b9e9609	0.004839663
2	0x3c034b03	0.00801349
3	0x3af8c463	0.0018979426
4	0x3c05a500	0.008157015
5	0xbafc4b06	-0.0019248433
6	0x3ba3098c	0.0049755033
7	0x3b6b3e1d	0.0035895177
8	0x3bcdea18	0.0062840097
9	0x3c3108ed	0.010805351
10	0x3ab13d4d	0.0013522297
11	0x3bc40980	0.005982578
12	0x3b9f2c53	0.004857579
13	0x3bb37091	0.0054760654
14	0x3a9880dc	0.0011635083
15	0x3b9ef9b1	0.004851543
16	0x3ba2d8f9	0.004969713
17	0x3bde4a52	0.006783762
18	0x3a95d472	0.0011431111
19	0x3bce039f	0.0062870528
20	0x3bd41821	0.006472603
21	0x3b9d4bb4	0.0048002843
22	0x3b8a8284	0.0042269845
23	0xbb465914	-0.0030265497
24	0xbcd1ca43	-0.025609141
25	0x3ba8a069	0.0051460755
26	0x3c0c46bf	0.008561789
27	0x3bbefd17	0.0058285105
28	0x3bc833ed	0.0061097057
29	0x3bdd8a40	0.0067608654
30	0x3b5488d5	0.003243019
31	0x3c082efe	0.008311985
32	0x3a68f207	0.00088861625
33	0x38a21cf4	7.730155e-05
34	0x3b087349	0.0020820668
35	0x3bf60129	0.0075074625
36	0x3bed5440	0.0072427094
37	0x3d051277	0.032488313
38	0x3a628f56	0.00086425745
39	0x3bb73f9e	0.0055923006
40	0x3b9ead2b	0.0048424206
41	0x3a599ec4	0.0008301551
42	0x3bb5fc45	0.0055537545
43	0x3aef3d36	0.0018252495
44	0x3bced070	0.006311469
45	0xbb13d43d	-0.0022556924
46	0x3b8925b6	0.0041854037
47	0x3a918230	0.0011101421
48	0x3c09cf6d	0.008411271
49	0xbbca4af7	-0.0061734873
50	0x3bacd567	0.005274463
51	0x3b74a2ce	0.0037328484
52	0x3bf76242	0.007549555
53	0xba1cb11c	-0.0005977319
54	0x3aadcbbc	0.001325957
55	0x3b32af5f	0.0027265174
56	0x3b619b45	0.0034424823
57	0x3be2711b	0.006910456
58	0x3bb1567d	0.0054119215
59	0x3db25f32	0.08709563
60	0x3b835138	0.0040074848
61	0x3bb40eff	0.0054949517
62	0x3b3902ae	0.0028230357
63	0x3b4c737b	0.0031196761
64	0x39f1b25e	0.00046099996
65	0x3b7c9900	0.0038543344
66	0x3b8c0339	0.004272845
67	0x3b96867b	0.004593668
68	0x3bbd6672	0.0057800347
69	0x3b8b7bc0	0.0042566955
70	0xbb08e292	-0.0020887
71	0x3b32b06d	0.0027265802
72	0x3a55567e	0.00081381935
73	0x3b574c1e	0.0032851766
74	0x3b07a8fd	0.002070009
75	0x3b092222	0.0020924886
76	0x3bdfad50	0.0068260804
77	0x3bdc4ce5	0.0067230337
78	0x3b0b9f64	0.002130472
79	0xbd591ea4	-0.053007737
80	0x3b3fa98d	0.0029245347
81	0x3bd91b18	0.0066255443
82	0x3b12865e	0.002235792
83	0x3a66503f	0.00087857613
84	0x397f25d0	0.00024332781
85	0x3b575495	0.0032856811
86	0xbc8dc626	-0.017306399
87	0x3b66b5b1	0.0035203511
88	0x3ae7ca30	0.0017684158
89	0x398c9bd0	0.0002681897
90	0xb9b32962	-0.00034172373
91	0x3d1ccda6	0.03828206
92	0x3bf2985a	0.0074034156
93	0x3b995e19	0.004680407
94	0x3bc7b121	0.0060941135
95	0x3b10de6b	0.0022105228
96	0x3a6d40cd	0.00090504886
97	0xbac164e4	-0.0014754799
98	0x3b862189	0.004093353
99	0xb9755df6	-0.00023400024
100	0x3bb43522	0.005499498
101	0x3a37b0d0	0.0007007243
102	0x3bdd39c3	0.0067512705
103	0x3be76110	0.0070611313
104	0xbad8f3ad	-0.0016552113
105	0x3b550a41	0.0032507333
106	0x3b5d08b1	0.0033727104
107	0x3b29fb6f	0.002593722
108	0x3bf4721b	0.0074598915
109	0x3b8d0d7a	0.004304585
110	0xbdc4329d	-0.09579966
111	0xbbb00279	-0.0053713885
112	0x3b87b9cc	0.0041420218
113	0x3b3b86cc	0.002861428
114	0x3c0620d7	0.008186541
115	0x3c03ab95	0.008036514
116	0x3b09ca8c	0.0021025268
117	0x3b85c863	0.004082726
118	0x3b5d143d	0.0033733987
119	0xbc32b39a	-0.010907078
120	0x3b21e9c3	0.0024705983
121	0x3c039cb6	0.008032968
122	0xba2782c0	-0.00063900277
123	0x3b83e2fb	0.004024861
124	0x3b45b4d3	0.0030167594
125	0x3f5c6a52	0.8609973
126	0x3b987473	0.0046525537
127	0x3ad08e2f	0.0015911515
128	0x3a441b75	0.0007480898
129	0x3bbdcd42	0.005792291
130	0x3b25b401	0.0025284293
131	0x3b34ccf5	0.0027587984
132	0x3bafa1ee	0.0053598797
133	0x3d849644	0.064739734
134	0x3b851d58	0.004062336
135	0x38e41047	0.00010874919
136	0x3b79567d	0.0038045936
137	0x3c1e54a8	0.009663738
138	0x3993f378	0.00028219423
139	0x3be6f402	0.007048131
140	0x3c73ca36	0.014879754
141	0x3c26eaf0	0.010187849
142	0x3d3495c9	0.04408816
143	0x3a882540	0.0010387078
144	0x3baab4a1	0.005209521
145	0xbb73fa89	-0.0037228188
146	0x3b9f6a08	0.004864935
147	0x3de3dcc7	0.11126094
148	0xbb71e76a	-0.0036911615
149	0x3bbff7d1	0.0058583994
150	0xbca1626e	-0.019700255
151	0x3b241702	0.0025038128
152	0x3df17745	0.11790327
153	0x3ba72112	0.005100378
154	0xbb1ce5a7	-0.0023940594
155	0x3b376883	0.0027985878
156	0x3b05c69b	0.0020412568
157	0x3bfa85c6	0.0076453416
158	0x3b6bc61c	0.0035976237
159	0x3b156640	0.0022796541
160	0x3b24efa5	0.0025167253
161	0x38fdf40a	0.00012109436
162	0x3c6548b9	0.013994389
163	0x3bc15d94	0.005901048
164	0xbc8dda1f	-0.017315922
165	0x3ba3b137	0.004995491
166	0x38f4e20e	0.000116769326
167	0xba0e370e	-0.0005425074
168	0x3bf08427	0.0073399725
169	0xba923840	-0.001115568
170	0x3b76464d	0.0037578524
171	0x3c2104bc	0.009827789
172	0x3b0a1e40	0.002107516
173	0x3b513e3d	0.0031927966
174	0x3a48b91c	0.0007656978
175	0x3ba4fd8a	0.005035107
176	0x3d83bc77	0.06432431
177	0x3c005aec	0.007834177
178	0x3b28c4ee	0.0025752145
179	0x3b309110	0.0026941933
180	0x3bf5627c	0.007488547
181	0x3b9b02a1	0.004730538
182	0x3e06ee29	0.13176788
183	0xbade97f5	-0.0016982543
184	0x3bb24218	0.005440008
185	0x3ba6010c	0.0050660428
186	0x3bda9206	0.0066702394
187	0x3a0cbd75	0.00053688075
188	0x3b2d588a	0.0026450478
189	0x3b382e19	0.0028103648
190	0x3b42ad5b	0.0029705379
191	0x3b9a1485	0.004702153
192	0x3b9b5519	0.004740369
193	0x3b25bed5	0.0025290747
194	0x3bdda1e4	0.0067636836
195	0xbc1c55cd	-0.009541941
196	0x3e407a48	0.18796647
197	0x39f21478	0.00046173087
198	0x3be3acbf	0.006948083
199	0x3c0d6b21	0.008631499
200	0xbd11294d	-0.035439778
201	0x3b5c048c	0.0033572046
202	0x3c10716f	0.008816107
203	0x3b496524	0.003073045
204	0x3bde7391	0.006788679
205	0x3b05c503	0.0020411618
206	0x3b5e863b	0.003395452
207	0x3b2b0556	0.002609571
208	0x3c1b82af	0.009491607
209	0x3a8b8348	0.0010643983
210	0x3c04fc00	0.008116722
211	0x3ba7c9e0	0.005120501
212	0x3aa869c2	0.0012848901
213	0x3b84b7ac	0.0040502157
214	0x3ba9651a	0.005169523
215	0xbc9dded1	-0.019271286
216	0x3b8daef7	0.004323836
217	0x3bafca7a	0.0053647133
218	0x3bb75aeb	0.005595555
219	0x3bbc6f17	0.0057505476
220	0x3b9cfeb1	0.004791104
221	0x3a84e644	0.0010139425
222	0xba8d47ce	-0.0010778846
223	0xba5d26c6	-0.00084362586
224	0xb986bd72	-0.0002569962
225	0x3a89ad7b	0.0010503972
226	0x3cf12f0d	0.02944138
227	0xbc057c96	-0.008147379
228	0xbb358508	-0.00276977
229	0x3b4f92fb	0.00316733
230	0x3a4a516c	0.0007717821
231	0x3c23dd4b	0.010001491
232	0x3b6e7b88	0.0036389548
233	0x3b5d350c	0.0033753542
234	0x3b8fc1e2	0.0043871263
235	0x3baf3dd7	0.005347948
236	0x3ba659ac	0.0050766077
237	0xba501153	-0.0007937152
238	0x3be15862	0.006876991
239	0x3bc9b39d	0.006155445
240	0x3bb09c4e	0.0053897267
241	0xbd195126	-0.037430905
242	0x3bc4dde0	0.006007895
243	0x3a2bfae9	0.0006560521
244	0x3c48341b	0.012219454
245	0x3b9afae3	0.004729615
246	0xba629c6f	-0.0008644526
247	0x3bdd6a73	0.0067570745
248	0xbacd864d	-0.0015680284
249	0x3a1ef0b2	0.0006063088
250	0x3bcbdbcb	0.0062212697
251	0x3b908dc7	0.0044114324
252	0x3c18719f	0.009304433
253	0x3bd2e345	0.006435784
254	0x3b5a9b44	0.0033356706
255	0x3b8779ad	0.004134378
