data/saved_models/discriminator_epoch_1000.pth (torch, 758522 bytes, 14 tensors)

fc1.bias f4 [512]
00000000: 4b5f 3dbf 6dd6 a7bd 8b24 60bf 7252 bebe
00000010: dcf7 90bf 656c 87be 4718 09bf 9953 aebe
00000020: b73e e9be 4907 09c0 44c4 e2be 081f 0bbf
00000030: c771 35bf 4646 05bf 639d afbe ffd9 c1be
00000040: f62c 17bf 1eb3 0bbe 5c84 b0be e791 1c3b
00000050: 4a2d 26be e4ca cdbe 93b5 7fbf 3628 69be
00000060: 7f84 63be 06b9 debe cc0f ccbe 9a24 e4be
00000070: c9fe 64be d8f4 db3b 094b c3be 7155 08c0
00000080: 7d1c e6be 0e75 99be e5aa c3be e87b 18c0
00000090: 6b07 07bf c40f 67be 9ea2 01bf be17 17be
000000a0: 6556 68bd f19c 87be b615 1cbf 88ef 77be
000000b0: e355 c1be 9806 dfbe 06ed 55bf 6376 e6be
000000c0: f04e 07c0 e87e 8bbe a72d b6be 2611 07bf
000000d0: cb3d 83bf cf62 20bf 7d30 1abf b25e 1fbf
000000e0: 0b07 21bf f737 c3bf 4646 1dbf b1bb c63d
000000f0: 0600 eebe 7ad5 7cbe 73eb f4bd db40 6dbe
00000100: 3d5e 19bd f6c1 9abe 3a6f a2be 7f81 aebf
00000110: c36b 22bf cedb d5bf 3964 e3be 4f8d e4be
00000120: 327f 41be aa8d ccbe 2936 02bf 8894 28be
00000130: 511c 54bf 41de 7dbf 85e6 c7bf dfbc aebe
00000140: 3143 a8be 4484 ccbe 6d73 a5be f743 26bf
00000150: 6003 86be 812b d2be 99e5 12be 2dd0 febe
00000160: 17ac 94bf 3857 0dbf c496 fabd d7b8 31be
00000170: e253 1abf 9000 4ebf e4d6 b4be db8d 9dbe
00000180: 53ed c8be d792 08bf 2fbb 71be 0daa 91be
00000190: 6477 26bf 8174 59be 947b 7fbe 58fa eabf
000001a0: c018 19bf 8b25 05c0 72c8 c1be dd56 85be
000001b0: d388 ffbe e0e1 06bf f37d 24be aa16 91bd
000001c0: 1193 dcbe ca06 d2be c93c 2dbf 04f6 34bf
000001d0: c69a eabe 4b4b 8ebe 569e 3bbe 9771 133d
000001e0: 57a4 1fc0 a7aa a4be e664 0dbe 9d00 05bf
000001f0: 868e 1dbf 5147 44bf aed4 9dbe 9075 acbe
00000200: 87bf d3be 4761 cbbe 879a c0bd 7e28 a7be
00000210: 9db1 c2be ea28 8fbe f85e 02bf 5ae2 19bf
00000220: 5d21 f7be 2d0c 1cc0 affa f7be a88b 03c0
00000230: 6e46 09bf 8a84 ffbf dddd 29be d9f0 09bf
00000240: ce54 d4be a4d7 0ebf 0258 d5be a1c1 35be
00000250: 71c7 68bf ce50 25be 65cc f7be 5002 24be
00000260: c11a dbbe 8331 5ebe a0f4 8cbe 73ee 7fbe
00000270: 8845 6abf c541 17bf 8635 04bf 8a3c 92be
00000280: 4203 16bf 1c87 1cbf c787 d8be 86c6 c9be
00000290: eac9 78be 4f02 91be d059 05c0 b982 e3be
000002a0: 697d febe 4bf7 5ebf 7d76 01bf 961d b9be
000002b0: 10d8 0cbf 92a0 f5be 6871 2dbe f630 89bf
000002c0: 2ba8 d6bd 99a6 11c0 463e 4ebe e31a 90be
000002d0: cd76 16c0 cc39 5cbe 9182 06be 34a2 c9be
000002e0: cd88 11c0 8177 f5be 275f 22c0 d68d 42be
000002f0: d19d 85be f8d8 19be 5fa4 05c0 7f05 46bd
00000300: 535e 5ebf 6dea 75be 9a80 2cbf 22a3 9abe
00000310: 4a75 21bf 8cbb 93be 66a2 52bf f33b a4be
00000320: 97a4 60bd 6ff2 1cbf 216a febe 3017 c8be
00000330: e999 e1be 0c88 34bf e6c1 0ec0 5b25 7abe
00000340: 6013 a7be 7799 16bf 6b37 14c0 410c 88bf
00000350: 604f 8cbf f78c 87be f6d7 50be 1d04 dbbd
00000360: fbf4 7dbe f0de f6be 1dff 06c0 ec07 acbe
00000370: a50e 26bf 33d9 20be cbdf 87be 466c c0be
00000380: 9e5f 0fc0 38eb fabe d6ff 89be 31a0 e5bd
00000390: 8dfc c1bf 983a e1be 98a3 8abe a494 bebf
000003a0: 72ba 12c0 d107 01bf 2933 95be 93a6 adbe
000003b0: 8caa 7cbe 05d4 23bf 7e57 f8be aa4b 8bbe
000003c0: b1f5 25be f172 aebe 0dd8 2dbf e43e 32bf
000003d0: c0f8 0abe d416 8bbf 6cd2 15bf 8497 02bf
000003e0: 4b09 d8be d705 0ebf 3835 b7be 56ba c7be
000003f0: 7155 1cbf 698b 10bf b69f 0cbf 6f52 23bf
-0.7397353 -0.08195195 -0.8755576 -0.37172276 -1.1325641 -0.26449886 -0.5355267 -0.34048155
-0.4555566 -2.1410697 -0.44290364 -0.54344225 -0.70876735 -0.52060354 -0.34299764 -0.3786163
-0.5905298 -0.13642547 -0.34475982 0.0023890676 -0.16228214 -0.40193856 -0.99886435 -0.22769246
-0.22218512 -0.43500537 -0.39855802 -0.44559175 -0.22362818 0.0067125373 -0.38143185 -2.130215
-0.4494361 -0.29972118 -0.3821632 -2.3825626 -0.52745694 -0.22564608 -0.5063876 -0.1475515
-0.056723017 -0.26486924 -0.6097063 -0.24212468 -0.3776084 -0.43559718 -0.83564794 -0.45012197
-2.114193 -0.2724526 -0.35581705 -0.5276054 -1.0253233 -0.6265077 -0.6023024 -0.6225387
-0.6290137 -1.5251454 -0.61435354 0.09703768 -0.46484393 -0.2469081 -0.11958971 -0.23169272
-0.03744339 -0.30226105 -0.31725484 -1.3633269 -0.6344568 -1.6707704 -0.444124 -0.4463906
-0.18896177 -0.3995183 -0.5086389 -0.1646291 -0.8285571 -0.9916726 -1.5617224 -0.34128472
-0.32863763 -0.3994466 -0.32314625 -0.64947456 -0.2617445 -0.41048816 -0.14345397 -0.497682
-1.1615018 -0.5521121 -0.122357875 -0.17355667 -0.60284245 -0.8046961 -0.353202 -0.3077229
-0.39243564 -0.5334906 -0.23606561 -0.2845005 -0.65025926 -0.21235849 -0.24949485 -1.8357649
-0.5980339 -2.0804164 -0.3784824 -0.26042834 -0.49909076 -0.5268841 -0.16063671 -0.07084401
-0.43080953 -0.41020805 -0.67670876 -0.7068789 -0.45821208 -0.2779182 -0.18322119 0.035997
-2.4944055 -0.32161447 -0.13808021 -0.5195406 -0.615456 -0.7667132 -0.30826324 -0.33683443
-0.4135706 -0.39722654 -0.09404474 -0.3264808 -0.38026133 -0.27960902 -0.5092616 -0.6011101
-0.48267642 -2.4382432 -0.48433444 -2.055399 -0.5362309 -1.9962323 -0.1658854 -0.5388313
-0.4147095 -0.5579779 -0.41668707 -0.17749645 -0.90929323 -0.16144106 -0.48398128 -0.16016507
-0.4279385 -0.21698575 -0.27530384 -0.24993305 -0.91512346 -0.5908473 -0.5164417 -0.28561813
-0.5859872 -0.6114366 -0.4229109 -0.39409274 -0.24295774 -0.28322074 -2.0836067 -0.4443567
-0.49705055 -0.8709609 -0.50571424 -0.36155385 -0.55017185 -0.47974068 -0.16937792 -1.0718067
-0.10481294 -2.2757933 -0.20140943 -0.28145513 -2.351001 -0.21506423 -0.13135745 -0.39381564
-2.2739747 -0.47942737 -2.5370576 -0.18999419 -0.26096967 -0.15024173 -2.0881574 -0.048345085
-0.8686268 -0.24015208 -0.6738373 -0.30202585 -0.63069594 -0.28854024 -0.8227905 -0.32076988
-0.054844465 -0.61307424 -0.49690345 -0.3908019 -0.44062737 -0.7052009 -2.2305846 -0.24428312
-0.3263197 -0.5882792 -2.3158824 -1.062874 -1.0961723 -0.26474735 -0.20394883 -0.10694144
-0.24800484 -0.48216963 -2.1093209 -0.33599794 -0.64866096 -0.15707855 -0.26537928 -0.37582606
-2.240211 -0.49007583 -0.26953 -0.11212195 -1.5155197 -0.43990016 -0.27077937 -1.4889112
-2.2926297 -0.5040255 -0.29140595 -0.3391615 -0.24674433 -0.6399539 -0.4850425 -0.27206165
-0.16207005 -0.34072068 -0.6790779 -0.69627213 -0.13571453 -1.0866342 -0.58524203 -0.51012444
-0.4219459 -0.5547766 -0.3578279 -0.3900935 -0.61067873 -0.56462723 -0.549312 -0.6379766

fc1.weight_orig f4 [512, 42]
00000000: 1304 8ebc e625 34bc 9c00 04bc f3ac 9b3c
00000010: 2cf8 abbb c339 ad3c 648d 3cbb 7965 bbbb
00000020: 6c5d d2ba cd93 b43b 7f07 4d3c 9d5c f23b
00000030: 0e65 ca3b 4b7c 3fbb dee3 193c 9eea b6bb
00000040: cc29 46bc 0214 efbb 3023 d53a c0cc 05bc
00000050: 7d05 7c3b dd59 4ebb 1e53 693b 1120 edbc
00000060: 0049 f53b 44d8 c6bb 7a6a e2bc 0f41 18bb
00000070: a0bf 34bb d95a 2b39 b919 873c 6307 debc
00000080: 1e17 0c3c 9b23 eb3b 7573 2abc 647c 153c
00000090: 3f48 7fbb cc70 903a d612 67bb 64e5 0f3c
000000a0: 6853 283c 5c2f ebbb ecb9 ec3a f5f0 8fbc
000000b0: 246d 43bc c3d5 98bc b6b2 173c 9d01 c13a
000000c0: 33e0 9abb 3c10 57bc 6aad fcbb 89aa 343a
000000d0: 34a3 64bb 4251 573c 18f4 08bc 3488 b13c
000000e0: d49d bd39 fe23 183c ac23 fa3b 28ea ee3b
000000f0: 191c 49bc cd39 893b 5297 7fbc eb7e bb3c
00000100: 1592 273b 9d81 413b d3e4 1cb9 89ec bfbc
00000110: dab9 863b 1cf3 053a 0d22 9cbb 254a 23bb
00000120: 1e01 22bd b300 ff3c 36d9 9db9 0eee 72bc
00000130: 7fff fa3b 4d55 973b 8967 8c3a 1834 f03a
00000140: d480 c5bc 8c0a 063c 5299 993b a2e8 8eb9
00000150: 3a74 9fbc 693f 76bc 2962 d1bb 4f85 ab3b
00000160: 9c09 063c 5b83 543c 0bca 19bb d017 41bc
00000170: 7e40 47bc 63cf 693c 5569 a33a 3be8 33bb
00000180: e064 65bc 9aad 713c fbbf 09bc c199 bbbb
00000190: e253 873b c19f 073c 0fb7 f339 1a44 cfbc
000001a0: 705e 0abc 4b20 0f3b eccf 693c 42d6 993c
000001b0: 6ffa 8a3b d541 3ebc 1eac 3aba a281 f2b9
000001c0: 3a51 b7bc 7ca7 0d3b 1f92 9ebc 6cf7 243a
000001d0: d216 d1bb 95b0 bc3c 7726 4e3c cff8 11bc
000001e0: f2e2 1e3a 65b3 d73c 4d14 b0bc b698 f2ba
000001f0: 7b2a b63c faa5 bd3b 1315 23bc 3d0d 93b9
00000200: 4047 8a3c fa02 163c 65a9 aa3c 3653 cd3b
00000210: 6f3a abbb fc29 1cbc a631 92bc 4425 1a3c
00000220: b11a 0dbc 1ba0 05bc 5676 123c 0771 e3ba
00000230: 848f 11bc 2ab1 52bc 8f55 97bb 2b8f 4dbb
00000240: 42cd 78bb 8df6 15bc fdf3 a6bb e071 83bb
00000250: 7a7d b6bb 02f2 593c f3a2 de39 3496 d23b
00000260: a1a8 8cbc 3a8a 863c 937d e4bb 2823 6f3c
00000270: 19ab c5ba f3c0 1a3c a021 1abc cd29 153c
00000280: 00c0 803c c5df 973c cca0 933c 0567 723c
00000290: 1825 aebc ff60 10bc e677 d73c 4521 063c
000002a0: 819c 1cbc bf2e 723b e257 9c3b 4fd1 2d3b
000002b0: 8c3f 323b a3c0 d2bb f9cd 95bb 55ef 393c
000002c0: d621 5fbb 23b7 403c 57f9 c8b9 a7bd e3bc
000002d0: 1718 f83b fad0 d53a 7571 acbb 94e8 14bc
000002e0: 93cb fd3a 723c 4e3a 7046 dabb 440e 4bbc
000002f0: 7da5 c33a 3acd 30bb c4fa 2dbc 686a a23c
00000300: 66fb f0bb af1e ec39 0657 c8bb 96be c9bc
00000310: 42bd 903b 6d38 123c b864 a83b 2df3 74bc
00000320: 804a 7eb7 7688 d73c deda e7b9 64eb 8bbc
00000330: e19c 5a3c 9bf1 0c3c 0cc8 cb3c 64bf 4bbb
00000340: f07e c93b f9d1 59bb 6859 0abe ce31 5f3c
00000350: b8c7 d8be 2560 863e 1c44 9d3e 4e5d 9bbe
00000360: 3eb2 05be 08b3 87be 4336 15bd fbd2 69be
00000370: a2ac 253e 4777 ee3e ca4a cdbc 4dcd 9bbe
00000380: 7618 8bbe a2a0 353e ff2f c63d 1e6a 9cbe
00000390: 47ab a33e c534 dfbc 7ebc 48be 4a41 fe3c
000003a0: 0887 623e 510e 28bf 9d14 38be 8ac0 fcbd
000003b0: bb0b 0abd bb10 293e 8287 2fbe 22d2 84be
000003c0: dbad fc3d 9fed 903e 104c 0f3f 32e1 d6bd
000003d0: d780 c23c 09e1 203e f60a bbbd f8f5 d9bd
000003e0: 93b2 b53e 26ee 8cbd 152d 833e 6710 a33e
000003f0: fd1e c3bb 6955 ab3b 578b adbb 301f 0dbc
-0.017335927 -0.010995364 -0.008056786 0.019003367 -0.0052480903 0.021145707 -0.0028770799 -0.0057188836
-0.001604957 0.0055107833 0.012513994 0.0073962943 0.0061765974 -0.0029218371 0.009392707 -0.0055821678
-0.012094926 -0.0072960863 0.0016261097 -0.008166492 0.003845542 -0.0031486668 0.003560252 -0.028945955
0.007485509 -0.0060682613 -0.027638663 -0.0023232137 -0.0027580038 0.00016341674 0.016491758 -0.027103132
0.008550433 0.0071758754 -0.010403504 0.009123895 -0.0038952974 0.0011019944 -0.003525903 0.008782718
0.010273792 -0.0071772765 0.001806078 -0.017570952 -0.011927877 -0.018656617 0.009258917 0.0014725212
-0.0047264337 -0.013126429 -0.0077111023 0.0006891867 -0.0034887316 0.013141932 -0.008358978 0.021671392
0.0003616648 0.009285925 0.007633647 0.007291097 -0.012274765 0.0041877986 -0.015600042 0.022887668
0.002556925 0.0029526718 -0.00014962563 -0.023428218 0.0041115107 0.00051097735 -0.0047648014 -0.002491602
-0.039551847 0.031128263 -0.00030107208 -0.0148272645 0.007659852 0.004618323 0.0010712008 0.0018326072
-0.024109282 0.0081812255 0.0046874667 -0.00027257676 -0.0194646 -0.015029767 -0.0063898754 0.0052343975
0.008181002 0.012970771 -0.0023466374 -0.0117854625 -0.012161372 0.014270636 0.0012467304 -0.0027451653
-0.014001101 0.0147508625 -0.008407588 -0.005725116 0.0041298727 0.008277834 0.0004648496 -0.025301028
-0.008445367 0.0021839316 0.014270764 0.018778924 0.00424128 -0.011612375 -0.00071209844 -0.0004625442
-0.022377599 0.002161472 -0.019356785 0.0006292972 -0.006380894 0.02303342 0.012582413 -0.008909418
0.0006061039 0.02633066 -0.021494055 -0.0018508646 0.022237053 0.005787608 -0.009953755 -0.00028047888
0.016879678 0.009155983 0.020832727 0.006266023 -0.0052254717 -0.009531494 -0.01784594 0.009408299
-0.008612321 -0.008155848 0.008939346 -0.001735241 -0.008884314 -0.012859622 -0.0046183537 -0.0031365852
-0.003796414 -0.009153021 -0.0050950036 -0.0040113777 -0.005569157 0.013302328 0.00042464546 0.006426597
-0.017170252 0.016423333 -0.0069729774 0.014595784 -0.0015080898 0.009445417 -0.009407431 0.009104204
0.015716553 0.018539319 0.01802101 0.01479507 -0.021257922 -0.008812188 0.02630229 0.008186643
-0.009558798 0.0036954132 0.0047712186 0.0026522463 0.0027198521 -0.0064316555 -0.004571673 0.011348565
-0.0034047267 0.011762413 -0.00038332745 -0.027800394 0.007571231 0.001631289 -0.0052625486 -0.009088654
0.0019363038 0.00078672834 -0.006661229 -0.012393538 0.0014926639 -0.0026977793 -0.010618869 0.01982613
-0.007354188 0.0004503629 -0.0061138896 -0.024627011 0.0044170925 0.008924586 0.0051389597 -0.014950556
-1.5156926e-05 0.026310187 -0.00044222822 -0.017080016 0.013343067 0.008602525 0.024875663 -0.003108942
0.0061491653 -0.0033236726 -0.13510668 0.013622714 -0.42339873 0.26245227 0.30716026 -0.30344623
-0.13056275 -0.26503778 -0.0364287 -0.22834389 0.16179135 0.46575376 -0.025060076 -0.3043007
-0.271671 0.17737058 0.09677123 -0.3054971 0.31966612 -0.027246842 -0.19603154 0.031036992
0.22121823 -0.65646845 -0.17976613 -0.123414114 -0.033702593 0.16510288 -0.17141536 -0.2594157
0.12337848 0.2830629 0.5597544 -0.10492171 0.023743076 0.15710844 -0.0913295 -0.10642618
0.35487804 -0.06881361 0.25620332 0.31848451 -0.005954622 0.0052286875 -0.0052961516 -0.008613393

fc1.weight_u f4 [512]
00000000: ee3e a63a 0aca 33bb 8e43 38bb cee0 a6ba
00000010: e46a 2d3a 2d75 f63c b85d 5a3b 1df9 bc3b
00000020: e8f6 5d3b fbd7 103b b4fe 24bb 4e04 32bb
00000030: acd0 eeb9 cd15 163b 93ad 65bb 020c 593b
00000040: f018 343b 25ed 39bb 6f85 0f3b ff48 5a3c
00000050: 903f 833a 4a2d 863d e756 233b 52e6 47bb
00000060: 5aef 44ba c9d5 a23b fa80 e23a 1053 b03b
00000070: 00f5 3d3b 19a9 243b b670 e8ba 54d4 773b
00000080: 5526 50bb 9c85 3a3a e3a1 1bbb 47c7 713b
00000090: ede3 1b3b 3d31 82bc 554b 7fb9 f51c 0d3a
000000a0: 90e7 c23b 5deb 24ba 4751 fdbc 0bda fbba
000000b0: 3bbc 653a 4577 65bc f5a6 c83a f344 213b
000000c0: 5b79 b93b c2db f13c 1c43 b239 e967 3a3a
000000d0: 6301 4c3a deab 3e3b 81c9 2e3b 8dcb 893b
000000e0: 4949 6e3b be61 8c3b c1eb 573b f8d8 413d
000000f0: 4e47 c13a 3c04 183c c530 843b 567a 8639
00000100: 46a3 943b 0d36 83bb bae7 36bc 162e a23b
00000110: fa29 b63a eacc 563b 83d2 9d3b 91d0 9d3a
00000120: 254a d239 9e0c daba f845 fa3a 90ea 9cbb
00000130: 594b 3538 832f 243b 33b6 973b d8c7 353b
00000140: a7dd 9dbb 087f 473b 5ffa c53b 4a34 c13b
00000150: 1632 0a3b 2cdf 87bb fd53 fe3a 9e27 cb3b
00000160: 335d e839 1855 36ba e5f8 ea39 ea36 643b
00000170: f4f9 cc3b c179 abba d5c3 fabb 9d50 0d3b
00000180: c356 173b a4a6 d23a ba61 803b 7bd7 18bd
00000190: 743e 9a39 bb87 fdbb ed9d fdbb 5518 983b
000001a0: d1e8 ab39 6071 b33b 9c70 4a3a 9708 89bb
000001b0: a243 3cbb 512d 823a 9963 47bd e85f 763a
000001c0: acfd 34bb 9009 7737 4b08 2d3b b338 a73b
000001d0: 0e6c 00b9 8aa2 2d3b f08e c8bb c05f 68bd
000001e0: 37c0 193b 1a56 ee3c d563 01bc 3cbe 803b
000001f0: 45e6 87ba 785f 283e 71d7 8537 0e77 a9ba
00000200: f9bb acbb 1e6c 693c 2014 f0ba 091a 943b
00000210: 484e 2c3b 879d 52ba 3229 0fbb 4cb4 433a
00000220: 6471 8b3a 3198 7f3b 3b0f 38ba 2202 643b
00000230: dc0f f83d 9530 3d3b 1a7c 4bbb c794 f9b9
00000240: 7119 053c e587 7cbb a4fd cbba a043 d7ba
00000250: 4427 ee3a 9e88 48bb 3857 f73d 2f0c 8fbd
00000260: d0ee 54bc dd0d 52bb 7da0 0bbd 51eb fb3c
00000270: 50d2 3f3b 9c71 923a 7d1f ccba 6bf2 4b3a
00000280: 6dfc c23b 736d e9ba 8f3e 013d 4b8a 063b
00000290: 6726 febc 8781 5cbc ce15 563b 0c83 073b
000002a0: 2f50 3a3a 7c5a 0e3b c2a5 a7ba 58fd cc3c
000002b0: da4a 6c3b d529 d23b 7d36 93bb 8f9b 4a3b
000002c0: 1742 8bbb 4c7e 623b d70c 76bb 86e7 95ba
000002d0: e94f 153b 39fe 953a cac8 73bc 2867 2b3b
000002e0: b133 dbba 2746 a33a 0a80 5d3b 64cb 14bc
000002f0: b50a 4c3b e791 e83c 406d d03a 0a59 593b
00000300: d775 1b3b 9dd3 403b 2d48 f43a 519d b43d
00000310: 49c1 883e 5a2c 41bb aa7c e739 b04c 0c3b
00000320: 0e40 873b 90cc c83a 7119 07bb 4c30 eeba
00000330: bb16 f33a 7cc5 923e 2b92 cb3a a89f a4bd
00000340: 3c65 21bb e00a 12b8 0a1d 643b 4788 903b
00000350: 3360 263a 4cf8 df3a 5fdf a93b d077 b0ba
00000360: 3c70 d53b 45f4 05ba fb68 79ba b50d c3bb
00000370: 0e9d 443b 8ce9 0a3c 9bbc 97bb 092a 6a3a
00000380: d166 b03b 6b59 46bb ac0a 10ba 45fb ec3a
00000390: 13bf 853b 57ae 2fbb 0fd7 373a ec01 803b
000003a0: 4103 9c3b 371c 1e3b d686 943b 4255 553a
000003b0: 81b3 2b3b 58c0 25bb 2afd 73bb f2c1 c0bb
000003c0: 459a 873b 6967 523d d143 e639 a34f 573b
000003d0: 7d91 25bb e0b7 643a 4f12 413b a27a 8e3b
000003e0: 7d2f 243b 1455 d83a 9385 91ba 5925 f439
000003f0: f81b 463a 83b2 643b 585e 8bb8 ad2d aa3a
0.001268355 -0.0027433657 -0.0028116438 -0.0012731792 0.0006615354 0.03008517 0.003332002 0.0057670013
0.0033869091 0.002210139 -0.002517623 -0.002716321 -0.0004555037 0.0022901178 -0.0035046085 0.003311873
0.0027480684 -0.002837011 0.00218996 0.013323068 0.001001345 0.06551607 0.0024923624 -0.0030502272
-0.0007512473 0.004969333 0.001728087 0.0053809956 0.0028985143 0.0025125204 -0.0017733786 0.0037815766
-0.003176113 0.0007115246 -0.0023747615 0.003689246 0.0023786977 -0.01589262 -0.00024346758 0.0005383038
0.0059480146 -0.00062911754 -0.030922545 -0.0019214762 0.0008763705 -0.014005487 0.0015308546 0.0024607747
0.0056602187 0.029523734 0.00034000806 0.0007110821 0.0007782189 0.002909414 0.0026670399 0.0042051733
0.00363596 0.0042841127 0.0032946917 0.04732606 0.0014745982 0.009278353 0.004034134 0.0002564962
0.0045360653 -0.004004246 -0.011163646 0.0049493415 0.0013898008 0.0032775947 0.0048163547 0.0012040307
0.00040109563 -0.001663584 0.0019094339 -0.004788704 4.3223936e-05 0.0025052733 0.004629874 0.0027737524
-0.004817683 0.0030440707 0.0060418095 0.005896126 0.0021086982 -0.004146477 0.0019403693 0.006199791
0.00044319927 -0.0006955429 0.000448174 0.003482277 0.0062553827 -0.001308255 -0.0076527395 0.0021562942
0.0023092485 0.0016071391 0.0039179 -0.037314873 0.000294197 -0.0077371276 -0.0077397735 0.0046415725
0.00032789123 0.005476162 0.00077224686 -0.004181932 -0.0028726836 0.0009931718 -0.048678968 0.00093984464
-0.002761702 1.4724574e-05 0.0026402648 0.0051031946 -0.00012247285 0.0026494586 -0.006120555 -0.05673194
0.0023460516 0.02909379 -0.007897337 0.0039289277 -0.0010368308 0.16442668 1.5955158e-05 -0.0012929158
-0.0052714315 0.014246969 -0.0018316545 0.004519705 0.0026291776 -0.00080343377 -0.0021844623 0.0007465526
0.0010638651 0.0039000625 -0.00070213125 0.003479131 0.121124 0.0028868068 -0.0031049312 -0.0004760383
0.0081237415 -0.0038533148 -0.0015563262 -0.0016423352 0.0018169661 -0.0030599008 0.120771825 -0.06984746
-0.01299639 -0.003205172 -0.0340886 0.030751856 0.0029269643 0.0011172774 -0.0015573349 0.00077799585
0.0059505017 -0.0017809108 0.0315538 0.0020529206 -0.031024171 -0.013458616 0.0032666805 0.0020677475
0.0007107285 0.0021721413 -0.0012790489 0.025023147 0.0036055357 0.006413678 -0.0044925795 0.0030915474
-0.004249822 0.0034560142 -0.0037544274 -0.0011436797 0.0022783226 0.0011443562 -0.014879415 0.0026154015
-0.0016723779 0.001245682 0.003379824 -0.009081695 0.0031134312 0.028389884 0.00159017 0.0033164644
0.002372136 0.0029423006 0.0018637233 0.08819068 0.26709965 -0.0029475898 0.00044152635 0.0021408014
0.004127509 0.0015319753 -0.002061453 -0.0018172353 0.0018546203 0.28666294 0.0015531232 -0.080382645
-0.002462699 -3.481924e-05 0.0034807348 0.004410777 0.0006346732 0.0017087548 0.0051840986 -0.0013463441
0.0065136235 -0.00051099464 -0.00095142395 -0.0059525617 0.0030000838 0.0084785335 -0.004630638 0.00089326553
0.0053833504 -0.00302657 -0.00054947543 0.0018080255 0.0040816157 -0.0026806796 0.0007012942 0.003906479
0.00476113 0.0024125704 0.0045326753 0.00081380096 0.0026199522 -0.0025291648 -0.0037229755 -0.005882495
0.0041382634 0.05136815 0.00043919546 0.0032853864 -0.002526372 0.0008724909 0.0029460376 0.004348115
0.002505272 0.0016504847 -0.001110243 0.00046567133 0.0007557268 0.003489644 -6.6456094e-05 0.0012983583

fc1.weight_v f4 [42]
00000000: eff8 3dbe f45c 263f 9f67 693c 988a 83be
00000010: 6846 56be ef68 9f3e 8528 76be a460 f3bc
00000020: ad7d 383e 9af3 863d 73b3 d6bd ce33 293e
00000030: 9279 473d 7f48 9cbd 9760 a1bd cabd be3d
00000040: e3cd de3d 0211 f1bd c00d c63d 76df 9abd
00000050: 37e5 36be 51c4 a73d 9501 71bd 8d87 21bc
00000060: d731 b5bc 7aa3 dabd 219b 05be a5b7 33bd
00000070: 6f24 00be bf6f c63c 6966 c93d 02f6 f93c
00000080: a9e8 933c 1480 073d 48c4 a33c 8a39 573d
00000090: 71bd b03d f73c 213d 71c5 803d 96be 933c
000000a0: 3b91 07be 361b 72bd
-0.18551992 0.64985585 0.014245897 -0.25691676 -0.20925295 0.31134745 -0.24038894 -0.029709168
0.18016692 0.06589432 -0.10483446 0.16523668 0.048699923 -0.07631015 -0.07879751 0.09313543
0.108791135 -0.11770822 0.09670591 -0.07562153 -0.17860876 0.08191741 -0.0588394 -0.009858978
-0.022118492 -0.10675712 -0.13047458 -0.04387631 -0.12513898 0.024223207 0.09833986 0.030512813
0.018055277 0.03308113 0.019991055 0.052545108 0.08629883 0.03936478 0.06287659 0.018035214
-0.13238995 -0.05910798

fc2.bias f4 [256]
00000000: 8270 39bf 810f 55be 293d 29be 996d 0bbe
00000010: 6589 e9be 397f 3bbe fe7d b2be 9b3a 4bbf
00000020: 22fb 87be 36cd b5be 93df e9bd 716d cbbe
00000030: 0d57 61be cbec 99be a977 2abe b00c 21bf
00000040: a035 2abe 9a1b fcbe e9e1 c9be 0128 b4be
00000050: 3ab5 1ebe bff4 8dbe c3d0 9abe f661 2abe
00000060: ac7d 47be e655 4abf e6bd e4be 651b 8fbe
00000070: ebeb 4bbe fd4d 84be d10d c9be 3e09 15be
00000080: 349b b9be a26a 40be da24 edbd c6fb cabe
00000090: 3e7f 5bbe 1ceb 0dbf 096d f0be 792e 6bbe
000000a0: f5dc 1bbe 27f8 04bf 1f25 efbe 3689 11be
000000b0: 053d 2fbf 319e b4be c088 bebe af68 06be
000000c0: d954 3dbe fc19 ddbe 171f 89be 515f 27be
000000d0: e233 7ebe 4f06 90be ffb4 c1be b13c 12be
000000e0: 68d3 63be 548d 0abf 6d81 20bf f80a e7bd
000000f0: c364 64be 3d78 62be 8dff f2bd 8b13 2abe
00000100: ef21 23bf d133 ccbe 976e 3cbe b3dc b2be
00000110: 239f 58be 88e2 e4be a527 10be 2d54 09bf
00000120: 712d 66be a8cb c0be e350 6ebe f4a8 15be
00000130: 889d 14be b12d 03be aa50 bebe 68f2 2dbe
00000140: 4adf 26bf 12e4 e3be 6a3f a4be e190 9dbe
00000150: e9da d5be 4adc 22bf 63e1 0abf b687 3ebe
00000160: 8131 0cbe 09f0 1abe a27e 36be 8420 28bf
00000170: 2d77 6fbe 8a05 69be f1bd 03be ef86 0fbe
00000180: 6fed c6be f34e 83be 8694 96be 65f8 c3be
00000190: 82f1 0dbf ed3d 8ebe 0011 abbd 0966 93be
000001a0: a154 debe 6524 81be 16d6 8dbe f3ed 34be
000001b0: ea18 92be 0054 bcbe fcc3 fcbd dc65 c4be
000001c0: 6670 0cbe edb3 c5be 1976 04bf b3c4 05be
000001d0: 98b4 2cbf fcad a4be 08f1 6fbe 892e c0be
000001e0: 4637 3bbe f7de 71be 6184 06bf f35d eebd
000001f0: e2df 01be ace0 cabe b276 8abd 790a c3be
00000200: ea13 19be 1805 66be 7dea f1be 33c9 38be
00000210: b6e4 6fbe d305 a3be c734 08be fd33 9ebe
00000220: b363 1bbe 3681 1ebe 1761 16bf 8532 81be
00000230: 37eb a0be 21ae a8be 0344 07be d27e 63be
00000240: cdef aabe f821 adbe 67e0 6cbe 522b 37be
00000250: 7628 c3be 198f dbbe 879f 9ebe a7fd 06be
00000260: 7345 e0bd a4dc 63be c635 79be 417e 0bbf
00000270: b533 dbbe 3a60 00bf 3be8 e7be dac6 d3be
00000280: 27a5 f7be b1f0 acbe 3973 40be b5ab 53bf
00000290: 6d7e 3abe 0166 f7bd 067d 0ebf ab1e 4fbe
000002a0: e0f5 05be 2eed 0dbf c1bf 03be a847 3fbe
000002b0: 5250 b0be 5d04 46be 13a0 18bf f266 44be
000002c0: 7b85 dbbd 40da 15bf be98 debe 4fe9 80be
000002d0: 3e7c 96be 3d41 7abe 2d85 e6be f60e b9be
000002e0: 0027 27bf a8c9 20be 52a5 1ebe fbf8 44be
000002f0: ee92 d7be 9a3b 07bf 0f55 d5be c6e5 bdbe
00000300: 5137 dbbe a1c3 0bbf a087 bbbe 1f54 9ebe
00000310: cdc4 5ebe eb60 06bf 778f 01bf 15df 0abe
00000320: 154e 42be a031 2ebe 7f99 22be 398f 6fbe
00000330: 9434 58be 1b30 c7be f184 34be 9972 b8bd
00000340: 90e4 e6be f5d2 d7be fcab 8bbe 6576 14bf
00000350: 1a7b eebe 7d6f 5bbe a5d8 a1be 50bd 4dbe
00000360: d4c2 25be a6fe 8fbe d430 1ebe f33e 15be
00000370: 0709 10bf 62dd a1be 0082 d5be bfc9 c7be
00000380: 9c4c b3be f8fd b9be 99ce 9abe 02a6 aebe
00000390: 20d7 f5be 6d31 d6be 3498 b4be 8e78 0cbe
000003a0: 432c 09bf b94b efbd 4465 65be 1c44 e4be
000003b0: 6fb0 bcbe c8ae 6abe 8fb9 4cbe 343d a2be
000003c0: cd50 c0bd 5a95 bebe 64bf b8be 52cb 60be
000003d0: 436c 2dbe dd01 36be bb4d 68be c0db 88be
000003e0: e154 bfbd 3ede 2ebf 4932 d8bd 8564 bdbe
000003f0: cfc0 e5be b759 f4be c5a2 54be 4414 02be
-0.724373 -0.20806696 -0.16527237 -0.13616027 -0.45612636 -0.1831025 -0.3486175 -0.793863
-0.26558787 -0.35508126 -0.114195965 -0.39731935 -0.22005863 -0.3006347 -0.16647209 -0.62909985
-0.16622019 -0.49239808 -0.39430168 -0.3518677 -0.1549882 -0.2772579 -0.30237398 -0.16638932
-0.19481534 -0.7903732 -0.4467613 -0.27950588 -0.19914214 -0.2584075 -0.39268354 -0.14554307
-0.36251223 -0.18790677 -0.115792945 -0.39645213 -0.21435258 -0.55436873 -0.46958187 -0.22966947
-0.15221007 -0.5194115 -0.4670801 -0.14212498 -0.68452483 -0.3527694 -0.37213707 -0.13125871
-0.18489398 -0.43183887 -0.26781532 -0.16344954 -0.24824479 -0.28129813 -0.37833402 -0.14280964
-0.22248614 -0.541219 -0.6269749 -0.11281389 -0.22304063 -0.2211618 -0.11865149 -0.16609018
-0.63723654 -0.39883283 -0.18401562 -0.34934005 -0.21154456 -0.4470408 -0.14077623 -0.5364407
-0.22478272 -0.37655377 -0.23273043 -0.14615232 -0.14513218 -0.12810399 -0.37170917 -0.16987002
-0.6518446 -0.4450994 -0.3207963 -0.30774596 -0.41768578 -0.63617384 -0.5425016 -0.18606457
-0.13690759 -0.15130629 -0.17821744 -0.65674615 -0.23385306 -0.22756019 -0.12865426 -0.14016317
-0.38853022 -0.2564617 -0.2941019 -0.38275447 -0.55446637 -0.2778162 -0.08352852 -0.28788784
-0.43423942 -0.2522308 -0.27702397 -0.17668895 -0.28534633 -0.36782837 -0.123420686 -0.38358963
-0.13714752 -0.38613835 -0.517427 -0.13063316 -0.67463064 -0.3216399 -0.2343179 -0.37535504
-0.18282804 -0.2362021 -0.52545744 -0.11639013 -0.12683061 -0.39624536 -0.067609206 -0.38093928
-0.14949003 -0.2246288 -0.47249213 -0.18045501 -0.2342709 -0.3184038 -0.13301383 -0.3089904
-0.15174751 -0.15478978 -0.587419 -0.25233856 -0.31429455 -0.3294535 -0.13209538 -0.22216347
-0.33386078 -0.3381498 -0.23132478 -0.17887619 -0.38116807 -0.42882612 -0.30981085 -0.13182698
-0.109507464 -0.22252136 -0.24336919 -0.54489523 -0.42812887 -0.5014683 -0.45294365 -0.4136265
-0.4836819 -0.33777383 -0.18793954 -0.8268388 -0.1821229 -0.120800026 -0.5565952 -0.20226543
-0.13082075 -0.5544003 -0.12866117 -0.18679678 -0.3443628 -0.19337602 -0.59619254 -0.19179896
-0.10718819 -0.5853615 -0.43475908 -0.25178 -0.29391664 -0.24438949 -0.4502348 -0.36144227
-0.65293884 -0.15701926 -0.15492752 -0.19235604 -0.42104286 -0.5282532 -0.41666457 -0.37089366
-0.4281564 -0.5459538 -0.3662691 -0.30923554 -0.21754761 -0.52491635 -0.50609535 -0.13561662
-0.18975098 -0.17011118 -0.15878867 -0.23394479 -0.21113807 -0.3890389 -0.17628838 -0.09006233
-0.45096254 -0.42153135 -0.2727965 -0.57993156 -0.46578294 -0.21429248 -0.316106 -0.20091748
-0.16187602 -0.2812397 -0.15448314 -0.14574794 -0.56263775 -0.31614214 -0.41700745 -0.39021108
-0.35019386 -0.36326575 -0.30235747 -0.3411103 -0.4801569 -0.41834584 -0.35272372 -0.13717863
-0.53583163 -0.11684365 -0.22401911 -0.44583213 -0.36853358 -0.22918236 -0.1999266 -0.3168732
-0.093904115 -0.3722332 -0.3608352 -0.2195256 -0.1693583 -0.17774148 -0.22685902 -0.26730156
-0.09342361 -0.68307865 -0.10556466 -0.36990753 -0.44873664 -0.47724697 -0.20765217 -0.12703043

fc2.weight_orig f4 [256, 512]
00000000: e172 70bd 0424 923b 8592 b2bc 5ff4 05bc
00000010: 02e8 a43c bcf0 023c 710e b93c 0749 90bc
00000020: fff4 ccbc a37e e13c 3b26 92bb 054e 90bb
00000030: 63a5 0fbd 2334 7c3c 21fa 0fbc df13 1dbb
00000040: e9aa 5b3b cd24 15bc 289f c5bc 6c03 2ebd
00000050: 129b 733c fe6b 8a3c 12e8 7c3b 15f8 00bd
00000060: 1e8b 6f3c 5680 f5bc fe5c e63c 9889 b1bc
00000070: de58 943c d91c a63b 925c 8d3c 6a80 6cbb
00000080: 5067 bc3c 8cef 2bbc 1288 6d3c d26e d0bc
00000090: a4c4 843c 185c a2bb 3dda 993b 0b0f 3f3c
000000a0: 25a6 ed3b aa44 2fbd b7a5 94bc bbfa 87bc
000000b0: 0cf3 ef39 098f a93c 4590 e13a aa5a 04ba
000000c0: 485b 123c 2383 9f3c 28c5 a3bc 19ac 28bd
000000d0: 0885 5ebb 70fc da3c ddbb babb 3e5d 083d
000000e0: 3ec7 d4bb 1759 e83b 2cd7 53bc cd58 543c
000000f0: ee67 b13b 5039 b93c 8147 19bc bc19 91bb
00000100: d4a2 febc 3933 d33c e132 1d3c 4675 27bd
00000110: a634 67bc af2a 993c 2ced a0bc 6268 0bbd
00000120: 3870 533c 24d6 16bc 5182 d2ba 3844 f4bb
00000130: ddbe b5bc 4ad1 e4bb b70a a3bc 6020 773c
00000140: 97fb 1c3b 8e10 433d fdc2 983d 34ea 8dbc
00000150: 274d ae3c 2f95 4ebc b914 963c 1d8a f7bc
00000160: 2b58 2cbd ca16 febb d513 95bd bb79 053d
00000170: bd2e 323b a6b9 09bc 1b07 9f3c 2013 bf3c
00000180: b28a 703a 8e5f 0e3d 5269 08bd e158 af39
00000190: c5b5 993a 0c8b a53c 3211 d23c bf44 5dbc
000001a0: 5d13 0b3d ef9c 003d ddf9 353c fc6e 803b
000001b0: 3a7b 3cbd 687c 6bbb 9ec9 48bc 0e11 75bd
000001c0: 80c8 32bc 3b10 d23c dbd8 b73c 6140 e93c
000001d0: 75de e13b ceab 74bc 47b4 a8bc 9c78 453c
000001e0: f3cc 313c c932 2ebc 8681 1c3d 63ed 84bc
000001f0: 3f01 093c 1532 113c d7be 85bc f42d 98bc
00000200: 60b0 a4bc de5b b9bc 5384 ccba 0d15 953c
00000210: 6b9f 01bd 35c3 383d b4d0 043c 769c 56bc
00000220: 64c6 08bd 633c b03b 28e8 b13b f6c3 72bb
00000230: cf83 b9bb 51a6 3d3c 0a4b 19bd 4503 e3bc
00000240: dcb6 933c 4afd bd3c 78a6 4e3c 98a1 203c
00000250: 4225 af3c 003d c13c da78 92bc 8a61 c7bc
00000260: 1a54 c53b 2871 a23c dddf bc3c bb8b f9bb
00000270: 4ca8 0abc e254 d0bc 8ace 0f3c 7d6c 27bd
00000280: b9e0 02bc 449e 0dbb 831b e0bc ad80 723b
00000290: ad75 c83c b25c 16bd a996 0a3d 7085 04bb
000002a0: caf7 f73c b8f6 be3b 0273 2ebd 7eba c93c
000002b0: 8a29 2b3d 1f06 93bb da07 1b3d 2873 f43c
000002c0: a66a 5e3a 13e7 27bd 15d4 1c3d f03a d83c
000002d0: 9c91 aebc d94a 6abc ccaa babc 2e52 be3b
000002e0: 915f ba3b 16c8 9e3c cda8 fbbb 2184 ccbc
000002f0: 3948 183c 8189 e23b 52d8 333c ebcb cf3c
00000300: 5d8f 3cba 2523 44ba 8a63 ef3c 0582 e2bc
00000310: 475c da3b 2be8 fa3b 9062 85bc 6207 373b
00000320: 8a27 95bc 4272 98bc d6e9 e43c 742a 083d
00000330: 2da2 bc3b 3405 89bc c4d9 153c 0a30 9e3c
00000340: b97b a8ba dbd1 eeba 8f2e 723b 5e30 a93c
00000350: bc34 eeb9 b86b c53b 8112 0f3d a1ae 9abc
00000360: e27a b13a acdb 62ba ec29 a5bc 3a44 2b3c
00000370: ad0b f3bc ff6e 0bbd e051 563a 0f22 b4ba
00000380: 63eb 57bd 8fe8 033c c8b9 eb3c 814a 433b
00000390: b4a7 d23c b847 60bc ee95 873d ac43 adbc
000003a0: 5aa8 2bbd 0373 20bd b3a3 be3b bfd1 03bc
000003b0: ea64 debc b9fd 71bc 1534 923c 5d26 a73c
000003c0: b408 1abc 9aeb 8b39 4bfa 16bd 4776 a1bc
000003d0: 5d9b 50bc 7fb7 80bc ba28 2f3d cc68 f3bc
000003e0: b503 0dbc 25ba 17bd 1d6c a2bc 63c0 25bc
000003f0: 835b 02bc 110e d13b 6a58 913a e182 f5bc
-0.058703307 0.00445986 -0.021798382 -0.008175938 0.020130161 0.007991966 0.022589894 -0.017612947
-0.025019167 0.027526205 -0.004460124 -0.004403832 -0.035069834 0.01539329 -0.008787663 -0.0023968143
0.0033518618 -0.009103012 -0.024123743 -0.042483732 0.014868515 0.016897198 0.0038590473 -0.03148659
0.0146205705 -0.029968422 0.028120514 -0.021672055 0.018108781 0.005069357 0.017256055 -0.0036087283
0.022998482 -0.010494124 0.014497774 -0.025443468 0.016207047 -0.004954826 0.0046952055 0.011661301
0.007252472 -0.042790093 -0.018145425 -0.01659905 0.00045766716 0.020698087 0.0017209133 -0.00050489104
0.008932896 0.01947171 -0.019991472 -0.04117975 -0.0033953805 0.0267317 -0.0056986646 0.033292048
-0.006493478 0.0070906985 -0.012929719 0.012960625 0.0054140007 0.022610337 -0.009355427 -0.0044281166
-0.031083502 0.02578126 0.00959465 -0.040883325 -0.014111673 0.018697111 -0.019644342 -0.034035094
0.012905173 -0.009206329 -0.0016060566 -0.0074544214 -0.022185737 -0.006982957 -0.01990257 0.015083402
0.002395367 0.04762321 0.07459066 -0.01732359 0.021277023 -0.01260881 0.018320428 -0.030217225
-0.04207627 -0.0077541815 -0.07279173 0.032586794 0.0027188503 -0.008406078 0.019412568 0.02332455
0.00091759406 0.034759097 -0.033303566 0.0003344482 0.0011727145 0.020207904 0.025642965 -0.01350516
0.033954013 0.031399664 0.011106935 0.0039194804 -0.046015956 -0.0035932306 -0.0122551005 -0.059830718
-0.010912061 0.025642505 0.022442272 0.028473081 0.006892974 -0.01493354 -0.020593775 0.012052681
0.010852086 -0.010632225 0.03820946 -0.016226476 0.0083621135 0.008862038 -0.016326351 -0.0185766
-0.020103633 -0.022626814 -0.00156034 0.018198514 -0.031646173 0.04510804 0.008106399 -0.013098827
-0.033392325 0.0053782924 0.0054292865 -0.0037043071 -0.0056614648 0.011575297 -0.03742508 -0.02771152
0.01803153 0.023192067 0.012612931 0.009804152 0.02138007 0.023588657 -0.017879892 -0.024338502
0.0060219886 0.019829348 0.023055965 -0.007615534 -0.008462977 -0.0254311 0.00877727 -0.040874947
-0.007988148 -0.0021609226 -0.027356869 0.0037002966 0.024470175 -0.036709495 0.033835087 -0.0020221137
0.030269522 0.005827751 -0.04259015 0.02462506 0.04178766 -0.0044868137 0.037849285 0.029840067
0.000848452 -0.040991854 0.038288195 0.026395291 -0.021309666 -0.014300072 -0.02278652 0.0058081364
0.005687662 0.019382518 -0.0076800347 -0.024965348 0.009294563 0.0069133644 0.010976868 0.02536579
-0.00071929937 -0.00074820436 0.029222269 -0.027649889 0.0066638323 0.007657071 -0.01628235 0.0027927984
-0.01820733 -0.01860917 0.027943533 0.03324361 0.0057566375 -0.016726114 0.009146158 0.019310016
-0.0012854255 -0.0018220501 0.003695402 0.020652946 -0.00045434188 0.006024804 0.034929756 -0.018882098
0.001354065 -0.00086539495 -0.020161591 0.010453278 -0.029668653 -0.0340414 0.00081756525 -0.001374306
-0.052714717 0.008051052 0.02877511 0.0029799046 0.025714733 -0.013688974 0.06620394 -0.021150433
-0.0419086 -0.039172184 0.0058178543 -0.008045613 -0.027147729 -0.014769965 0.0178471 0.020404035
-0.009401489 0.00026687683 -0.03685979 -0.01970972 -0.012732354 -0.015712498 0.04276345 -0.029713057
-0.008606841 -0.037042756 -0.019826943 -0.010116669 -0.007956388 0.0063798507 0.0011088972 -0.029969634

fc2.weight_u f4 [256]
00000000: abae 27bb 2249 4dba a98f a23d 30fb 96ba
00000010: db38 5cba 9446 02be b900 4b3b 04f8 06ba
00000020: 4cad de39 d428 88bb 8d78 f7ba b007 4c3b
00000030: d27c 3dbb e03a 1f3c 13f3 053d e116 453b
00000040: e5ae 9b3d 018d 0a3b 5830 843b 969f 443b
00000050: 8ad6 a03b 8bd8 d93a 0a06 a73b 25be e5bb
00000060: bf80 3d3c 36c9 ddbb 182f c0ba 6eaa 60bb
00000070: b779 a4bb 1fd6 2d3b 348f 923a dd6b 133c
00000080: 9cdf 083c 316b a43b c889 103b 428d 1c3b
00000090: 15fe 893a 810f 30be d5ec 4cbb 4c26 793c
000000a0: 976b ca3b d3dd de39 41e0 ab3b efa9 b4bb
000000b0: d454 bfbb c5c6 c13a 55e2 caba e813 36b7
000000c0: 3864 af3b 56d2 9939 5541 b33b 1796 f239
000000d0: 0f43 a5bb fa59 093b c022 01bc f487 1f3c
000000e0: 02ba 863d e538 133b c5b6 9f3b 61d5 fbbb
000000f0: 55d1 073c a35c 5e3c 27fb e23b d78d 3b3b
00000100: 0f96 a6bb 0e70 0abc 3314 9bbc 0a47 273a
00000110: 6396 babe 5d61 b5bc d88f 3b3d 356d 783b
00000120: e4d3 a83b a3a7 9abb d152 8c3b 2192 eb3c
00000130: 3ef5 0bbd efea a1ba 032f 6739 5e5a 513d
00000140: a227 eabb 50c4 f639 ac24 6fbc 2383 763a
00000150: 8aec 973b 85eb a13a 7fde 193b 90ee f13b
00000160: 0247 bf3a d7bc 20bd 5f3b 6abb a463 0bbb
00000170: 32b1 ac3b 31f7 04bc 74c8 073c 4740 c1ba
00000180: 73b4 9939 045a 71be fca6 263b ec6c 033a
00000190: b198 003c aefe 6b3b 67c5 f13d 8e5b 543a
000001a0: 0361 5abb b2b9 6439 dc47 53ba af7b 21ba
000001b0: e7af de3b 53e9 e93e 801b 113e eb5c f93b
000001c0: dca7 d939 feea e83b f670 b0bb 8dc6 af3b
000001d0: d902 d43b fcd1 26bb 43c6 693a 5364 033a
000001e0: 7270 9abb 29fb 963d dff3 85bb 7258 cfb8
000001f0: 9f60 013c 3e53 0eb9 277a 523c d721 463b
00000200: 6bc8 6c3c 0f06 933b dc7d 1b3c 7de3 5cba
00000210: c132 653c 389a 973d f446 68bc 910d f3ba
00000220: 270c 2bbc 57fc 80bb 0994 b63a 697a 97bb
00000230: 5649 34bb 0ed7 443a 3a82 523b 262b 0cbb
00000240: 34ec 593c dd62 2b3a c8f2 873a bb3a d1bb
00000250: a535 d23b 857a 34be 2fe1 2f3b 9e0c 823a
00000260: 0e1f b83a 079b d43b 5aa6 fb3b 8910 17bb
00000270: c533 343b 5da5 3b38 ce5d 9f3a 86f7 0abb
00000280: 5591 023b 074f 9eb7 d7f4 d8b9 af2d 47ba
00000290: 1e6e 953a 86ee 95bd 0a48 4a3b 4396 ebbc
000002a0: 6994 a63b 5b00 faba 15c8 b43c 1535 303c
000002b0: dcff 0c3e 2c1f 1bbd ee29 9bba da29 0b3c
000002c0: 02f2 e73d 5cee b0bb cfb5 b2bb 07bb a83b
000002d0: 56ea 63bb 956e 66bb 5568 34b8 fe61 7dbb
000002e0: b0ed 28be 6881 bcb9 56fd 5abb 9ed5 96ba
000002f0: 8871 e03a 9725 c138 e648 b53b d330 103b
00000300: beba 9ebb a5d8 4dbb 70cf 04bb 22a8 3a3b
00000310: 1889 a9bb 038d e1ba ef01 11bb b38f 07bf
00000320: 6db5 cebc ca6e cc3b ad8c eabc 0153 babb
00000330: 0625 a23b c0fa 2f3a 823b 423b 1588 623a
00000340: 8b3a 35bb 54f9 073c 3812 5abb a268 c63b
00000350: 491e 913a a9fb bd3b a6e1 9ebc 2fe9 b8bc
00000360: 1014 f63d 2259 b3bb 812a 19bb 9d0e 70be
00000370: 2388 39bb 50d6 b43b bdf0 153b e0f9 b839
00000380: 1f65 04be 467a 913b 9ef5 9b3b 1af1 a0bb
00000390: 49c3 853a 13fc 9b3b c42f 35bb 7642 a73d
000003a0: e28a 72bb 6dc5 8b3b 583a 4e3b d054 4e3b
000003b0: fe77 f7bb 5425 df3b 944b 953b f1c3 293a
000003c0: 331a 95bd a9d3 103b e702 6b3b ad3c 9cba
000003d0: de34 2d3b 85d7 f73b 7025 b93b 7ee9 b23b
000003e0: 7fb0 803c 3442 5d3a 7fa3 18bb 46e5 53bc
000003f0: 90b1 873b dfd9 973b 5555 c7bc 3c9e 5b3b
-0.0025586288 -0.0007831027 0.07937557 -0.0011518952 -0.0008400806 -0.12722236 0.0030975773 -0.00051486515
0.00042472256 -0.0041552577 -0.0018880531 0.0031132512 -0.002891351 0.009718627 0.032702517 0.0030073451
0.07601718 0.0021141174 0.0040340833 0.0030002347 0.0049083875 0.0016620321 0.0050971555 -0.0070111924
0.01156634 -0.006768371 -0.0014662473 -0.0034281272 -0.0050193924 0.0026525331 0.0011181594 0.008997885
0.008354094 0.005017661 0.002205478 0.0023887907 0.0010527993 -0.17193414 -0.0031269093 0.015206885
0.0061773765 0.00042508412 0.005245239 -0.0055134217 -0.0058389697 0.0014783969 -0.0015478829 -1.085268e-05
0.005352523 0.00029339147 0.0054704347 0.00046269663 -0.0050433944 0.0020958171 -0.00788182 0.009737004
0.06578447 0.0022464332 0.0048740827 -0.007685349 0.008289655 0.013571891 0.0069269123 0.0028618479
-0.0050838063 -0.0084495675 -0.01893053 0.000638113 -0.3644286 -0.022141153 0.045791477 0.003790689
0.0051522125 -0.004719691 0.0042823334 0.028756203 -0.034169428 -0.0012353341 0.0002204739 0.05111157
-0.007145838 0.0004706704 -0.014596146 0.0009403696 0.004636352 0.0012353515 0.0023478565 0.007383175
0.0014593306 -0.03924259 -0.0035740954 -0.0021269107 0.0052701468 -0.008115576 0.008287538 -0.0014743888
0.0002931688 -0.23569494 0.002542912 0.0005013484 0.0078489045 0.0036009955 0.1180523 0.0008100801
-0.0033321984 0.00021812951 -0.0008059719 -0.0006160093 0.0067958715 0.45685825 0.14170647 0.0076099536
0.0004151453 0.0071080914 -0.0053845597 0.0053642453 0.006470066 -0.002545475 0.0008917788 0.0005012203
-0.0047131116 0.07372124 -0.0040879096 -9.8870034e-05 0.007896571 -0.00013573185 0.012846506 0.0030232572
0.01445208 0.004486806 0.009490456 -0.00084262324 0.013989151 0.07402462 -0.014177073 -0.0018543472
-0.010439909 -0.0039363313 0.0013929616 -0.0046227467 -0.0027509532 0.0007508852 0.0032121078 -0.0021388023
0.013300944 0.0006537864 0.0010372037 -0.006385175 0.0064150863 -0.17624862 0.00268371 0.0009921973
0.0014047341 0.0064882073 0.0076797428 -0.0023050627 0.0027496677 4.473828e-05 0.0012158693 -0.0021204664
0.001992305 -1.8871868e-05 -0.0004138115 -0.0007598055 0.0011400615 -0.07320885 0.0030865693 -0.028758174
0.00508361 -0.0019073592 0.022068063 0.010754843 0.13769478 -0.037871525 -0.0011838058 0.008493865
0.11325456 -0.0053995084 -0.005453802 0.0051492485 -0.0034777126 -0.0035161127 -4.301251e-05 -0.0038663144
-0.1649692 -0.0003595457 -0.003341516 -0.0011507755 0.0017123679 9.209959e-05 0.005532372 0.0022001758
-0.0048440387 -0.0031409648 -0.0020265244 0.0028481563 -0.0051738136 -0.0017208162 -0.0022126397 -0.5295364
-0.025232995 0.006238793 -0.028631533 -0.0056861644 0.004948261 0.0006713085 0.002963752 0.00086414936
-0.0027653303 0.008299191 -0.003327502 0.0060549537 0.0011071648 0.0057978225 -0.019394707 -0.022572128
0.12015545 -0.005473272 -0.0023371282 -0.23443075 -0.0028309904 0.005518712 0.0022879087 0.00035281386
-0.129292 0.004439625 0.0047595045 -0.004911554 0.0010205294 0.004760274 -0.0027646879 0.08166973
-0.003700905 0.0042654783 0.003146788 0.0031483658 -0.007552146 0.00680987 0.0045561288 0.0006476036
-0.07280388 0.0022098816 0.0035859884 -0.0011919938 0.0026429216 0.0075635337 0.005650215 0.0054599633
0.01570916 0.0008440346 -0.002329081 -0.012933081 0.00414104 0.0046341266 -0.024332682 0.0033511063

fc2.weight_v f4 [512]
00000000: 334b 2e3c df90 98bb 4c42 003c 4d40 6e3b
00000010: d1c7 073b 7136 ccbc d0c9 553c 4309 05bb
00000020: 5b17 b33b d948 513c ce57 2a3c 1ff8 0b3c
00000030: 6454 843b a683 b63b 319d f83b d676 043c
00000040: e0e9 d83b 9caf 95bb 20cf a13b 9949 e2bc
00000050: 605a 1e3a 50c8 593d d781 eb3a 4745 243c
00000060: 2a2d 9139 2c57 123c db39 59bb f7e5 d03b
00000070: 6b0e 903a 177d aebd 970d 1c3c 965c bb3b
00000080: 45f7 af3b f799 853b 4a2f 333a 99dc 603b
00000090: 6a86 0c3c 7dfa b73c 312e 523c 0a43 003b
000000a0: 50fc 163b 1fa9 0c3c 3499 733d 0556 233b
000000b0: d620 473b 50f3 033d 1719 c03b 6fef 1b3c
000000c0: 887e f63b adac dfbd 6f34 b33b 9b2c ad3b
000000d0: 51d1 be3b ce28 9c3b 643c 163c ec56 063c
000000e0: 5843 f33b 1180 a83b 1c28 a83b dfce c6bd
000000f0: ed28 9d3b db51 663c c827 f1bb b621 6bbb
00000100: a2bf 50bc db5e 0b3c 9d39 1cbd 54b3 c73b
00000110: 1231 9d3b f04f c13b c107 a039 4c3c 9e3b
00000120: 48ed 7e3b ee95 013c bbdf 1a3b 5d88 ae3b
00000130: ec8b b53b c17a d03b 8942 c13b a184 b53d
00000140: df5c 113c 9498 193c 528b f7bb 090c c33b
00000150: b488 383c 3ba8 063c b8df cb3a 4c87 963b
00000160: b314 ec3b 6553 db3b 2c8d c33a fd2d 8fbb
00000170: dd7c e53b c7f1 953b f556 123d 648b 8ab9
00000180: b8e0 c33b 61c8 e93b 82e0 93ba 1de8 8cbd
00000190: 35b4 333c b397 993b c012 fd3c a7fa 913b
000001a0: 368b b83b ecf8 6d3c a4e2 af3b 1991 8d3a
000001b0: 9c38 033c 3e1f 1f3c b29b 683d dd74 d6ba
000001c0: f858 d03b 7e2b d23b 6074 143c d4e3 a53b
000001d0: bf19 733b e736 713b d809 3c3c a187 ef3d
000001e0: e73b 093c 5155 ac3d 553a 9f3c e8bc ea3b
000001f0: 799b a73b c489 43bd 4141 703b 7d1c eb3a
00000200: 9b1c c63c b915 c83a 7773 7a3a 1b75 223b
00000210: fa17 f43b 96e4 bb3b f1d3 c23b a2a8 8f3b
00000220: ab73 633b afec 023c 687b 013c 1a6c 103b
00000230: 9aaf e9bd 1683 9e3b 4e8c be3a 24ee 0d3c
00000240: 58fb 613c 1d2f 223c d2f3 fb3b 2a3e 803b
00000250: 4c3b 083c 10f9 893c caf4 653e 598d 4f3c
00000260: 51f0 323e ace4 d83b 261d 593d edee 253d
00000270: d906 0b3c 0beb d13b 2d85 6e3b f356 3a3b
00000280: 2247 c63b d9f9 b23b e6bd 623a 52ae bc3b
00000290: c374 fa3d 7f9b d23c f675 a13b 576e e43b
000002a0: a677 063c b71f f83b bbbc 533b 9b61 6ebc
000002b0: 7da3 e33b 8fc6 8e3b a47c 323c b7c4 d73b
000002c0: 71a9 983b b6ef 1e3c d62f fe3b e7a6 043b
000002d0: 2559 083c e637 853b 3307 2fbd 44c2 053c
000002e0: 1301 043c aeec 283c 0d85 ed3b 6038 8e3c
000002f0: 92b3 fc3b 2976 52bc a676 213c 4e72 18b8
00000300: 9713 eb3b 2198 9a39 8a6f 143c 2936 413d
00000310: 865e cdbe b3b3 b53b 6718 f03b 460a 193b
00000320: dcdd baba dd68 f13b 6862 d43b 7713 c53b
00000330: a060 353b f2ea c73e b712 473c 75cd 273d
00000340: c74a ca3a b1c5 c53b 2ba0 623b d59a ca3b
00000350: a8bd 183c 53ec 573a d4df 5dbc ac06 83bb
00000360: 3a9c 433b b6b1 aa3b b7fe 9e3b 33d9 fd3b
00000370: ba11 a63b 99ad 393c fd9c 733c 9637 143c
00000380: 90ea de3b 6983 f43b 1768 eb3b 8dda 733b
00000390: 6823 253c 4760 fa3b 2f5c 883b ad74 e539
000003a0: 0bbd ce3b 3068 cd3b e734 fb3b c7ff b93b
000003b0: e912 8e3b 87b8 ae3b 70c6 443b b65b 5f3b
000003c0: e909 1ebb 8d31 ebbd fb1e b73b 7670 033c
000003d0: 2b3f 533c 8517 e63b a957 0f3c cd8c 063c
000003e0: 2a54 bd3b 2da6 373c 76ca df3b 0510 453c
000003f0: 05c2 ad3b 523f fb3b 67c3 4d3c a1aa 123b
0.010638046 -0.004655942 0.007828306 0.0036354244 0.0020718465 -0.024928303 0.013048604 -0.002029971
0.0054654307 0.012773716 0.010396911 0.008543043 0.0040383805 0.005569893 0.007587098 0.008084973
0.006619677 -0.0045680534 0.0049380213 -0.027622985 0.00060406886 0.05316955 0.0017967772 0.010026283
0.00027690205 0.008931916 -0.0033146057 0.00637507 0.0010990625 -0.08519953 0.009524724 0.005717824
0.005370053 0.004077192 0.0006835355 0.0034311174 0.008576969 0.02245831 0.012828396 0.0019571208
0.0023038574 0.0085852435 0.059472278 0.0024923098 0.0030384562 0.032214463 0.005862366 0.009517535
0.007522408 -0.10921607 0.005468897 0.0052848584 0.0058232923 0.0047656065 0.009169672 0.008199435
0.0074237995 0.00514222 0.0051317345 -0.09707426 0.0047961385 0.014057602 -0.0073594786 -0.0035878248
-0.012741001 0.008506502 -0.03814088 0.0060943756 0.0047971094 0.005899422 0.00030523355 0.0048289653
0.0038898755 0.007909281 0.002363189 0.0053263144 0.0055403616 0.0063622897 0.005897824 0.088631876
0.00887224 0.009374756 -0.00755445 0.0059523624 0.011263061 0.00821882 0.0015554344 0.0045937654
0.007204616 0.006693291 0.0014919392 -0.004369496 0.0070034103 0.0045759412 0.03572746 -0.00026425265
0.0059777163 0.0071344827 -0.0011282119 -0.068802096 0.010968258 0.0046872734 0.03089273 0.004454929
0.0056318296 0.01452468 0.005367594 0.0010800689 0.008009102 0.009712039 0.056789108 -0.0016361732
0.006358262 0.006413876 0.009060949 0.0050625596 0.0037094203 0.0036806406 0.011476956 0.11695791
0.008376098 0.0841471 0.019436995 0.0071636327 0.0051149693 -0.047738805 0.0036659988 0.0017937567
0.024183562 0.0015265263 0.0009553949 0.0024789039 0.0074491473 0.0057340367 0.0059456755 0.0043841163
0.0034706395 0.007991 0.0079029575 0.002203709 -0.114104465 0.004837404 0.0014537664 0.008662734
0.013792835 0.009898928 0.0076889778 0.0039136605 0.008314919 0.016842395 0.22456661 0.012667977
0.17474486 0.0066190567 0.053006314 0.04051106 0.008485519 0.006406193 0.0036395297 0.0028433173
0.00605096 0.005461913 0.0008649513 0.0057580853 0.12229302 0.025708912 0.004927392 0.0069711613
0.008207237 0.00757214 0.0032308537 -0.014549638 0.0069469796 0.004357166 0.010893974 0.0065847295
0.004658871 0.009700706 0.0077571673 0.0020241083 0.008322035 0.0040655015 -0.042731475 0.008163992
0.008056897 0.010310335 0.007248527 0.017360866 0.007711836 -0.012845554 0.009854948 -3.634608e-05
0.007173966 0.00029486514 0.009059796 0.04717079 -0.40111178 0.0055451035 0.0073271277 0.002335207
-0.0014256793 0.007367237 0.0064814575 0.0060142833 0.0027676001 0.39046437 0.012150458 0.040967423
0.0015433662 0.0060355295 0.003458033 0.006183008 0.009322561 0.0008236814 -0.013542134 -0.003998598
0.0029847757 0.005209173 0.0048521417 0.0077468394 0.005068031 0.011332893 0.014868972 0.009046456
0.0068028644 0.0074619544 0.0071840393 0.0037209124 0.010079242 0.0076408717 0.0041613798 0.00043765214
0.006309157 0.0062685236 0.0076662186 0.005676243 0.0043357504 0.005332056 0.0030025505 0.0034081764
-0.0024114794 -0.114840604 0.00558841 0.008022418 0.012893478 0.0070218467 0.008748927 0.00821228
0.0057778554 0.011209053 0.006829555 0.012027745 0.00530267 0.0076674605 0.012558795 0.0022379535

fc3.bias f4 [128]
00000000: afc8 7fbe 546a c4be caad ccbe af3a 02bd
00000010: ccef 21be b869 52be e661 4abd c32d 87be
00000020: bc6c 38be 8ce5 89bd 1806 e4bd 8af3 f0be
00000030: 73ac 35be ce89 2ebe fea4 22be 7c69 a9be
00000040: 7320 c3be 4c5e 2cbe a157 7abe 8c8f b3be
00000050: ebbd 43be fdd4 1bbd 3938 73be da96 83be
00000060: 13e2 9cbe c4ee 80be f9f0 44be 7728 f2bd
00000070: 3a0b 98be cd64 bdbe b2af 83be 890b 3fbe
00000080: 241d 54be 348c b4be 9119 00be 4a84 53be
00000090: 6cab cebd c3d4 8fbe 1ded 48be 7552 aabd
000000a0: 402c 78be 67f1 c2bd 7bf1 c5be b246 5cbd
000000b0: 8443 87be ae96 41be 82e2 b2be 961c 7fbe
000000c0: 1fc5 c6bd e51d aabe 105c 50be dd7f b9be
000000d0: 95a2 59be 9314 87be 2b7d 93bd 9248 7ebd
000000e0: 247a abbd 7382 38be 019c 09be 50d1 30be
000000f0: b303 16be c3f5 b7be 393d a7be 5eea bebd
00000100: b4c4 b5be 7795 88bd 4798 9fbe f529 b1be
00000110: f26a 6dbe 366c c5bd eaf4 76be 3101 58be
00000120: 7ab7 c1bd be12 11bd d31a 04be 95ed 78be
00000130: d42a 7cbe 1d5a 4cbd 9b3a b0be 2fd1 09be
00000140: 23af 2cbe c523 87be adde 29be aa1c 11bd
00000150: 0f5b 9abe 1c13 3ebe 9271 68be 53a6 89be
00000160: 9ca0 45be 5d5d d6bd bb1a e9be 1a36 a4bd
00000170: d99e cabe 182d 0abe dc29 70be fc71 82be
00000180: 5a4b 73bd 0682 aabd c5cc 52be ffc3 15be
00000190: 1708 51be 24c8 2dbe 6add 6ebd c96e 13be
000001a0: 6114 86be b0be 9fbd 721d 9abe 10bf 16bd
000001b0: 4c78 7cbe ef0d a9be fb6b a1be 0b41 a0be
000001c0: dfd6 1cbe 2db9 7dbe bb18 aebe a39c 87be
000001d0: 2871 16be 27d7 b5be f7cd 7ebe 4c47 5bbd
000001e0: 7d9e 2abe 7b27 41be 9eca e5bd f40e 44be
000001f0: cc26 2fbe 5ebb 6abe bda4 1cbe 479b 56bd
-0.24978898 -0.38362372 -0.3997634 -0.031794246 -0.15814131 -0.20548141 -0.04940977 -0.264021
-0.18010229 -0.06733236 -0.11133975 -0.47060806 -0.17741565 -0.17044756 -0.15883252 -0.3308829
-0.38110694 -0.16832846 -0.2444749 -0.35070455 -0.19115417 -0.03804492 -0.23751916 -0.25701028
-0.3064123 -0.25182164 -0.19232549 -0.11824124 -0.29696065 -0.36990967 -0.25719982 -0.18656744
-0.20714241 -0.35263216 -0.12509753 -0.20655933 -0.1009129 -0.28092012 -0.19621702 -0.08316509
-0.2423563 -0.095187 -0.38660797 -0.053778358 -0.26418698 -0.18905136 -0.34938437 -0.24913248
-0.097055666 -0.33225933 -0.20347619 -0.36230364 -0.21253426 -0.26382884 -0.07201608 -0.062080927
-0.08372906 -0.18018512 -0.13438417 -0.17267346 -0.14649849 -0.3592969 -0.32663897 -0.09322046
-0.35501635 -0.06669133 -0.31170866 -0.34602323 -0.23185328 -0.0963978 -0.24116865 -0.21094204
-0.094588235 -0.035418265 -0.12900858 -0.2430938 -0.24625713 -0.049890626 -0.34419712 -0.13458703
-0.16863684 -0.26394477 -0.1658885 -0.035427727 -0.30147597 -0.18561977 -0.22699574 -0.26884708
-0.19299549 -0.104670264 -0.45528206 -0.080181316 -0.39574316 -0.13493764 -0.23453468 -0.25477588
-0.059398033 -0.08325581 -0.20585926 -0.14625548 -0.20413242 -0.16970879 -0.058316626 -0.1439773
-0.26187423 -0.07800043 -0.3010059 -0.036803305 -0.24655265 -0.33018443 -0.31527695 -0.31299624
-0.15316342 -0.2477767 -0.34003243 -0.26486692 -0.14691603 -0.3551571 -0.24883257 -0.05353479
-0.16662021 -0.18862717 -0.11220287 -0.19146329 -0.17104644 -0.22923037 -0.15297218 -0.052394178
