data/saved_models/discriminator.pth (torch, 758238 bytes, 14 tensors)

fc1.bias f4 [512]
000000 90 ec 30 bf a8 0b 9e be 36 39 d5 bf 95 36 94 be
       -0.69110966 -0.30868268 -1.6658084 -0.28947893
000010 7d 69 c9 bf 6a c8 97 3d 3d 6c 16 be b3 a2 37 bf
       -1.5735317 0.07411273 -0.14689727 -0.71732634
000020 fe 9d 7b bf eb cd 5b c0 9a ef ff be 4a 6d 99 be
       -0.9828795 -3.4344432 -0.4998749 -0.29966193
000030 2e 8c 2f bf 38 e0 94 bf 45 d4 ce be 91 19 75 be
       -0.6857327 -1.1630926 -0.40396324 -0.23935534
000040 bc 79 6d bf da 89 2c be 64 35 12 bf 86 49 ea be
       -0.92763877 -0.16849461 -0.5711272 -0.4575922
000050 60 40 d6 be 23 89 08 be fc aa c2 bf cf 3c 2a bf
       -0.4184599 -0.13333564 -1.520843 -0.66499037
000060 4d d1 85 be 5f fe 82 bf 46 9c 0f bf 98 ed 4b bf
       -0.26136246 -1.0233878 -0.5609783 -0.79659414
000070 fb 35 09 bf bf 8c 2b be ad 76 5a bd a8 b0 35 c0
       -0.5359799 -0.16752909 -0.053335834 -2.8389072
000080 41 97 85 be 49 9f 27 bf db 63 22 bf c4 5c 3a c0
       -0.2609196 -0.65477425 -0.6343362 -2.911912
000090 82 c6 1e bf ae bb b9 bf 80 84 4e bf 63 c4 cc be
       -0.6202165 -1.45104 -0.8067093 -0.3999358
0000a0 b3 e7 a6 be 0e 4f 7e be aa 41 4e be 0f d1 44 be
       -0.32598647 -0.24834844 -0.20142236 -0.19220375
0000b0 36 c2 1d bf 67 79 a0 bd 01 c3 19 bf 24 82 0c bf
       -0.6162447 -0.07835656 -0.6006318 -0.5488608
0000c0 8e 13 2d c0 1a 6b 08 bf 01 bc 27 bf 6f 4f f7 be
       -2.7043185 -0.53288424 -0.65521246 -0.4830279
0000d0 f9 73 ee bf cb 1c f2 be 7c 92 e4 be 71 76 3f bf
       -1.8629142 -0.47287592 -0.4464301 -0.747901
0000e0 cb 8d 6a bf 6f fc f0 bf b3 ba ef be 94 fb c6 be
       -0.9162261 -1.8827037 -0.46822128 -0.38863814
0000f0 c6 bb bb be c4 8a e3 be 87 54 d9 bd 87 4c 84 be
       -0.36666697 -0.44441807 -0.106118254 -0.25839636
000100 c7 54 00 bf 5c 35 00 be a2 99 11 3c 53 fe f5 bf
       -0.5012936 -0.12520355 0.008886727 -1.9218239
000110 a2 e4 d6 be fa 2d 06 c0 ea 0f 39 bf e2 06 b8 be
       -0.41971308 -2.0965562 -0.7228991 -0.3594275
000120 25 f9 83 be dd 1c 8a be 94 a3 1c bf 26 95 0e bd
       -0.2577602 -0.26975146 -0.611871 -0.034810208
000130 ae 25 9a bf 71 ff d6 bf 76 c2 0a c0 84 91 71 be
       -1.2042749 -1.6796705 -2.168119 -0.23590666
000140 f2 dd 69 be 99 45 59 be db a9 12 be f1 f2 36 bf
       -0.22838572 -0.21217956 -0.14322607 -0.7146445
000150 04 91 01 bf 65 3c b3 be f9 a0 8e be 47 9d 34 bf
       -0.506119 -0.35007015 -0.27857187 -0.70552486
000160 04 e5 01 c0 42 9d 23 bf 39 8e 49 be 33 c9 c6 be
       -2.029603 -0.6391183 -0.1968316 -0.38825378
000170 36 66 ad bf e9 8f 5b bf a4 ae 6c be dd 56 11 be
       -1.3546817 -0.85766464 -0.23113495 -0.14193292
000180 2f ca b7 be 48 99 6d be 7d 6c de be 57 df ca be
       -0.3589644 -0.23203003 -0.43442145 -0.3962352
000190 94 67 40 bf 7e 7a 68 be cf 11 51 be 33 25 40 c0
       -0.7515805 -0.22702977 -0.2041695 -3.0022705
0001a0 77 a3 6c bf cb 70 28 c0 61 d5 10 bf 21 19 14 bf
       -0.9243693 -2.6318843 -0.5657559 -0.57850844
0001b0 c3 eb 37 bf 6f f8 5e bf 3d 68 ec be bd 86 5f be
       -0.7184412 -0.8709783 -0.46173277 -0.21828742
0001c0 f4 27 98 be 9a 28 71 bf 3a 19 a6 bf 70 27 59 bf
       -0.29717982 -0.9420258 -1.2976449 -0.848258
0001d0 3b 82 12 bf 28 00 95 be 59 d5 02 bf 71 64 f8 be
       -0.57229966 -0.29101682 -0.5110679 -0.4851413
0001e0 41 0b 60 c0 58 fc 0d be 5e 90 3b be 2f 92 1e bf
       -3.500687 -0.13865793 -0.1831679 -0.6194181
0001f0 38 88 56 bf 1f 46 92 bf 32 04 23 be 0c 2e 13 bf
       -0.83801603 -1.1427649 -0.15919569 -0.57492137
000200 43 18 04 be 55 55 00 bf a0 be b8 be a4 f6 f5 be
       -0.1289988 -0.50130206 -0.36082935 -0.48039734
000210 77 5c 0c bf 25 5a c7 be 5b 29 45 bf 03 7c 95 bf
       -0.5482859 -0.38935962 -0.7701623 -1.167847
000220 a2 79 ff be 90 cc 39 c0 06 b7 e2 be d0 09 38 c0
       -0.49897486 -2.9031105 -0.4428026 -2.875599
000230 78 ba c1 be 20 12 14 c0 15 72 bf be 7f 3f 4b bf
       -0.37837577 -2.3136063 -0.37391725 -0.7939376
000240 f8 df 07 be d0 be a7 bf 9e 2d af be a0 6d 14 bf
       -0.13269031 -1.3105106 -0.3421449 -0.57979774
000250 b2 2f a7 bf 9b 74 18 be cc 24 9d bf 2c 4b 93 be
       -1.306143 -0.14888231 -1.2276855 -0.2876829
000260 5c 85 a2 be e2 96 0d be b4 e4 d2 bd cc 74 d2 be
       -0.3174237 -0.13827088 -0.10297528 -0.41104734
000270 be 05 bb bf 1e b3 d7 be e6 6f 8b bf 22 71 94 be
       -1.4611127 -0.42128843 -1.0893524 -0.28992563
000280 66 2f 56 bf 10 91 53 bf d2 78 89 bf 49 f0 08 bf
       -0.83666074 -0.8264322 -1.0739996 -0.53491646
000290 f4 b6 be be 96 ca fa be 63 0b 20 c0 9e d0 18 bf
       -0.37248957 -0.48982686 -2.500695 -0.59693325
0002a0 47 6f 38 bf f3 05 a2 bf c4 fe 74 be 10 30 da be
       -0.72044796 -1.2658066 -0.2392531 -0.42614794
0002b0 21 c8 58 bf 0c 31 e1 be 6d 60 60 be 7a 9e ae bf
       -0.8468037 -0.43982732 -0.21911784 -1.3642113
0002c0 72 e7 f4 be cf e8 42 c0 e3 8c a7 be 49 77 11 bf
       -0.4783283 -3.0454595 -0.32724676 -0.5682264
0002d0 04 b9 40 c0 f6 8e 02 bf c7 ba 02 bf 15 63 d3 be
       -3.0112925 -0.5099939 -0.5106625 -0.4128653
0002e0 aa b3 42 c0 9d 5e 5a bf fd 6b 4e c0 91 eb 61 be
       -3.0422158 -0.8530062 -3.225341 -0.22062518
0002f0 c1 34 80 be c6 4e 9a be 64 66 26 c0 78 a1 eb be
       -0.25040248 -0.30138224 -2.5999994 -0.46021628
000300 ed 1d a1 bf 48 b5 6e bd 18 ba 5d bf d9 ee 9f be
       -1.2587258 -0.058278352 -0.8661208 -0.31236914
000310 2b ca 88 bf c8 d5 3c bf a6 0f b7 bf c2 6a e8 be
       -1.0686697 -0.73763704 -1.430165 -0.4539395
000320 3d df c4 be 03 91 3d bf 49 f0 34 bf ad 87 e7 be
       -0.38451567 -0.74049395 -0.70679146 -0.452207
000330 82 d2 2e bf e0 74 1d bf f0 ca 1c c0 04 b1 03 bf
       -0.6828996 -0.6150646 -2.4498863 -0.5144198
000340 d0 79 ee be 91 4e aa be e0 3c 51 c0 d0 17 9f bf
       -0.4657731 -0.33263066 -3.2693405 -1.2429142
000350 3b f2 cc bf f0 92 07 bf b6 40 8c be ed 11 83 be
       -1.6011423 -0.52958584 -0.2739312 -0.25599614
000360 ad b0 38 be f0 54 11 bf e0 ac 3b c0 0c df cc bd
       -0.18036146 -0.5677023 -2.9324265 -0.1000348
000370 46 3e 46 bf b6 7a 43 bf fe f7 38 be c0 ab 81 be
       -0.7743877 -0.7635912 -0.18063352 -0.25326347
000380 18 e8 38 c0 13 d3 53 bf bb d5 14 bf 14 fb 1c bf
       -2.8891659 -0.8274395 -0.58138627 -0.61320615
000390 96 55 06 c0 03 3c d8 bd 19 d7 b1 bd 40 c6 01 c0
       -2.0989738 -0.10558321 -0.08683605 -2.0277252
0003a0 89 17 36 c0 e7 e0 30 bf b7 5a d5 be 65 1b 2f be
       -2.8451865 -0.69093174 -0.41670772 -0.17100294
0003b0 64 fe e2 bd 77 63 0f bf 94 09 22 bf 49 1d fc be
       -0.110836774 -0.56011146 -0.63295865 -0.49241093
0003c0 2d be 60 be d4 a9 ad bf f2 d3 b7 bf a8 20 98 bf
       -0.21947546 -1.3567452 -1.4361556 -1.1884966
0003d0 60 eb ad be d1 b1 c9 bf aa 14 88 bf 13 23 c6 be
       -0.3396864 -1.575739 -1.0631306 -0.38698635
0003e0 12 7a b7 be 4f f4 8b be ec e5 0e bf a7 d7 01 bf
       -0.3583532 -0.2733483 -0.5581958 -0.50719684
0003f0 a7 c9 34 bf 5e 25 48 bf 80 1c da bf 88 cc 41 bf
       -0.706202 -0.7818202 -1.7039948 -0.75702715

fc1.weight_orig f4 [512, 42]
000000 c6 6b 9c bc 51 1c b7 3b f2 76 7e bb fb 52 a8 39
       -0.01909436 0.0055880924 -0.003882822 0.00032105282
000010 a8 66 84 bc 26 c2 9a bb 31 fc 22 3c d4 fb ce bb
       -0.016162232 -0.0047228513 0.009947822 -0.0063166413
000020 b6 b2 7d 3a 5c 44 0e 3c 75 18 05 bb 5d fc 25 bc
       0.0009677814 0.00868329 -0.0020308767 -0.010130969
000030 35 03 9c 3c 8e 40 53 bc f7 af d8 3c a8 c6 d2 ba
       0.019044498 -0.012893809 0.026451094 -0.0016080933
000040 84 7d 16 3c 9a a3 bc 3c fc da 5a bb 74 65 a5 3a
       0.009185199 0.02302723 -0.0033394685 0.0012618736
000050 df 4b 0c bc 50 84 92 3b 0f 2a a1 3b 88 05 05 bc
       -0.008563011 0.0044713393 0.004918344 -0.0081189945
000060 cf bf 4a 3c 7c 10 c6 3c 0a df 0b 3b fe 3b cf bb
       0.012374832 0.024177782 0.0021342658 -0.0063242903
000070 bc 4e 4f bc 6e 59 d3 bb a2 72 3c 3b 52 c7 7d bc
       -0.012653049 -0.00644987 0.002875485 -0.015489416
000080 16 71 8a 3c aa 75 7b 39 8e 3a e2 3b 8e f8 03 3b
       0.016899627 0.00023981059 0.006903953 0.0020137164
000090 1e fd fd 3b f1 b7 9b bc c4 e7 3d bc 45 fa ef 3b
       0.007751121 -0.019008609 -0.011590902 0.0073235356
0000a0 6c 7d 11 bc e1 75 11 3c 24 1d 22 bc 32 ea 6d ba
       -0.008880001 0.008878202 -0.009894643 -0.00090757303
0000b0 3c bb 89 3b 39 e5 00 bc 99 4b c7 ba 32 b4 74 3a
       0.0042032283 -0.007867151 -0.0015205025 0.00093347125
0000c0 fe 78 3a 3c 7a 14 44 3c b8 c8 17 3c b1 f6 8c 3b
       0.011381386 0.011967773 0.009264164 0.004301869
0000d0 5f 50 19 bc 6a 01 3b bc 35 55 02 3d fc ed 2f 3c
       -0.009357541 -0.011413911 0.03181954 0.010737892
0000e0 84 de 0b 3c 9d bd a3 bc 7d ba ee 3b 1d ec 9b 3c
       0.008536939 -0.019987876 0.0072854147 0.019033486
0000f0 3d 9e 12 3c ba 62 2f 3c 99 fa cc bb 57 13 b8 3c
       0.00894886 0.010704691 -0.0062554595 0.02247016
000100 1f 42 e9 3c a0 1f 8f 3a 29 8c b8 3c e4 e1 11 3d
       0.028473912 0.0010919459 0.022527771 0.035615817
000110 8e ef d6 b9 f9 be 99 bb 05 aa 8e ba 75 97 2c bb
       -0.00040995743 -0.004691955 -0.001088441 -0.0026335393
000120 c4 c9 49 3b fd 1e ad bc 44 03 40 3c 77 f7 41 bc
       0.0030790428 -0.02113294 0.011719529 -0.011838785
000130 48 8b dc 3c c7 4c 7b bc c8 d4 89 bb e2 0a 13 3b
       0.026921883 -0.015338129 -0.0042062737 0.0022436907
000140 37 6a 4c bc 5e 5b 66 bc 5b 71 19 bc 35 fe e5 3a
       -0.0124764955 -0.01405987 -0.009365405 0.0017547073
000150 74 ca fb bb 0c 74 37 3c 71 9f ba 3b ce 20 17 3c
       -0.0076840464 0.011197101 0.0056952764 0.00922413
000160 04 29 43 bb 6a a0 ce 3b 03 64 96 bb b4 27 19 bc
       -0.0029779086 0.006305744 -0.004589559 -0.009347845
000170 a3 bf b4 3c 3d 2e 4f bc 41 8c 18 bc d3 ad 87 ba
       0.022064036 -0.012645301 -0.009310783 -0.0010351486
000180 0c 71 06 3a 5c 72 30 3c 84 33 dd 3a b6 16 bf 3c
       0.00051285396 0.010769453 0.0016876315 0.02332626
000190 7a 47 ce bb cb 48 24 3c ae ac 83 3b b9 0e 3d 3c
       -0.0062951418 0.010027121 0.0040183878 0.011539155
0001a0 23 8a 26 bc e6 a0 2b 3c 44 80 2a 3c cc 17 0e bc
       -0.01016477 0.010475373 0.0104065575 -0.008672666
0001b0 b8 af 71 3c 0a 15 dc bb 60 31 29 bb b6 7a 95 3b
       0.014751367 -0.0067163752 -0.0025816783 0.0045617474
0001c0 20 68 ad 3c b7 cb 08 3c 68 8f 66 bc df 84 b8 3b
       0.021167815 0.008349351 -0.014072277 0.005631074
0001d0 81 ea 8d 39 02 d8 0e 3c c1 36 cd bb 40 7d da bb
       0.00027068335 0.008718492 -0.0062626307 -0.006667763
0001e0 28 5b 59 bb d1 35 9d 3b 9b e1 50 bc e1 f4 2b 3c
       -0.0033165906 0.004797675 -0.012749101 0.010495395
0001f0 3d 33 22 bc 05 24 c4 ba 9a 5d 56 bc 51 2d 86 ba
       -0.0098999115 -0.0014964348 -0.01308384 -0.0010236894
000200 b2 42 58 bb f9 07 b4 3b e9 2e f0 bb b5 aa eb bb
       -0.0032998738 0.0054941145 -0.007329811 -0.0071919807
000210 7b 97 b2 3b 1f 27 10 3b 52 c8 60 3c 29 2b 80 3b
       0.005450187 0.0021995974 0.013719635 0.003911395
000220 f0 82 c4 3b cc 75 19 bc 55 18 5a 3c 5f 3e 9c bb
       0.0059970543 -0.009366464 0.013311465 -0.0047681774
000230 a7 91 03 bc 6d 10 0e bc 44 89 e1 3c 69 86 16 3c
       -0.008030332 -0.008670908 0.027531274 0.009187319
000240 5a 55 31 bb c0 fb ed bb 26 ab 05 3b f6 ab 36 bc
       -0.002705893 -0.007262677 0.0020396202 -0.011149397
000250 90 8b f5 39 a8 24 c9 bb b2 d4 79 3b d4 1a 0e 3c
       0.00046834024 -0.006138403 0.003812116 0.0086733885
000260 e4 e0 03 3c eb 46 22 bc 9f 9f c8 bb b6 1e ac 3c
       0.008049224 -0.0099046035 -0.006122544 0.021010738
000270 92 53 24 bb de d9 a7 3a db f2 a7 3b 8a d4 28 3b
       -0.0025074226 0.0012806018 0.005125386 0.0025761449
000280 21 0d 89 bc 51 22 36 bb de 2a ab 3b 90 94 cd 3b
       -0.016729893 -0.002779145 0.005223616 0.0062738135
000290 41 60 08 bc f6 fc bd ba 9a 5d ae bc 30 83 04 bc
       -0.00832373 -0.0014494944 -0.021284867 -0.008087918
0002a0 15 dd 6a bc 09 01 23 3b 81 e9 0f 3c 7c 4d cf bb
       -0.014334937 0.0024872443 0.008783699 -0.0063263755
0002b0 70 da e3 bb bb 10 fd 3a b2 0d 35 3a d8 11 a2 bb
       -0.00695353 0.0019307354 0.0006906643 -0.004945975
0002c0 99 31 bc 3c 6f 32 f1 bb 39 9f 96 bb 44 0a 8b bb
       0.022972869 -0.0073607485 -0.0045966175 -0.004243167
0002d0 d4 54 02 3c 1d 29 cd bb b3 6c 40 bb e8 47 8b bb
       0.007954795 -0.0062610046 -0.0029361665 -0.0042505153
0002e0 24 c1 85 bc 11 8b ab bc 99 98 ab 3b 43 07 a1 3c
       -0.016327448 -0.020940335 0.005236697 0.019656783
0002f0 a5 67 be bc fb c8 1e 39 5c c5 cd 3b e2 49 c5 bb
       -0.023242781 0.00015142925 0.0062796306 -0.0060207704
000300 2d 67 49 3c ad 66 82 3b 2f 55 c8 3b 5c 15 1f ba
       0.012292665 0.003979525 0.0061136703 -0.00060685514
000310 9e 90 56 ba d1 18 a5 3b d3 44 20 3b 97 fe 6e 3b
       -0.0008185002 0.0050383587 0.0024455085 0.0036467665
000320 d8 92 2c bc 1d 7d 7a 3a 9b 5d 15 bb 43 2d c4 bb
       -0.010533057 0.00095553865 -0.002279139 -0.005986841
000330 7b 51 3e bc 53 77 0b 3c ae 64 6e bb 02 6f 27 3a
       -0.011616106 0.008512336 -0.0036375928 0.0006387086
000340 da 7c 01 3c 7f a0 59 bc 12 c3 80 bd 09 39 ad 3c
       0.007903302 -0.013282894 -0.06287207 0.02114536
000350 f0 d8 28 3c 62 5f 92 be 10 86 81 3e ab c3 f9 bd
       0.010305628 -0.28588396 0.25297594 -0.12195524
000360 13 a1 e4 3c bb f8 ed 3e 6d 6e 99 be e2 61 7f be
       0.027908837 0.4647883 -0.2996706 -0.24939683
000370 32 b9 dc be e3 d2 c9 bc fe e3 6e be f2 a9 1f 3d
       -0.43110043 -0.024636691 -0.2332916 0.03898043
000380 55 a8 53 be a8 3d 4d be 45 a9 b7 3c df 83 ba 3e
       -0.20669682 -0.20043051 0.022419581 0.36428735
000390 a8 23 b9 3e 17 92 ba bd b6 ff a6 be 27 21 ec bd
       0.36160016 -0.09109896 -0.32616967 -0.11529761
0003a0 81 07 a9 3d d3 04 9b be ed bf 67 be 60 a9 07 3e
       0.082533844 -0.30277118 -0.22631808 0.13248205
0003b0 6a 47 86 3e d2 be ae be 3f 52 ce be 40 ae a0 bd
       0.2622636 -0.3412996 -0.40297124 -0.078457355
0003c0 bf de cd be 7e 28 99 3e 99 0e 17 bd f0 38 68 3e
       -0.40209004 0.29913706 -0.036879156 0.2267797
0003d0 cf f6 54 3c fc 46 a5 3e e8 0b 25 be f1 c8 c8 be
       0.012998297 0.3228072 -0.16117823 -0.39215806
0003e0 8a a9 c5 3e e6 06 b4 3e 04 a0 34 be f2 bb cd be
       0.3860591 0.35161513 -0.17639166 -0.40182453
0003f0 c8 84 f4 ba 22 8e f2 bb 13 b6 8e bc 38 f5 72 bc
       -0.0018655295 -0.0074021975 -0.017420804 -0.0148289725

fc1.weight_u f4 [512]
000000 4b 71 0f 3a ac 57 57 3a a3 b1 c7 3a cc f4 56 ba
       0.0005471899 0.0008214663 0.0015235435 -0.000819993
000010 6d 03 23 3b c7 f5 66 3d 71 11 37 ba 55 32 65 3b
       0.0024873868 0.056386735 -0.0006983495 0.0034972627
000020 19 28 1b 3b c8 6b 8a 3a bb 44 fd 3a 8b 96 67 ba
       0.0023675023 0.0010560686 0.0019322851 -0.00088343833
000030 94 94 57 3a 60 df 3c 3b 38 39 9f ba b2 7e f6 b8
       0.0008223739 0.0028819665 -0.001214779 -0.00011753793
000040 08 99 27 3b cf 59 59 ba 03 91 e0 3a c7 7f 38 3b
       0.0025573391 -0.00082912756 0.0017133061 0.0028152333
000050 bb 37 49 3a 05 73 42 ba 74 9b ab 3a c4 16 3f 3b
       0.0007675846 -0.0007417652 0.0013092593 0.0029157856
000060 c3 2c 50 3b ef 49 2c 3b f4 00 9a ba 49 8e 92 b8
       0.0031764961 0.0026289185 -0.0011749552 -6.988325e-05
000070 21 dc 6a 3a b9 d9 03 bb 3e 63 3f 3b 86 25 11 ba
       0.00089591934 -0.0020118786 0.002920344 -0.00055369025
000080 b8 3c 80 3a f1 e3 4a 3a b2 fd 41 3b bc 4e e2 3a
       0.0009783721 0.00077396544 0.0029600677 0.0017265896
000090 4d 21 40 3a b6 d8 34 bd 40 30 31 3a 48 27 4c 3a
       0.0007329181 -0.044151984 0.0006759204 0.0007787836
0000a0 97 c1 ba 3a b8 88 21 ba f9 0c 85 3a 85 9e a2 ba
       0.0014248368 -0.0006162035 0.0010150961 -0.0012406862
0000b0 a7 bd cd 3a c4 61 f9 b8 b0 82 db 3a 94 cc 9c b9
       0.001569678 -0.000118914555 0.0016747322 -0.0002990706
0000c0 d0 61 ec 3a 18 ed 0a 3c 2c 99 4e 3a 7f be bc ba
       0.0018034521 0.008479379 0.0007881101 -0.0014400034
0000d0 df c7 19 3a 79 e4 d7 3a 2d ee ec 3a 8f 93 c8 3a
       0.000586627 0.0016471288 0.0018076353 0.0015302765
0000e0 f2 d5 22 39 09 e6 ee 3a d6 0c 8d ba 76 a6 75 3d
       0.00015529225 0.0018226515 -0.0010761272 0.059973203
0000f0 a5 b2 06 3a e4 ba a4 b9 f9 fc 49 3a 0a 35 25 b9
       0.00051383144 -0.00031419762 0.00077052374 -0.00015755385
000100 b7 d8 16 3c 3a b9 18 3b 7d 06 01 bc ef aa 42 3b
       0.009206942 0.0023303763 -0.007875082 0.0029703935
000110 80 df 0b ba 6f b5 cf 3a 11 41 83 3a 5e c6 4e bb
       -0.00053357333 0.0015846918 0.0010013898 -0.0031551342
000120 54 74 10 ba 84 4e e7 3a 41 0f 05 3b e8 4f 5c ba
       -0.00055104983 0.0017647301 0.0020303281 -0.0008404241
000130 74 0d 58 3a db 2e 37 3a d4 69 cf 3a 07 b9 8a 3b
       0.0008241751 0.0006987878 0.0015824386 0.0042334828
000140 9c df bb 3a bc 15 13 b9 d7 78 a2 ba 77 1a 56 3a
       0.0014333609 -0.00014027109 -0.0012395632 0.0008167396
000150 8a 71 a0 ba 47 9e 39 3a ae 60 86 bd 93 ef a9 3a
       -0.0012240869 0.0007080775 -0.06561409 0.0012965075
000160 07 54 19 3b 90 3b bc 39 78 67 b6 ba 44 be 5f 3c
       0.0023396031 0.00035902532 -0.0013916334 0.013656203
000170 f5 ce dd 3a da 13 35 3b 3e 0e 18 3d b4 5d 60 3a
       0.001692264 0.002763024 0.037122957 0.0008558885
000180 33 73 78 39 3b 10 f4 3a 49 e5 e9 b9 59 47 96 39
       0.00023694038 0.001862056 -0.00044612054 0.00028663388
000190 07 23 65 3b 07 87 6b 39 2f 19 88 39 0b 04 01 3b
       0.0034963505 0.00022461648 0.00025958705 0.0019686248
0001a0 d6 12 4d 3b 40 38 39 3b fe 5e 87 3a 8b 7c 7a 3a
       0.0031291745 0.0028262287 0.0010327992 0.00095553015
0001b0 c1 28 9d 3a 57 2e f3 3a 54 b4 bb 3c 62 dc d9 bc
       0.0011990295 0.0018553239 0.022913136 -0.026594345
0001c0 01 45 97 ba 96 3a 8a ba 70 0c 41 ba df 9f 3c 3a
       -0.001154095 -0.0010546024 -0.0007364219 0.00071954535
0001d0 5b 27 c0 ba 35 f9 f0 ba eb 30 f1 3a 3c 2b 87 3c
       -0.0014660166 -0.0018384816 0.001840142 0.016500108
0001e0 76 b1 06 3b 93 c1 eb ba 5a ab ea 3c 70 dc 2c 3b
       0.0020552552 -0.0017986767 0.02864616 0.0026376508
0001f0 e0 d1 3b 3b bc 8a 3c 3f 54 5a 98 ba 59 02 8b 3a
       0.002865903 0.7364919 -0.00116236 0.0010605558
000200 97 3c 08 bb 5e 8e c4 ba 87 d9 c1 3a 94 c8 61 3b
       -0.0020788067 -0.0014996042 0.001478956 0.003445183
000210 ce 4f ac ba 99 92 21 3b 38 18 34 3b e0 9f 92 3a
       -0.0013146342 0.002465403 0.0027480256 0.0011186562
000220 39 87 a9 3a 14 20 c8 38 12 4c 62 ba 4a 2c 9d 3a
       0.0012933976 9.542718e-05 -0.0008632551 0.0011991349
000230 fb 6b 06 3d 81 62 0d 39 7a 5b b9 3c 00 82 cc 3a
       0.032817822 0.00013483503 0.022626627 0.0015602708
000240 6f dd 93 ba 83 b3 b3 3a a2 e1 f8 38 d7 60 ef 3c
       -0.0011281202 0.0013710115 0.00011867589 0.029220982
000250 05 78 a9 3a 38 5a 18 bb d1 c4 61 3d ab 11 63 3a
       0.0012929445 -0.0023247134 0.05511934 0.00086619955
000260 5f 48 e1 bc e1 71 80 3a 10 3e 76 3a ea 95 82 3a
       -0.02750033 0.0009799564 0.00093934033 0.0009962891
000270 f3 35 d8 3a 41 8b 17 bb 61 ce 3d 3b 03 6e fe 39
       0.001649557 -0.0023123773 0.0028962123 0.0004852862
000280 17 d3 36 3b 66 67 d5 3a 5b ff 51 be cb cd 5a 3a
       0.0027896815 0.0016281425 -0.20507567 0.00083467056
000290 7d 38 86 bb 36 f1 d2 ba 4f 53 95 3a 98 f7 59 b6
       -0.0040960894 -0.0016093615 0.0011392626 -3.2479638e-06
0002a0 49 7f 53 3a 8c 7a dd 3a 76 56 84 3a f6 77 82 3c
       0.0008067978 0.0016897484 0.0010096568 0.015926342
0002b0 95 98 8c 3a ed 9b e5 39 6b bd 43 3a 4f 48 de 3a
       0.0010726625 0.00043794457 0.0007466885 0.0016958805
0002c0 79 66 ee 3c 01 80 17 ba 8e 85 0a 3a 44 6a 9d 3a
       0.029101597 -0.0005779267 0.00052841834 0.0012009819
0002d0 c4 29 89 ba f6 bc c2 3a b6 90 fd bd 9b 91 03 3b
       -0.0010464718 0.001485734 -0.12381117 0.0020075801
0002e0 94 c2 b7 39 58 e5 7b 3a 49 35 2c bb 17 27 1f bb
       0.00035049452 0.0009609065 -0.0026276878 -0.0024284774
0002f0 8c d1 66 3a ad 27 b4 ba ef d7 1b 38 19 9d 0d ba
       0.00088050286 -0.0013744734 3.7155984e-05 -0.00054021325
000300 22 6b 28 ba bf 7c 2f bb fe 72 32 3a e9 df 04 bd
       -0.00064246554 -0.0026777235 0.00068072963 -0.0324401
000310 73 9b b5 3d 54 ea a4 39 6f c6 ff 3a 68 04 a1 3a
       0.0886754 0.00031455106 0.0019514094 0.0012284638
000320 c5 71 f5 3c cd 64 34 3b 42 0a d5 39 94 74 55 39
       0.029961476 0.0027525902 0.00040634169 0.00020356692
000330 55 03 39 3b 9d d7 a2 3a 3f 40 38 39 03 70 6d 39
       0.0028230746 0.0012423877 0.00017571541 0.00022643809
000340 8e 3c 93 3a 9a 6c e5 b9 f9 2d ea 39 de 89 ad 3a
       0.0011233257 -0.00043759198 0.0004466621 0.001323994
000350 a5 38 21 3b e9 71 3f b9 ab c8 01 b7 5f 20 ce 3c
       0.0024600413 -0.00018257614 -7.735721e-06 0.02516192
000360 39 d8 4b 39 a6 34 45 3b f2 f7 76 3a e9 64 f9 39
       0.00019440138 0.0030091195 0.0009421102 0.00047568165
000370 a2 73 3b 3a b6 cb b7 3a dc cf 02 bb ec 1d c5 b8
       0.00071507145 0.0014022503 -0.001996032 -9.3992654e-05
000380 1c 53 96 39 89 9e 0e 3b 25 c4 48 bc 4a 94 ce ba
       0.0002867215 0.0021761975 -0.012253796 -0.0015760746
000390 e1 73 41 3a 9a 2d 76 3a d8 24 9c 3a 05 76 55 ba
       0.0007379633 0.00093909504 0.0011912836 -0.00081428915
0003a0 68 87 64 b9 21 4f 25 3b f2 77 87 b6 7b 9d 18 39
       -0.00021794217 0.0025224166 -4.037277e-06 0.00014554516
0003b0 2f 1b 2a bb 37 76 20 3b e5 97 2a 3b 38 92 be b9
       -0.0025956144 0.0024484524 0.0026030478 -0.00036348565
0003c0 95 81 53 39 9d fd c4 bc eb 21 0f 3b 29 39 99 3a
       0.00020170801 -0.024046713 0.0021840285 0.0011690009
0003d0 04 c3 4b ba e5 cc e2 3a cb c1 2d 3b 66 76 13 39
       -0.0007772895 0.0017303495 0.0026513215 0.0001406312
0003e0 ae c2 eb 3a 50 09 40 b9 0f c5 ae 39 48 26 a4 ba
       0.0017987096 -0.00018314016 0.00033334686 -0.0012523616
0003f0 c8 82 c0 3a 16 0e 81 3a 6c 2f b8 3a c6 b6 76 ba
       0.0014687413 0.0009846117 0.0014052219 -0.00094113906

fc1.weight_v f4 [42]
000000 05 76 17 be e0 a3 e7 3e 94 a6 55 be 51 f1 16 be
       -0.14791115 0.45242214 -0.20864326 -0.14740492
000010 b0 fe 48 bc 86 73 2a 3e 7d c8 25 bf 09 75 00 3e
       -0.0122677535 0.16645631 -0.64759046 0.12544645
000020 43 35 3d 3e 3e db 38 3e 90 d9 20 bd ba a1 dc 3d
       0.18477349 0.18052384 -0.039269984 0.107730344
000030 a9 5c ae 3c 5e 36 21 3d f8 e1 5a bd c8 d5 12 bd
       0.021284418 0.03935849 -0.053438157 -0.03584841
000040 58 b1 aa 3d e6 f8 b4 bd a9 86 fb 3d 8b 66 ab 3d
       0.08334607 -0.08836536 0.12281544 0.08369168
000050 42 3c a8 bd 64 ed 33 bc 1a 5d 79 3d 0f f5 80 bd
       -0.08214618 -0.010981891 0.060879804 -0.06296741
000060 5c 06 17 3d 2e 8e 67 bc 92 36 5f bc 8e f8 00 be
       0.0368713 -0.014133019 -0.01362385 -0.12594816
000070 f2 b9 86 bd ba 6c 75 be 47 3c 96 3d 4e ce 1a 3c
       -0.06578435 -0.23967257 0.07335716 0.009448601
000080 66 24 49 bd 53 25 fe bc d4 63 53 3d 34 20 1c 3d
       -0.049106978 -0.031023657 0.051608875 0.03811665
000090 2b 93 ee 3c 88 4a 80 bd 29 2f e7 3c b7 e5 4f 3d
       0.02912291 -0.06264216 0.02822073 0.050756183
0000a0 6a 65 87 bd 39 73 5e bd
       -0.0661114 -0.054309104

fc2.bias f4 [256]
000000 fc d6 f1 be aa 14 14 bf 7c 49 44 be 34 ed 65 be
       -0.47234333 -0.5784403 -0.19168657 -0.22453767
000010 ee 6f 60 be 02 70 76 be d6 a3 81 be 1b 12 19 bf
       -0.21917698 -0.24066165 -0.2532031 -0.5979325
000020 9b 5c a9 be 60 03 32 be a4 43 24 be 0c 87 fc bd
       -0.33078465 -0.173841 -0.16041428 -0.12330446
000030 a3 e0 1a be 97 95 4b be 56 e5 4a be ef 47 ea be
       -0.15124755 -0.19881283 -0.19814047 -0.45758006
000040 78 08 97 be 4c 3d 39 be 93 07 8c be 8a a5 52 be
       -0.2949865 -0.18089789 -0.2734953 -0.2057096
000050 bd 1a 15 be b3 cc 68 be 99 e2 1b be 71 18 0a be
       -0.14560981 -0.22734337 -0.15223159 -0.13485886
000060 f9 49 bd be b0 ac 1a bf a2 cb ef bd 46 ac dc be
       -0.369705 -0.6041975 -0.11708762 -0.43100184
000070 69 21 4c be 44 82 12 be 71 77 a0 be ab a3 43 be
       -0.1993462 -0.14307505 -0.31341127 -0.19105403
000080 ee bd 2c be 3c 11 86 be b3 18 97 be f1 70 7d be
       -0.16869327 -0.26185024 -0.29511032 -0.24750115
000090 42 2e cd be ef b6 51 bf 75 b5 88 be 46 eb 55 be
       -0.40074354 -0.8191976 -0.2670094 -0.20890531
0000a0 47 9b 00 bf 77 76 3b bf b7 46 8a be 2a 95 89 be
       -0.50236934 -0.7322764 -0.27007076 -0.26871616
0000b0 8f bc 68 be 34 a9 a2 be 5f 8b 65 be 86 45 ac be
       -0.2272818 -0.31769717 -0.22416447 -0.33646792
0000c0 dc 8b 5a be c3 8d 5b be b3 89 fb be 91 1a a8 be
       -0.21342415 -0.21440797 -0.49128494 -0.3283277
0000d0 25 d2 9b be 05 32 66 be a7 31 9b be fb 3a 4f be
       -0.30433765 -0.22480018 -0.3031132 -0.20237343
0000e0 35 79 2a bf d3 f6 a8 be 8d 05 2e be 82 7f 8a be
       -0.665912 -0.33000812 -0.16994305 -0.27050406
0000f0 bf db 5a be 14 aa 61 be c9 a2 b1 be e5 ef 9d be
       -0.21372889 -0.22037536 -0.34694508 -0.30847088
000100 9d 96 08 be cf 72 ed be fe f2 1a bf 73 9e 79 be
       -0.13338704 -0.46376655 -0.60527027 -0.2437685
000110 bc 74 18 bf f7 ce 3f bf af 82 10 be 35 45 76 be
       -0.5955312 -0.7492518 -0.14112352 -0.24049838
000120 18 14 a5 be 7a 36 9f be 49 bb 3b be 96 85 19 bf
       -0.32241893 -0.3109625 -0.18333162 -0.5996946
000130 bf 9c 00 bf 90 f5 3c be ef 0c 47 be 73 f6 42 be
       -0.50239176 -0.1845305 -0.19438528 -0.19039325
000140 0d aa c9 be 1f a1 4d be ac 8b 96 be 1e db 74 be
       -0.3938755 -0.20080994 -0.29403436 -0.23911712
000150 c4 7e 96 be 08 01 a1 be 60 5d f7 be 11 87 51 be
       -0.2939359 -0.314461 -0.48313427 -0.2046168
000160 d9 e4 81 be 78 6e 46 be cf f8 38 be 90 02 29 bf
       -0.2536991 -0.19378078 -0.18063663 -0.66019535
000170 19 f0 55 be 43 95 14 be 8a 13 ac be b1 9c 5c be
       -0.20892371 -0.14510064 -0.33608657 -0.21544148
000180 ba cd 6c be 80 0a 71 be 02 47 54 be 89 df 86 be
       -0.23125353 -0.23539162 -0.20730212 -0.2634242
000190 bf ac 2e be 62 ce 0b be a4 0d fe be b7 02 5c be
       -0.17058085 -0.13652948 -0.49619782 -0.2148541
0001a0 37 4b 3d be b4 94 ef be b0 a1 3f be e2 12 51 be
       -0.18485723 -0.4679314 -0.18714023 -0.2041736
0001b0 04 a6 55 be 06 15 38 bf 1e 8e a2 be 78 eb 2b be
       -0.20864111 -0.7190708 -0.31749052 -0.16789043
0001c0 cd b1 63 be 83 04 12 be 5e e7 1c be 79 ca 31 be
       -0.22235794 -0.14259534 -0.15322635 -0.17362393
0001d0 32 32 0b be 67 9d 67 be d3 cd 6c be 6e a0 8d be
       -0.13593367 -0.22618638 -0.2312539 -0.2766146
0001e0 65 20 87 be 06 07 e6 bd 6e 13 88 be c2 32 77 be
       -0.26391903 -0.11231808 -0.26577324 -0.24140456
0001f0 7b 43 10 bf 31 1c 55 be 6d 55 92 be f5 8b ed bd
       -0.5635297 -0.20811535 -0.285808 -0.1159896
000200 56 d4 93 be df 90 62 be 0a ae 5e be f5 13 8d be
       -0.28872937 -0.22125576 -0.21746078 -0.27554289
000210 84 07 d9 be d5 4e 03 bf 1d 59 34 be 36 16 8a be
       -0.42388546 -0.51292163 -0.17612119 -0.2697007
000220 69 25 90 be bf 4c cc be d8 a6 c8 bd a3 05 9b be
       -0.28153542 -0.39902303 -0.09797448 -0.30277738
000230 32 ae 4a be 3c 10 91 be 2c cf 43 be 04 cf 66 be
       -0.19793013 -0.28332698 -0.19121999 -0.22539908
000240 b8 88 66 be 9a a5 5e be a3 fb 22 be be 01 4c be
       -0.22513092 -0.2174286 -0.15916304 -0.1992254
000250 ae f2 a2 be 71 37 8b be 63 d2 45 be 7d d0 f4 bd
       -0.31825775 -0.27190736 -0.19318537 -0.119538285
000260 0d 35 9d be d7 f1 89 be b9 9a 42 be 58 df 65 be
       -0.30704537 -0.26942322 -0.19004335 -0.2244848
000270 7f ab 37 be 1c 17 a8 be bd a9 0f be 34 7f 56 be
       -0.17936514 -0.3283013 -0.14029594 -0.20946962
000280 7d d6 39 be 90 8e 04 bf 84 a2 8b be 2b f6 fc be
       -0.18148227 -0.51780033 -0.27272427 -0.4940656
000290 17 93 56 be 06 fa eb be a4 e4 03 bf 35 7d 92 be
       -0.20954548 -0.4608919 -0.5152075 -0.2861115
0002a0 ca 3f a6 be 68 5d 79 be a7 ce 42 be 09 f4 80 be
       -0.32470542 -0.24352038 -0.19024144 -0.25186184
0002b0 cd d2 52 bf 88 95 bf be bc 43 68 be 9d 17 3e be
       -0.82352906 -0.3741877 -0.22682089 -0.18563695
0002c0 95 cd 5c be 37 61 5e be f4 04 37 be 6c 20 e9 bd
       -0.21562798 -0.21716772 -0.17872983 -0.11383137
0002d0 02 72 3c be 3d d1 6d be 22 55 a6 be 11 45 ae be
       -0.18402866 -0.2322435 -0.32486826 -0.34037068
0002e0 ec 24 fb be ba f3 4d be 36 a1 f6 be 55 d8 6a be
       -0.49051607 -0.20112506 -0.4816987 -0.22934087
0002f0 3c 9c 3d be bb 6f 51 be 8f a4 4f be bf 9d 37 be
       -0.1851663 -0.20452778 -0.20277618 -0.17931269
000300 96 0c 50 be 1a 57 73 be 71 a3 51 be fa b9 59 be
       -0.20317301 -0.23763695 -0.20472504 -0.2126235
000310 a0 af a7 be ce fe 68 be 8f 50 b7 be 7a a2 d7 be
       -0.3275118 -0.2275345 -0.3580365 -0.42116147
000320 3e f1 d2 bd 4a 92 87 be 91 2f 43 be 66 4c 26 be
       -0.102999195 -0.26478797 -0.19061114 -0.16240081
000330 74 59 bf be 8e e4 93 be 76 ab 44 be c8 73 b4 be
       -0.37372935 -0.2888531 -0.19206032 -0.35244584
000340 e1 05 b0 be 82 cd a2 be bb 58 56 be b3 16 80 be
       -0.34379485 -0.31797415 -0.20932285 -0.25017318
000350 0b 44 8f be e8 8a 3a be 0b 95 37 be af 20 a3 be
       -0.279816 -0.18217051 -0.17927949 -0.31860873
000360 4e 8c 28 be c3 34 81 be 05 cf ce bd 20 f4 f3 be
       -0.16459772 -0.25235566 -0.100980796 -0.4764719
000370 8a db 8d be b0 63 68 be 02 a4 a9 be c0 c3 3c be
       -0.27706558 -0.22694278 -0.3313294 -0.18434048
000380 70 36 81 be f8 72 46 be 48 3e 7c be 9f 96 7f be
       -0.25236845 -0.19379795 -0.24633133 -0.24959801
000390 9e 96 b0 be 67 88 d5 be 5c 02 70 be e9 7a f5 be
       -0.34489912 -0.4170563 -0.234384 -0.47945336
0003a0 8e 6a 54 be f6 df 79 be bf 31 5e be 62 6c 96 be
       -0.20743772 -0.2440184 -0.21698664 -0.29379565
0003b0 65 27 45 be ae 83 69 be 81 5b 92 be 39 ab 65 be
       -0.19253309 -0.22804138 -0.28585437 -0.22428598
0003c0 bf fc 23 be 15 5b 8d be 96 57 7c be f3 9d 47 bf
       -0.16014384 -0.27608553 -0.24642786 -0.77975386
0003d0 81 c3 4b be 7d be 26 be fb 4d 51 be c8 b2 af be
       -0.19898798 -0.16283603 -0.20439903 -0.34316087
0003e0 51 25 4e be 46 f0 bb be 32 6e 81 be 32 e2 03 bf
       -0.20131423 -0.36706752 -0.25279385 -0.5151702
0003f0 bc bb 2c be 42 da 33 be 80 96 8d be 9a 35 1a be
       -0.1686849 -0.17563727 -0.27653885 -0.1505951

fc2.weight_orig f4 [256, 512]
000000 fd e4 05 bc b6 5e 59 3b a3 cd 13 bc 8f 11 f4 3b
       -0.008172271 0.0033168024 -0.009021196 0.007448382
000010 f4 19 70 3c e4 0d 72 bc 2e 4f 3b 3c 03 0e 98 3c
       0.014654625 -0.01477382 0.011432452 0.018561369
000020 69 b0 86 3b b5 02 f1 bb 21 40 0c bb f6 8e 08 bc
       0.004110385 -0.007355059 -0.0021400528 -0.008334866
000030 f9 d8 bc 3a d6 9b f0 3b 25 de 59 3b b5 f9 d4 b8
       0.0014407925 0.007342796 0.003324398 -0.00010155459
000040 1a d5 b5 bb 91 a6 1d bc 5a 6f 8f 3c 6c 77 86 3b
       -0.0055490853 -0.009622232 0.017509151 0.0041035917
000050 c3 9a c9 bb bf c1 cc 3b 9e 98 93 3c 46 21 83 bc
       -0.0061524822 0.0062486823 0.01801711 -0.016007077
000060 47 4b da ba ae 6c 79 3c a7 ac 12 bb a6 34 12 bc
       -0.0016654514 0.015223665 -0.002238074 -0.008923685
000070 76 7d bb bc f9 51 aa bc b5 90 df bc 92 89 63 3c
       -0.022886973 -0.02079104 -0.027290681 0.01388778
000080 ba 72 a1 ba 0e 96 17 bb 99 5c 10 3c e5 f8 07 3c
       -0.0012317516 -0.002313021 0.0088111395 0.008299087
000090 46 2b 52 3c ad 64 b2 39 fc b7 df 3b e2 ef c0 3c
       0.0128277 0.00034025815 0.0068273526 0.023551885
0000a0 bd 0a 3b bc bc 82 4a ba fb c7 3d bc 21 18 41 3c
       -0.011416134 -0.00077251694 -0.011583324 0.011785538
0000b0 bf b1 e2 b9 cc 71 f5 3b 63 fc 2d 3a 31 77 19 bc
       -0.0004323851 0.0074903723 0.0006637035 -0.009366796
0000c0 3e 08 47 bb f4 a4 09 bb dc 61 88 bb b1 dd 82 3c
       -0.0030369903 -0.002100286 -0.0041620564 0.015974851
0000d0 92 13 5b 3b f9 62 67 3c 09 3c b3 ba 0c 87 b5 b9
       0.0033428413 0.014122718 -0.0013674508 -0.00034623628
0000e0 fe 73 ae bc e0 44 fe 3b ad ed 3c bb b6 17 96 3c
       -0.021295544 0.0077596754 -0.002882819 0.018321853
0000f0 7f 3e 50 3b fd 4a 88 bc da 98 38 bb f6 6a 6c ba
       0.0031775532 -0.01663732 -0.0028167279 -0.0009018624
000100 11 1e b7 3b c9 3b 5f 3b 3d 6d af 3b 72 69 d8 3b
       0.005588301 0.0034062734 0.0053535984 0.006604367
000110 9b 7f 67 bc 56 61 cd 39 77 0d 0f 3c b7 ac ca bb
       -0.014129545 0.00039173168 0.008731238 -0.00618514
000120 db 11 37 bb 02 04 9b bb 24 b9 0c 3c 1a 98 02 3b
       -0.0027934227 -0.0047307024 0.008589063 0.0019927085
000130 cc dc 98 bc 91 9e 27 3c e0 af a9 3c fa c7 40 bb
       -0.018659972 0.010230676 0.020713747 -0.002941607
000140 14 14 6a 3a ec 25 53 3b a3 19 1c 3c 86 70 84 bc
       0.00089293835 0.0032218648 0.009527597 -0.016166937
000150 70 83 0d bc 94 e9 15 3b 8f c2 0e bb 39 0b b9 bb
       -0.008637294 0.002287482 -0.0021783446 -0.00564709
000160 46 b5 cf bb ff ef 91 39 8a b0 20 bc de 2a a1 3b
       -0.006338748 0.00027835366 -0.009807715 0.0049184402
000170 8b cc e5 3b 4c 36 02 bc 22 a6 e7 bb 3e d5 5b bb
       0.007012909 -0.007947516 -0.007069365 -0.003354385
000180 96 ae 77 39 7f b6 94 3b 1f f6 e8 bb b4 12 6c 3b
       0.00023620794 0.004538357 -0.007109418 0.003602189
000190 54 85 40 bb af e0 d2 3b 59 3d f5 3b b9 28 5a bc
       -0.0029376345 0.006435476 0.00748412 -0.013315373
0001a0 20 fd 0e bc 6d e9 e9 bb 65 2b 60 3b 4d f4 fe bb
       -0.008727342 -0.007138422 0.0034205553 -0.0077805878
0001b0 de aa 0d bc 02 b1 17 bc c1 22 85 3b 29 a4 95 bc
       -0.008646695 -0.009258511 0.004062981 -0.018266754
0001c0 aa 92 ce 3a 32 ec 40 3c 39 09 f8 3b dd 08 87 bc
       0.0015760262 0.011775063 0.007569459 -0.016483719
0001d0 20 5e ae 3c dd 75 e7 bb 2a f6 3e bc 89 d9 98 3c
       0.021285117 -0.007063611 -0.01165537 0.018658416
0001e0 5c e2 6f 3b 1c 19 5c bc 04 b4 de bb ae 4c 92 bc
       0.0036603427 -0.013433721 -0.006796362 -0.01785883
0001f0 2d d9 41 bc fb 0d 2b 3b 52 18 97 bb 59 4c 96 ba
       -0.011831564 0.0026100862 -0.0046110535 -0.0011466845
000200 a8 84 19 3a 5b c0 88 ba 7c 55 88 3a 8e 51 25 bb
       0.0005856254 -0.0010433303 0.0010401453 -0.0025225612
000210 e8 ed 86 39 29 6e c4 bb c8 95 eb bb d0 92 e9 3c
       0.00025735726 -0.0059945774 -0.007189486 0.028512388
000220 35 35 e3 bb b2 d0 e5 3b 0a b0 c7 bb 05 bc 17 bc
       -0.006933833 0.007013404 -0.0060939835 -0.009261136
000230 ab 5d bd b9 26 4b bc b9 76 18 a5 bc 3d c6 87 3b
       -0.00036118677 -0.00035914144 -0.020153265 0.004143505
000240 0c 82 bb 3b 70 5b 19 3c f5 8f 40 bc 89 09 37 bb
       0.00572229 0.009360179 -0.011753072 -0.0027929267
000250 c4 bf 37 3c c2 9f b6 bb 73 26 25 ba 95 d8 77 bc
       0.011215154 -0.005573244 -0.000629998 -0.015127321
000260 70 4b 1b bb 08 0a 42 bc da 38 3c 3c 84 10 93 3b
       -0.0023696087 -0.011843212 0.011488164 0.004488053
000270 dd 99 4c bb 27 75 b8 bc fa a9 84 3c 33 8a 02 3c
       -0.003121964 -0.0225168 0.016194332 0.00796752
000280 55 ef f6 3a 9b c6 ad bc 9f 3a 26 3b 69 92 2c bc
       0.0018839637 -0.021212867 0.002536453 -0.010532954
000290 49 23 4a bc 9f 78 31 3b e9 0f a1 3c 11 84 1c bc
       -0.012337514 0.0027079952 0.019660907 -0.009552971
0002a0 f0 e0 90 bb f7 af 75 3c 69 74 9f 3c fe ec e8 3b
       -0.004421346 0.014995567 0.019464688 0.00710833
0002b0 7d 13 82 bb 18 09 a7 3a a9 22 54 ba 3d 7c d1 3b
       -0.0039696083 0.0012743799 -0.0008092323 0.006392984
0002c0 24 7d c8 bb c9 a8 0b 3d 7f fa 97 3c 24 8c 9b 3b
       -0.0061184336 0.034096513 0.018552063 0.0047469307
0002d0 f1 e9 07 3c 02 e9 cd bb f9 16 99 bb a3 04 26 3b
       0.008295522 -0.00628388 -0.004671928 0.0025332354
0002e0 0e 7c 93 bb 6d ee c7 3b 91 0c a0 3b 84 60 7b bc
       -0.0045008725 0.0061014206 0.0048843105 -0.015342835
0002f0 4d 4e 02 bc 61 ed 47 3b 67 03 4e 3b 9e ff 3f bc
       -0.007953239 0.003050648 0.0031435133 -0.011718659
000300 1f 70 68 bb 5c 55 5e bb 3d 0d 4f 3b 67 27 2d 3c
       -0.003546722 -0.003392539 0.0031593584 0.010568476
000310 02 c8 21 bb 95 d4 c6 bc a1 25 8b 3c 4d f2 54 bc
       -0.0024685864 -0.024271289 0.016985716 -0.012997222
000320 52 1b f1 3b 3c 76 9f bb e9 d6 b9 3a 94 3c 16 3b
       0.007357993 -0.0048663896 0.0014178428 0.002292429
000330 8c a0 df b7 0e a7 16 3b 16 48 e6 bb 99 9b 6b bc
       -2.6658432e-05 0.0022987756 -0.0070276363 -0.014380359
000340 cf c6 3e 3b f3 63 14 bc fe 3e d0 3c ac ae b7 38
       0.0029110198 -0.009057033 0.025420662 8.758655e-05
000350 39 3b 12 bb 33 4b 86 bb 6d a7 f1 ba 72 fa 45 3b
       -0.0022313131 -0.00409832 -0.0018436738 0.0030209091
000360 69 65 d7 bc 46 4a 2b bb 45 3e 38 3c e3 53 72 bb
       -0.026293473 -0.00261368 0.011245315 -0.003697627
000370 d0 96 59 bc 58 56 9b 3b ad 9d 50 3b 44 d1 70 3b
       -0.013280585 0.0047405176 0.0031832263 0.0036745826
000380 2e 72 b1 3b 6c 1a 23 3c 5b e8 7f 3c e1 34 f5 bc
       0.0054152226 0.00995503 0.015619363 -0.029932441
000390 65 2b a8 bc 50 fa dc bc ae 1b 85 3b 3a f3 12 3c
       -0.020528505 -0.026974827 0.0040621376 0.008969123
0003a0 32 8e 84 3c 32 3f e2 3b d6 9a 1a 3c 03 df 45 3b
       0.016181085 0.006904506 0.00943633 0.003019274
0003b0 02 ad bc bb bc 6c ed 3a 96 a8 15 bc b0 db 1f 3c
       -0.005757929 0.001811407 -0.009134432 0.009756967
0003c0 1f 5f a8 3b 93 b7 f9 3a bf 46 7d 3c 07 40 ca ba
       0.0051382924 0.0019051902 0.015458762 -0.0015430459
0003d0 8c 3d 97 bc 56 00 38 3b 94 38 72 3c 84 c9 1a 3c
       -0.018461965 0.0028076372 0.014783997 0.009447459
0003e0 45 21 f2 3b 69 2d 5f 3b 2b f2 36 3c 68 89 54 bc
       0.00738922 0.0034054166 0.011166136 -0.012972213
0003f0 9f 32 14 bc b4 c6 3a bb 03 0e a5 bb 49 dd f4 ba
       -0.009045272 -0.0028499784 -0.0050370707 -0.0018681671

fc2.weight_u f4 [256]
000000 3c f7 4d 3a e1 dd 88 ba 7f ec 14 bb ee 03 7c ba
       0.000785697 -0.0010442102 -0.002272397 -0.00096136227
000010 16 dc 3b b9 d8 e9 13 3b c3 b1 53 3a 06 d1 35 3b
       -0.00017915698 0.0022569802 0.00080755 0.0027742996
000020 32 d2 47 ba 07 5e fb 3a 13 48 f6 3a f7 bf 0c b9
       -0.0007622569 0.0019177803 0.001878979 -0.00013422953
000030 41 bf e5 ba 13 e9 3c 3a b7 9d 26 3b e4 21 31 3b
       -0.0017528312 0.00072063616 0.0025423595 0.0027028257
000040 09 90 1b 3b f9 c7 49 3d a6 a6 d7 3a 24 56 71 ba
       0.0023736975 0.049262974 0.0016452863 -0.00092062564
000050 11 5a af 3b cf 49 9a ba c9 16 cb 3b cc fb c2 3b
       0.005351313 -0.0011771264 0.0061977846 0.0059504267
000060 48 50 84 ba 16 db 46 39 61 dd ce 3a ba a9 55 ba
       -0.0010094726 0.00018964367 0.0015782529 -0.00081505964
000070 4a 22 f3 bb e7 50 82 bb 78 9a 58 3a 0c 34 de ba
       -0.007419859 -0.0039769295 0.0008262764 -0.0016952767
000080 33 98 45 ba c7 02 05 39 81 60 6c 3a a0 d1 67 39
       -0.0007537633 0.00012684903 0.0009017066 0.00022107968
000090 6f 6c 8d 3d 8c 38 09 3b 90 9b 1c 39 88 8c 0f ba
       0.06905448 0.0020938246 0.00014935271 -0.0005475958
0000a0 48 08 36 bb 6d 21 d8 ba 5f 6c 7d 3a a5 ca ab ba
       -0.0027775932 -0.0016489454 0.00096673326 -0.0013106657
0000b0 aa ad 40 bb b1 3c cd ba 72 29 75 3b 5a ec ab 3a
       -0.0029400387 -0.0015658346 0.0037408737 0.0013116703
0000c0 3e 55 7a bb 84 3d d8 39 e2 06 f1 ba c4 a5 ad bb
       -0.003819778 0.00041244563 -0.0018388892 -0.005299302
0000d0 e4 05 3a bb 6d 0b fb 39 42 c3 d8 bb a2 17 0b be
       -0.0028384859 0.00047882964 -0.0066150734 -0.13583234
0000e0 1c fe 5d 3b 2a 19 37 ba f5 72 a9 b8 37 64 67 ba
       0.0033873385 -0.0006984646 -8.0799604e-05 -0.0008826884
0000f0 71 86 c1 3c c0 a9 0a bc 4b d5 13 3b 21 6e 39 bb
       0.023623677 -0.008463323 0.0022557552 -0.0028294402
000100 67 21 1a 3a 46 9b f3 3a ae 32 3d 3c cf 3c ea 3a
       0.0005879611 0.0018585704 0.0115477275 0.0017870906
000110 46 83 c0 b9 80 3d 24 3e 13 e1 85 bd 9a d7 df ba
       -0.000367189 0.16039085 -0.0653707 -0.0017077804
000120 d5 c6 07 3b 2f 06 90 b9 c0 29 10 3b 29 34 5a be
       0.0020717878 -0.00027470427 0.0021997541 -0.2130896
000130 a9 82 5b bb 14 c8 4d 39 8a 77 fb ba ae 88 9f ba
       -0.0033494628 0.00019624858 -0.0019185406 -0.0012171471
000140 b7 75 93 3a 69 8d ea 3a 63 e7 d1 bb 15 39 d8 ba
       0.0011250292 0.0017894927 -0.0064057573 -0.0016496504
000150 0d 46 c0 3a af cb 0d bb e7 40 e0 3a 07 4d 4b 38
       0.0014669314 -0.0021636297 0.0017109186 4.847071e-05
000160 f2 78 88 39 ee ac ac 3a ad a9 08 3b 56 75 1a 3b
       0.00026030053 0.0013174096 0.0020853088 0.0023568473
000170 4b 3a 91 b9 10 f8 b7 3a 9f 48 60 ba b0 2d 62 3a
       -0.00027699987 0.001403572 -0.0008555743 0.0008628024
000180 91 a2 05 3b 77 e3 93 ba 8c fe a2 3c e0 7c 9f b9
       0.0020391087 -0.0011283 0.019896768 -0.00030419882
000190 10 aa 2e ba 18 45 96 39 e8 42 82 3d ff 6b 36 bb
       -0.00066629145 0.00028661708 0.063604176 -0.0027835367
0001a0 02 bd bd 3b 38 c8 e3 ba 26 78 a4 3a fc 5d 14 3a
       0.0057903538 -0.0017378395 0.0012548014 0.0005659757
0001b0 c9 7d 61 3b 42 7a 5b 3f 4a 08 4d 3b 70 8b f4 bc
       0.003440725 0.85733426 0.0031285458 -0.029851645
0001c0 ec ff f4 3a 0a bb 18 3d 53 02 10 3d 82 a8 02 3e
       0.0018691993 0.03728775 0.035158467 0.12759593
0001d0 41 c6 05 3a ca cd bb bd 7a ed 6c 3b 61 8d 2e 3b
       0.00051030895 -0.091701105 0.003615229 0.0026634561
0001e0 08 6b a5 3b ad 18 1e ba 10 02 39 b7 2c ad 3f b9
       0.0050481595 -0.00060308987 -1.10273395e-05 -0.00018279691
0001f0 da d5 41 3b e7 2d 05 bb a7 fd 8c 3b 21 e8 d6 ba
       0.0029576928 -0.002032155 0.0043026987 -0.0016396084
000200 5b 36 dc 3a 61 b9 86 3d 6e 53 e4 39 e6 2a 88 39
       0.0016800867 0.06578327 0.0004354971 0.00025971903
000210 89 04 56 ba c4 26 b9 b9 fa e4 91 3a fa e6 eb 36
       -0.0008164128 -0.00035314832 0.0011130862 7.030435e-06
000220 41 7a 00 bb 86 03 93 3a c6 a9 10 bd fb 5a 0b 3d
       -0.001960412 0.001121626 -0.03531816 0.034022313
000230 cf 5e 90 ba 59 52 9b 3a 72 60 00 bb 69 e4 9b 38
       -0.0011014583 0.0011850103 -0.0019588736 7.433521e-05
000240 be 95 63 39 1a 07 cd 38 c8 47 65 3a c7 b5 fb 3a
       0.0002170419 9.7764845e-05 0.0008746353 0.0019203954
000250 4f ee 77 bb 53 64 26 3a 00 82 03 bb 51 83 11 3b
       -0.0037831252 0.0006347347 -0.00200665 0.0022203515
000260 14 56 88 3b c9 51 71 3a a5 af 90 3a b3 1f 58 ba
       0.004160652 0.00092056073 0.0011038674 -0.00082444696
000270 5b 29 07 3b 01 ae 0c 3d 48 3b 42 bb 9e ec 9e b8
       0.0020624015 0.03434563 -0.0029637385 -7.5781005e-05
000280 9d 3c 75 ba 4c 22 df 3a b5 09 3a 38 ae ea f6 3a
       -0.00093550404 0.0017023771 4.4354896e-05 0.001883825
000290 93 2f 4c 3b f6 23 37 38 82 65 fe ba e6 b3 9c bb
       0.0031156286 4.366409e-05 -0.0019408914 -0.0047821878
0002a0 2f e2 10 39 75 d9 6e bb c5 7e 21 bb 94 f3 9c bb
       0.0001381717 -0.0036445532 -0.002464221 -0.004789779
0002b0 45 b1 99 be 5e e6 1e 3a d9 fd 2c bb b6 8d e7 3a
       -0.30018058 0.0006061549 -0.0026396422 0.0017666135
0002c0 cf b1 13 ba 7b a9 bd 3a a6 c5 19 3b 49 a7 c3 bb
       -0.00056341005 0.0014470065 0.0023463755 -0.0059708697
0002d0 da 68 6f b9 de 0c 31 3d 4c 41 99 ba 13 77 2c 3b
       -0.00022831876 0.04322516 -0.0011692434 0.002631609
0002e0 3c e4 2b 3d 90 7a 32 ba af 4e 91 3b f4 a9 50 bb
       0.041965708 -0.00068084244 0.0044344286 -0.0031839581
0002f0 e6 96 01 3a 89 25 6e 3a fa 26 7c 3d 4a 42 56 bb
       0.0004943445 0.00090845727 0.06156061 -0.003269332
000300 8c a9 27 b9 24 48 9b b8 15 dd 0e bb 37 d8 d6 3a
       -0.00015989522 -7.404413e-05 -0.0021799256 0.0016391341
000310 d0 8d 80 ba 3b a3 6b 3b c7 c1 6a 3c 1a 13 dc b6
       -0.0009807888 0.0035955447 0.014328427 -6.5587346e-06
000320 35 5d a9 3d 70 67 73 bb e5 b2 9c 3c 5a b3 83 bd
       0.08269731 -0.003714051 0.019128272 -0.06430693
000330 de a8 0d 3c 09 f5 a3 ba f5 fc 70 3a 72 9b ac bc
       0.008646218 -0.0012508939 0.0009192967 -0.021070216
000340 4d 4c 0f ba d2 c9 4f bb 84 ee a4 3a b6 9a 4f bb
       -0.0005466387 -0.0031705988 0.001258329 -0.0031677908
000350 a5 45 95 ba 3a a9 c9 ba 89 0b 67 ba 45 77 32 38
       -0.0011388554 -0.0015385516 -0.00088136696 4.2549585e-05
000360 89 a3 01 38 e4 a3 12 3a ea 25 c2 3d d9 5c 82 3a
       3.09083e-05 0.00055938796 0.09479888 0.0009945884
000370 c1 d7 b6 b8 14 6f 17 bb 3f 58 f8 ba 9a ab 9a 3b
       -8.7186236e-05 -0.002310698 -0.0018947198 0.0047201635
000380 e5 64 b7 3a a3 bb 3a ba 15 b8 70 bb 5a 61 57 3a
       0.0013991861 -0.0007123297 -0.0036730815 0.00082161056
000390 02 7c 94 b7 0a 4c 70 b9 03 e4 6e 3a e7 bb 58 3b
       -1.770072e-05 -0.0002291651 0.0009112956 0.0033070983
0003a0 75 30 c5 ba 6e d8 14 bb ba aa 0d ba f1 88 7c ba
       -0.0015044349 -0.002271201 -0.00054041634 -0.0009633443
0003b0 24 d8 22 3b 3c dd 2d 3b 3d 8f d7 39 33 db 0c 3c
       0.0024848068 0.002652957 0.00041114716 0.008597183
0003c0 bf e3 15 3a 6d d6 51 3b e1 9e f2 b9 77 00 27 ba
       0.0005717836 0.0032018677 -0.0004627621 -0.00063706137
0003d0 b8 50 d9 ba 3d d0 73 ba 5b f0 5a bb 85 69 c2 ba
       -0.0016579842 -0.0009300744 -0.0033407423 -0.0014832473
0003e0 de 88 e7 3a d2 72 ab bb d5 79 dd ba 41 63 e1 b9
       0.0017664691 -0.0052321935 -0.0016897271 -0.00042989294
0003f0 ac 13 1e 3d 8a 44 13 3a 7b 14 16 3b f2 dc 13 3d
       0.03859298 0.0005617818 0.002290039 0.03609938
