data/saved_models/discriminator_epoch_0.pth (torch, 757672 bytes, 13 tensors)

fc1.weight f4 [512, 42]
000000 77 55 08 bd e2 63 bb 3d 2c e1 35 3d a6 0c 61 3d
       -0.03328463 0.091499105 0.044404194 0.054943703
000010 7c 53 51 bd 17 b8 11 3e af 2a 06 3e 34 b8 ec 3d
       -0.051105008 0.14230381 0.1310222 0.115585715
000020 6e 22 6c 3d 86 a2 ef 3d 97 96 09 be 00 cf ab bd
       0.057650022 0.11700921 -0.13436352 -0.083890915
000030 2f 0e ce bc 53 47 fe 3d 99 28 0e 3c dd 28 00 be
       -0.025153248 0.12415948 0.008676671 -0.12515588
000040 90 34 d0 3d af f3 ff bd 58 a9 10 bc 7a 2a e0 bd
       0.101662755 -0.12497651 -0.008829437 -0.10945602
000050 e5 8e c7 bd 0f 86 00 bc b1 c8 89 3d 09 de f9 3d
       -0.09744052 -0.007844462 0.06727732 0.12200553
000060 13 50 11 be 49 03 88 bd 94 1a 75 3d 49 fe 9b bd
       -0.14190702 -0.066412516 0.0598398 -0.076168604
000070 ce 7d 01 3e b6 c9 e3 bd af 6b 10 be 2f 50 0a 3e
       0.12645647 -0.11122458 -0.14103578 0.1350715
000080 04 2c 1b 3e 56 a5 8e bc 58 3e 45 bd f2 63 00 be
       0.1515351 -0.017412823 -0.04815516 -0.12538126
000090 22 4e 1b 3e 79 f8 0e be bc 52 c9 bd a0 fd bb bc
       0.15166524 -0.13961972 -0.098302335 -0.022948086
0000a0 28 4f 18 be c8 44 10 3e d2 4e b1 3d df cd 1f bc
       -0.14873946 0.14088738 0.08657612 -0.009753673
0000b0 a2 e6 99 bd e7 56 26 bd 58 6c 08 be f8 f0 ad bd
       -0.07514693 -0.04061022 -0.1332258 -0.08493227
0000c0 12 b1 32 bc fb 64 05 3e 85 6c a9 3d 97 e7 c0 3d
       -0.010906475 0.13026802 0.082726516 0.09419172
0000d0 f2 86 8a bc c2 39 ee bd f6 47 97 3d 5b 4e a7 bd
       -0.01691005 -0.1163211 0.07386772 -0.08169242
0000e0 ad b4 af 3c 17 11 86 3d 96 52 23 3e d4 b3 19 3e
       0.021448458 0.065462284 0.15949473 0.15010005
0000f0 ac c3 c1 3d ad 63 c0 3d 14 c2 f1 bd f5 fc 4a 3d
       0.094611496 0.09394012 -0.118045956 0.049557645
000100 b9 33 13 bc 51 a1 00 bd d9 dd e4 bd 72 ed d0 bd
       -0.0089845 -0.031403843 -0.111751266 -0.10201539
000110 36 61 21 3e 6b 73 f9 3d 39 8b 8b 3d c8 66 e5 3c
       0.1575974 0.12180217 0.06813664 0.028003111
000120 fb 7c d3 bd 7b 61 f0 bd e6 e4 bd 3d a5 63 16 be
       -0.103265725 -0.11737343 0.092721745 -0.14686449
000130 67 37 34 bc cf 8e 85 3d cf bf 0b 3e 8f f5 16 3e
       -0.010999537 0.06521379 0.13647388 0.1474211
000140 a0 26 af 3a b2 7e 0d 3c a0 b1 e5 bd b5 a7 ad bd
       0.0013362952 0.008636164 -0.1121552 -0.08479253
000150 d0 2a bb bc cf f7 02 be 50 8e 46 bd 49 c5 f0 bc
       -0.022847563 -0.12789844 -0.048475564 -0.029390948
000160 47 c3 1c be 47 82 d1 3d e3 5c f2 bd 18 12 4f bd
       -0.15308867 0.102299266 -0.11834123 -0.050554365
000170 ca 4e cb bd b6 f8 6b 3c c1 00 82 bd 26 ca 4e bd
       -0.09927137 0.014402559 -0.063478 -0.050485753
000180 99 f6 f6 bd a7 65 d0 3b aa 9d c9 3d ea f2 c5 3d
       -0.120587535 0.006359774 0.09844525 0.09665473
000190 f8 e4 da bd bb 58 ab bc 81 0b 87 bd 04 82 d8 3d
       -0.106882036 -0.020916333 -0.06593991 0.105716735
0001a0 4f 0a 94 bd 3e 03 b7 3c c5 85 d1 3b 45 54 b4 3d
       -0.07228529 0.022340413 0.0063941204 0.08805136
0001b0 c3 1b 55 bd d3 d0 db bd 13 b3 a8 bd 2c 37 a4 3d
       -0.05202843 -0.107331894 -0.08237281 0.08018336
0001c0 33 67 c0 3d 69 cd ae 3d b5 aa d8 bc 66 de a9 bd
       0.09394684 0.08535273 -0.026448587 -0.08294372
0001d0 d5 0a ce bc 0b ce 0c 3e 9e 91 0d be 13 b9 14 3e
       -0.02515165 0.13750474 -0.1382508 0.14523725
0001e0 a5 67 52 bd 1f 7b 10 3d 08 93 cb 3c 7a e1 f8 bd
       -0.051368374 0.035273667 0.024850383 -0.12152381
0001f0 ce 6b 85 bc 87 7c 76 bd ff 72 ed 3b c0 f6 c1 3d
       -0.016286757 -0.060177352 0.0072463746 0.09470892
000200 32 4c ba 3d 1d 71 1b be af 1c 10 bd 71 7f 0c bd
       0.09096564 -0.15179868 -0.035183605 -0.034301225
000210 64 5e 12 3d 3e 42 87 bc 17 fd b6 3d 84 a5 1f bd
       0.03573455 -0.016511079 0.08934992 -0.038976207
000220 fd 1b c8 bd cd 7c b6 bd cc 55 21 3d 98 58 ed bb
       -0.09770963 -0.089105226 0.039388463 -0.007243227
000230 5d cf 02 be 96 60 2e 3d 68 3b fc bc 43 25 03 be
       -0.12774415 0.04257258 -0.030790046 -0.12807183
000240 c3 a1 fc bb d8 6c 87 bd 38 ba 13 3e 6c 50 4b bd
       -0.007709713 -0.06612557 0.14426506 -0.049637243
000250 13 e2 0f 3e 71 53 38 3d 81 23 e8 3c 34 87 a5 3d
       0.14051084 0.04500145 0.028337242 0.080824286
000260 5d 0c d3 bc a4 b9 00 be df 6d 1c 3d cb 20 2f bd
       -0.025762731 -0.12570816 0.03819072 -0.042755883
000270 3b 6f a8 3d 63 43 aa bd c5 df 91 bb af f1 dd bd
       0.082243405 -0.08313634 -0.0044517242 -0.10837113
000280 50 f6 95 3d 5a d3 60 3d 3d 64 ef bd 1f c9 9d bd
       0.07322371 0.05488906 -0.11689041 -0.077043764
000290 e8 90 08 3e f4 35 e6 bd 68 27 55 3d 43 7c 81 bd
       0.13336527 -0.112407595 0.052039534 -0.06322529
0002a0 64 94 d9 bd c1 fc c8 bd f9 d8 fc bd 98 fb 07 be
       -0.106240064 -0.09813834 -0.12346072 -0.13279569
0002b0 6a 51 03 3e 4f f4 a3 3c a4 70 95 bd 21 10 82 3d
       0.12824026 0.020013956 -0.07296875 0.063507326
0002c0 df 19 fe 3d ed 01 ed bd ac d7 e3 bc d8 ba e4 3c
       0.12407278 -0.11572633 -0.027812801 0.027921125
0002d0 5f 77 0e 3e af 72 ec 3b 7c 08 73 bd a6 70 b7 bd
       0.13912724 0.00721582 -0.059334263 -0.08957033
0002e0 c5 54 b5 bd 71 25 09 3e ae 3d 11 bd 58 a5 41 bc
       -0.08854059 0.13393189 -0.035459213 -0.011819206
0002f0 7c 21 88 bb bc a7 94 bd 4b 1e 02 be 12 74 eb 3b
       -0.0041543823 -0.07258555 -0.12706868 0.0071854675
000300 ce 0f 78 3d 03 4c 11 bd 3c 42 ef bd ab 6b 93 bd
       0.060561948 -0.03547288 -0.11682555 -0.071982704
000310 41 5f cd bd 3a 20 b4 3d a5 f0 dd 3d 5c 9c d1 bd
       -0.10027934 0.08795209 0.10836915 -0.10234901
000320 c9 b2 61 bd 21 56 fe 3d 5d 81 1c be ef a1 07 3e
       -0.055102143 0.124187715 -0.15283723 0.13245367
000330 09 08 84 3c 76 62 8e bd 15 88 1b bd 82 41 18 3e
       0.016117113 -0.06952374 -0.037971575 0.14868739
000340 e1 2c 02 3e cc 45 17 3c bc 79 c9 bd 16 67 d1 3d
       0.12712432 0.009232949 -0.09837672 0.1022474
000350 b3 0c 0e 3d 89 3f a3 3d 8e 96 a1 bb 05 f3 17 be
       0.03468008 0.07971103 -0.0049312776 -0.14838798
000360 50 50 90 bd fe f3 85 bd d7 cf 87 bd e5 cd 10 3e
       -0.070465684 -0.065406784 -0.06631439 0.14141043
000370 3b a5 61 3c eb f8 b7 bc b5 d0 5b bc 2f c0 82 bd
       0.013772304 -0.02245756 -0.013416459 -0.06384312
000380 fb 07 19 3e c8 ee 07 3e e6 96 ab 3d 6f 5b e4 3d
       0.1494445 0.13274682 0.08378391 0.11150252
000390 26 80 34 bd ff 82 f8 bc b0 f0 07 3e a1 b8 76 bc
       -0.044067524 -0.030335901 0.13275409 -0.015058667
0003a0 f8 44 f9 bd 08 bd aa 3b 6b e6 aa 3d 90 88 da 3d
       -0.12171358 0.0052105226 0.0834473 0.106705785
0003b0 bc cb 14 3e 7e c7 1b bd eb 32 c1 3d 93 25 11 3e
       0.14530843 -0.038032047 0.0943354 0.1417449
0003c0 9a a7 64 3d 70 b6 c6 3c 94 dd b8 bd d8 20 0b 3b
       0.0558239 0.024256915 -0.09026638 0.0021229293
0003d0 4e fa 84 3d 13 b1 1d 3e 2e d2 a8 bd 61 b7 18 be
       0.06493054 0.1539958 -0.082432136 -0.14913704
0003e0 f2 b7 ff 3c 02 13 a9 bc f4 12 2f 3d 05 ca 28 bd
       0.031215642 -0.020638946 0.042742684 -0.041208286
0003f0 87 c9 ba 3d 74 97 2a 3d 0f a2 02 bd 15 ca 67 3d
       0.091204695 0.041648343 -0.031892832 0.056589205

fc1.bias f4 [512]
000000 ef 2e 00 be dc 0f 60 3d 71 9e 8c bc a0 06 97 bc
       -0.12517904 0.054702625 -0.017165394 -0.018435776
000010 f5 4f 73 3d 79 e4 0a 3e 9c 75 84 3d 8b 35 23 3e
       0.059402425 0.13563718 0.06467745 0.15938394
000020 fa 67 d2 3d 37 8d 16 3e 17 47 cd 3d f3 bb 22 3d
       0.10273738 0.14702307 0.10023325 0.039730024
000030 00 07 05 3e 2a 0e dc 3d 49 bb a2 3d 44 e5 17 3e
       0.12990952 0.10744889 0.07945878 0.14833552
000040 f8 9f 77 3d 03 aa 91 3d cb 00 67 3d 39 96 03 3e
       0.060455292 0.07112505 0.05639724 0.12850274
000050 b2 6c 0f 3c a4 f4 41 3b 08 9d 13 3e e2 0c 3e 3d
       0.008753942 0.002959528 0.14415371 0.046399005
000060 85 cf b0 bd 65 51 db 3d f7 db 6a bc fa c5 35 3d
       -0.08633331 0.10708884 -0.01433467 0.04437826
000070 9b 2c 99 3d 83 a1 fa bd 5f b8 3e 3d 68 76 2a 3d
       0.07479211 -0.12237837 0.04656255 0.041616827
000080 3c 24 34 bc 5e d9 c0 3d 23 65 65 bd 7f 11 43 3d
       -0.010994967 0.094164595 -0.056004655 0.047624107
000090 b2 57 be bc 3b e0 4b bd 64 c9 b5 ba 52 71 50 bd
       -0.023235176 -0.04977439 -0.0013869223 -0.05088932
0000a0 2f 78 45 3d a8 0c c0 3d 6d a9 d0 bb 7c 7d 09 3e
       0.04821032 0.09377414 -0.0063678534 0.13426775
0000b0 ba 4a 1a 3e f9 f0 63 bc 57 e2 e4 3d ff c4 35 bd
       0.15067568 -0.013912433 0.111759834 -0.044377323
0000c0 b1 3d b5 3d 26 2f 62 bd d4 56 9e 3d 6b fc c7 3d
       0.08849657 -0.055220746 0.07731405 0.09764942
0000d0 7c 91 0f bd da 62 76 bd a0 fd b9 3d e6 48 42 bc
       -0.035050854 -0.060152866 0.09081578 -0.011858201
0000e0 5b 77 4f 3d e0 c5 85 bd 59 7f 1f 3d 39 c5 02 bd
       0.050650936 -0.06531882 0.038939808 -0.031926367
0000f0 07 88 14 be 7a fc 02 3e 32 0b ac bc f4 08 6d bd
       -0.14505015 0.12791625 -0.021001432 -0.057869866
000100 74 23 00 3d 91 8a be bd d6 6c a0 3d 9d 4e f4 3d
       0.03128381 -0.09303773 0.07833259 0.11929057
000110 6b 62 0a bd 65 63 2f bd 88 db ae bd b2 b4 0a be
       -0.033785265 -0.0428194 -0.08537966 -0.13545492
000120 40 a1 2d bd d5 92 c0 3d 01 7e a1 3d 48 24 00 be
       -0.042390108 0.09403006 0.078853615 -0.1251384
000130 fa b6 a3 bd 0f 6e b0 bc 1e 66 80 3d 62 99 5e bd
       -0.079938844 -0.021536855 0.06269477 -0.054345496
000140 da 69 30 3d 7a 2e df 3d 14 5b 44 3c 4d 1e 08 be
       0.043069698 0.108975366 0.011984605 -0.13292809
000150 bb a3 f3 bd 2a 17 98 3d a3 f7 1e bd 21 12 cb bd
       -0.118964635 0.07426293 -0.038810384 -0.09915567
000160 98 28 bb 3d 73 74 d7 3d 1c ac d7 bd be d4 d0 bd
       0.09138602 0.10520258 -0.10530874 -0.10196827
000170 5a 2b f3 bd 9f 5c 80 3d 37 90 5b bd 7b 3f d3 3d
       -0.11873503 0.06267666 -0.05360433 0.10314842
000180 97 d6 92 3d 24 02 51 3d ae 36 2a bd a1 55 cd 3d
       0.07169836 0.051027432 -0.041556053 0.10026098
000190 62 b2 96 bd 30 a6 e0 bd 7a 53 03 bd 60 ad 9f bd
       -0.073582426 -0.10969198 -0.03206203 -0.077967405
0001a0 2d 84 e2 bd 39 d0 05 3d 6b d4 0d 3d d0 0e 0c bd
       -0.11060367 0.03266928 0.034626406 -0.034193814
0001b0 fb 6f 9e bd 5d 8d fb 3d 61 9b 0f 3e 58 cf 12 3e
       -0.07736202 0.12282822 0.14024116 0.14336908
0001c0 b8 ff a4 3d 1f 75 09 3e fb b5 5b 3d e3 6f 05 be
       0.08056587 0.13423584 0.053640347 -0.13030963
0001d0 2a ac 7a bd da 4f d3 3d de 1b ba bb 87 c8 e2 3d
       -0.061199345 0.10317965 -0.0056795916 0.11073404
0001e0 4c 60 f4 3d 92 ce ed 3c e4 7e e5 3d ce de 7a 3c
       0.1193243 0.029029164 0.11205843 0.01531191
0001f0 a9 29 f8 3c 57 3c c1 3b f8 78 8f 3d 7d 2c 8d 3c
       0.030293303 0.0058970856 0.07005495 0.017233128
000200 e7 58 c5 bd 1e 66 1f bd a1 ff 1b 3e 2e 44 ac 3d
       -0.096360974 -0.038915746 0.15234233 0.08411442
000210 77 e5 aa bd 3f e0 0d be f2 aa b8 bd f5 47 7a 3d
       -0.08344548 -0.13855074 -0.0901698 0.06110378
000220 54 69 85 bd 0c 7f 4d 3c ad 68 86 3c 57 9f 1e 3e
       -0.0651423 0.012542497 0.016407335 0.15490471
000230 a6 f2 2b 3d 13 90 a5 bb 90 e9 4f bc 33 40 00 be
       0.041979454 -0.0050525754 -0.012689963 -0.1252449
000240 af 59 0c be 83 7c b4 3d a7 2d 8d 3c b1 ce 7c bc
       -0.13706087 0.08812811 0.017233683 -0.015430138
000250 f0 9b a4 3d 83 fd c8 3d 9c 5a 5a bc f0 a4 f2 3c
       0.08037555 0.098139785 -0.013327267 0.029619664
000260 54 f8 5f bc bf e8 19 3d 9e c9 01 be 1c 5e 0a 3e
       -0.013670046 0.03757548 -0.12674567 0.13512462
000270 42 62 16 be f5 8a ae 3d c0 82 01 be ba 98 f0 bd
       -0.1468592 0.08522598 -0.12647533 -0.1174788
000280 fa 23 c3 bc de 02 8a 3d f0 60 b8 bd 5e 51 e9 3d
       -0.023820866 0.06738828 -0.09002864 0.11392473
000290 f9 1e 68 bd b8 e0 07 be 2f 37 de 3d 36 2e c9 3d
       -0.056670163 -0.13269317 0.10850369 0.09823267
0002a0 3c ba a9 bd b3 af d7 bd dd f7 b5 3d 03 43 4d bc
       -0.082874745 -0.10531559 0.08885167 -0.012528184
0002b0 da 47 4d bd ce 2c c4 3d 96 fc 09 bc b9 c9 12 be
       -0.05011735 0.09578858 -0.008422038 -0.14334764
0002c0 6b 14 c9 bd 1f de 80 bd c3 a6 cc 3d da 45 17 3e
       -0.098183475 -0.06292366 0.09992745 0.1477274
0002d0 fc 55 10 3e 40 05 a3 bd 49 da 47 3d 19 c7 b9 3d
       0.140953 -0.07959986 0.048792157 0.09071178
0002e0 bd a3 38 bd 43 63 5c bd 3c cf 0f 3e 51 a5 06 3e
       -0.045078028 -0.0538056 0.14043897 0.13149
0002f0 33 65 e9 bd ea d0 f6 3d 6d 4e 0b 3e f9 b1 92 bc
       -0.11396255 0.12051566 0.13604136 -0.01790713
000300 fe 1c 9e 3d 27 19 bc bd f4 01 d7 3d ee d1 f6 bc
       0.077203736 -0.09184485 0.104984194 -0.0301294
000310 78 65 35 bd 64 11 a8 bc 16 83 cf bd 2c fb a3 bd
       -0.04428622 -0.020516105 -0.101324245 -0.080068916
000320 6e c5 23 3c 7d fd 0d bd 37 88 aa 3d fc 8e f4 3d
       0.009995801 -0.034665573 0.08326762 0.119413346
000330 4e ae d8 3d fb 17 5f 3d eb a4 94 3d d7 2d 6c 3d
       0.10580121 0.05446623 0.07258018 0.057660904
000340 12 16 07 be ca 04 3e bd bd 6a 4b bc 4e b0 ef 3d
       -0.13192013 -0.046391286 -0.012415585 0.11703549
000350 65 98 0d be 0b 65 b6 bc 6b 26 16 be 06 65 ed 3d
       -0.13827665 -0.022264978 -0.14663093 0.11591534
000360 9f cf 97 bd 87 5f 17 3e d1 79 3c bc 7f 5a b6 bd
       -0.074126475 0.14782535 -0.011503653 -0.089039795
000370 57 a9 0c 3e 18 2a be 3d 3d c7 45 bd 49 08 f5 3d
       0.13736473 0.092853725 -0.04828571 0.11964471
000380 19 14 1d bd 4c 2c 84 bd 28 c6 f4 3d 14 a3 12 3e
       -0.038349245 -0.064537615 0.11951858 0.14320022
000390 fb 52 42 bd fa 2e 07 3d f0 f2 65 bd a5 8b d6 3d
       -0.047442418 0.033003785 -0.056139886 0.10475854
0003a0 bd e7 da bd 54 c2 c4 bd 5a bc 4e bc a9 3a 35 3d
       -0.10688732 -0.09607378 -0.012618149 0.044245396
0003b0 c1 dd b0 bc 03 72 03 3e 77 94 02 be 4c 5e 4f 3d
       -0.021590116 0.12836461 -0.12751947 0.050627038
0003c0 f5 d6 8a 3c 22 b0 9f bd 93 22 6d bd 4a 34 4e 3d
       0.016948203 -0.077972665 -0.0578943 0.050342835
0003d0 b6 75 db 3d e8 92 b5 3d 9c 42 bb bd cf 9c 0a be
       0.10715811 0.08865911 -0.09143564 -0.1353638
0003e0 20 54 52 3d f3 71 21 3c 8d 90 79 bd 92 12 a2 bc
       0.05134976 0.009853828 -0.06092887 -0.019784246
0003f0 d1 ce 09 3e f4 36 04 be 28 d0 a8 bd 5a b7 04 3d
       0.134578 -0.12911588 -0.08242828 0.03240142

fc2.weight f4 [256, 512]
000000 61 48 14 bd 8f 0d 8b 3c 9e a5 45 3c 41 84 c8 bc
       -0.03620184 0.016974239 0.012063412 -0.024477126
000010 6e 7a 34 bc 08 2e 46 3c 8f 06 ae 3c a6 9a ac bc
       -0.011015518 0.012095936 0.021243362 -0.021069836
000020 9e 41 42 3c 99 b2 81 bc 1c 4e 14 3d 95 ed aa ba
       0.011856465 -0.015832232 0.036207303 -0.0013040776
000030 cf 2a 39 bc 1c da 8c bb 9e e2 69 bc 92 6f e5 3c
       -0.01130171 -0.0042984616 -0.014275221 0.028007302
000040 0c 19 a7 3c 98 d2 2d bc 51 86 e7 bb 29 3d de 3c
       0.020397685 -0.0106092915 -0.0070655723 0.027128773
000050 6f f9 7c 3c 0e ec 37 3b 29 52 a9 3c 9c 33 a6 3c
       0.015440329 0.0028064284 0.02066906 0.020288281
000060 d9 e1 2d 3d 27 a7 10 39 8c 92 1d 3c 3d e6 05 bd
       0.042451713 0.00013795179 0.009617459 -0.032690275
000070 34 ae 01 bd 14 91 b9 bc b5 0c ec bc 3d 42 18 3d
       -0.031660274 -0.022652186 -0.028814653 0.037172545
000080 a6 92 d7 3c e7 1f d5 3a 8b ba e1 3c e8 eb f3 3c
       0.026315045 0.0016260118 0.027554771 0.029775575
000090 d9 2e 16 3d 73 1b 25 bd b2 3a a4 bc f5 e5 95 bc
       0.03666577 -0.04030938 -0.02004752 -0.018298129
0000a0 37 b5 b6 bc c1 e3 1f 3c b7 4c 39 bc 3a 77 ce bb
       -0.022303207 0.009758891 -0.011309794 -0.006300834
0000b0 9c 53 8d bb be 7f 61 bc 6a 97 fd 3c 05 f4 25 bd
       -0.0043129455 -0.013763366 0.030955989 -0.04051592
0000c0 a1 7f 7d 3c 41 44 3c bd 56 a0 ee bc 7e 91 82 3c
       0.015472324 -0.04596353 -0.029129189 0.015938517
0000d0 d9 f7 03 3c f5 0a 0a 3d 8e df e1 bc ae 29 0d 3d
       0.008054697 0.033701856 -0.02757242 0.034463577
0000e0 5b 95 c4 bc 02 72 1c 3d b2 02 2c 3c f5 ff b1 3b
       -0.023997 0.038194664 0.0104986895 0.005432124
0000f0 e6 51 45 bb e0 62 24 3d 78 9a 77 bb 4b 47 8b 3c
       -0.003010863 0.040133357 -0.003778128 0.017001769
000100 3b 97 eb bb eb 56 1f 3d d8 d2 07 3d 97 73 f0 3c
       -0.007189659 0.03890125 0.03316006 0.029351993
000110 dd 2a 85 3c e0 61 b0 3b fa 28 da 3b eb b8 16 bd
       0.01625579 0.0053827614 0.006657717 -0.036797445
000120 5b 56 01 3c 2c d5 74 bc 17 95 ec 3c 81 03 11 bd
       0.007894124 -0.014943402 0.028879685 -0.035403732
000130 f3 55 5e bc c4 9d fa bc 5d 0a e1 3b c4 f4 83 bc
       -0.013570297 -0.030592807 0.0068676905 -0.016107924
000140 93 76 c9 bc 69 c6 e3 bc f3 cd 67 3c 24 cc 19 3d
       -0.024592673 -0.02780457 0.014148223 0.0375482
000150 a4 9a 58 bb 32 0c c1 3c 1d 6c f1 bb 9e 62 07 3d
       -0.0033051157 0.023565385 -0.0073676244 0.033053033
000160 e5 06 ab bc 3b 5c 86 3c cd 98 17 bd 48 6a 27 bd
       -0.020877311 0.0164014 -0.037010957 -0.040872842
000170 7c 6c 11 bc 18 8c 33 ba bb c1 22 3c 0d 12 fa bc
       -0.008875962 -0.00068491837 0.009933884 -0.030526185
000180 c5 84 07 3d f2 48 e2 3c fb 77 9e 3c 91 b8 a6 bb
       0.033085603 0.027622674 0.01934432 -0.00508792
000190 49 ce 14 bd a2 c3 de 3c 63 8a 64 bc 34 8d 83 bc
       -0.03632954 0.027192894 -0.01394901 -0.016058542
0001a0 53 64 01 3d 28 ae e2 3c 4d fc 36 bc 94 0e de 3c
       0.031589817 0.027670935 -0.011168552 0.02710656
0001b0 a5 5b 1c 3d c7 a2 05 bd 9f ac 89 3c af fc d1 bb
       0.038173337 -0.03262594 0.016805945 -0.006408296
0001c0 fb d7 f2 3c 4b 4b 82 3c 84 57 5d bc 22 2b 09 bd
       0.029644003 0.015905043 -0.013509635 -0.0334884
0001d0 90 c0 a6 bb 61 77 34 bd 3a 5b 34 3d 84 f0 af bc
       -0.005088873 -0.04405916 0.044032313 -0.021476991
0001e0 2d 54 f8 bb b3 3d 58 3c cc 7d 16 bd c6 b3 dd bc
       -0.007578394 0.013198304 -0.036741063 -0.027063262
0001f0 59 ad 44 3c 7b a0 27 bd 96 46 cc bb c4 d3 2a bd
       0.01200422 -0.04092453 -0.0062340004 -0.04170586
000200 06 13 6f 39 15 99 c2 3c f7 fa 27 bd bf 43 d3 3b
       0.00022799903 0.023754636 -0.041010823 0.006447285
000210 41 ab cf 3b 4c c9 3e 3b a2 7b fd 3a 12 6d 27 3d
       0.0063375537 0.0029111682 0.0019339214 0.040875502
000220 ee 25 60 3c 43 52 5f 3b 41 48 1e ba 01 3a 92 bc
       0.013680918 0.0034076131 -0.00060379884 -0.017849924
000230 de 96 de 3b 69 fc 22 3d c0 cc 45 bc 40 32 ff bb
       0.006792887 0.0397915 -0.012072742 -0.0077879727
000240 89 97 0f bd d9 cd fd 3c 55 7b 1b bd 2d af 23 bd
       -0.035056625 0.030981945 -0.037959415 -0.039961983
000250 77 78 4e bc 44 09 5c bb 9d 4e 80 bc c6 c3 0c 3d
       -0.012601963 -0.0033574859 -0.015662486 0.03436639
000260 43 95 06 bd e7 da f5 bc 94 0e d3 3c 9a 10 03 bb
       -0.03285719 -0.030011607 0.025763787 -0.001999891
000270 a4 b1 28 3d e1 85 8c 3a 00 bd d1 3b 75 45 e2 3c
       0.041185036 0.0010721051 0.0064007044 0.02762101
000280 ae 71 33 bd e7 b8 06 bd 4b 7f 11 bd 38 a5 3c bd
       -0.043809585 -0.03289118 -0.035521787 -0.046056002
000290 c9 c4 e1 bb a9 0b fb bc 40 89 38 bd 5b ff 43 bc
       -0.0068899137 -0.030645208 -0.045052767 -0.011962737
0002a0 7f 9a 14 bd 8a 24 89 3c 94 58 24 bd 3a 46 34 bd
       -0.03628015 0.016741056 -0.040123537 -0.044012286
0002b0 42 e0 08 3c 74 3a db bc 57 c6 b2 bc e1 cf 23 bd
       0.0083542485 -0.026761271 -0.021823091 -0.03999317
0002c0 b1 04 96 bc 64 5c bb bb 34 10 f1 3c e0 16 15 bd
       -0.018312784 -0.005717801 0.029426672 -0.03639877
0002d0 39 d2 16 3d 41 53 2e bd 9e ff af bc 4d e6 02 3c
       0.036821578 -0.042559866 -0.021484192 0.007989478
0002e0 5b 4e 08 bd 30 dc a3 bc 65 86 33 3d 5d 0b 85 bc
       -0.03327785 -0.020002455 0.04382934 -0.01624077
0002f0 ea 81 86 3b da a8 e7 3b 57 e7 ee 3c eb 58 36 bd
       0.0041048424 0.007069689 0.029163046 -0.044518393
000300 95 7a d1 bc ca d8 89 bc c5 dc 2b 3c c6 f4 43 3c
       -0.025571147 -0.016827006 0.010489647 0.011960214
000310 51 f9 07 3d 9b 6f 02 3d 2f 8f 67 bc f7 92 d4 bc
       0.03319675 0.031844717 -0.014133259 -0.025948985
000320 74 2a 0d bc 72 c8 fb 3b 29 8f b9 3c 51 8c ba 3c
       -0.008616079 0.007683807 0.022651272 0.022771986
000330 c6 9c f5 bc bb 9c bb 3c 9e 74 d9 bc 9a f9 38 bc
       -0.029981982 0.022901883 -0.026544865 -0.011289978
000340 f3 8b 19 bc dd 8f 5e 3c 1b 20 af bc de 9f ae bb
       -0.009371745 0.013584104 -0.021377614 -0.0053291162
000350 8c 66 4b 3b 7b b7 22 3c f0 0e ef 3b 67 9b 1e bd
       0.0031036464 0.00993144 0.007295482 -0.038722422
000360 78 d7 45 bc 76 47 66 bb 3f cc 0a 3d 01 b8 17 bc
       -0.012075298 -0.003513781 0.03388619 -0.009260179
000370 48 2c 9c 3c c6 1b 18 bb ea 4b 46 3b aa 7e d7 bc
       0.019064084 -0.0023209914 0.003025765 -0.026305515
000380 2d 53 9f 3c 8a 21 5d ba 2a 06 00 3d 74 ba 20 3d
       0.019448841 -0.00084354787 0.03125588 0.039240316
000390 72 76 68 bc a2 52 27 bd 2b 3f 95 bc e8 6c a7 3c
       -0.014188396 -0.04085029 -0.018218597 0.020437673
0003a0 74 51 2b 3d 47 0e 1b bd 95 67 b3 3c 66 c4 23 3c
       0.041825727 -0.037855413 0.021899978 0.0099955555
0003b0 1e d7 a4 3c 5d 62 24 3d db 42 2f bc 30 fa 0d 3d
       0.020122107 0.04013287 -0.010697092 0.034662426
0003c0 81 40 cb 3c 0e e2 95 3c 83 96 4d 3c 01 23 86 3c
       0.024811031 0.018296268 0.012548092 0.016374113
0003d0 d9 3b 2c bd d7 78 ec 3c 13 9a 4d bc 25 e7 20 3d
       -0.042049263 0.028866215 -0.012548941 0.039282937
0003e0 f4 82 c6 bc c9 13 15 ba 34 d4 cc bc 90 bb 0f 3d
       -0.024232365 -0.0005686847 -0.02500353 0.035090983
0003f0 6b 49 c2 3c 3e de 1b bd 40 b1 0b 3d 26 9b 1c 3d
       0.023716649 -0.038053744 0.034104586 0.0382339

fc2.bias f4 [256]
000000 b6 28 10 bd db 50 d0 bc d1 3c 0b 3d 58 cb dc bb
       -0.035195075 -0.02542918 0.033993546 -0.0067381077
000010 02 67 d2 3c de 6d 9a bb 91 60 26 bd dc 6d 1d 3d
       0.025683884 -0.004712804 -0.040619437 0.03843485
000020 01 44 bf 39 2c f1 5d bc 61 e6 24 bd 08 6f 11 bd
       0.00036481026 -0.013546269 -0.04025877 -0.03550628
000030 19 d2 40 bc c7 26 dc 3b 88 8d 97 bc e8 9a 9d 3b
       -0.011768841 0.00671849 -0.018500105 0.004809726
000040 74 13 12 3d ab 22 26 3d 2b 70 b4 3b 1b 01 09 3d
       0.035663083 0.040560406 0.0055065355 0.03344832
000050 21 f1 f5 3c 15 de e6 3c e6 c3 88 bc 4d aa 23 3d
       0.030022206 0.028182069 -0.016694974 0.039957333
000060 c1 56 18 3d 13 b5 35 3b 3a 6a 03 bc d2 c9 29 bd
       0.03719211 0.0027726337 -0.008020932 -0.041452236
000070 15 6c 0c 3d 5d 58 27 3c 24 80 f4 3b 85 5c aa 3c
       0.034282763 0.010213939 0.0074615646 0.02079607
000080 9d 46 79 3c 2c 96 1e bd cd ab 02 3d 5d d7 14 bd
       0.015214589 -0.038717434 0.031902123 -0.0363382
000090 a2 bc ed bc 24 00 08 3d 2a 9c c8 3c ad 4f bf 3c
       -0.029020611 0.03320326 0.024488527 0.023353422
0000a0 bc f9 88 ba 7f 98 f7 3b e1 95 38 bd 99 72 27 bd
       -0.0010450403 0.0075560207 -0.04506481 -0.040880773
0000b0 02 ae 7a bc b8 09 2d 3c b5 12 da bc 1e 20 1c 3d
       -0.015300276 0.010561399 -0.026620248 0.038116567
0000c0 f5 ff 20 bd 2e 83 e6 bc e7 02 b1 bc bf bd 0f 3d
       -0.0393066 -0.028138723 -0.02160783 0.035093065
0000d0 23 4a ad 3c 3e 6b 25 bb 8d 18 19 3d 15 2d 47 3d
       0.021153515 -0.0025240923 0.03737693 0.048626978
0000e0 5c 56 35 38 4f 70 85 3c 16 e4 ff 3c b7 fb c9 3b
       4.323419e-05 0.016288904 0.03123669 0.00616404
0000f0 79 84 16 3c a3 11 41 bd ff 3e 86 3c 70 7a b5 bc
       0.009186857 -0.04713596 0.01638746 -0.02215311
000100 69 32 1a bd fd c6 e4 bc fd ba 53 bb a7 d2 d5 3c
       -0.03764573 -0.027926916 -0.0032307499 0.026101423
000110 40 83 07 bd 35 cf 24 3c f4 42 f8 3c be 06 21 3d
       -0.033084154 0.010059168 0.030305363 0.03931307
000120 4e df 9a 3c f9 f4 de bb 48 a9 ec bc 32 ef b8 3c
       0.018905308 -0.0068041054 -0.028889313 0.022574995
000130 ac 4c 19 ba ef 4f e2 3a af 97 6c bc d6 00 43 3d
       -0.0005847912 0.0017266254 -0.014440461 0.04760822
000140 d6 c5 e6 bc a8 9a 63 bc 7b 60 e6 3a e5 a1 0a 3d
       -0.028170507 -0.013891853 0.0017576361 0.0338458
000150 d1 5f 04 bd 01 7a 9f 3c f1 05 00 bc dc 76 2e 3d
       -0.03231794 0.019467356 -0.007813917 0.042593822
000160 77 46 c8 3c 15 28 2f bd 14 3b 1c 3d f6 fd 3d bd
       0.024447663 -0.042762835 0.03814228 -0.046384774
000170 43 1b 02 3d 79 ef dd bc ca 36 c7 3c 58 91 08 3d
       0.03176428 -0.027091729 0.024318118 0.033341736
000180 c2 2f b2 bc 43 6f 35 bd 80 d0 a0 bc dc 34 f8 3a
       -0.021751288 -0.04429556 -0.01963067 0.0018936652
000190 0d e5 19 3c 7a 7b 04 3d 0c 9b f9 bc 44 2d ad 3c
       0.009392989 0.03234432 -0.03046944 0.021139748
0001a0 39 cc d2 3b 6b a4 00 bd 11 87 2d 3c 81 57 0b 3d
       0.0064330366 -0.0314068 0.010591284 0.034018997
0001b0 eb 0d f8 3c 1e c5 05 bc 59 a3 0f bd 6f 2f b4 bc
       0.030280074 -0.008164672 -0.03506789 -0.021995274
0001c0 cd a8 58 3c 62 30 63 bc 27 74 09 3d b2 3c 7b bb
       0.013223839 -0.013866516 0.033558037 -0.0038335738
0001d0 a1 d4 2e 3c 08 99 08 bd 56 b9 43 bc 08 4a e5 bc
       0.010670812 -0.033349067 -0.011946043 -0.027989402
0001e0 70 41 84 3c ad 73 c4 3c 2b ae 9a bc f6 1b dd 3c
       0.016144484 0.02398094 -0.018881878 0.026990872
0001f0 87 2e 00 3d e6 ae 3b bc 94 61 92 3c 4d 7b 87 3b
       0.031294372 -0.011455273 0.017868795 0.0041345716
000200 c9 52 17 bd d4 16 05 bd 12 65 a1 3a 46 9e 0b 3d
       -0.036944184 -0.032492474 0.0012313446 0.03408649
000210 58 cc 2d bd 1b 77 15 bb 12 a8 46 3c fa 27 28 bc
       -0.042431206 -0.0022806588 0.012125032 -0.010263437
000220 c6 ca de bc 7d 3c 57 3c 8a 7c be 3c 7c 9a d8 bc
       -0.0271963 0.01313698 0.023252744 -0.026440851
000230 43 b1 1e 3d 32 25 12 3d b5 6e 16 3d ef 38 97 3c
       0.03874327 0.035680003 0.036726672 0.018459765
000240 85 8f 1f 3d 18 cd 8e bc 0f 8d 04 bd 02 d9 de 39
       0.03895523 -0.01743178 -0.032361086 0.00042504823
000250 e3 01 b6 bc a3 cb 02 bd b1 18 c0 3c 72 8a 23 bd
       -0.022217697 -0.031932484 0.023449274 -0.039926954
000260 a2 95 2a 3c 4f b0 5a 3c 16 86 14 3d 75 67 dc bc
       0.010411652 0.013347699 0.036260687 -0.0269048
000270 bc 10 52 3d e9 8d 46 bd 36 dd a6 3b 44 ef 72 bb
       0.05128549 -0.04847518 0.0050922884 -0.0037068883
000280 05 fb 80 3b 8d 87 25 3d 33 79 00 bd 37 d2 27 bd
       0.003936174 0.040412474 -0.031365585 -0.04097196
000290 d9 96 a7 3c 0a b4 08 3c 4f d1 1a 3d c5 aa 22 3d
       0.020457672 0.008343706 0.03779727 0.03971364
0002a0 9e 88 9f 3b ef a3 d7 bc c2 31 c8 3c bb 71 19 3d
       0.004868581 -0.026323287 0.024437789 0.037461977
0002b0 91 37 48 bc 7a f7 2e bd 69 ff 3b bc ce 41 69 3c
       -0.012220279 -0.04271648 -0.011474469 0.0142368805
0002c0 8b 03 52 3d b8 21 e7 3c 00 d1 52 3c 63 bc 96 bc
       0.05127291 0.02821432 0.012867212 -0.018400377
0002d0 2b 53 eb bc ee d6 18 3d 04 04 d0 3b e4 65 95 38
       -0.028726181 0.037314348 0.006348135 7.123852e-05
0002e0 e0 b0 eb bc 24 f6 16 3d e9 67 18 3d 93 3e 79 3c
       -0.028770864 0.03685583 0.03720847 0.015212673
0002f0 8d 27 e1 bb f2 51 fe bc ca 5e 2c bc e0 bd 5b 3d
       -0.00687117 -0.031044934 -0.010520646 0.053647876
000300 a2 4a e5 bc d0 0d d7 3c ed 87 8c 3b 8f 34 15 3c
       -0.02798969 0.026251704 0.0042886646 0.009106769
000310 4c 25 19 3d ff ce 22 bd 00 32 09 bd ca 1b 46 3c
       0.037389085 -0.039748188 -0.03349495 0.012091586
000320 75 bd 31 bc e0 94 32 3d 24 78 61 3b f6 2e 0b bc
       -0.010848393 0.04359901 0.0034403885 -0.008495083
000330 f2 b9 39 3d dc 2e af bc c9 9b a7 3b 09 b9 c3 3a
       0.045343347 -0.021384649 0.0051150066 0.0014932464
000340 5b cb 0f bd 67 2d 9e bc f7 70 0a 3d 3c 2f 02 3d
       -0.035106044 -0.019308759 0.033799138 0.031783327
000350 07 b4 90 bc 59 15 98 3c 63 4f 35 bb 5b 28 d7 3c
       -0.017663969 0.018564867 -0.0027665726 0.02626436
000360 99 91 d2 bc e9 bb ca 3c 40 9e 0f bc 1b 62 6e bc
       -0.025704192 0.024747806 -0.008765757 -0.014549757
000370 ae 6d 07 3d 5c 2d e9 39 58 f6 93 39 36 8d dc 3c
       0.033063583 0.00044475019 0.00028221565 0.026922803
000380 d6 a0 4f bc 00 98 26 bd 14 f5 d1 3c 6d 8d 1f 3d
       -0.012672624 -0.040672302 0.025629558 0.038953234
000390 9a f1 1d bd 36 f2 d9 3c 0b 8a 1b 3c da 7b 90 bc
       -0.038560487 0.026604753 0.009493361 -0.017637182
0003a0 20 3c 5a bc e1 d5 93 3c ee 18 18 bd 9a 76 bb bc
       -0.013319999 0.018046321 -0.03713315 -0.022883702
0003b0 63 1e 28 3d 68 d5 11 bc d3 0a 38 bc 19 29 2c bc
       0.041044604 -0.008900978 -0.011233049 -0.010507845
0003c0 c4 8a 96 3b 4f d0 08 bd c4 6e b2 bc 66 24 12 bd
       0.004594179 -0.033401784 -0.021781333 -0.035679244
0003d0 b8 0e 1c bb fc e9 50 bc f9 64 6c bc 57 6b f4 3b
       -0.0023812484 -0.012751099 -0.014428371 0.007459085
0003e0 e5 8e b2 3c ec 86 26 bd dc 15 df b9 62 4e 19 bd
       0.021796653 -0.040656015 -0.0004255016 -0.037428267
0003f0 21 0c ad 3c 5f d1 b6 bc ba af e6 3c 23 30 1e bd
       0.021123948 -0.022316633 0.028159965 -0.038620126

fc3.weight f4 [128, 256]
000000 12 b3 18 3c 51 13 29 3d 9c 8b 58 bd f8 6f a3 bc
       0.009320037 0.041278187 -0.052867517 -0.019950852
000010 bc e0 b1 3c e1 d0 ef 3c 76 f9 a8 3c 71 df b4 3c
       0.021713607 0.029274406 0.020626765 0.022079201
000020 cf 51 e7 bc 9e 2a 1d bd 55 9b 20 3d 7a f2 1c 3d
       -0.028237252 -0.03837072 0.039210636 0.03831718
000030 c0 7d 6f 3d 23 07 c7 3b ce d6 61 3d bd ad e1 3c
       0.058469534 0.006073849 0.055136494 0.027548665
000040 14 4a 3d 3d 08 0c 22 3d d2 5d da bc dd 0f 10 3d
       0.046213225 0.039562255 -0.026656065 0.03517138
000050 7f 8d 0d 3d eb cb 5e 3d 88 e7 d8 bb 69 4a 21 bd
       0.03455877 0.05439369 -0.0066193976 -0.039377604
000060 8f 51 cc 3c 94 df 81 bb 5b 5d 53 3d 13 b5 3a 3d
       0.024941234 -0.00396342 0.051602703 0.045582842
000070 62 72 b8 3c 0a 3d 78 3b 0f 68 75 ba b0 db 6b bc
       0.02251548 0.003787818 -0.0009361514 -0.014395639
000080 96 75 fd 3c a8 e5 90 bc bc b6 47 3d 14 6f 64 3d
       0.030939858 -0.017687634 0.048758253 0.055769995
000090 22 7d 0f bb 3e 64 48 3d fa 70 3e bc 07 86 e3 3c
       -0.0021894653 0.048923723 -0.011623615 0.02777387
0000a0 f5 8d 40 bd aa 24 31 bb ab f3 80 bd 13 46 52 bd
       -0.04701038 -0.002702991 -0.06296476 -0.05133636
0000b0 95 8a 2e bc ce b0 a7 3c 4f d3 be bc 6f 1a 9c 3c
       -0.010653158 0.02047005 -0.02329412 0.019055573
0000c0 cd c8 1b 3c df 89 e4 bc 49 65 98 bb a4 cd 44 3c
       0.009508324 -0.027897773 -0.004650746 0.012011919
0000d0 17 3b 25 3c e1 b2 53 3d 36 72 17 bd 35 37 31 bd
       0.010084889 0.051684264 -0.036974154 -0.04326554
0000e0 18 18 c3 3c 0b b1 83 bd 2c fb 21 3c f2 6c 17 bd
       0.0238152 -0.06430253 0.009886544 -0.036969133
0000f0 ce 6a 19 bc 98 57 36 3c cf 6c 2e bb fe bb be bc
       -0.009363843 0.011129282 -0.0026615148 -0.023283001
000100 a0 1e 37 bd 08 43 fb bc 34 89 fb bc 07 c8 6f 3d
       -0.04470694 -0.030671611 -0.030705072 0.05854037
000110 73 db 10 3d 14 e1 39 bd c1 35 91 3c 6c 39 0e 3d
       0.035365533 -0.045380667 0.017725827 0.03472273
000120 8e ae c9 bc e6 b5 37 3d 66 89 58 3d cc 8b 15 3d
       -0.024619367 0.044851206 0.05286541 0.036510274
000130 4f b4 01 bd 6f 88 25 bd 2e 2c d0 3c 7e 1c cd bb
       -0.031666096 -0.040413316 0.025411692 -0.0062595
000140 8b fe c3 3c 5c 62 82 3c b9 97 59 bd b2 4e 1f bb
       0.023925086 0.015916042 -0.05312321 -0.002430838
000150 46 5e 0e bd ab b0 31 bd fd b7 b8 bc e4 10 1d 3d
       -0.034757875 -0.043381374 -0.02254867 0.038346186
000160 94 c5 62 3d 1f 98 0d 3d 77 24 9c 3c 9e 4d de 39
       0.055364206 0.034568902 0.019060357 0.0004240097
000170 8b 5f eb 3c 49 67 e0 bc ea cb 52 bd 4b 84 f5 3c
       0.028732082 -0.027393 -0.051464 0.029970309
000180 e9 8c af 3c a6 01 43 3d f5 45 20 bd 1a 7e 34 3c
       0.021429496 0.047608994 -0.039129216 0.011016393
000190 74 10 e7 bc bd a9 53 bd 11 7a 08 3d 76 0c 0f 3d
       -0.028206088 -0.051675547 0.033319537 0.034923993
0001a0 dd bc ce 3c 60 ea 8f bc 4d c9 4d 3c b6 ef e9 3c
       0.025236541 -0.017567813 0.012560201 0.028556686
0001b0 f9 87 44 bd 30 51 5a 3d c8 cc f9 3a 00 ce a8 bc
       -0.047981236 0.053300083 0.0019058222 -0.020606041
0001c0 37 b9 62 bd d2 2d db 3c 2b 16 25 bd 7d cf 99 3c
       -0.055352416 0.026755247 -0.040304344 0.018775696
0001d0 f7 7a 17 bd 4e 46 60 3c c5 b9 90 bb fa e1 bb bc
       -0.036982503 0.013688637 -0.0044166767 -0.022934902
0001e0 4a 0d b2 bc a6 7a bc 3c 4f 39 7d bd da 65 eb bc
       -0.021734852 0.023007702 -0.06182223 -0.02873509
0001f0 0c 8e 53 3d b5 8f a7 3b 5f cf 00 3d f4 08 3b bd
       0.05164914 0.0051135668 0.031447764 -0.045662835
000200 58 0a bc bc b1 4d 24 bd c6 c2 0e 3d e9 d9 96 3c
       -0.022954151 -0.040113155 0.03485372 0.018414455
000210 b9 d0 36 3d 00 d6 f3 bc 6b da e4 bc 8d bc 5e bd
       0.044632647 -0.02976513 -0.027936181 -0.054379035
000220 e5 2c 9f bc 3d 79 c2 bc 2b c0 b7 bc 8e 5e 71 bd
       -0.019430587 -0.023739452 -0.0224305 -0.058928065
000230 ff a4 54 3d d1 c8 49 3d 7d a7 2e 3c fa f5 6c 3d
       0.051915165 0.04926378 0.0106600495 0.05785177
000240 8c db 86 3c 76 83 5d bd 5f 72 00 3c 51 77 44 bc
       0.01646211 -0.05408045 0.007839768 -0.011991338
000250 36 dc 28 3d 62 9a 19 bd a8 70 2d 3d 8d 1b 49 bd
       0.041225635 -0.037500747 0.042343765 -0.04909854
000260 a5 d0 07 bd d7 6c fd bb 15 e1 78 bd 2f f0 75 3d
       -0.033157963 -0.007733922 -0.06076153 0.06004351
000270 63 d7 11 3d 6b ef 46 3d b3 86 a6 3b 8e f4 19 3d
       0.0356058 0.04856817 0.0050819754 0.03758674
000280 dd 8b 1c bc 98 f7 f2 3c a3 c2 80 3c 56 71 dd 3c
       -0.00955483 0.029659078 0.01571781 0.027031582
000290 12 38 ee 3c 70 4a 02 3d e5 79 c9 3c f6 8b f0 3c
       0.02907947 0.03180927 0.024594257 0.029363614
0002a0 0c 34 79 bb 78 c7 d9 3c 50 88 7b bd 04 eb 80 3d
       -0.0038025407 0.026584372 -0.061409295 0.06294826
0002b0 ca 6d e7 bb f3 9d 0f 3d f5 8e 17 bb e0 61 80 3d
       -0.0070626484 0.03506274 -0.002312598 0.06268668
0002c0 c8 cc fe 3a a5 4e 12 3d 28 08 0b bd 0f 54 09 3d
       0.0019439692 0.035719533 -0.033943325 0.03352743
0002d0 84 c6 4f 3d 41 c5 82 bc f8 85 a8 3c 6e 15 c9 bb
       0.05072643 -0.015963199 0.020571694 -0.006136588
0002e0 38 54 0a 3c 78 0e 79 bd 2f da fc 3c 21 35 48 bd
       0.008442931 -0.060804814 0.030865757 -0.048878793
0002f0 c2 eb 0d bd 55 4d 0e 3d 8d af 17 3d ea 2f 04 bd
       -0.034648664 0.03474172 0.037032653 -0.032272257
000300 e1 66 30 bc c9 b4 4e bd 7e 82 15 3d 87 59 1a 3d
       -0.010766716 -0.05046538 0.0365014 0.037683036
000310 ec 9f 0f 3d fb d3 7c bd 8f d1 b3 3c fd 9f eb 3c
       0.035064623 -0.061725598 0.021950511 0.028762812
000320 c1 e8 76 bc 76 6f 54 bd b3 13 a6 bc 89 d7 40 3d
       -0.015070141 -0.05186411 -0.020273065 0.04708055
000330 10 01 97 3c 6d 2c 12 3d d3 eb 43 bc 55 8f 9d bc
       0.018433124 0.0356869 -0.01195808 -0.019233385
000340 3b 04 e2 bc db e4 c4 3c cf cf 8b 3c 06 57 92 3c
       -0.027589908 0.024034908 0.017066864 0.017863762
000350 f8 ca 97 bc e4 e4 03 bd b7 f4 72 3c ac 62 38 3d
       -0.0185294 -0.03220071 0.014828852 0.045015976
000360 85 84 cf 3b 61 1d 71 bd 19 cd 29 3c 6c 00 0c bd
       0.006332936 -0.05886591 0.0103638405 -0.03418009
000370 b6 d4 6e 3c b4 72 07 bd 9b e9 34 3c 60 51 6f 3c
       0.014577081 -0.033068374 0.011042024 0.014606804
000380 a3 36 57 3d 3f 86 3d 3d d6 e0 1a bd bb 67 b2 bb
       0.05254234 0.046270605 -0.037812077 -0.0054444945
000390 18 9e 15 3c 14 79 73 3c 32 f1 87 3b 47 db da 3c
       0.009131931 0.01486041 0.004148626 0.026715888
0003a0 5b e5 17 3d 1b 8d 92 3c 37 f6 dc 3c 5d 67 ea 3c
       0.037083965 0.01788955 0.026972873 0.02861374
0003b0 22 a8 d4 bc e4 ff 06 bd 83 e9 13 3d eb 6c 4e bc
       -0.025959078 -0.03295888 0.036111366 -0.01259921
0003c0 3c 57 00 3d 18 da 30 3d 68 f2 53 3a 05 62 3c 3c
       0.031333193 0.04317674 0.00080851326 0.011497979
0003d0 91 b0 24 3d 5a 91 de 3c 8f e6 40 bd 65 1c 46 3d
       0.04020745 0.027168918 -0.047094878 0.048366923
0003e0 60 f0 ef 3c f1 37 81 bd 04 8a 20 bd f4 bf 06 bd
       0.029289424 -0.06309498 -0.039194122 -0.032897905
0003f0 07 de c4 3a f3 f2 d1 bc 22 97 6a bd 06 68 b1 bc
       0.0015019783 -0.025628543 -0.057273038 -0.021656048

fc3.bias f4 [128]
000000 9c d1 cc 3b 76 b0 13 3c 5c e6 48 bd c6 61 58 bc
       0.0062505733 0.00901424 -0.049047813 -0.013206905
000010 bc 64 9e bc d2 4b 00 3d 78 35 15 3d 48 8c 3f bd
       -0.019335143 0.031322308 0.036427945 -0.046764642
000020 a6 ab a0 3c 4b 37 4e bc 71 0b 1f 3d 33 a2 3b bd
       0.019613098 -0.012586425 0.03882927 -0.045808982
000030 d0 8f 49 3c f8 56 2d 3d 20 02 5d 3d d5 9e 28 3d
       0.012302354 0.042319268 0.053957105 0.0411671
000040 a1 42 a3 bc 9b 09 2f 3c 42 26 b2 3b 6a 9a 62 3d
       -0.019929232 0.0106834425 0.0054366896 0.055323042
000050 d5 90 14 3c 0a b3 df bc f6 a4 42 3d e1 e1 43 bc
       0.009067734 -0.027307052 0.0475206 -0.011955709
000060 de c2 9b bc 11 30 4c 3c 25 8e ba bc 5e 51 4a bd
       -0.019013818 0.012462632 -0.022772858 -0.049394004
000070 c7 9b 54 3d aa f2 54 bd db 55 42 3d 90 80 a5 bc
       0.051906373 -0.051989235 0.04744516 -0.020202905
000080 35 da 6b 3d f6 1a 03 3d b0 2c 0d bd 45 8e 4f 3c
       0.057581145 0.032008134 -0.034466445 0.012668197
000090 09 a3 4a bd cc 09 38 3d 28 a3 2e 3d 76 b6 a8 bc
       -0.04947189 0.044931218 0.042636067 -0.020594817
0000a0 9f 9d 00 3c 6c 42 b9 ba b2 ef 3b 3d 0d 8b 9c 3c
       0.00785008 -0.0014134175 0.04588289 0.019109273
0000b0 e5 0c 12 3d 38 e2 6c bd 39 0b f1 3b 81 60 ff 3b
       0.03565683 -0.057832927 0.007356074 0.0077934866
0000c0 12 a6 74 3d 53 85 db ba cd 27 12 3d 91 6c 88 3c
       0.05972869 -0.0016748108 0.03568249 0.016653331
0000d0 9a 03 6a 3d c8 94 21 ba d4 ff 57 bd 79 bd 3c bd
       0.05713234 -0.0006163833 -0.05273421 -0.046079133
0000e0 91 69 13 3c cf 47 1b bd f6 68 5b 3d e3 b4 51 bd
       0.008997337 -0.03791028 0.053566895 -0.051197898
0000f0 16 ba 80 bc 95 80 2a 3d 8b 6f 53 3d a5 8c 5d 3c
       -0.015713733 0.04162653 0.051620048 0.013522302
000100 4f 23 01 bc 21 e9 27 3c 38 69 6d 3d 8c ca bf 3b
       -0.007881953 0.010248453 0.057961673 0.005853003
000110 6c 2f a7 3b bb 35 1e 3c 9c 97 5b 3d 88 78 e0 3b
       0.0051020887 0.009656365 0.053611383 0.006850306
000120 4f 99 de bc 0a 4f 6b bc fe 9c 13 bd ff 22 59 3d
       -0.027172713 -0.014362106 -0.03603839 0.05301189
000130 0e 84 17 bd b1 21 18 bd a5 78 f3 bc 6c 1a 4d bd
       -0.03699117 -0.037141506 -0.029720614 -0.050074026
000140 a0 9f 23 3d 65 1b 50 3d 37 92 5e 3d 7e 85 83 3d
       0.039947152 0.050807375 0.05433866 0.06421946
000150 e3 96 6c bd 2f 47 1a 3d 0d 02 a0 bc 22 2b 4f 3d
       -0.057761084 0.037665542 -0.019532228 0.050578244
000160 cc 6e 01 3d 55 3b 62 3d 09 7c 98 3c 73 a8 04 3d
       0.031599805 0.055232365 0.018613832 0.03238721
000170 ff b0 ef 3b be 9a 67 3d 6a 8b 1f 3d 0e b9 11 3d
       0.0073148008 0.056544058 0.038951315 0.035576873
000180 7b d3 78 3d 94 10 06 bd e9 68 ee 3c f3 6d c5 bb
       0.06074856 -0.032730654 0.02910276 -0.00602507
000190 33 cb 5f bd 3d 7b 56 bd 38 42 59 3b 32 4f c1 bc
       -0.054637145 -0.052363623 0.0033151042 -0.023597334
0001a0 d2 7b 43 bd ae 16 c7 3c 11 c6 32 3d 60 5c 9e ba
       -0.047725506 0.024302807 0.043645922 -0.0012081973
0001b0 17 f0 94 bc 87 8a 96 3b 5c 31 44 bd 7b 8e af 3b
       -0.01818089 0.0045941505 -0.047898635 0.005357561
0001c0 64 37 54 3d b7 b7 74 3c 34 ef c0 bb c1 20 76 3c
       0.051810637 0.014936379 -0.0058878902 0.015022458
0001d0 fd 6c ae 3c 2e 4b 05 bb aa 4f d7 bc 7b cf d6 bc
       0.021292204 -0.0020339 -0.026283104 -0.026221981
0001e0 04 e1 31 bd fb f9 42 ba 21 0c fc ba 63 6a 76 bc
       -0.043427482 -0.00074377627 -0.0019229689 -0.015040013
0001f0 6f 47 68 3c 72 e3 f8 3b f7 4f fc 3b 4f 77 9a bc
       0.014177187 0.007595473 0.0076999622 -0.018855719

fc4.weight f4 [1, 128]
000000 77 0b cd bc 1c 1b 84 3d 77 db 81 3d 65 64 ba bd
       -0.02502988 0.06450483 0.06340688 -0.0910118
000010 52 e5 b2 bd c4 73 98 bc 5e 63 a5 bd 11 4f 17 3d
       -0.08735146 -0.018609889 -0.080755934 0.036940638
000020 81 f4 b5 bd a7 5b f7 bc 03 75 b0 bd ab 71 b5 3d
       -0.08884526 -0.03019507 -0.08616068 0.08859571
000030 1c e2 68 bd 8f 23 a7 bd cf 96 66 bd ad bd be 3d
       -0.05685626 -0.08161079 -0.056296166 0.093135215
000040 66 77 57 3d e9 44 a4 3c bd 9a 02 3d 98 e4 a7 bb
       0.0526041 0.02005239 0.03188585 -0.005123686
000050 3f 4e a9 bd 61 89 24 3d a4 96 8b 3c 6e 0b b4 3c
       -0.082668774 0.040170077 0.017039604 0.021978106
000060 b4 10 c8 3d 65 26 61 bd a8 20 9f bd 22 13 67 3d
       0.09768811 -0.054968257 -0.077699006 0.05641473
000070 50 77 95 3d 73 0b a9 bd cc bb 97 3d 02 eb b1 3d
       0.07298148 -0.08254137 0.07408866 0.08687402
000080 65 2d b4 3b 26 d4 a9 bd fd 2a 23 3d 19 1f a7 3c
       0.0054985755 -0.08292417 0.03983592 0.02040057
000090 16 58 df bc a2 86 3a bd 60 90 9f 3d 89 e9 6c 3d
       -0.027263682 -0.045538552 0.07791209 0.057839904
0000a0 b3 a9 8c bd db ac cb 3c ef 42 5b bd 4c eb 73 3c
       -0.06868305 0.024862697 -0.05353063 0.014887642
0000b0 5e 99 dd 3c c4 c5 92 bc 2d 4f 8a bd 49 ca dc bc
       0.02705067 -0.017916568 -0.06753383 -0.026951926
0000c0 84 ae 9a bc 64 99 15 bd 5a b6 a9 3d 94 da 9a bd
       -0.018882044 -0.036523238 0.08286734 -0.07561222
0000d0 1e e1 65 bd 9f da 68 3d d0 75 bb 3d 45 2a 1d 3d
       -0.05612289 0.05684912 0.0915333 0.03837039
0000e0 97 0d f3 bc fb 15 5f 3d 0f 20 a9 bc 65 15 26 3d
       -0.029669566 0.05446432 -0.02064517 0.040547747
0000f0 8b 5b 90 3d 18 72 1e bd bb 67 1a 3c be 81 1d bd
       0.070487104 -0.038683027 0.009424145 -0.03845381
000100 1a 65 8d 3d 67 ab c6 bd 95 64 98 bd 00 2b d8 bc
       0.06904049 -0.09700661 -0.074410595 -0.026387691
000110 e9 3c 9b 3d 02 64 88 3d 6a de 64 3c 99 55 c3 bd
       0.07579977 0.066597 0.013969043 -0.09537811
000120 70 5c 0e bd da 0d b5 bd 44 47 2b 3c 92 5f c4 3d
       -0.034756124 -0.088405326 0.010454003 0.09588541
000130 2a 63 c6 bd c8 20 88 3c 99 97 a9 bc b6 c9 bd 3d
       -0.09686883 0.016617194 -0.02070217 0.09266989
000140 98 bc b0 bb 55 12 bf bd c1 3a af bd 60 e8 3f bd
       -0.005393576 -0.093296684 -0.08556128 -0.04685247
000150 c5 26 bb bd f6 8b 9f bd 67 f4 c1 3d b1 28 87 3d
       -0.09138254 -0.07790367 0.09470444 0.06599558
000160 f3 54 85 3d cf c5 90 bc a9 4d b7 bc 5d 9b a9 3d
       0.065103434 -0.017672447 -0.022375898 0.08281586
000170 a5 a6 b3 bd 15 04 be 3b 1f 4c bf 3d 30 84 4f 3d
       -0.08772019 0.0057988265 0.09340691 0.050663173
000180 eb ba 83 bd 8b 90 aa bc f4 81 fa bc 79 b4 a7 3d
       -0.06432136 -0.020820877 -0.030579545 0.08188719
000190 62 7f 8a bd 6a 0f 04 3c 21 02 9a bd af 1e 46 3d
       -0.067625776 0.008060316 -0.07519937 0.048369106
0001a0 de ca c7 bd a1 27 81 3c ed f9 6f 3d 64 89 aa bc
       -0.09755491 0.015765967 0.058587957 -0.020817466
0001b0 31 bd 70 bd 8d 3a c0 3d 27 f4 da bc 62 e5 c8 3d
       -0.058774177 0.09386168 -0.026727749 0.09809376
0001c0 85 d0 1a 3d 52 10 8b 3b 73 f7 09 bd 33 4e b4 bc
       0.037796516 0.004243889 -0.03368325 -0.022009945
0001d0 0d 6b 0d 3d 99 ca 30 3d 78 7a 24 3d 04 0a 8d 3d
       0.03452592 0.043161962 0.040155858 0.06886676
0001e0 0c 7a c3 bd aa 5f fc 3c 5f 58 db bc 3c cb 63 3d
       -0.09544763 0.030807335 -0.026775537 0.05561374
0001f0 a0 01 9c 3d 03 f5 a0 bd b3 68 e0 bc 86 e7 a4 3d
       0.076174974 -0.07859232 -0.027393674 0.08051972

layer_norm1.weight f4 [512]
000000 31 7d 80 3f b0 6b 7f 3f 10 f8 7f 3f c4 4c 7f 3f
       1.0038205 0.99773693 0.9998789 0.9972651
000010 b8 ae 7e 3f f6 03 7e 3f 63 3f 7f 3f 88 e5 7f 3f
       0.9948535 0.99224794 0.99706095 0.9995961
000020 93 e6 7f 3f 3c 00 80 3f 8d 26 7f 3f 2e 62 7f 3f
       0.99961203 1.0000072 0.996682 0.99759185
000030 1d 5d 7e 3f d1 36 7f 3f 2a 3b 7f 3f 0a ca 7f 3f
       0.9936083 0.9969302 0.9969965 0.9991766
000040 43 31 80 3f e7 b4 7e 3f a2 96 7f 3f ae 94 7e 3f
       1.0015033 0.99494785 0.9983922 0.9944562
000050 78 fa 7f 3f aa 28 80 3f 8e ff 7e 3f fa 45 80 3f
       0.9999156 1.001241 0.99608696 1.0021355
000060 21 6c 80 3f 31 90 7e 3f 05 78 7f 3f 06 91 7f 3f
       1.0032998 0.9943877 0.9979251 0.99830663
000070 8a 85 80 3f 78 a9 80 3f 30 f6 7e 3f 08 8e 80 3f
       1.0040753 1.0051718 0.995944 1.0043344
000080 48 c8 7e 3f e5 3e 80 3f a0 1e 80 3f eb c0 7f 3f
       0.99524355 1.0019194 1.0009346 0.99903744
000090 a4 ab 7f 3f f5 6c 7f 3f fa ce 80 3f ac 33 80 3f
       0.9987128 0.9977563 1.0063164 1.0015769
0000a0 bf 6d 80 3f fc 88 7e 3f 95 ca 7e 3f ff ab 7f 3f
       1.0033492 0.9942777 0.99527866 0.9987182
0000b0 aa 21 80 3f 52 a0 80 3f 41 e5 7d 3f 90 8d 7f 3f
       1.0010273 1.0048926 0.9917794 0.9982538
0000c0 11 59 7f 3f 6a 73 7f 3f 46 3a 80 3f 31 18 7f 3f
       0.9974528 0.9978548 1.0017784 0.9964629
0000d0 e1 09 7f 3f 51 b2 80 3f 1b 8c 80 3f bf a5 7e 3f
       0.9962445 1.0054418 1.0042757 0.9947166
0000e0 24 a0 7f 3f a6 34 80 3f f4 e8 7e 3f b5 a9 80 3f
       0.9985373 1.0016067 0.9957421 1.005179
0000f0 cd 8c 80 3f fd c1 7e 3f 71 3a 81 3f b2 70 7f 3f
       1.0042969 0.9951475 1.009596 0.99781334
000100 80 dd 7e 3f 22 45 80 3f 4a 8f 7e 3f 3d c9 7f 3f
       0.9955673 1.0021098 0.9943739 0.9991644
000110 77 7e 80 3f 41 62 80 3f cf dc 80 3f 68 25 80 3f
       1.0038594 1.0029985 1.0067385 1.0011415
000120 e0 0f 7f 3f 67 ca 7e 3f 65 98 80 3f 5e 4b 80 3f
       0.996336 0.9952759 1.0046507 1.0023
000130 f9 8a 80 3f e2 61 7f 3f 12 c2 80 3f 19 06 80 3f
       1.0042411 0.9975873 1.0059226 1.0001861
000140 02 10 80 3f 38 b1 7e 3f 5f bd 7f 3f ee c5 7f 3f
       1.0004885 0.99489164 0.9989833 0.9991139
000150 0c 1f 80 3f 89 fb 7f 3f 96 ed 80 3f 43 ce 7f 3f
       1.0009475 0.9999319 1.0072505 0.99924105
000160 1e 2a 7e 3f 8f 76 7f 3f 8a 82 80 3f 77 8c 7e 3f
       0.99283016 0.9979028 1.0039837 0.9943308
000170 77 73 7e 3f bb 26 80 3f af f4 80 3f 64 56 80 3f
       0.99394935 1.001182 1.0074672 1.0026364
000180 fb a0 80 3f 90 ae 7f 3f a8 ea 7f 3f a4 0d 80 3f
       1.0049127 0.99875736 0.9996743 1.0004163
000190 37 b4 7f 3f ad 97 80 3f b4 d2 7f 3f 5c b9 80 3f
       0.9988436 1.0046288 0.9993088 1.0056567
0001a0 14 97 7f 3f 6e 61 7f 3f 21 93 7f 3f 07 6a 80 3f
       0.998399 0.9975804 0.99833876 1.0032357
0001b0 44 bb 7f 3f 5b d9 7f 3f 7c b4 7e 3f b8 75 7f 3f
       0.9989512 0.99941033 0.9949415 0.99789
0001c0 d8 25 80 3f a8 ee 80 3f d4 17 7e 3f fa 90 80 3f
       1.0011549 1.0072832 0.9925511 1.0044243
0001d0 b0 2c 80 3f 10 4a 7f 3f d2 58 80 3f 24 a1 7f 3f
       1.0013638 0.99722385 1.0027106 0.99855256
0001e0 7d 06 7e 3f 62 63 80 3f 7c 3c 80 3f ab ac 80 3f
       0.9922865 1.0030329 1.0018458 1.0052694
0001f0 50 ee 7f 3f 21 f6 7e 3f dd da 7f 3f 82 31 80 3f
       0.9997301 0.9959431 0.99943334 1.0015109
000200 ad f5 80 3f 06 bb 80 3f ab bc 80 3f af 16 7f 3f
       1.0074974 1.0057075 1.0057577 0.9964399
000210 44 76 80 3f 7a 3f 80 3f c4 16 80 3f f2 d7 80 3f
       1.0036092 1.0019372 1.0006948 1.0065901
000220 3c 23 81 3f b5 a4 80 3f 28 ca 7e 3f 3c 3f 80 3f
       1.0088878 1.0050265 0.99527216 1.0019298
000230 56 f0 7f 3f c5 4d 7e 3f d2 37 80 3f 57 1f 80 3f
       0.999761 0.99337417 1.0017035 1.0009564
000240 ca 6e 80 3f c9 11 80 3f c9 82 80 3f fd cb 80 3f
       1.003381 1.0005428 1.0039912 1.0062252
000250 c0 83 7f 3f 2a 17 80 3f 73 5f 80 3f 75 72 7f 3f
       0.9981041 1.0007069 1.0029129 0.9978402
000260 55 5b 80 3f 2b 27 80 3f b7 3f 7f 3f ff 25 80 3f
       1.0027872 1.0011953 0.99706596 1.0011595
000270 b4 99 7f 3f 99 b2 7f 3f 1b ca 80 3f f8 98 80 3f
       0.9984391 0.99881893 1.0061678 1.0046682
000280 2e a1 7f 3f 9b b1 7e 3f 55 28 80 3f fb 13 80 3f
       0.99855316 0.99489754 1.0012308 1.0006098
000290 25 a0 80 3f b0 23 81 3f 05 15 7e 3f e8 96 80 3f
       1.0048872 1.0089016 0.99250823 1.0046053
0002a0 ce 0d 7f 3f e3 6d 7f 3f 86 a6 7f 3f ed 24 80 3f
       0.9963044 0.9977705 0.9986347 1.0011269
0002b0 79 32 80 3f 78 a2 80 3f 27 b1 7f 3f d3 8f 80 3f
       1.0015403 1.0049582 0.9987969 1.0043892
0002c0 28 5f 80 3f 28 21 80 3f 7c 1a 80 3f 95 3f 80 3f
       1.0029039 1.0010118 1.0008082 1.0019404
0002d0 e6 5a 80 3f 5c 23 80 3f 68 45 80 3f 2d 2a 80 3f
       1.002774 1.0010791 1.0021181 1.0012871
0002e0 77 30 80 3f 5a 2d 80 3f c9 b1 80 3f 35 d0 7d 3f
       1.001479 1.001384 1.0054256 0.99145824
0002f0 e8 a7 7e 3f 5c 00 7f 3f d8 79 7e 3f d4 a3 7e 3f
       0.99474955 0.99609923 0.9940467 0.9946873
000300 34 f5 7e 3f eb f2 7e 3f 8f 17 81 3f f5 6a 80 3f
       0.995929 0.99589413 1.0085315 1.0032641
000310 92 72 80 3f d4 48 80 3f d1 ff 7e 3f 42 31 7f 3f
       1.0034964 1.0022225 0.99609095 0.99684536
000320 ef e4 7d 3f 09 bc 7e 3f 85 b4 7f 3f 08 64 80 3f
       0.9917745 0.9950567 0.99884826 1.0030527
000330 94 b1 7e 3f 4b 9a 7f 3f 5f bb 80 3f 24 0e 80 3f
       0.9948971 0.9984481 1.0057181 1.0004315
000340 ba 8b 80 3f 3f 77 80 3f d5 25 80 3f 1d fc 7f 3f
       1.0042641 1.0036391 1.0011545 0.9999407
000350 94 36 7f 3f 78 b2 80 3f ca 32 80 3f cf 03 81 3f
       0.99692655 1.0054464 1.00155 1.0079287
000360 fd 13 80 3f 7f 6a 80 3f 61 74 80 3f f6 0c 80 3f
       1.00061 1.00325 1.0035516 1.0003955
000370 d9 10 80 3f 72 9e 80 3f 1a ab 80 3f 10 a4 7f 3f
       1.0005141 1.0048354 1.0052216 0.99859715
000380 cf 3d 80 3f 85 ae 7f 3f 95 61 80 3f d8 23 7f 3f
       1.0018862 0.9987567 1.002978 0.9966407
000390 86 83 7f 3f 2a 06 80 3f 1c b1 7f 3f 7a 97 7f 3f
       0.99810064 1.0001881 0.9987962 0.9984051
0003a0 8c d6 7e 3f ab ee 7f 3f 74 59 80 3f d5 d7 7f 3f
       0.9954612 0.99973553 1.0027299 0.9993871
0003b0 c2 d4 7f 3f 31 71 80 3f c4 d2 7e 3f 26 e6 7f 3f
       0.9993402 1.0034543 0.9954035 0.99960554
0003c0 2a 90 80 3f 49 55 80 3f 60 d3 7f 3f 77 ea 7f 3f
       1.0043995 1.0026027 0.9993191 0.9996714
0003d0 c3 65 7e 3f c6 e1 7f 3f 0f b7 80 3f 81 7f 7f 3f
       0.99374026 0.9995388 1.0055865 0.9980393
0003e0 0d 02 80 3f 6b 90 7f 3f 23 e1 7e 3f 09 6f 80 3f
       1.0000626 0.9982974 0.9956228 1.0033885
0003f0 f4 9d 7f 3f 3f 33 81 3f 7c df 80 3f 4d 73 80 3f
       0.9985039 1.0093764 1.0068202 1.0035187
