data/saved_models/discriminator_epoch_6000.pth (torch, 758522 bytes, 14 tensors)

fc1.bias f4 [512]
-0.94503635 -0.37816024 -1.7803649 -0.680555 -1.6178623 -0.42479208 -0.58538634 -0.55101806
-0.74468255 -3.0854256 -1.1428739 -0.55747527 -0.9251064 -1.1712146 -0.6643542 -0.600921
-1.1702671 -0.257844 -0.76522654 -0.48671076 -0.50937545 -0.37988645 -1.5389752 -0.27077374
-0.1778866 -0.8465423 -0.7466624 -1.0726157 -0.83600265 -0.36081505 -0.3475983 -2.8377395
-0.6131447 -0.8622368 -0.81949073 -2.9311216 -0.9304812 -1.2362111 -1.114702 -0.47805613
-0.47485954 -0.2434939 -0.5622321 -0.4825972 -0.8442626 -0.32741183 -1.0187829 -0.9424119
-2.7637682 -0.3474573 -0.9516101 -0.81191945 -1.7647316 -0.92539203 -0.9349885 -1.1369885
-1.2447643 -1.8025945 -0.9452831 -0.35093224 -0.54305273 -0.670011 -0.3568881 -0.5468181
-0.54156435 -0.37133986 -0.3017058 -1.8777213 -0.8729173 -2.187847 -0.8824993 -0.56229997
-0.41700688 -0.7418715 -0.8619777 -0.47300437 -1.5261898 -1.8389544 -2.03465 -0.2701132
-0.5385521 -0.70386213 -0.39214346 -0.7991915 -0.9124739 -0.63771564 -0.29271898 -0.9782524
-1.9296961 -0.7077945 -0.27837554 -0.29397213 -1.2319499 -1.2105824 -0.44521004 -0.3749575
-0.42384294 -0.90434015 -0.52479607 -0.42983985 -1.1086305 -0.48542666 -0.4159087 -2.7142515
-0.8987546 -2.6045165 -0.74541616 -0.72983676 -0.97677845 -0.96789354 -0.3913026 -0.13471812
-0.7960707 -0.85901546 -1.3475105 -1.0856885 -0.96638227 -0.3520613 -0.3656584 -0.5315082
-3.26829 -0.39303607 -0.21984608 -0.87224036 -1.0823724 -1.1614865 -0.432236 -0.8513115
-0.27373034 -0.712822 -0.3812631 -0.5568954 -0.5361549 -0.047187407 -1.1006966 -1.060207
-0.72581816 -2.8159628 -0.71416223 -2.6498578 -0.31054202 -2.2880304 -0.10882779 -1.0885581
-0.37575114 -1.4421111 -0.6502395 -0.19254895 -1.2900699 -0.3379353 -0.32491943 -0.54127836
-0.46405697 -0.3496362 -0.20225082 -0.5984626 -1.3327056 -0.8590898 -1.1548151 -0.7589045
-0.8031955 -1.0692172 -0.84759223 -0.57053435 -0.3200911 -0.6023401 -2.6434357 -0.6338026
-1.0294262 -1.382814 -0.51611006 -0.36137107 -0.8423797 -0.7091331 -0.4518083 -1.5836116
-0.42365783 -2.8457613 -0.39081833 -0.94810927 -2.8997638 -0.76421034 -0.4720786 -0.7782868
-2.75108 -1.1585594 -3.069407 -0.3912579 -0.42713228 -0.40562603 -2.5840888 -0.61732185
-1.4713053 -0.34195027 -1.0419787 -0.56126785 -0.7981924 -0.80551386 -1.5450318 -0.62216794
-0.24502684 -0.8996379 -1.0197762 -0.7232728 -0.79423094 -0.79705745 -2.7805457 -0.5735317
-0.6904163 -0.67698735 -3.2183607 -1.4956839 -1.7917001 -0.6968087 -0.608661 0.021308005
-0.31932932 -0.98554736 -2.821213 -0.5033971 -0.9244081 -0.69678855 -0.35934037 -0.62856126
-2.851884 -0.8986605 -0.22656251 -0.11216494 -2.0915198 -0.52153295 -0.35858652 -1.9688121
-2.8601017 -0.9249606 -0.4561095 -0.39618906 -0.35089 -0.8441245 -1.1120799 -0.69075674
-0.61826813 -1.1107713 -1.5633212 -1.2067871 -0.23657803 -1.6146147 -1.1597018 -0.7052916
-0.6905012 -0.75694144 -0.99838775 -0.6022991 -0.9263882 -0.98409164 -1.4778777 -1.0368978
00000000: e7ed 71bf 389e c1be ffe2 e3bf da38 2ebf
00000010: 1d16 cfbf 597e d9be e1db 15bf 850f 0dbf
00000020: 84a3 3ebf 9d77 45c0 b149 92bf b3b6 0ebf
00000030: c6d3 6cbf 5cea 95bf 1e13 2abf f5d5 19bf
00000040: 50cb 95bf 2104 84be e3e5 43bf 2732 f9be
00000050: 6e66 02bf 7a80 c2be 24fd c4bf dba2 8abe
00000060: e827 36be ffb6 58bf 4425 3fbf 794b 89bf
00000070: 4504 56bf c0bc b8be 68f8 b1be 869d 35c0
00000080: 0df7 1cbf 8dbb 5cbf 25ca 51bf 7f97 3bc0
00000090: 0434 6ebf 2a3c 9ebf 8eae 8ebf c6c3 f4be
000000a0: ca20 f3be 7756 79be 71ee 0fbf fb16 f7be
000000b0: 9821 58bf 86a2 a7be 7a67 82bf e841 71bf
000000c0: 94e1 30c0 ece5 b1be b89c 73bf f4d9 4fbf
000000d0: bae2 e1bf 7ee6 6cbf 685b 6fbf d788 91bf
000000e0: 7054 9fbf 6bbb e6bf 13fe 71bf 64ad b3be
000000f0: 8105 0bbf d785 2bbf 09ba b6be 45fc 0bbf
00000100: f6a3 0abf 4220 bebe 2f79 9abe 2c59 f0bf
00000110: 8277 5fbf af05 0cc0 79eb 61bf e4f2 0fbf
00000120: ed81 d5be 4aeb 3dbf 92aa 5cbf a12d f2be
00000130: 305a c3bf dc62 ebbf b537 02c0 474c 8abe
00000140: 8dde 09bf 4f30 34bf 07c7 c8be d097 4cbf
00000150: e497 69bf 5541 23bf 43df 95be c06e 7abf
00000160: 4800 f7bf 0532 35bf 3d87 8ebe 8483 96be
00000170: 89b0 9dbf 5df4 9abf 92f2 e3be 6efa bfbe
00000180: f101 d9be d682 67bf 0959 06bf f813 dcbe
00000190: 9be7 8dbf d889 f8be fcf1 d4be 4cb6 2dc0
000001a0: c814 66bf 66b0 26c0 98d3 3ebf 95d6 3abf
000001b0: 270e 7abf dfc7 77bf d058 c8be 8cf3 09be
000001c0: 4acb 4bbf 70e8 5bbf 397b acbf d7f7 8abf
000001d0: d464 77bf 6141 b4be 9437 bbbe ec10 08bf
000001e0: aa2b 51c0 063c c9be 551f 61be 254b 5fbf
000001f0: 2e8b 8abf 97ab 94bf 094e ddbe 8def 59bf
00000200: 6226 8cbe 817b 36bf eb34 c3be b290 0ebf
00000210: 7341 09bf 9547 41bd a0e3 8cbf ddb4 87bf
00000220: 38cf 39bf bc38 34c0 56d3 36bf 4597 29c0
00000230: 5dff 9ebe 176f 12c0 1be1 debd df55 8bbf
00000240: 7462 c0be 1997 b8bf 1976 26bf 8d2b 45be
00000250: 0321 a5bf db05 adbe d75b a6be 3891 0abf
00000260: e098 edbe 8403 b3be d71a 4fbe d834 19bf
00000270: 1996 aabf 4fed 5bbf fbd0 93bf 9147 42bf
00000280: 389e 4dbf 1cdc 88bf cefb 58bf 8a0e 12bf
00000290: fbe2 a3be f632 1abf 0d2e 29c0 e340 22bf
000002a0: 3dc4 83bf 0d00 b1bf ca1f 04bf a105 b9be
000002b0: 32a6 57bf bf89 35bf 6b53 e7be c9b3 cabf
000002c0: aee9 d8be f420 36c0 5719 c8be 4ab7 72bf
000002d0: bb95 39c0 4aa3 43bf 49b4 f1be ce3d 47bf
000002e0: b211 30c0 ad4b 94bf 2a71 44c0 f552 c8be
000002f0: 15b1 dabe 37ae cfbe b661 25c0 ce08 1ebf
00000300: bb53 bcbf 1b14 afbe 8f5f 85bf 40af 0fbf
00000310: 5656 4cbf 2836 4ebf 9ac3 c5bf 6646 1fbf
00000320: 51e8 7abe ab4e 66bf 0788 82bf 6828 39bf
00000330: b852 4bbf f50b 4cbf 76f4 31c0 f9d2 12bf
00000340: 1fbf 30bf 0b4f 2dbf 9ff9 4dc0 9272 bfbf
00000350: 6e56 e5bf 0e62 32bf 35d1 1bbf 208e ae3c
00000360: 227f a3be d54c 7cbf c18e 34c0 a2de 00bf
00000370: 02a6 6cbf bc60 32bf 76fb b7be 64e9 20bf
00000380: 4485 36c0 9d0e 66bf 0100 68be bbb6 e5bd
00000390: 76db 05c0 2f83 05bf a798 b7be 0902 fcbf
000003a0: e80b 37c0 38ca 6cbf 2f87 e9be 4bd9 cabe
000003b0: dba7 b3be 8b18 58bf a258 8ebf 6fd5 30bf
000003c0: d246 1ebf c12d 8ebf e91a c8bf 0078 9abf
000003d0: 8341 72be b2ab cebf 1c71 94bf fe8d 34bf
000003e0: b0c4 30bf eac6 41bf 5796 7fbf 4630 1abf
000003f0: c727 6dbf 6eed 7bbf 192b bdbf 11b9 84bf

fc1.weight_orig f4 [512, 42]
-0.0038939589 -0.017555356 -0.004310298 -0.034311913 -0.0032421954 -0.009557989 0.0010792287 -0.015882514
-0.01687922 -0.035790306 -0.01752062 -0.006575784 0.0035997527 0.0076755662 -0.02820323 0.000393643
-0.012928775 -0.0005459419 0.015432576 -0.027738342 6.27127e-05 0.0049691815 0.0067074597 -0.0011283718
0.024638811 -0.025848685 -0.008837953 -0.012332553 -0.015135614 0.022592898 0.0036551128 0.008708049
-0.0073116464 0.0031410367 0.0008664473 -0.012078449 -0.025749143 -0.008312333 0.024028268 -0.013778289
0.014453706 0.024386574 0.012901902 0.0073089143 0.030100973 0.007682534 0.0040695984 -0.001081319
-0.0010379413 0.0064468207 -0.027291067 0.0075310622 0.002616551 0.0031980344 -0.00018030658 0.002836975
-0.012476484 0.009341551 -0.018959101 -0.017941136 -0.006409222 -0.02512665 -0.009214655 -0.025227107
-0.007059614 -0.03261873 -0.018463071 0.0111372555 -0.009274004 0.013910144 0.017199848 -0.009833109
0.021095486 0.015723677 -0.017012717 -0.0051234188 -0.009790577 0.001483468 -0.02323866 -0.0065415464
0.031799216 0.017769547 -0.023840506 0.0046711126 -0.006030362 -0.013452731 -0.0101500545 -0.013147988
-0.017254425 -0.0058193444 0.0050265607 -0.00927687 -0.01226272 0.00089093467 0.0019025367 0.006740894
-0.0006563685 -0.0068000453 0.023574809 -0.010579155 -0.014313645 -0.013364839 0.019349836 0.0077395393
-0.016934022 -0.021479385 0.0035924267 -0.006081264 -0.001094261 0.003047649 0.02110668 -0.013269152
0.016628252 0.0062611816 0.016879857 -0.012199316 -0.017253414 -0.010825618 0.0008208883 -0.0013308412
-0.0024541572 -0.016366595 -0.00951699 -0.0029621716 -0.008469064 0.0035285323 -0.005925822 -0.02443307
-0.00405588 0.008057627 -0.0051852437 -0.022751061 -0.01805308 0.0022484446 -0.010136158 0.0007097815
-0.0245825 -0.013123681 0.0060621286 0.017803863 -0.039164208 0.02701873 -0.011028487 0.037313122
0.002599547 -0.019322254 -0.0017786128 0.0075857025 0.027819512 0.018742362 0.009863442 -0.012110045
0.013083159 0.013473148 -0.028267695 0.01601822 -0.0059521887 -0.009995266 0.02715591 0.0032220706
0.0034477585 0.0032906835 0.0005110765 -0.012590603 0.00823568 -0.021047117 -0.0065861614 0.027775941
-0.0051353513 0.0033456944 -0.0034533585 -0.0065193693 -0.0050391355 -0.00076443545 -0.005922897 -0.015394965
0.0012490908 -0.00526119 -0.012551118 -0.0013926441 0.00013351541 0.013744214 -0.010756854 0.014872896
-0.008507376 -0.011423482 -0.0026355803 -0.007747367 0.010193519 -0.00017937459 -0.00045715505 -0.009464538
-0.0062122447 0.0058512324 -0.004454344 0.012959891 0.014817908 0.021494359 0.020590229 0.019419346
-0.009080892 0.018636743 0.007207341 0.007688469 -0.013727257 0.021418061 0.02719947 0.0019987766
0.0043737846 0.031710397 -0.0035114335 -0.006505691 0.009917801 -0.015806802 -0.00035538911 -0.008127087
0.004066548 -0.004683241 -0.014575675 0.0043168613 -0.01331532 0.0016884354 -0.0015504272 -0.005107685
0.009390815 0.008430967 -0.0005601806 0.011805638 -0.006218243 -0.012532362 -0.002601792 -0.016876178
0.01846586 0.011906943 0.02491345 0.0032113723 0.013502353 0.0057055433 0.0022981921 -0.0069044717
-0.008184435 0.0020979354 0.012155666 0.027557088 -0.011727683 0.00558904 0.0021325916 -0.009164669
0.0048992005 0.0033666678 0.005203598 -0.0068568867 0.013194706 -0.0056551164 0.004839004 -0.019821333
00000000: ca31 7fbb 40d0 8fbc 663d 8dbb a68a 0cbd
00000010: 037b 54bb 1d99 1cbc e874 8d3a 0c1c 82bc
00000020: 4a46 8abc db98 12bd 6787 8fbc ad79 d7bb
00000030: d4e9 6b3b 5183 fb3b 760a e7bc de61 ce39
00000040: 36d3 53bc 8a1d 0fba ead8 7c3c 853b e3bc
00000050: a084 8338 84d4 a23b 40ca db3b e0e5 93ba
00000060: 55d7 c93c 9fc0 d3bc 10cd 10bc 7a0e 4abc
00000070: 5efb 77bc be14 b93c 9e8a 6f3b 34ac 0e3c
00000080: 8996 efbb dad9 4d3b 4b22 633a b0e4 45bc
00000090: deef d2bc 7430 08bc eed6 c43c 55be 61bc
000000a0: 3dcf 6c3c 5ac6 c73c 8062 533c 9e7f ef3b
000000b0: 5196 f63c c4bd fb3b 445a 853b 0bbb 8dba
000000c0: 880b 88ba da3f d33b 8491 dfbc 21c7 f63b
000000d0: 717a 2b3b 1d96 513b ae10 3db9 8bec 393b
000000e0: 2b6a 4cbc 4e0d 193c 1e50 9bbc 4af9 92bc
000000f0: 7304 d2bb 68d6 cdbc 10f9 16bc 14a9 cebc
00000100: 5654 e7bb 389b 05bd de3f 97bc 0979 363c
00000110: fef1 17bc 5fe7 633c b2e6 8c3c 0c1b 21bc
00000120: 71d0 ac3c f1ce 803c 415e 8bbc 5ae2 a7bb
00000130: a868 20bc ed70 c23a 015f bebc 785a d6bb
00000140: e53f 023d 7191 913c 2a4d c3bc 2210 993b
00000150: 589a c5bb d868 5cbc 6a4c 26bc a96a 57bc
00000160: 2759 8dbc 33b0 bebb d9b5 a43b 03fe 17bc
00000170: 93e9 48bc 9d8d 693a 8a5e f93a b8e2 dc3b
00000180: 2510 2cba ead2 debb f51f c13c 3154 2dbc
00000190: c783 6abc 33f8 5abc 8c83 9e3c f69b fd3b
000001a0: 38b9 8abc 89f5 afbc eb6e 6b3b 5745 c7bb
000001b0: 4e6d 8fba 11bb 473b ebe7 ac3c db66 59bc
000001c0: f937 883c 992a cd3b a047 8a3c a4df 47bc
000001d0: 0857 8dbc ef5d 31bc e230 573a 9f6f aeba
000001e0: edd5 20bb 3d13 86bc 26ed 1bbc fe20 42bb
000001f0: d4c1 0abc f33e 673b 662d c2bb dd27 c8bc
00000200: 30e7 84bb 2304 043c fae8 a9bb 6f60 babc
00000210: 0ee4 93bc a45a 133b 2112 26bc a110 3a3a
00000220: 3d61 c9bc b504 57bc d2a4 c63b 68d9 913c
00000230: a66a 20bd 6256 dd3c d4b0 34bc a5d5 183d
00000240: 295d 2a3b b449 9ebc 5820 e9ba 7c91 f83b
00000250: bfe5 e33c 9589 993c 469a 213c 3669 46bc
00000260: bf5a 563c 7bbe 5c3c a791 e7bc a438 833c
00000270: 940a c3bb 2fc3 23bc 1276 de3c 6029 533b
00000280: caf3 613b 82a8 573b c3f9 053a d148 4ebc
00000290: f2ee 063c 016b acbc bad0 d7bb 5f8a e33c
000002a0: 7346 a8bb 7043 5b3b be51 62bb 6fa0 d5bb
000002b0: 551f a5bb 6564 48ba dc14 c2bb 2a3b 7cbc
000002c0: 88b8 a33a 0f66 acbb 34a3 4dbc 6289 b6ba
000002d0: 4500 0c39 692f 613c 843d 30bc 72ad 733c
000002e0: 8562 0bbc 8e29 3bbc b3b9 2cbb a0dd fdbb
000002f0: b802 273c 8016 3cb9 50ae efb9 2611 1bbc
00000300: 1690 cbbb b2bb bf3b bff5 91bb b955 543c
00000310: d0c6 723c f014 b03c d7ac a83c 5215 9f3c
00000320: 06c8 14bc 15ac 983c 8f2b ec3b 8def fb3b
00000330: 4ae8 60bc ee74 af3c 6cd1 de3c e8fd 023b
00000340: f751 8f3b c3e2 013d 1420 66bb b12d d5bb
00000350: 467e 223c 447d 81bc 8553 bab9 7927 05bc
00000360: ad40 853b df75 99bb d0ce 6ebc 7574 8d3b
00000370: 8028 5abc 7e4e dd3a b437 cbba 5e5e a7bb
00000380: efdb 193c 0a22 0a3c 15d9 12ba 6f6c 413c
00000390: 67c2 cbbb 8954 4dbc d482 2abb e93f 8abc
000003a0: b745 973c 5715 433c 4b17 cc3c e375 523b
000003b0: f938 5d3c 91f5 ba3b 449d 163b e83e e2bb
000003c0: 0218 06bc 847d 093b 8f28 473c 67bf e13c
000003d0: 7825 40bc 4424 b73b f3c2 0b3b 6827 16bc
000003e0: 7989 a03b 50a3 5c3b f282 aa3b bcaf e0bb
000003f0: 9c2e 583c 8e4e b9bb 8290 9e3b 5960 a2bc

fc1.weight_u f4 [512]
0.00973035 -0.0006614844 0.0009886905 0.012419493 0.003555879 0.0017221365 -0.0023895213 0.0018093507
6.6292855e-06 0.0129215075 0.0046339086 0.004551934 -0.0030819569 0.0113327345 -0.0010039875 0.0063134977
0.003657131 -0.00013139374 -0.00076403894 -0.0018776427 0.0024437413 0.0039708097 0.0012472576 0.04012871
0.001335439 0.0017982123 0.003631765 0.00051305455 0.003691017 -0.00392515 0.0006234594 0.009141688
0.0008081712 -0.00018655644 0.005014474 0.022364551 0.0062373416 -0.1998656 0.0011070088 0.00020300606
0.004127235 0.0019253675 0.001784241 0.0031590236 -0.0038288184 0.008187677 0.00013625354 0.0063805953
-0.004558479 0.055955134 0.008242969 0.0066241175 0.0022099828 -0.0002675519 0.0025692338 0.00075395347
0.0049436227 0.009778168 0.0044353367 -0.039587587 0.00046797856 0.0071498253 0.006508788 0.0030157818
-0.15657085 0.0054595815 0.0020161783 0.0029842607 0.003540088 0.006389681 8.983769e-05 0.0068144086
0.0066108336 0.00039826124 0.003208507 -0.003304776 0.002449044 0.0072514685 -1.3534601e-05 0.19343065
0.0014419883 0.0018355115 -0.00031691813 -0.000658081 0.0034945663 0.0009546678 0.030896883 -0.0017107617
0.0074818423 0.0019331109 0.009246857 -0.28383285 0.0021798362 -0.0031640858 -0.0050271694 0.0006721283
0.008287039 0.0062182173 0.002920628 0.0011729697 0.009370305 0.0039568767 0.006836368 0.008135483
0.0082750395 0.005271696 0.005987986 0.0016256424 -0.0028020877 0.00067986315 0.13053621 0.005455827
0.0019272811 -0.0009855101 0.0017489388 -0.0020062893 0.007502132 0.003159576 0.03662791 0.32164088
0.004377579 0.0055907164 -0.0015858527 0.0025096075 -0.0019623546 -0.15475403 0.0007525688 0.0032701055
0.0009288464 0.0068679834 -0.0014722045 0.0019922568 0.009328387 -0.0032768422 0.005820672 0.005678232
0.0014755164 0.00789104 0.0007226844 0.002546466 -0.030643076 0.0031184256 0.00042317528 0.010015138
0.0019875865 0.007861369 0.0010210224 -0.002454775 -0.00400043 0.000984252 0.17856006 -0.00049495295
-0.11841491 0.005762376 -0.006074835 -0.0068817227 0.002604616 0.0007196754 0.0028946353 0.007603646
0.0002295428 -0.0029930058 -0.6163809 -0.0019770842 0.018273477 0.002010125 -0.0030961593 0.0056988955
0.00034837026 0.0037598875 -0.002342404 -0.0020199115 0.0065703536 0.0009939609 0.00093374006 0.0059414883
-0.07087538 0.0036082845 0.004271949 -9.635612e-05 0.00035777633 0.001292348 -0.0026296785 0.00461795
-0.0014625414 -0.003999467 0.0062914495 0.007966342 0.0030937812 0.05377608 0.0107102385 -0.06502595
-0.00083046913 -0.0025183472 0.0018409911 -0.121631384 -0.03468895 -0.00017862489 -0.0015323663 -0.0028596092
0.1982468 0.0026508656 0.0018191008 -0.0052420977 0.0052962094 -0.052532412 0.0030770742 0.002064531
0.0077831903 -0.0018676269 0.0082770195 0.0035049946 0.0099929115 0.003759575 0.0031655496 -0.08717075
0.0010979903 -0.006376501 -0.003638158 0.0030244745 0.0029035485 0.0022343271 0.004826686 0.004914792
0.0035129008 0.004499807 -0.0003724257 -0.0017211103 0.008015631 -0.000964159 -0.0036754264 0.002170516
0.0069662086 -0.0018033135 0.0008717087 -0.002420229 -0.002788777 0.0050241733 -0.0033170108 0.0032431537
0.0018852357 -0.09877078 0.00056299084 -0.0034023349 0.0006985857 -0.00070701225 0.0110095795 0.0033650326
0.0012058091 0.0018593159 -0.0016299775 0.0015028666 0.0040443363 0.0036034451 0.0023835974 0.0061745043
00000000: 0c6c 1f3c 7767 2dba f396 813a 217b 4b3c
00000010: c009 693b 50b9 e13a 8499 1cbb bc27 ed3a
00000020: 2171 de36 bbb4 533c 0bd8 973b 6428 953b
00000030: a8fa 49bb efac 393c 3b98 83ba 75e1 ce3b
00000040: 7aac 6f3b bdc6 09b9 c949 48ba 3c1b f6ba
00000050: 2d27 203b 911d 823b 057b a33a 015e 243d
00000060: e609 af3a feb1 eb3a e802 6e3b 827e 063a
00000070: fde4 713b 8b9e 80bb a76f 233a 05c7 153c
00000080: 73db 533a 5d9e 43b9 7550 a43b dd35 b73c
00000090: 9d62 cc3b 91a9 4cbe 0d19 913a 06de 5439
000000a0: c23d 873b 9d5c fc3a 31dd e93a 9f07 4f3b
000000b0: eaec 7abb 9b25 063c 48df 0e39 5014 d13b
000000c0: 4b5f 95bb 3631 653d 850d 073c 200f d93b
000000d0: 5cd5 103b 3546 8cb9 9760 283b f6a4 453a
000000e0: 1dfe a13b 9c34 203c 4d56 913b 9826 22bd
000000f0: 055b f539 1549 ea3b ac47 d53b 6ca4 453b
00000100: 1c54 20be 4ae6 b23b dc21 043b 9693 433b
00000110: d200 683b 8760 d13b 3e67 bc38 674b df3b
00000120: b19f d83b b8cd d039 d145 523b f194 58bb
00000130: 2480 203b ba9d ed3b ab12 63b7 af12 463e
00000140: 1901 bd3a 8c95 f03a 0828 a6b9 1183 2cba
00000150: 1805 653b ac42 7a3a 761b fd3c a33b e0ba
00000160: 3e2a f53b 7060 fd3a 2180 173c 8a52 91be
00000170: 95db 0e3b 8d5c 4fbb f4ba a4bb c431 303a
00000180: 5cc6 073c 30c2 cb3b 0268 3f3b 55be 993a
00000190: e885 193c b0a8 813b 9c03 e03b b04a 053c
000001a0: 0894 073c 31be ac3b de36 c43b 8213 d53a
000001b0: 3ba3 37bb d838 323a 49ab 053e cbc6 b23b
000001c0: d39c fc3a 3b2c 81ba a63c e53a f37b 03bb
000001d0: 72d4 f53b e410 4f3b 2607 163d 1dae a43e
000001e0: cb71 8f3b 5432 b73b 63dc cfba 3a78 243b
000001f0: d99a 00bb d777 1ebe 0a48 453a 444f 563b
00000200: d47d 733a d20c e13b fcf6 c0ba 8690 023b
00000210: 17d6 183c 4ac0 56bb 56bb be3b 7610 ba3b
00000220: 1d66 c13a 6c49 013c 8772 3d3a 9ce2 263b
00000230: 3007 fbbc 805e 4c3b a0dd dd39 8916 243c
00000240: 2b42 023b f9cc 003c d4d3 853a 4ae0 20bb
00000250: 0a16 83bb 0402 813a 73d8 363e bbbf 01ba
00000260: 8483 f2bd 50d2 bc3b 690f c7bb 1380 e1bb
00000270: 35b2 2a3b 99a8 3c3a ecb3 3d3b 0128 f93b
00000280: 6db1 7039 4e26 44bb 23cb 1dbf f891 01bb
00000290: 42b2 953c 4dbc 033b efe8 4abb cdbd ba3b
000002a0: 77a5 b639 7268 763b 0583 19bb 7e60 04bb
000002b0: 1f4c d73b cb47 823a 3cc6 743a d1b0 c23b
000002c0: 1c27 91bd f878 6c3b b5fb 8b3b cc12 cab8
000002d0: ed93 bb39 0164 a93a af56 2cbb 2c52 973b
000002e0: bfb2 bfba f60d 83bb 8128 ce3b 4385 023c
000002f0: 09c1 4a3b 4f44 5c3d ff79 2f3c 532c 85bd
00000300: d7b3 59ba db0a 25bb 694d f13a e019 f9bd
00000310: 0016 0ebd 414d 3bb9 aed9 c8ba 4868 3bbb
00000320: 3601 4b3e 25ba 2d3b e56e ee3a e7c5 abbb
00000330: d38b ad3b 3a2c 57bd bda8 493b 154d 073b
00000340: 220a ff3b 29cb f4ba 569c 073c 0db4 653b
00000350: 4fb9 233c 3463 763b 1c75 4f3b 9486 b2bd
00000360: 71ea 8f3a f8f1 d0bb 2a6e 6ebb 4336 463b
00000370: 7649 3e3b ca6d 123b 2d29 9e3b 430c a13b
00000380: b238 663b 1e73 933b 2242 c3b9 e196 e1ba
00000390: fe53 033c 9dbf 7cba 6cdf 70bb 373f 0e3b
000003a0: cb44 e43b 295d ecba 6183 643a b49c 1ebb
000003b0: eac3 36bb d2a1 a43b 3562 59bb 178b 543b
000003c0: 031a f73a 5648 cabd ad95 133a b5f9 5ebb
000003d0: 4b21 373a ca56 39ba 8661 343c e187 5c3b
000003e0: 3d0c 9e3a 4ab4 f33a f8a4 d5ba d6fb c43a
000003f0: 5a86 843b c727 6c3b 2136 1c3b 7f53 ca3b

fc1.weight_v f4 [42]
0.0017318261 0.042633027 -0.28826967 0.11536449 0.09849971 0.1849784 0.1184335 0.122739576
0.09622798 -0.10569065 -0.44027725 0.11239444 0.055358473 -0.061288137 -0.20351604 0.021716222
-0.2780264 0.01940677 -0.018043343 -0.07778181 0.13068141 -0.26401374 0.073914364 -0.083960705
0.095964655 -0.23149444 0.08758549 -0.020141108 -0.15759072 0.041358937 0.0005472182 -0.051659342
0.04924803 0.1312662 0.13360257 0.13806684 -0.13737376 -0.24374203 -0.08312044 -0.15901065
-0.10923638 0.3012171
00000000: 71fe e23a f89f 2e3d 1598 93be 3844 ec3d
00000010: 37ba c93d fa6a 3d3e 438d f23d e35e fb3d
00000020: 2d13 c53d 5774 d8bd 056c e1be 0e2f e63d
00000030: 91bf 623d 4509 7bbd 8266 50be 38e6 b13c
00000040: 7a59 8ebe f2fa 9e3c a2cf 93bc 124c 9fbd
00000050: 59d1 053e cf2c 87be 6a60 973d 97f3 abbd
00000060: 1e89 c43d e10c 6dbe 0560 b33d f7fe a4bc
00000070: 765f 21be fd67 293d 3173 0f3a bf98 53bd
00000080: 4db8 493d a66a 063e 1dcf 083e 6561 0d3e
00000090: b5ab 0cbe 8397 79be 0d3b aabd b0d3 22be
000000a0: 53b7 dfbd 2139 9a3e

fc2.bias f4 [256]
-0.25769255 -0.28387618 -0.41852322 -0.18924506 -0.29497504 -0.28296885 -0.21259084 -0.72315943
-0.30366546 -0.33656606 -0.41932365 -0.26478758 -0.3280588 -0.22789295 -0.33155897 -0.5001482
-0.44046792 -0.3496592 -0.2547508 -0.32571462 -0.2934552 -0.29582083 -0.17855875 -0.16545002
-0.47667137 -0.63580245 -0.20214827 -0.21548806 -0.1650681 -0.31394982 -0.19226763 -0.12708528
-0.1643112 -0.24969964 -0.21038003 -0.15129952 -0.15239738 -0.90877545 -0.3755679 -0.3044341
-0.29772234 -0.77508354 -0.19373667 -0.24858268 -0.2431263 -0.2873201 -0.17974842 -0.28728035
-0.3867015 -0.5182081 -0.6024624 -0.35409173 -0.22507088 -0.35688317 -0.16045189 -0.31957424
-0.5008928 -0.16229764 -0.4447483 -0.18193631 -0.29178864 -0.38679692 -0.24899498 -0.21176118
-0.37187934 -0.5598418 -0.2704367 -0.2548433 -0.5262735 -0.65004224 -0.15190674 -0.41587603
-0.23566021 -0.17453648 -0.33653712 -0.52705675 -0.27913523 -0.317591 -0.14839853 -0.2968275
-0.7228147 -0.18815905 -0.32472453 -0.47611699 -0.23053007 -0.48539323 -0.24099213 -0.14767316
-0.34680203 -0.13096784 -0.2609469 -0.79107046 -0.25527957 -0.20256987 -0.17404544 -0.23982051
-0.27876088 -0.21981569 -0.33495015 -0.20039326 -0.34955916 -0.17512152 -0.22202903 -0.21294121
-0.20336771 -0.30165228 -0.24494775 -0.28342557 -0.20104946 -0.8815963 -0.23223831 -0.19547501
-0.29365358 -0.29255176 -0.23139872 -0.10677051 -0.26596615 -0.14956397 -0.2330508 -0.43559313
-0.18445788 -0.30430338 -0.18176937 -0.44184196 -0.29364154 -0.2756335 -0.38835534 -0.20370564
-0.18078755 -0.20973402 -0.39084098 -0.33142984 -0.51168436 -0.62456137 -0.7223378 -0.24000286
-0.18213768 -0.20410968 -0.399788 -0.29899085 -0.33939332 -0.29686648 -0.30470303 -0.2667928
-0.26327798 -0.29220796 -0.14271273 -0.38022667 -0.23370738 -0.2764099 -0.3097957 -0.29819262
-0.46236125 -0.30494186 -0.25979123 -0.33375987 -0.21442458 -0.25032613 -0.21243295 -0.28816664
-0.22714692 -0.235776 -0.1816899 -0.7492694 -0.20257486 -0.25192595 -0.21928442 -0.21282001
-0.30579135 -0.2333869 -0.443262 -0.24507026 -1.0622784 -0.49221882 -0.37880713 -0.33571818
-0.22096947 -0.21678425 -0.23763008 -0.22261731 -0.16048855 -0.38617542 -0.388737 -0.23613507
-0.5757384 -0.31293732 -0.26707178 -0.13313378 -0.2446499 -0.27279058 -0.19483997 -0.21503244
-0.26268375 -0.44948107 -0.34730783 -0.29534718 -0.16126114 -0.5494262 -0.14070588 -0.38513318
-0.2247088 -0.4579119 -0.18646812 -0.17234379 -0.15456781 -0.21630006 -0.25976026 -0.16460538
-0.25328082 -0.26607037 -0.29102534 -0.25732514 -0.4986985 -0.18320858 -0.17038065 -0.3567572
-0.20179243 -0.19596617 -0.114392854 -0.3034453 -0.23957972 -0.3062084 -0.17484948 -0.20637299
-0.5216333 -0.2706618 -0.28033897 -0.2617023 -0.38655055 -0.4463769 -0.26198867 -0.24594468
-0.43053243 -0.34042218 -0.1581796 -0.3134126 -0.15463401 -0.16132502 -0.23376934 -0.3256016
-0.23751688 -0.17968981 -0.22265075 -0.19125953 -0.31357497 -0.2956641 -0.1461143 -0.2012228
-0.532586 -0.45035696 -0.46905866 -0.20586933 -0.25660986 -0.2562576 -0.34430844 -0.19932835
00000000: 47f0 83be 3858 91be ad48 d6be 75c9 41be
00000010: f806 97be 4be1 90be 6ab1 59be fa20 39bf
00000020: 0a7a 9bbe 6352 acbe 97b1 d6be 3d92 87be
00000030: 53f7 a7be c55c 69be 19c2 a9be b609 00bf
00000040: 0385 e1be 8806 b3be b26e 82be 11c4 a6be
00000050: c33f 96be d475 97be 1bd8 36be bb6b 29be
00000060: 450e f4be f3c3 22bf f5ff 4ebe e7a8 5cbe
00000070: 9d07 29be 08be a0be cee1 44be a522 02be
00000080: 3241 28be 43b1 7fbe dd6d 57be 43ee 1abe
00000090: 0f0e 1cbe 82a5 68bf 704a c0be c9de 9bbe
000000a0: 106f 98be e06b 46bf e862 46be 758c 7ebe
000000b0: 1af6 78be 9f1b 93be f80f 38be 6916 93be
000000c0: bdfd c5be 49a9 04bf fa3a 1abf 834b b5be
000000d0: fb78 66be 64b9 b6be 804d 24be 3c9f a3be
000000e0: 833a 00bf 5a31 26be 0db6 e3be 834d 3abe
000000f0: 5265 95be 3f0a c6be 8af8 7ebe ecd7 58be
00000100: f866 bebe cb51 0fbf ae76 8abe d27a 82be
00000110: dcb9 06bf 2b69 26bf 718d 1bbe b4ed d4be
00000120: e950 71be b1b9 32be 984e acbe 31ed 06bf
00000130: d0ea 8ebe 4a9b a2be c9f5 17be c6f9 97be
00000140: 620a 39bf c4ac 40be 4b42 a6be 9bc5 f3be
00000150: 1310 6cbe 7685 f8be a4c6 76be a237 17be
00000160: 0990 b1be 6f1c 06be d59a 85be 9883 4abf
00000170: 01b4 82be 7a6e 4fbe f838 32be 8293 75be
00000180: bfb9 8ebe 5d17 61be 967e abbe e433 4dbe
00000190: 6bf9 b2be 0e53 33be 945b 63be 430d 5abe
000001a0: a03f 50be 2b72 9abe 95d3 7abe 281d 91be
000001b0: e9df 4dbe 4cb0 61bf e1cf 6dbe 9a2a 48be
000001c0: c359 96be 58c9 95be c9f3 6cbe 7faa dabd
000001d0: b72c 88be 4c27 19be dea4 6ebe 1006 dfbe
000001e0: 87e2 3cbe a7cd 9bbe c021 3abe 1c39 e2be
000001f0: 2f58 96be d61f 8dbe 83d6 c6be 3698 50be
00000200: 5f20 39be 84c4 56be 4f1c c8be 2cb1 a9be
00000210: bffd 02bf 41e3 1fbf 21eb 38bf 4fc3 75be
00000220: 4d82 3abe 2102 51be 03b1 ccbe 5415 99be
00000230: f6c4 adbe e2fe 97be 0902 9cbe 1199 88be
00000240: 5fcc 86be 489c 95be 4923 12be 12ad c2be
00000250: fd50 6fbe 9985 8dbe 8b9d 9ebe b4ac 98be
00000260: 9dba ecbe 5721 9cbe 5b03 85be 93e2 aabe
00000270: 1e92 5bbe bf2a 80be 0688 59be 948a 93be
00000280: 3499 68be 446f 71be eb0c 3abe 1fd0 3fbf
00000290: c96f 4fbe 70fc 80be 188c 60be 7ded 59be
000002a0: af90 9cbe fafc 6ebe 3df3 e2be b3f3 7abe
000002b0: bdf8 87bf 1b04 fcbe 02f3 c1be 41e3 abbe
000002c0: d245 62be b1fc 5dbe 4d55 73be cbf5 63be
000002d0: 1c57 24be c9b8 c5be 8908 c7be 64cd 71be
000002e0: 9763 13bf 5239 a0be a2bd 88be 3954 08be
000002f0: 8185 7abe 35ab 8bbe 2184 47be 7731 5cbe
00000300: 7c7e 86be 6222 e6be 55d2 b1be bf37 97be
00000310: a421 25be 32a7 0cbf 3415 10be 2d30 c5be
00000320: 101a 66be 6e73 eabe 80f1 3ebe e47a 30be
00000330: 0647 1ebe c37d 5dbe 4cff 84be 508e 28be
00000340: 06ae 81be 603a 88be 4601 95be 1fc0 83be
00000350: 6955 ffbe 089b 3bbe 4478 2ebe e1a8 b6be
00000360: ada2 4ebe 5bab 48be cd46 eabd 2f5d 9bbe
00000370: 6354 75be 59c7 9cbe be0b 33be 7153 53be
00000380: c389 05bf 2f94 8abe 9788 8fbe d8fd 85be
00000390: f4e9 c5be 838b e4be 6123 86be ecd8 7bbe
000003a0: bf6e dcbe d14b aebe d5f9 21be 9e77 a0be
000003b0: 6158 1ebe 6332 25be 3b61 6fbe 41b5 a6be
000003c0: a037 73be 9b00 38be 8ffe 63be 8ad9 43be
000003d0: e68c a0be 4961 97be fd9e 15be 5a0d 4ebe
000003e0: 8e57 08bf 3095 e6be 7528 f0be 69cf 52be
000003f0: 5e62 83be 3234 83be 3249 b0be bb1c 4cbe

fc2.weight_orig f4 [256, 512]
0.006230167 0.023204984 0.010673134 -0.008367848 -0.00091339264 -0.0051015643 0.012611509 -0.013363321
0.0021330446 -0.012014583 0.024484925 0.041224096 0.030317053 0.0021591734 0.0039321925 -0.014679003
-0.007921564 -0.009517991 0.022326237 -0.02181751 -0.0070091696 0.013832512 0.018701179 -0.025247771
0.0074826907 -0.0059231124 0.0078031574 -0.013241047 -0.0048840186 0.026598524 -0.009641879 -0.008924053
-0.0022194867 0.0142906895 -0.036211934 0.025132157 -0.010062207 0.0056055794 0.0042557814 -0.017140428
0.007896905 -0.008670189 -0.011161646 -0.014059513 0.015433263 0.0027255735 0.03273667 0.008078768
0.00436971 -0.032135792 0.0026010312 0.018200627 -0.022548672 0.019031892 0.01756269 -0.0052928203
0.0035617587 -0.007048308 -0.030223444 -0.014359742 0.014888299 -0.0029801903 -0.017815176 -0.009014124
0.019570073 -0.009834376 -0.026218122 -0.016295418 -0.00040626392 0.019286182 0.0006553062 0.018009309
-0.016453452 -0.008491904 -0.015124263 0.0006782141 0.029336935 0.0049882336 -0.01855938 0.009947556
0.013080813 0.010955048 -0.0027324995 0.019155957 0.00078413123 -0.0101036085 -0.018772542 -0.005349404
-0.012920175 -0.030661833 0.017874751 -0.021312425 -0.0066698473 -0.019747574 0.010887505 -0.001618343
-0.03800881 -0.029228894 0.022877654 -0.02408923 0.017552186 -0.0019324537 0.0074147573 -0.015191945
-0.0023710735 -0.0026390855 0.016005399 0.030286158 0.0049131666 0.032519024 -0.0003498431 -0.032156654
0.017411165 -0.011617945 0.009120273 0.012572786 0.0004287972 0.014517322 0.0122532835 0.007978131
-0.021772876 0.016643459 0.019207591 0.0034448972 -0.013896866 0.0013361792 0.0022176688 0.012126011
-0.014747918 0.023962706 0.015636256 0.03709381 -0.016061766 -0.013335201 0.009591578 0.014978036
0.035281036 -0.0034836836 0.0050432463 0.0036784704 -0.006510832 -0.002122095 -0.04246121 -0.0031091375
0.011175265 -0.0037730914 -0.0025465419 0.03738795 0.006612599 0.0043307142 0.02800415 0.00594235
-0.00030465744 -0.022242213 0.029356677 0.009356161 -0.0023373603 0.015184647 -0.009385345 0.0058859494
0.02789371 0.0121657625 -0.0044188444 -0.0067335693 -0.0010311794 -0.017558187 -0.021700585 0.009901324
-0.019170688 -0.011101795 -0.022882255 0.0281866 -0.02207749 -0.013091017 0.012402545 -0.021790545
-0.009738363 0.06303536 -0.0045142174 0.007918788 0.008825782 -0.010923239 0.001495071 -0.016426314
-0.005875258 -0.037471797 0.02949195 -0.0038440393 0.003591112 -0.00012074771 0.01070064 0.03344417
-0.006541444 0.0036597718 -0.0060635745 -0.009601476 0.0001891054 0.0005904007 0.036503542 0.0017403533
-0.027772395 0.0031097403 0.014647491 0.03188268 -0.0027085668 -0.036085583 0.00560941 0.026990049
0.03583855 -0.022677317 -0.039941322 0.0003990126 -0.028400583 0.025700904 -0.0030448346 -0.028159231
-0.025207924 -0.004392945 -0.01234823 -0.012178765 -0.017180957 -0.013732579 -0.0043999385 0.025686158
0.021835092 -0.015022359 -0.020455677 -0.0020767825 -0.0005214073 -0.004273316 0.01672106 0.01919735
-0.016239248 0.007350242 0.0051069967 -0.016102893 -0.014854253 0.002004158 0.010096662 0.0037114786
0.018362895 0.0016600582 0.013134877 -0.0028042186 -0.021240577 0.01533161 -0.0054614837 0.009153823
0.016262347 0.02751904 0.029323678 0.026682183 -0.0077356114 0.016498309 -0.015730524 -0.006814773
00000000: 6e26 cc3b 6118 be3c 5ede 2e3c 4c19 09bc
00000010: be70 6fba 062b a7bb 81a0 4e3c d5f1 5abc
00000020: 8dca 0b3b d0d8 44bc 9c94 c83c 99da 283d
00000030: 785b f83c eb80 0d3b 9fd9 803b 3380 70bc
00000040: 73c9 01bc 59f1 1bbc 83e5 b63c a2ba b2bc
00000050: 2dad e5bb c3a1 623c 3733 993c 6ad4 cebc
00000060: 5c31 f53b ab16 c2bb a1b1 ff3b faf0 58bc
00000070: 1e0a a0bb 26e5 d93c f9f8 1dbc 3136 12bc
00000080: cf74 11bb 7f23 6a3c f752 14bd f4e1 cd3c
00000090: f4db 24bc 02af b73b 1574 8b3b 156a 8cbc
000000a0: 0562 013c 690d 0ebc 56df 36bc df59 66bc
000000b0: ccdb 7c3c 899f 323b e316 063d cf5c 043c
000000c0: c92f 8f3b d2a0 03bd 1076 2a3b 7b19 953c
000000d0: feb7 b8bc c5e8 9b3c a1df 8f3c 656f adbb
000000e0: 656c 693b 7ef5 e6bb 2897 f7bc 2045 6bbc
000000f0: 0dee 733c 4c4f 43bb 22f1 91bc faaf 13bc
00000100: 6b51 a03c 5d20 21bc 63c7 d6bc f87d 85bc
00000110: d2ff d4b9 0efe 9d3c dbc8 2b3a 4288 933c
00000120: 64c9 86bc a021 0bbc c2cb 77bc 2eca 313a
00000130: 0354 f03c 5674 a33b d709 98bc 13fb 223c
00000140: e850 563c cd7c 333c bc13 33bb f4ec 9c3c
00000150: 288e 4d3a 9b89 25bc e0c8 99bc 0e4a afbb
00000160: 24af 53bc 862e fbbc 126e 923c 6597 aebc
00000170: bc8e dabb aac5 a1bc 8161 323c 951e d4ba
00000180: 20af 1bbd 6f71 efbc eb69 bb3c c756 c5bc
00000190: 9ac9 8f3c 634a fdba 7ef7 f23b a3e7 78bc
000001a0: 0364 1bbb 82f4 2cbb c11d 833c ad1a f83c
000001b0: a1fe a03b ab32 053d 256b b7b9 b2b6 03bd
000001c0: dca1 8e3c 3159 3ebc 336d 153c 16fe 4d3c
000001d0: 30d0 e039 10da 6d3c ffc1 483c b5b6 023c
000001e0: 085d b2bc dd57 883c 3d59 9d3c c9c3 613b
000001f0: aeaf 63bc bc22 af3a 4f56 113b 2dac 463c
00000200: 40a1 71bc 704d c43c 9b17 803c aeef 173d
00000210: f793 83bc e37b 5abc fe25 1d3c 7066 753c
00000220: d982 103d 834e 64bb d141 a53b 7e12 713b
00000230: d158 d5bb d912 0bbb ceeb 2dbd acc2 4bbb
00000240: 7518 373c f845 77bb e2e3 26bb 1b24 193d
00000250: 80ae d83b aae8 8d3b f668 e53c 0bb8 c23b
00000260: 6eba 9fb9 4d35 b6bc 6a7d f03c 954a 193c
00000270: 662e 19bb 07c9 783c fdc4 19bc ecde c03b
00000280: 5a81 e43c e852 473c f4cb 90bb 46a5 dcbb
00000290: a428 87ba 30d6 8fbc 6dc5 b1bc 2a39 223c
000002a0: d90b 9dbc 4ee4 35bc 9173 bbbc 96e7 e63c
000002b0: dadb b4bc b47b 56bc 0b34 4b3c 1682 b2bc
000002c0: a88d 1fbc af18 813d 00ec 93bb cebd 013c
000002d0: 039a 103c 63f7 32bc 42f6 c33a 7a90 86bc
000002e0: 3c85 c0bb 077c 19bd 1a99 f13c 47ec 7bbb
000002f0: dd58 6b3b ef39 fdb8 bd51 2f3c c1fc 083d
00000300: 9c59 d6bb c8d8 6f3b f3b0 c6bb 824f 1dbc
00000310: 984a 4639 1fc5 1a3a bd84 153d 911c e43a
00000320: ef82 e3bc c9cc 4b3b 08fc 6f3c 6a97 023d
00000330: 3682 31bb 7ace 13bd 24cf b73b 3c1a dd3c
00000340: 72cb 123d c8c5 b9bc 8399 23bd 9132 d139
00000350: 57a8 e8bc b48a d23c d98b 47bb 30ae e6bc
00000360: d980 cebc b2f2 8fbb 3b50 4abc 7189 47bc
00000370: 14bf 8cbc 9cfe 60bc 5c2d 90bb c76b d23c
00000380: 82df b23c 5720 76bc aa92 a7bc a11a 08bb
00000390: 0daf 08ba 2c07 8cbb 9bfa 883c c343 9d3c
000003a0: 2c08 85bc 4dda f03b 9858 a73b 37ea 83bc
000003b0: 415f 73bc 3158 033b 786c 253c 473c 733b
000003c0: c86d 963c 4f96 d93a ab33 573c fbc6 37bb
000003d0: b800 aebc 6f31 7b3c 3ff6 b2bb ebf9 153c
000003e0: 9d38 853c 9c6f e13c 3638 f03c 9894 da3c
000003f0: 037b fdbb 7627 873c 4ddd 80bc 764e dfbb

fc2.weight_u f4 [256]
0.008423503 0.0012929131 0.0012151103 -0.026753133 0.008961826 0.0017672196 -0.019646144 -0.008814959
0.024000514 -0.0035550133 0.0016299746 -0.025063735 -0.021315906 -0.01752939 0.0011179533 -0.015317945
0.006126553 0.008769773 -0.022254538 0.024706718 0.001275553 -0.006992712 0.025817078 -0.060687374
-0.013791029 -0.004486481 -0.13556539 -0.0045639733 -0.017495768 0.014801752 -0.011742103 -0.013503569
-0.008379382 -0.007568183 -0.00629359 -0.011554577 0.10371506 -0.087878175 0.011447752 -0.016364507
0.008788858 -0.007828595 -0.0063212826 0.113271795 -0.020670364 0.007699011 -0.0046711587 0.005816454
-0.01062873 -0.010469667 -0.010429702 -0.007970945 -0.0044820663 0.0070530316 -0.06297499 0.011055216
0.0045970445 0.035031132 0.0030937097 -0.0047853766 0.011282109 -0.012754049 -0.02025672 0.0059525515
-0.0002146357 0.008919437 0.002479155 -0.015494002 0.12264136 0.054697063 -0.021966903 0.008793061
-0.01262173 -0.0032944072 -0.001845883 0.012817446 -0.043585617 -0.006017659 -0.018472461 -0.012368112
-0.0014313621 -0.017235115 0.00944193 -0.015207738 0.013701451 -0.0072514964 0.022798954 0.0021656898
0.010913967 0.008805786 -0.014427783 -0.0065333825 0.006349832 -0.018929614 -0.00023649386 -0.006132435
-0.0048669297 0.0019407299 0.01432156 0.0033106406 -0.025716446 0.2788346 -0.109217934 -0.009685238
-0.0042958255 -0.009097253 -0.017354552 -0.01220668 -0.004220464 -0.51784915 -0.02240053 -0.009705167
-0.0076170466 -0.0028421844 -0.015609257 -0.16539854 -0.00715287 0.121739715 0.0044431365 0.016428204
-0.018864315 -0.02127117 -0.026403408 -0.010046475 0.0058188983 -0.0002571526 0.0019578082 0.0008250476
-0.020368572 -0.0019341569 -0.0096986415 0.02237285 0.0041906047 -0.019484868 0.023417434 0.03400525
0.00087905885 0.18254094 0.011431376 0.0006502808 -0.0014422558 -0.011790682 0.022168886 0.03184065
-0.0027977792 0.01651704 0.038473453 -0.016863938 0.0029049562 -0.0044105724 0.014617157 0.005133907
-0.48096314 -0.015379484 -0.02839639 -0.002874872 -0.010445986 -0.003921479 -0.021381928 0.018497253
0.0047151465 -0.025014238 0.001824152 0.0025201773 -0.0076101273 -0.035689052 -0.018677427 -0.018377531
-0.00083713984 -0.003103152 0.001182799 0.011982549 -0.04476128 -0.033001248 -0.00089461316 -0.0077304565
0.010917719 -0.0034351188 0.06370894 -0.025306303 -0.00312128 -0.013523469 -0.01754485 -0.023474647
0.08513093 0.004048297 -0.1365139 -0.0030078762 -0.014879566 0.008910818 -0.010089125 -0.015582368
0.019086737 -0.025142755 -0.0147452885 0.008156032 -0.011862462 -0.006426804 0.020884685 -0.09971642
-0.0014280846 -0.021720683 0.09767539 0.08982416 -0.0097929165 -0.0056428174 -0.0048729563 -0.34742203
-0.0013391435 -0.0013448932 -0.01331732 -0.009991231 -0.010964638 0.0033392769 -0.065950364 0.014447302
0.04222112 -0.00022059609 0.004508445 -0.016339198 -0.0060841707 -0.015586308 0.008904394 -0.012115264
-0.011564242 0.016662678 0.014405066 0.005633929 0.013869876 -0.017080223 0.025879672 -0.05977703
0.0031205092 -0.0004991602 -0.0834374 0.008802651 -0.0075160298 -0.08300084 0.0137659935 -0.014712584
0.00093930017 0.007208783 -0.0041695605 0.013178659 -0.03333706 0.0067606163 -0.01668618 -0.008761068
-0.006104917 -0.015675485 -0.0044913753 0.10463569 -0.005851053 -0.0024427548 0.0056112963 -0.014308901
00000000: bb02 0a3c f776 a93a 5644 9f3a 6329 dbbc
00000010: 9fd4 123c 0da2 e73a f3f0 a0bc 9e6c 10bc
00000020: ba9c c43c 3afb 68bb dfa4 d53a 7652 cdbc
00000030: b29e aebc cc99 8fbc 4a88 923a 1ef8 7abc
00000040: 40c1 c83b 18af 0f3c 264f b6bc be65 ca3c
00000050: 7530 a73a 1f23 e5bb 567e d33c 5393 78bd
00000060: c5f3 61bc 5503 93bb a7d1 0abe 628d 95bb
00000070: 4953 8fbc 0c83 723c f361 40bc 133e 5dbc
00000080: ad49 09bc 85fe f7bb 763a cebb 694f 3dbc
00000090: 9068 d43d 79f9 b3bd 5a8f 3b3c dc0e 86bc
000000a0: 24ff 0f3c 8243 00bc c322 cfbb 0bfb e73d
000000b0: e554 a9bc fc47 fc3b 8510 99bb f497 be3b
000000c0: 2024 2ebc f788 2bbc 57e1 2abc 9198 02bc
000000d0: 4cde 92bb 1e1d e73b 08f9 80bd f020 353c
000000e0: cea2 963b ce7c 0f3d d6bf 4a3b a6ce 9cbb
000000f0: 98d8 383c 5cf6 50bc 6cf1 a5bc 9f0d c33b
00000100: d50f 61b9 d522 123c 5279 223b 8eda 7dbc
00000110: 652b fb3d 070a 603d eff3 b3bc c510 103c
00000120: 5fcb 4ebc fbe6 57bb 8ef1 f1ba 4400 523c
00000130: d586 32bd c82f c5bb 8f53 97bc 9fa3 4abc
00000140: 8b9c bbba a830 8dbc 53b2 1a3c e029 79bc
00000150: 0d7c 603c f69d edbb dfc4 ba3c 3fee 0d3b
00000160: 7fd0 323c 2546 103c 8262 6cbc fc15 d6bb
00000170: 4012 d03b 4712 9bbc 56fb 77b9 98f2 c8bb
00000180: c47a 9fbb 1760 fe3a faa4 6a3c 55f7 583b
00000190: 4cab d2bc 69c3 8e3e a7ad dfbd d5ae 1ebc
000001a0: ffc3 8cbb a50c 15bc 222b 8ebc 87fe 47bc
000001b0: d14b 8abb c391 04bf 5181 b7bc 6c02 1fbc
000001c0: 6b98 f9bb f143 3abb f8bd 7fbc 3c5e 29be
000001d0: 9f62 eabb ac52 f93d bb97 913b 7194 863c
000001e0: 5689 9abc e040 aebc f64b d8bc f899 24bc
000001f0: 75ac be3b 70d2 86b9 924e 003b 0248 583a
00000200: fedb a6bc 8983 fdba 0de7 1ebc 4447 b73c
00000210: 5751 893b bb9e 9fbc ebd5 bf3c 1749 0b3d
00000220: a470 663a 03ec 3a3e ab4a 3b3c 9b77 2a3a
00000230: 130a bdba b42d 41bc 869b b53c 576b 023d
00000240: f25a 37bb be4e 873c 5796 1d3d 3e26 8abc
00000250: 1461 3e3b 9086 90bb cd7c 6f3c 553a a83b
00000260: cd40 f6be 3bfa 7bbc 8c9f e8bc 5968 3cbb
00000270: a425 2bbc c07f 80bb 2729 afbc 8d87 973c
00000280: 8481 9a3b a9ea ccbc 6218 ef3a 8f29 253b
00000290: 605e f9bb af2e 12bd 6701 99bc 7a8c 96bc
000002a0: 8173 5bba 405e 4bbb 2608 9b3a 7452 443c
000002b0: 9b57 37bd 512c 07bd 7984 6aba c54f fdbb
000002c0: 3ce0 323c bb1f 61bb d579 823d 2a4f cfbc
000002d0: 648e 4cbb 8a91 5dbc 38ba 8fbc e74d c0bc
000002e0: 2059 ae3d 94a7 843b 4dca 0bbe ca1f 45bb
000002f0: 6cc9 73bc aefe 113c db4c 25bc 304d 7fbc
00000300: ca5b 9c3c 2ef8 cdbc 3996 71bc e1a0 053c
00000310: c65a 42bc f097 d2bb 5c16 ab3c 1f38 ccbd
00000320: 912e bbba 93ef b1bc 090a c83d bbf5 b73d
00000330: 7872 20bc 62e7 b8bb 52ad 9fbb 4de1 b1be
00000340: 3386 afba 2147 b0ba e330 5abc 43b2 23bc
00000350: 06a5 33bc c5d7 5a3b fc10 87bd 60b4 6c3c
00000360: 0ef0 2c3d d04f 67b9 94bb 933b c8d9 85bc
00000370: b95d c7bb b75d 7fbc bce3 113c 1a7f 46bc
00000380: f277 3dbc 2b80 883c 3a03 6c3c d29c b83b
00000390: 7a3e 633c d3eb 8bbc 9b01 d43c c2d8 74bd
000003a0: 7581 4c3b 13da 02ba 3ae1 aabd ff38 103c
000003b0: 0749 f6bb 58fc a9bd c38a 613c 0d0d 71bc
000003c0: 5e3b 763a a837 ec3b cfa0 88bb 4deb 573c
000003d0: 718c 08bd 2988 dd3b 75b1 88bc 958a 0fbc
000003e0: c10b c8bb e069 80bc 632c 93bb 3d4b d63d
000003f0: 31ba bfbb a016 20bb f7de b73b e16f 6abc

fc2.weight_v f4 [512]
-0.0111035695 0.019580632 0.0046725916 -0.022012662 0.0043953722 -0.0022899897 0.016293949 -0.0020865626
0.004291762 -0.028102484 0.00034127277 0.0024654916 0.020257507 -0.014258184 0.010015689 -0.00636234
0.002052825 0.01263228 0.015441603 0.02288628 0.00851053 0.0026623013 -0.00414215 -0.013621251
0.010763993 0.00042526633 -0.008950902 0.01096204 -0.0007486337 0.013531097 0.007197236 -0.00692047
0.009628038 0.00022101148 -0.008055196 -0.03150326 -0.008513568 -0.028166253 0.008461955 0.011366192
-0.0058967886 0.0071720746 0.011319823 -0.0011499446 0.023739194 -0.012169316 0.011812741 0.007954532
0.006886605 -0.12377624 -0.010870131 -0.0026009453 0.011309002 0.007716808 0.005590281 -0.0025713197
-0.0009549549 -0.021518322 0.0046194163 0.058082774 0.011555809 -0.011256086 -0.0035845304 -0.0047169514
0.09812119 -0.0070229215 0.01011279 0.014250983 0.000817307 -0.011206391 0.01591731 -0.0024223146
-0.00038467642 0.019763453 -0.0067115445 0.026171718 -0.0059333835 -0.013484597 0.011614742 -0.19398025
0.011650919 0.017494848 0.015775213 0.009162605 0.0041557644 0.005347872 0.013390685 0.019888911
-0.00943151 0.008422057 -0.003484522 0.12455063 0.0030461666 0.015976641 0.029326612 0.0045193564
-0.0026934561 -0.005910328 0.002369174 0.0026912747 -0.013082209 -0.0010526883 -0.0037328568 -0.016879883
-0.0025974123 -0.010077025 0.0018230838 0.006230931 0.009768038 0.008201631 -0.060189016 0.0022695544
0.0028223018 0.012450486 0.014439043 0.021351667 -0.008974799 -0.0070849583 -0.15402588 -0.01707687
-0.018678425 -0.00725986 0.0027265367 0.016817395 0.016406447 -0.5267807 0.010844108 0.01051775
0.006304845 -0.004518266 0.02374511 0.014720763 -0.01705459 0.0051756133 -0.010699312 0.0023093037
0.01603864 -0.0067334124 0.011916956 -0.0047692335 0.18310468 -0.0050787576 0.015831908 -0.0049360907
0.011803145 -0.014624151 0.007598882 0.005410598 0.020604577 0.016703492 -0.114119664 0.0089900885
0.04553636 -0.0015510914 0.011596939 0.025320671 -0.009362416 0.014292689 -0.00037056406 -0.010770059
0.009756969 0.01914409 -0.4754244 0.014534064 0.047050957 0.004801183 0.009164864 0.007577193
0.0010237611 -0.008825321 0.012645858 0.021694692 -0.0014156781 0.016029999 0.008402556 -0.012279913
0.087391384 0.0019254981 0.0002114653 0.0020130354 0.0024086605 0.005936094 0.13190338 0.0064630006
0.0123833455 0.015497715 0.0006052903 -0.012668003 0.009423045 0.023618575 -0.0026561217 -0.007608045
0.010341266 0.01151374 0.0034813571 0.035680465 0.2320166 0.014609027 0.00352836 0.01858836
-0.0744543 0.011886397 0.0024798706 0.025768513 -0.002229946 0.06701426 0.006246713 -0.0039757024
-0.013230481 0.022046736 -0.008408447 -0.0019962983 -0.01790705 0.00027887255 0.00019278759 0.025736805
-0.0028511246 0.023469426 0.006088637 0.015604779 0.006878603 -0.00048901164 -0.0040144906 -0.00065022113
0.005969042 0.0046772696 0.0064676767 0.011453318 -0.002193395 0.021332435 0.019714791 -0.01260004
0.00052644406 0.019209174 0.00897684 0.010523878 0.01669596 -0.00527214 0.014747557 -0.001448571
0.018023232 0.01875719 0.0053418167 0.019178946 0.0018996547 0.009224281 -0.012774404 0.002409836
0.0075345594 0.0062779854 0.006917809 0.005915289 -0.00069885864 -0.008002096 -0.0016667029 -0.010583685
00000000: bfeb 35bc 9067 a03c 8a1c 993b e653 b4bc
00000010: 0e07 903b a713 16bb e37a 853c b6be 08bb
00000020: e9a1 8c3b 2e37 e6bc dbec b239 1694 213b
00000030: 12f3 a53c 289b 69bc d818 243c 2d7b d0bb
00000040: b088 063b 9ff7 4e3c c7fe 7c3c 027c bb3c
00000050: c06f 0b3c 017a 2e3b dfba 87bb ab2b 5fbc
00000060: 755b 303c 48f6 de39 cea6 12bc 219a 333c
00000070: f53f 44ba 89b1 5d3c cbd6 eb3b 1cc5 e2bb
00000080: ebbe 1d3c 51bf 6739 f1f9 03bc 9009 01bd
00000090: 7e7c 0bbc eabc e6bc 03a4 0a3c 4439 3a3c
000000a0: d939 c1bb b903 eb3b c776 393c bdb9 96ba
000000b0: b378 c23c d061 47bc 3a8a 413c ba53 023c
000000c0: 08a9 e13b 667e fdbd a218 32bc 9f74 2abb
000000d0: 6449 393c 47dd fc3b ad2e b73b 9683 28bb
000000e0: f055 7aba 3147 b0bc 795e 973b 34e8 6d3d
000000f0: 9354 3d3c 726b 38bc 71ea 6abb a890 9abb
00000100: c3f3 c83d 8920 e6bb 1eb0 253c f47c 693c
00000110: 8b40 563a 039b 37bc 0565 823c b2bf 1ebb
00000120: 65ae c9b9 f7e6 a13c 84ec dbbb 1266 d63c
00000130: d46c c2bb 80ee 5cbc c24b 3e3c c2a2 46be
00000140: 7fe3 3e3c 5b51 8f3c 053b 813c c01e 163c
00000150: 142d 883b 343d af3b 9b64 5b3c 12ee a23c
00000160: 9f86 1abc abfc 093c 945c 64bb 6714 ff3d
00000170: 32a2 473b 72e1 823c 5d3e f03c 1c17 943b
00000180: b284 30bb 6dab c1bb 2544 1b3b 1960 303b
00000190: c356 56bc 5cfa 89ba f2a2 74bb ae47 8abc
000001a0: 5939 2abb 1b1a 25bc 8bf4 ee3a d62c cc3b
000001b0: 1f0a 203c 2260 063c c288 76bd cebc 143b
000001c0: 5ef6 383b 20fd 4b3c bc91 6c3c b1e9 ae3c
000001d0: 090b 13bc f028 e8bb f6b8 1dbe cbe4 8bbc
000001e0: 7f03 99bc 1fe4 edbb b2af 323b a2c4 893c
000001f0: d066 863c 1adb 06bf 7cab 313c a452 2c3c
00000200: e098 ce3b f60d 94bb 1b85 c23c 5b2f 713c
00000210: 11b6 8bbc 3198 a93b 2b4c 2fbc b057 173b
00000220: 7763 833c f5a3 dcbb 563f 433c 3b47 9cbb
00000230: cb7f 3b3e b56b a6bb ebb1 813c eebe a1bb
00000240: fa61 413c 239a 6fbc 0b00 f93b 634b b13b
00000250: eeca a83c c3d5 883c 92b7 e9bd 2a4b 133c
00000260: 5684 3a3d fe4d cbba 1601 3e3c 4c6d cf3c
00000270: d264 19bc e22b 6a3c 4448 c2b9 e774 30bc
00000280: b2db 1f3c 11d4 9c3c d46a f3be 4820 6e3c
00000290: 81b8 403d 3e53 9d3b 3a28 163c 1a4a f83b
000002a0: b92f 863a 1498 10bc 9330 4f3c 11b9 b13c
000002b0: 468e b9ba 5851 833c e0aa 093c b031 49bc
000002c0: 41fa b23d ff60 fc3a c9bc 5d39 21ed 033b
000002d0: 9eda 1d3b 9183 c23b ae11 073e 94c7 d33b
000002e0: 84e3 4a3c 21ea 7d3c 58ac 1e3a 758d 4fbc
000002f0: 1e63 1a3c be7b c13c 5412 2ebb e84c f9bb
00000300: 6a6e 293c 20a4 3c3c 7b27 643b ae25 123d
00000310: c295 6d3e b35a 6f3c 0f3c 673b 9e46 983c
00000320: 7f7b 98bd 2abf 423c 5385 223b 7d18 d33c
00000330: 4924 12bb c63e 893d 3ab1 cc3b 9c46 82bb
00000340: a9c4 58bc 5b9b b43c 95c3 09bc 54d4 02bb
00000350: ceb1 92bc a435 9239 0627 4a39 fed5 d23c
00000360: efd9 3abb f442 c03c 3083 c73b 30ab 7f3c
00000370: e765 e13b 0431 00ba fd8b 83bb 9a73 2aba
00000380: f497 c33b c843 993b ceee d33b b3a6 3b3c
00000390: 10bf 0fbb 5cc1 ae3c ea80 a13c 6670 4ebc
000003a0: 1001 0a3a 8f5c 9d3c 9913 133c 586c 2c3c
000003b0: f7c5 883c eac1 acbb bd9f 713c fadd bdba
000003c0: 75a5 933c aea8 993c 680a af3b 2a1d 9d3c
000003d0: d6fd f83a 7021 173c bc4b 51bc 57ee 1d3b
000003e0: 77e4 f63b 8fb7 cd3b caae e23b 0ad5 c13b
000003f0: 9c33 37ba 391b 03bc 4575 daba 3167 2dbc

fc3.bias f4 [128]
-0.41320595 -0.059309922 -0.11293468 -0.2859214 -0.471783 -0.09481431 -0.16215709 -0.046781894
-0.40706465 -0.3039843 -0.41315174 -0.6529829 -0.49829838 -0.2983305 -0.39406997 -0.45420063
-0.3069711 -0.4975599 -0.47000036 -0.734054 -0.027556058 -0.033390112 -0.27974 -0.34559542
-0.19771154 -0.18313138 -0.52502483 -0.060160153 -0.3910624 -0.37789494 -0.33926082 -0.1258933
-0.37135586 -0.6880194 -0.23940401 -0.5790278 -0.07857478 -0.3349618 -0.28956 -0.38873953
-0.37143302 -0.34204724 -0.7156819 -0.21685761 -0.021883445 -0.07892139 -0.68519396 -0.42882955
-0.09992695 -0.6272953 -0.07385764 -0.44755575 -0.08564693 -0.43988106 -0.042782 -0.06532028
-0.17331073 -0.066457726 -0.32689628 -0.13197489 -0.40029708 -0.31730115 -0.27732784 -0.0780798
-0.7524651 -0.10417286 -0.29918066 -0.5693291 -0.2650456 -0.075770676 -0.051207878 -0.25680277
-0.21726313 -0.24060968 -0.36868775 -0.24177238 -0.47814465 -0.44035056 -0.839291 -0.13404907
-0.1288084 -0.41247934 -0.17962393 -0.032806598 -0.46019197 -0.14347148 -0.10206353 -0.49073622
-0.5041369 -0.15880741 -0.46922418 -0.65881485 -0.18602379 -0.13265993 -0.09522846 -0.31506905
-0.009587156 -0.5405662 -0.5335869 -0.5028267 -0.46068808 -0.09542383 -0.27482238 -0.13587591
-0.41243872 -0.09670513 -0.064574175 -0.065743886 -0.12203806 -0.29448688 -0.88717824 -0.37933823
-0.22576402 -0.33100146 -0.548698 -0.3769592 -0.1910072 -0.36567393 -0.111594126 -0.048039086
-0.033646405 -0.43974105 -0.13609396 -0.26559404 -0.5210245 -0.18066016 -0.074144736 -0.03459046
00000000: bb8f d3be f6ee 72bd 4c4a e7bd 4a64 92be
00000010: 8b8d f1be 012e c2bd 820c 26be 5f9e 3fbd
00000020: c76a d0be d5a3 9bbe a088 d3be e329 27bf
00000030: f720 ffbe c6be 98be 8ac3 c9be fc8c e8be
00000040: 512b 9dbe 2cc0 febe e3a3 f0be f7ea 3bbf
00000050: 3ebd e1bc 12c4 08bd 153a 8fbe e2f1 b0be
00000060: e574 4abe cb86 3bbe 0768 06bf 7e6a 76bd
00000070: 5539 c8be 727b c1be 98b3 adbe 2cea 00be
00000080: 5b22 bebe 0a22 30bf 5326 75be 2a3b 14bf
00000090: d0eb a0bd 1d80 abbe 3541 94be de08 c7be
000000a0: 782c bebe d120 afbe ee36 37bf ec0f 5ebe
000000b0: e944 b3bc 8aa1 a1bd df68 2fbf 8c8f dbbe
000000c0: 80a6 ccbd 6d96 20bf ad42 97bd 0726 e5be
000000d0: a867 afbd 1738 e1be 2e3c 2fbd a4c6 85bd
000000e0: 5e78 31be fd1a 88bd f35e a7be 6d24 07be
000000f0: bdf3 ccbe 4c75 a2be eafd 8dbe 4de8 9fbd
00000100: 8ea1 40bf 9558 d5bd 352e 99be 8dbf 11bf
00000110: 0fb4 87be a82d 9bbd 5abf 51bd a77b 83be
00000120: 3a7a 5ebe 6262 76be a4c4 bcbe 2e93 77be
00000130: 60cf f4be a175 e1be c6db 56bf 2944 09be
00000140: 59e6 03be 7e30 d3be 56ef 37be 3660 06bd
00000150: 489e ebbe 30ea 12be af06 d1bd c741 fbbe
00000160: 1e0f 01bf 699e 22be 273e f0be 17a8 28bf
00000170: 057d 3ebe 01d8 07be 2407 c3bd bb50 a1be
00000180: 7213 1dbc 8c62 0abf 2799 08bf 40b9 00bf
00000190: 4fdf ebbe 926d c3bd 85b5 8cbe 0e23 0bbe
000001a0: 2b2b d3be 570d c6bd 773f 84bd bba4 86bd
000001b0: 17ef f9bd fcc6 96be 1d1e 63bf 9f38 c2be
000001c0: af2e 67be 0679 a9be 7977 0cbf cc00 c1be
000001d0: 6497 43be 9d39 bbbe 768b e4bd a2c4 44bd
000001e0: d0d0 09bd bd25 e1be 375c 0bbe f1fb 87be
000001f0: dd61 05bf fafe 38be 32d9 97bd baae 0dbd
