data/saved_models/discriminator.pth (torch, 757528 bytes, 13 tensors)

fc1.weight f4 [512, 42]
00000000: cb8d 74bc 550c d9bc d36a 0e3d d4d0 d73c
00000010: 048c f5b8 ddb4 bfbb fd5a 8a3d 964b e23d
00000020: 4cbc 70bb 0b91 be3d 5787 ff3b ba0f f9bd
00000030: 5715 433c 9900 e43d b0e9 b53c 247e c7bb
00000040: 7374 103d a1ab 65bd 81c4 5e3d 61aa e2bd
00000050: 5ad9 2bbd 8e6d c43d 595f a0bd 76dd d63d
00000060: 73c3 9cbd 4c58 04bd 5b44 87be 9c55 05bd
00000070: c66e 403e a33b b6bd 1c70 f13d bc01 233e
00000080: 6c5e e13d 845e 7f3d 931f c8bd cb99 373e
00000090: bbb6 2f3e 7a4a 1bbe 0483 7dbd 4e84 0ebd
000000a0: 4a47 c0bd ec0c 293e f31e 863d 61eb 8d3c
000000b0: db8d d4bc e23e f13c bc40 38bd bbbe 2bbd
000000c0: e494 1a3d 7f76 c03d 0a74 8b3d 8401 853d
000000d0: 67be e33d 7a99 2abe ba72 853d ac7c 0cbd
000000e0: aa4e f6bb 3ff9 b23c ac4f c63d 280d ed3d
000000f0: 3fcb 673d eacd 1c3d b28b 37bd ac24 fe3d
00000100: c4a8 29be b1c3 d13c 756e 97bd 9132 9abd
00000110: 3915 bdbd eb4f e33d 77c6 ff3d 5ae2 783c
00000120: f957 ae3c e2e1 95bd 44e8 603d e35a d2bd
00000130: 50dd c4bd 962a 683e 1a4f ab3d b130 fd3d
00000140: 20e8 31bc 7980 253d 3a01 c6bd 7221 c5bd
00000150: 8e64 453d 594c 45bd 5239 ec3c 5e0b ff3c
00000160: ee04 56bd c72e 933d 72f8 22bd deb8 1ebe
00000170: aa85 21be 12d8 2f3c 66d6 8abe 700e 85bd
00000180: 3049 dabd 9704 473d 3847 0a3e 83be aa3c
00000190: 7111 04be 6478 a3bc 579e 1cbc abc6 643d
000001a0: e0b0 d2bd 884a 22bd 55cd 20bd 4fd5 3bbd
000001b0: 7466 cfbd aee2 c5bd 9ef1 60be 70cf 953d
000001c0: 7f40 96bc 6b74 da3d 3ee8 b3bd 04ac b8bd
000001d0: cfc3 14be 0d62 253e d849 7abd 3bfd d63d
000001e0: a399 e3bb fc73 7d3d 92cc aa3d 645a 5abe
000001f0: b2a6 7d3c 10fb 5ebc 931d cfbb 1696 9b3d
00000200: bfc6 043e fe5d 14be aa24 d8bc ed19 fabc
00000210: 806d 1f3d 32e1 0abe fb76 e53d 9c04 2fbb
00000220: 330f ffbd b62e 86bd af3f f53d 023c 7cbc
00000230: be2c b1bd 36d3 3cbd 376e 4ebd 3cfa b2bd
00000240: 3a30 34bc 341b 0abe e7bc 1f3e 9e25 3fbd
00000250: 0915 643d c6d7 d13c f197 133d 5b52 473e
00000260: 872b 9abe 114b 35be 8f6f 6e3d be45 4fbd
00000270: cc0b cd3d ac13 8bbd 47a3 00be f1b8 ccbd
00000280: afdb 3a3d 377f 243e 2cec 00be d9ba 63bd
00000290: b2ca 003e a7f8 e4bd a7d0 c93c 2c98 e4bc
000002a0: fba1 55bb e62d 27bd dc8b d2bc 5bea 02bd
000002b0: 4f7a b03d 82a3 e23c a412 06bd 884b 843d
000002c0: e77c 283e 5697 00be b006 b3bd 62f1 3a3d
000002d0: aad3 8b3d 43f3 76bc ac37 a83c ed59 82bd
000002e0: 38d5 e13b fd67 a23c 4252 a1bd 67e8 fc3c
000002f0: 7279 d6bd 2a23 31be 9c79 cabc 723a 7cbd
00000300: 7057 453d df06 783c 6f47 013e 925e 74bd
00000310: 29c2 94be 3d1e c73d 6e08 c63c 3237 1bbe
00000320: a6b0 86bc bf14 e93d e30a 88bd e8af 90bc
00000330: fc9e ffbc a31a 08bc efc7 b9bd e576 153e
00000340: bd9d 083e 16d2 013b 5150 adbd 3468 dc3d
00000350: a408 5c3d 86cd d83d da52 313d 48e2 0fbe
00000360: d276 8fbd 1060 e63c c56f 85bd 80f9 093e
00000370: 3576 e33d 4d20 743d 660e 3c3a 8dcd 3fbd
00000380: 4818 2f3e ba34 243e da43 e03b 9e17 e93c
00000390: 9023 40bd 84dd 62bc 2088 c83d d83e a13d
000003a0: 865e 9cbd 86cd b13d ed61 ec3d 2015 cc3d
000003b0: 7ad8 423e 361c 4ebc 2d1b 553e b60d 0a3e
000003c0: 17bc e73d 1247 0a3d cdee e5bc 9ab7 febb
000003d0: 398d 733a 1341 783e 168a 21bd fa0f 57be
000003e0: f9c2 a33c a9ba d43c f92d 803d 609d 59bc
000003f0: beb2 833d 22fd f53c fd97 63bd 0bce 953d
-0.014926384 -0.026495138 0.034769844 0.026344694 -0.0001170859 -0.005850418 0.06755636 0.11049573
-0.0036733327 0.093050085 0.007798116 -0.12161203 0.011906943 0.111329265 0.022206157 -0.006088035
0.035267305 -0.05607188 0.05438662 -0.110676534 -0.04195533 0.095912084 -0.07830686 0.10491459
-0.076544665 -0.03231077 -0.2641934 -0.032552347 0.18792257 -0.088980936 0.11788961 0.1591863
0.11004338 0.062345996 -0.09771647 0.17929761 0.1715955 -0.1516513 -0.061892524 -0.034794144
-0.09388597 0.16508836 0.06548872 0.017324151 -0.025946548 0.02944893 -0.04498361 -0.04192994
0.03773965 0.09397601 0.06809242 0.0649443 0.11120301 -0.16660109 0.06516023 -0.034298584
-0.0075167017 0.021847365 0.09683165 0.11574775 0.056590315 0.038282312 -0.04481096 0.12409338
-0.16568285 0.025606008 -0.07394115 -0.07529176 -0.092325635 0.110992275 0.12489026 0.015190685
0.021282183 -0.07318474 0.054909006 -0.102712415 -0.096125245 0.22672495 0.08364697 0.12362803
-0.010858566 0.040405724 -0.09668203 -0.0962552 0.0481916 -0.048168514 0.028835926 0.03113335
-0.052250795 0.071866564 -0.039787717 -0.15500209 -0.15773645 0.0107326675 -0.27116698 -0.06496894
-0.10658491 0.04858836 0.1350373 0.020842796 -0.12897278 -0.019954868 -0.009559236 0.055853527
-0.102876425 -0.03962186 -0.03925832 -0.045857724 -0.10126963 -0.09662376 -0.2196717 0.07314956
-0.018341301 0.10666736 -0.08784531 -0.090171844 -0.1452782 0.16150685 -0.06110558 0.10497519
-0.006945805 0.06187819 0.083398 -0.21323544 0.015481638 -0.013609663 -0.006320664 0.07596986
0.1296644 -0.1448898 -0.02638467 -0.03052994 0.038922787 -0.13562468 0.11204334 -0.0026705628
-0.12454071 -0.06551878 0.11975037 -0.015395166 -0.08651112 -0.046099864 -0.050398078 -0.08739135
-0.010997826 -0.1348694 0.15599404 -0.046666734 0.055684123 0.025615584 0.036033574 0.1946501
-0.30111334 -0.17704417 0.05821186 -0.05060362 0.10012016 -0.067908615 -0.12562285 -0.09996212
0.045619663 0.16064154 -0.12590092 -0.055598114 0.12577322 -0.11180239 0.024635626 -0.027904592
-0.0032597769 -0.040815257 -0.025701456 -0.03196178 0.086170785 0.027665857 -0.03273262 0.06459719
0.16453896 -0.1255773 -0.0874151 0.045640357 0.06827481 -0.015072647 0.020534359 -0.06364808
0.0068918727 0.019824976 -0.078770176 0.030872537 -0.104723826 -0.1729857 -0.024716191 -0.061579175
0.04817909 0.015138357 0.12624906 -0.0596605 -0.29054382 0.09722564 0.024173941 -0.15157774
-0.016441654 0.1138091 -0.066427015 -0.017662004 -0.03120374 -0.008307132 -0.090713374 0.14596136
0.13341422 0.001980906 -0.08462585 0.10762063 0.053719178 0.105860755 0.043291904 -0.14051163
-0.07005085 0.028121978 -0.06515459 0.13474083 0.111065306 0.059601117 0.00071737764 -0.046826888
0.17099106 0.16035739 0.006844026 0.028453644 -0.046908915 -0.013846759 0.09791589 0.078733146
-0.076352164 0.086817786 0.11542115 0.09964967 0.19027892 -0.012579968 0.20811148 0.13481793
0.11315172 0.033759184 -0.02806797 -0.007773352 0.0009290758 0.24243574 -0.03943833 -0.21002188
0.019990431 0.025967913 0.062587686 -0.01328215 0.06430577 0.03002793 -0.05556487 0.0731469

fc1.bias f4 [512]
00000000: ce23 88bd 2e83 fcbc 29dc 5b3e c5d4 8d3e
00000010: d9a2 7d3d c9e4 b43e 1dee 3f3d 4523 e73e
00000020: d76a 8e3e 794c ec3d 7b61 e13d 0fdb b43d
00000030: 10d6 613d 05b6 ce3e fb80 dd3d 39ff e33d
00000040: 8326 763d ea40 bf3e 4fba d23d 7a76 b13e
00000050: e1bb db3d d941 67bb fd16 0cbc ede4 cc3d
00000060: 07d0 12be 1fe9 c23c aaca 913e eb1f aabd
00000070: 867a de3d af28 8dbd 497b 1c3e 7c36 cd3d
00000080: 6d25 0e3e 0a2b d63d 36f0 adbd 9038 043c
00000090: e820 b2bc 01de 91bd 6fd0 b03e 9c0a c4bd
000000a0: 0ab6 b23e 1a61 023e 3d7c 283e 0f39 a13d
000000b0: 1cec 0d3d 4c62 643c 38b9 933e 5803 4fbd
000000c0: b70d e93d d82b 4fbd 3ffb 22bd 03af 943e
000000d0: 0410 533b 3ede cebd 421f d33e 0567 fa3c
000000e0: 1198 b93e 2471 7f3c b3b1 983e 9ded fbbd
000000f0: 2fc8 d0bc 658c e83d b935 a2bd f348 90bd
00000100: 495c af3e e2f0 9f3c 9dd8 283d b6e7 a83d
00000110: 69aa 51bd a5aa f2bd d36b 62bd 6fa2 84bc
00000120: ee29 a23c a242 c53d a569 833d fe7c a1bd
00000130: c99f 01be ae76 d73d 805d 8f3e 6e11 4fbc
00000140: 6c68 783c 41f4 aa3d 320f 7d3e 4170 0ebe
00000150: e522 8bbd fcb1 0e3e 9fe3 cbbd 27b7 26bd
00000160: cf07 283e 12eb 8a3d 2932 13be 4715 c0bd
00000170: 7136 b2bd 77a7 3a3d 5f46 c9bd d292 ae3e
00000180: 5914 e93d c8fd 7a3e 69f8 bebd 85f7 023e
00000190: 748f 89bd 6ef5 f5bd 0e47 043c 63b5 9cbd
000001a0: 8a49 67bd 034e aa3d 7fae 7d3d 63e1 19bc
000001b0: 3511 52bd 5bde f53b c985 413e 7f62 a83e
000001c0: 94e6 733d 7720 e63d d9cc 043c 2fbe bebd
000001d0: 3cb3 813d a113 c93e 3510 fc3c 92e0 7d3e
000001e0: c96a 873e e49a 823d f8e3 da3e 7676 183d
000001f0: aca9 0d3e ab26 92bd 698c 3d3d 9974 ff3d
00000200: fbac adbd 0afa 94bd 60c6 753d 9ce0 a03d
00000210: 9530 f1bc a0dc f9bd c7c7 b3bd 351b a93d
00000220: b9e6 b2bd 56ae fa3c ec11 483c 1203 eb3d
00000230: 88e9 2a3d 3caa 59bd d15a 00bd 1027 28bb
00000240: 82ce 02be fb9b e63e b28d 973c 9b77 eebb
00000250: df46 af3e f1ea 213d 8720 10bd 4e8d 993b
00000260: a023 27bd d380 d03d b7b3 14be 3baa 5c3d
00000270: 6819 00be 6ad4 853e d370 e9bd c788 ecbd
00000280: 3cf4 de3c 777a 9f3e 19d1 50bc 0aca b43e
00000290: 0454 63bd 4121 c5bd 323a e83d 24d0 543e
000002a0: 1f13 a23c e441 35be 3e7d c33e b533 603d
000002b0: 9b77 85bd 1d86 903d a256 6ebd e12e fcbd
000002c0: 0112 09be 9e35 acbc b1b9 873d 596e c33d
000002d0: 6fe2 f43c d145 103b a94b 2bbd 5a10 0c3e
000002e0: 367c a03d 4e41 c8ba 0a0a d63e 7354 bc3e
000002f0: 0388 9fbd b2c7 903e f72f b43d 1ea1 933a
00000300: 343b d63d 0855 80bd 02d8 c63c bdc4 a03a
00000310: 2f8d d3bc b91b 833d 21a4 74bd 1723 9dbd
00000320: f2f1 833e b763 783d 3720 703d 9afc 123d
00000330: 4787 d93e 7553 9c3c 3c80 8a3d 229b 273e
00000340: 3bf7 90bd 1491 24bd 8d2b 8dbd 98e5 643d
00000350: ed2d f7bd 0c9e 8dbd f12c 71bd 40d3 9e3e
00000360: 1874 b2bd 1d22 493e 0ab1 8c3b 4cec e2bd
00000370: e495 d03e 5e41 9a3d ca75 42bd 8fa3 903d
00000380: 89d2 25bd 90e4 dd3c c2cf 703e 7a3a f83d
00000390: 6de6 0bbd 922f d83b f044 d4bd 65e4 233e
000003a0: 03ee a43d d954 89bc a95e 383d b217 483d
000003b0: a2ae 273d 3757 d1bc 657e 84bd 268f ed3e
000003c0: 26e9 ca3d b560 1bbd 8b25 3b3d d5bd 85bd
000003d0: 0c67 383d 0679 e43d 7f08 93bd df56 19be
000003e0: 40ac b5bc 398c 133e 31ac fd3c 8c93 88bd
000003f0: 8b83 153e c1dd b2bd df60 f53d 032b 923c
-0.06647454 -0.03082427 0.21470703 0.27701393 0.06192288 0.353308 0.046857942 0.45144096
0.27815887 0.115380235 0.11004921 0.088308446 0.055135787 0.40373245 0.10815617 0.11132664
0.06009532 0.37354213 0.10289442 0.34660703 0.107291944 -0.003528705 -0.008550403 0.10004602
-0.14337169 0.023792801 0.28474933 -0.08306869 0.10863213 -0.068925254 0.15281405 0.10020158
0.13881464 0.10457428 -0.08493082 0.008070126 -0.021744207 -0.07122422 0.34534022 -0.09572336
0.3490451 0.12732354 0.16453643 0.07872211 0.034649 0.013939451 0.28852248 -0.0505403
0.11379569 -0.050578922 -0.03979039 0.29039773 0.003220559 -0.10100983 0.41234785 0.030566702
0.3624883 0.01559094 0.29823074 -0.123011805 -0.02548608 0.11354903 -0.07920403 -0.07045164
0.34250095 0.019524042 0.041222204 0.0824732 -0.051187906 -0.11848954 -0.05527861 -0.016190736
0.019795384 0.0963185 0.064166345 -0.078851685 -0.1265861 0.10520683 0.28001022 -0.012638433
0.015161615 0.08347369 0.24712828 -0.13910009 -0.06793765 0.13935083 -0.09955525 -0.04070201
0.16409229 0.06783117 -0.14374603 -0.09379058 -0.0870179 0.045569863 -0.09827875 0.3409639
0.11380834 0.24510872 -0.09324724 0.12789734 -0.06716815 -0.120097026 0.008073581 -0.07651784
-0.056466617 0.08315661 0.06193399 -0.009392115 -0.05128594 0.0075033135 0.18898691 0.32887647
0.05954607 0.11236661 0.00810548 -0.093136184 0.06333014 0.39272788 0.030769447 0.24792698
0.26448658 0.06377199 0.4275205 0.03722235 0.13834256 -0.071362816 0.046276484 0.12473411
-0.08480259 -0.07274254 0.06000364 0.07855341 -0.029442111 -0.12200284 -0.08778339 0.082571425
-0.08735413 0.030600708 0.012211304 0.11475195 0.04172662 -0.053140864 -0.03133661 -0.0025658049
-0.12774089 0.4504088 0.018500183 -0.0072774417 0.34233758 0.0395307 -0.03518727 0.0046860343
-0.04080546 0.10180821 -0.14521681 0.053873282 -0.12509692 0.26138622 -0.11398473 -0.11549526
0.02721607 0.3114812 -0.012745165 0.35310394 -0.055500045 -0.09625483 0.11339225 0.20782524
0.019784508 -0.17700917 0.3818149 0.05473681 -0.065169536 0.0705683 -0.05818809 -0.12313629
-0.13385774 -0.02102166 0.06627215 0.095425315 0.029893128 0.002201427 -0.041820202 0.13678113
0.07836191 -0.0015278251 0.41804534 0.3678318 -0.07789614 0.28277355 0.08798211 0.0011263227
0.10460511 -0.062662184 0.024272922 0.0012265664 -0.025824158 0.06401772 -0.059726838 -0.076727085
0.25770527 0.06064197 0.058624472 0.03588543 0.4248602 0.019082764 0.0676274 0.16367772
-0.070784055 -0.04017742 -0.06893072 0.05588302 -0.120693065 -0.06914911 -0.05888075 0.31020546
-0.087135494 0.1964192 0.0042935656 -0.11080226 0.40739357 0.07531999 -0.047475614 0.07062446
-0.040483985 0.027086526 0.23516753 0.121205285 -0.034155298 0.0065974677 -0.10364711 0.16005094
0.0805321 -0.016764091 0.04501215 0.048850723 0.040938027 -0.025554283 -0.0646942 0.46398276
0.09907751 -0.037934024 0.0456901 -0.06530348 0.04502015 0.11155896 -0.07179355 -0.14974545
-0.022176862 0.1440896 0.030965896 -0.06668767 0.14600961 -0.087337025 0.11981367 0.017842775

fc2.weight f4 [256, 512]
00000000: 65ac 3cbd b6df 183c 9678 3cbc 8e85 843b
00000010: c26a 5fbc a3a1 033d 2bd7 353d 0c91 db3c
00000020: 7daf b4bb 8a0a 95bc 0e4e 053d 8483 e7bb
00000030: 2aea 02bb 9dc5 adbb 1899 153d b9aa 0e3d
00000040: eab0 af3b ecf0 0b3d 6f59 ddbc 8ad7 813c
00000050: cea4 423c 9ef8 183d 7197 383c 4624 423c
00000060: 9000 c53d c9b2 643c 62d5 dc3c 4e5d 0f3d
00000070: 36b5 70bb 5678 213b 32df 8bbd dd36 703c
00000080: a73f 11bc 7374 d63b 3574 063d 0f66 193c
00000090: f55a 6f3c 182b a03b f6b0 28bc 7bc9 9ebc
000000a0: 4621 003d 3a63 053d de82 b63c f23e 703c
000000b0: d7fe 3dbc 6eeb 973a c6d2 aa3c 56ab 51bc
000000c0: 00db 143d 1af9 17bd 27c5 213c db8e 18bd
000000d0: 6d21 053a 043c cc3b 91d9 70bd f793 963c
000000e0: b889 01bd c0ca e4bb 033c 413c 5145 103d
000000f0: 9df3 c2bc e2ec 933c cccf 023d e219 99bc
00000100: 9ea0 68bc c0f0 95bc 3846 1f3d d1c3 173d
00000110: d738 c73c 9611 323d 15f3 30bd 820c 21bd
00000120: b0e4 e43c 1c6c 813c ce17 6f3c 1c30 9dbd
00000130: 1423 563c 3557 8bbc 9738 c7bb bc9c bb3c
00000140: ac08 c7bc 1e69 18bd c535 1f3c 4171 993d
00000150: 895e 56bb a2e7 c13c c08c 153b 8fb3 39bc
00000160: e328 9ebc 12b6 053d 3174 98bb 038b 61bc
00000170: a661 6dbb c5bd 29bc b933 d8b9 47dc be3c
00000180: 2c8c b03c 4acd f73c 8a78 813c bad2 70bc
00000190: 569d 99bd 3005 2e3c a745 82bd 010a 453b
000001a0: 2ca6 833d d8d0 473d 701f 1dbd b00f cc3a
000001b0: a562 f0bc 0683 7dbc 47fb 003c 0d89 5bbb
000001c0: 532a 903c 0095 63bb e4a7 6dbc 60bb 27bc
000001d0: 3405 983c ff79 99bc dcef cb3c a479 20bc
000001e0: fc10 aa3a b1ae acba 6760 20bd 587d 80bd
000001f0: 8745 eb3b 3c8d eebc a515 e53c f4e4 b53b
00000200: bd99 d13c 823a f2bb 315f 063c f6d1 b7bb
00000210: 7c44 a73b 41a7 a23c 350d 04bd 7589 803d
00000220: c56e 3ebc aab1 0bbd 646c 36bd 3138 02bd
00000230: cf0a bcbc 347c 133d 2890 a1bd b5da 283b
00000240: dda6 18bc 1f92 903c 5b72 4a3c 6dc9 78bd
00000250: b2ec 07bd 1d6b 9abc 6f81 773b 5b60 3e3d
00000260: 0f78 1ebd 401c 40bd af04 5d3d f856 c93c
00000270: 8573 833c d9b7 1e3d 9790 e83c 04a3 233c
00000280: 6bfd 97bd 635d 6ebd a299 4c3c 3da7 a5bc
00000290: 3c62 e63c 065d 85bd 02ac 1bbd 298d fabb
000002a0: 0f9e bfbd a3e7 0e3d 5dcb b6bc bfd4 61bd
000002b0: bc2d 0f3d e807 d7bc ebca 6f3c 32d0 6ebd
000002c0: b994 483d 0cea 723c 65f6 a93b 6042 8a3c
000002d0: 8275 f43c 36b3 0fbd 3d66 4a3c 85c8 163c
000002e0: a09f a7bc f93d 053d 0139 803d a859 f8bb
000002f0: 3c73 b7bc cf89 babb afc6 c03c 5da9 6bbc
00000300: 2930 0cbd c3d8 a5bc 1ecd d7bb e4d7 5b3b
00000310: 7d99 a13c f705 bc3c 35f0 c0ba 1ffe 36bd
00000320: f3c1 4cbd 0691 84bc 3533 db3c a387 dd3c
00000330: 26bb 563c c11b 923c e2e5 17bd ef86 85bd
00000340: 383d dcbc 49b1 3e3c 3052 67bc c561 153b
00000350: f5c7 3abd d2e3 c6bc b61b 813c e89f 84bc
00000360: fa6e bfbc 7c22 abbc 2232 a63c 4715 9a3c
00000370: 1918 5a3d 6354 b13c 6293 b0bb 7148 6fbb
00000380: 29e2 fdbc 3539 2f3c 765a 783c a423 273d
00000390: 3a71 a9bc 7e41 89bd 2519 003c 6308 cd3c
000003a0: 69c0 c63c 4e09 fe3c ba9e 373c b8b4 d33c
000003b0: 756b 7b3b 984b 8d3d f120 4fbd b5b8 133d
000003c0: 8efa 7e3b b3b0 80bc 241f ddbc 9eab 183d
000003d0: c0f9 efbc 7b05 b53c 5741 96bc 40c8 ba3d
000003e0: 35df 55bc daa8 18bd 824b b8bb 2327 da3c
000003f0: 587d aaba cc96 12bc 2c00 2e3d 86ad 49bb
-0.046062846 0.009330681 -0.011503359 0.0040442413 -0.013636293 0.03213657 0.044394653 0.026802562
-0.005514084 -0.018193502 0.032545142 -0.0070652384 -0.0019975998 -0.0053030984 0.036522955 0.034830783
0.005361666 0.034165308 -0.027020184 0.015849847 0.011880113 0.037346475 0.011266575 0.011849469
0.09619248 0.013958641 0.026957218 0.03500109 -0.0036729104 0.0024638376 -0.068296805 0.014661518
-0.008865274 0.0065446435 0.032825667 0.009362712 0.014609088 0.0048879497 -0.010296097 -0.019383183
0.031281732 0.032565333 0.0222792 0.014663445 -0.011596403 0.0011590549 0.020852458 -0.012797197
0.036341667 -0.037102796 0.009873665 -0.037245613 0.0005078528 0.0062327404 -0.058801237 0.018381102
-0.03162548 -0.0069821775 0.011794093 0.035222355 -0.023797804 0.01805729 0.03193645 -0.0186891
-0.01419845 -0.018303275 0.038885325 0.03705198 0.024319096 0.043473803 -0.04320057 -0.03931857
0.027941078 0.01579862 0.014593078 -0.07675192 0.013069887 -0.017009357 -0.006079744 0.022901885
-0.024296127 -0.037209623 0.0097174095 0.074923046 -0.0032710156 0.023670021 0.002281949 -0.011334314
-0.019306606 0.03264434 -0.004652523 -0.013766053 -0.0036221533 -0.010360186 -0.00041237267 0.023298396
0.021551214 0.030249257 0.015804548 -0.014698679 -0.075007126 0.010621354 -0.063609414 0.0030065777
0.06428179 0.048783153 -0.03836006 0.001556864 -0.029343912 -0.015473133 0.007872409 -0.0033498437
0.017598307 -0.0034726262 -0.01450536 -0.010237545 0.018557169 -0.01873493 0.024894647 -0.009794626
0.0012975032 -0.0013174621 -0.039154436 -0.062739074 0.007179919 -0.02912008 0.027964422 0.005550975
0.025586003 -0.0073922286 0.008201406 -0.005609746 0.0051045995 0.019855144 -0.032239158 0.06276218
-0.011623089 -0.03410498 -0.044536963 -0.03179187 -0.022954373 0.03600712 -0.07888824 0.0025765125
-0.009317127 0.017647801 0.012356366 -0.06073897 -0.033184715 -0.018849904 0.0037766357 0.04647861
-0.038688716 -0.04690194 0.053959545 0.024577603 0.016046295 0.03874955 0.028389258 0.009987596
-0.074213825 -0.05819453 0.012487801 -0.020221347 0.028123014 -0.065118834 -0.038005836 -0.007646222
-0.09356319 0.034888875 -0.022313768 -0.05513453 0.034955725 -0.026248887 0.014635782 -0.05830402
0.048969958 0.014826309 0.005186843 0.016877353 0.029841188 -0.03508302 0.012353477 0.009203081
-0.020461857 0.032529805 0.06260873 -0.0075790472 -0.022393815 -0.0056926976 0.02353224 -0.014383641
-0.034225617 -0.020244962 -0.006585731 0.003354543 0.01972651 0.022952063 -0.0014720025 -0.044675943
-0.049989652 -0.016182434 0.026757816 0.027042216 0.013106143 0.0178355 -0.037084468 -0.06519877
-0.02688466 0.011638948 -0.014118716 0.002279387 -0.04560085 -0.024278555 0.015760284 -0.01618953
-0.023368347 -0.020890467 0.020287577 0.018808974 0.053245638 0.021646684 -0.005388663 -0.0036511684
-0.03099163 0.010694792 0.015158286 0.040805474 -0.020683873 -0.06701945 0.007818495 0.025028413
0.02426167 0.031010296 0.011207277 0.02584301 0.003836361 0.06899184 -0.050568525 0.036064822
0.0038906666 -0.015709257 -0.026992388 0.037273042 -0.029293895 0.02209734 -0.018341703 0.09120226
-0.013053705 -0.037270404 -0.0056242356 0.02662999 -0.0013007326 -0.008947086 0.042480633 -0.0030773594

fc2.bias f4 [256]
00000000: 1c3d d0bd 8dba cfbd 51e6 c43d 3ee8 c63c
00000010: 92a9 e3bc 8c25 88bd 89ed 2cbc 4fb8 3cbd
00000020: d221 9f3d 8a63 263d 5c7f 6a3b ef69 883c
00000030: d3a9 83bd e939 6c3d 7ee3 c8bd d95e 8c3d
00000040: 05eb 8f3d dec2 b03d b322 713d 331e 2dbd
00000050: 5bc5 993d e311 de3d a955 bcbd 8a4b 183e
00000060: 243b c7bc 38ca 3e3d fcc8 a8bd c883 8fbd
00000070: 74bf c9bc a05e 903d 945e dbbd 0c79 8c3d
00000080: 187c 85bd 6024 e1bd 0d93 94bd 2a6f 213d
00000090: 1115 9dbd be33 9f3d 5985 923d d5a8 4e3e
000000a0: 554d 4dbd 6fa4 313d dc14 13be d951 c2bb
000000b0: 45b5 8fbd 0e04 513d dafe c8bd 77e4 7dbd
000000c0: e62d 19bd ee79 b8bd 09df b43e 041d 973d
000000d0: a501 703d 980d d63d 20d5 813d 4acd 6f3d
000000e0: ea69 d4bc 65fd 75bd c589 723d 0d28 273d
000000f0: 5c45 8fbd 9f66 10be 5991 d53d 96d7 bcbd
00000100: e690 043d ea4b a33d 141b 083d 1295 6e3d
00000110: 3d51 b1bd 218b 373d d333 afbd 9561 843d
00000120: f42a 62bc ee4b e13d 6b30 d03c b6cb 863d
00000130: da0b 143d 6abf 273d fbd2 bd3c d2ad b13d
00000140: 30f4 493d 209a 223d c38f 88bd ddf3 ab3d
00000150: b895 9ebd ebc4 0bbc 52e2 93bd 070d 1638
00000160: be44 4b3d c74e 8cbd 30aa 013f 8245 85bc
00000170: c635 e43e 34d3 87bd 9c96 993d 9a3d d0bc
00000180: 1ce6 82bd 9e4b 6d3c 0b74 a0ba dbb9 acbd
00000190: 05ef 473d 7ad9 a4bc a558 803c aa83 ddbc
000001a0: 82a2 a6bd e6c7 deba 203c 223d 54a1 8b3d
000001b0: d228 a13d ba20 a5bd b3dd 313c f4f2 55bd
000001c0: a343 01ba 962a ccbd ee16 f6bb 8288 443d
000001d0: 18f2 9fbd 4c0b 4c3c e434 153d 0fc0 d7bd
000001e0: e8f1 453d e6dd 48bd 0580 c9bd 31f9 86bd
000001f0: 02c4 03bc 25b0 d23e 4160 69bd d70e a4bd
00000200: 5453 05be 4c43 0abe 63e8 07bd dafa 0abd
00000210: 3160 cd3c bd1a 603d 2109 1bbd 9e1f cbbd
00000220: 8afe 31bd f466 6fbc e762 813d a76f a53d
00000230: e3dd f63d 51a5 e23d c8c3 9a3e 9660 a73d
00000240: 5b47 9d3d d4d8 513d 021f 20bc b2bf a1bc
00000250: 1ce3 b9bd 7ec7 a2bd 7d34 dd3d 0170 72bd
00000260: 8fa9 943d 558d b13d 9f41 bb3d 46ed b2bd
00000270: 4c7f 203e e428 dc3b 361d 4d3d 9e99 ef3c
00000280: 669c 653d a6cd e83d 80df 3d3d 3857 fdbc
00000290: 3331 5a3d 4459 043e 8f89 153d 1a0b 703d
000002a0: d25f b0bd 64c0 a13e 0eea 59bd dc9e a83d
000002b0: b50b 0c3d a523 00be 1e36 b83d dd84 5c3d
000002c0: d3aa c53e d41c ff3d dad4 c43d b442 473c
000002d0: b2e1 643d aeea 4e3b 012d 313d 2ac3 bc3d
000002e0: efd7 8abd ea25 4dbd 042f f53d 984a 95bd
000002f0: 176a 8d3e c172 04be 235f 4e3d 476b 313e
00000300: 8b90 38ba 157e d33e 1740 52bd 7e0e 99bd
00000310: 528c 023e 3374 8a3d ae5c 9dbb e5ad 2c3b
00000320: 8f01 eebd 0020 d03d dc07 983e d2df bd3c
00000330: 814d cebc 9bac 843c fd85 a2bd dcde 87bd
00000340: e769 07be 1021 773d 85dd cdbc dd39 7abd
00000350: 519e d8bd f2e4 9cbc 8103 a23c 0343 73bd
00000360: 41d5 ad3c a3e9 8bbd d948 ddbd d765 cabd
00000370: db0e b93e dbd9 bf3d 6051 1f3d b37f 903d
00000380: ec7d 313c dc5a b3bb 95a7 653c 16bf 24bc
00000390: 2e34 13bc ee72 ca3d 1e9c 98bd fa44 d0bd
000003a0: 0a6c 89bd 1b19 673d 4b08 f43c 084a b8bd
000003b0: 5eea 8c3d 5539 c8bd e80f ff3c 5e51 c33c
000003c0: d03f 623d 6c51 723d 6a5a cf3c 86d0 a23d
000003d0: d76d af3c 5734 62bd 351e a8bb 668f ee3d
000003e0: 91f3 8c3d 4206 c9bd 4cfc 263d ad2b 8f39
000003f0: b248 eb3c 3497 4fbd e011 583d 86ce 03be
-0.10167906 -0.101430036 0.09614242 0.024280664 -0.027790818 -0.066477865 -0.01055468 -0.046074208
0.077701226 0.04062227 0.0035781479 0.016652076 -0.06428876 0.057672415 -0.09809016 0.06854028
0.07027248 0.08630918 0.058870982 -0.04226513 0.07508346 0.10843255 -0.09196026 0.14872566
-0.024320193 0.04657957 -0.0824146 -0.07007557 -0.024627425 0.07049298 -0.10711399 0.06859025
-0.0651781 -0.10993266 -0.0725461 0.039412655 -0.07670034 0.07773541 0.0715434 0.20181592
-0.050122578 0.043369707 -0.14363426 -0.005930167 -0.07016996 0.051029257 -0.09814234 -0.06198546
-0.037397288 -0.09007631 0.35326412 0.07378581 0.05859532 0.104518116 0.063394785 0.05854539
-0.02592941 -0.06005611 0.05921342 0.04080968 -0.06995651 -0.14101647 0.104281135 -0.09220807
0.03236475 0.07973464 0.03322895 0.058247633 -0.08658073 0.044810418 -0.085548066 0.06463925
-0.013804186 0.110008106 0.025413712 0.065818235 0.036144115 0.04095403 0.023171892 0.08675732
0.04930514 0.039697766 -0.06668045 0.083961226 -0.077434 -0.008530836 -0.072209015 3.577492e-05
0.049626105 -0.06850963 0.5065031 -0.016268495 0.44572276 -0.06632081 0.074994296 -0.025419999
-0.06391546 0.014483361 -0.0012241615 -0.084338866 0.04881193 -0.020123232 0.015667269 -0.027040321
-0.08136465 -0.001699683 0.03960812 0.0681788 0.07869114 -0.08062883 0.01085608 -0.05223365
-0.0004931038 -0.0996906 -0.0075100577 0.047981746 -0.078098476 0.012453865 0.036427394 -0.10534679
0.048326403 -0.049039744 -0.09838871 -0.06590498 -0.008042337 0.41150013 -0.05697656 -0.08010643
-0.13020068 -0.13502234 -0.033180606 -0.033930637 0.025070282 0.054713 -0.037850503 -0.0991814
-0.043455638 -0.014611948 0.06317692 0.080779366 0.1205404 0.11066688 0.30227494 0.08172719
0.076796256 0.051232174 -0.009773018 -0.019744728 -0.09076521 -0.07948206 0.10801027 -0.059188846
0.07258903 0.08669535 0.091433756 -0.087366626 0.1567356 0.0067187417 0.050076686 0.029248055
0.056057356 0.11367349 0.046355724 -0.030925378 0.053269576 0.12924677 0.03650814 0.058604337
-0.08612026 0.31592095 -0.053201728 0.08233425 0.034190852 -0.12513597 0.08994697 0.053837646
0.3860689 0.124566704 0.09610911 0.012161899 0.055879302 0.0031572985 0.04325581 0.09216912
-0.06779467 -0.050084986 0.11971858 -0.07289618 0.27620003 -0.129344 0.0503837 0.1732608
-0.00070405815 0.4130713 -0.051330652 -0.07473467 0.1274884 0.067604445 -0.004802308 0.0026348766
-0.11621391 0.101623535 0.29693496 0.023178015 -0.025183441 0.016195586 -0.079357125 -0.06634304
-0.13223992 0.060334265 -0.025130043 -0.06109034 -0.105770715 -0.019152138 0.019777061 -0.05939008
0.021219851 -0.06831672 -0.1080491 -0.09882706 0.36144146 0.093677245 0.038895965 0.07055607
0.010833245 -0.0054734778 0.014017005 -0.010055324 -0.008984609 0.09885202 -0.07451652 -0.10169406
-0.0671006 0.056420427 0.02978911 -0.08998495 0.068806395 -0.0977656 0.031135514 0.02384251
0.055236638 0.05915968 0.025311667 0.07949929 0.02141468 -0.055225696 -0.005130554 0.11648445
0.06882394 -0.09815647 0.040767953 0.00027307626 0.028721187 -0.050681308 0.052751422 -0.12871751

fc3.weight f4 [128, 256]
00000000: d2eb 26bd 80b9 433c 1c94 0bbd 5014 953c
00000010: e628 5cbd e08e cc3b 18ff 513d c525 7b3b
00000020: b447 e43b 9c65 953b 67ab a13d 677f 893d
00000030: 7242 b43c b32d 4a3d a04a a93c 3d83 813d
00000040: 1507 9a3d 3854 113d 264e ac3b 7057 15bc
00000050: 5cc7 cabb 4478 c63d dc06 1abd 4296 52bb
00000060: ea0b cbba 040f a7bc 310d ba3c 81f8 d8bb
00000070: 26d8 50bc 5b05 5e3d fc3a 50bc 55e7 dc3b
00000080: 7c01 ab3c 4bdc fbbc b85a babb c112 8b3d
00000090: 6d6b 68bb 94ae bc3d a937 bf3b 02e4 dcbb
000000a0: 0402 83bd b799 ad3c 77e4 80bd 728e f93b
000000b0: a599 01bc d626 8dbc d9b5 06bd c5a7 6fbc
000000c0: 0d28 173d 10c9 8dbd 0a82 ae3b a7cc 443d
000000d0: 8ddd 053d 8c89 f53c 67d1 8abb aeb7 5abd
000000e0: 1573 a73c 1537 86bd fd09 603d cc5c d7bc
000000f0: bf17 48bd 3360 99bc d0ce 2c3d 2cb7 19bd
00000100: b786 1bbd cd94 c7bc d4ee 2fba 9618 b53d
00000110: f50e e33b 6a94 1dbd 2f2b 7fbd a507 7f3d
00000120: 156a 58bc 27ba 7c3c 695c d53d c582 613d
00000130: 2702 203c e0fd 24bb 769c 113d 07ff 0d3d
00000140: 8028 eb3c c87e 853d 0057 83bd ea51 45b9
00000150: 07d6 5fbd 5282 89bd 24d2 18bd 10c5 6fbc
00000160: adfc 8d3d e998 4b3d dac9 233c fc50 733d
00000170: 02f4 9d3b d217 1bbd ae0b 87bc 9ac7 f7bb
00000180: adf3 2a3d 6ae3 983b c972 893c 45b7 49bd
00000190: c87b 9fba 5487 40bd d379 763d aa58 823c
000001a0: eabc 88ba ec9b a73c 2ac1 2cbc 54d0 913d
000001b0: 922e 403c e340 91bb 6f33 4f3d 2e25 77bd
000001c0: 8352 c6bc 3799 0a3b 7054 71bd b0b4 cc3c
000001d0: a4d4 06bd 60b7 763d cd4a 413d ed6d 81bc
000001e0: 74b8 033c 2425 13bd 65ad 8cbd 1d3f 98bd
000001f0: 4ebd 2d3d f7d9 ba3c 8e77 9dbc 896e 9ebd
00000200: e129 47bd 55cd 91bd ba52 02bd 0abf 8bbc
00000210: f854 51b9 ad16 923c 4d9a 38bd c0fc b0bd
00000220: 9e85 05bd 3b25 843c 53c9 eb3c 74d4 5aba
00000230: 0db4 943d 2fa9 853d 31d3 e63c 35a7 af3d
00000240: 7be9 1abd b419 a63c d18b 273d 993c 0d3c
00000250: 8a3d 33bd 6c90 fbbc 8447 8c3d 8744 e7bc
00000260: 503c 803c d01b 563c 55c6 5abc 6241 a5bc
00000270: 6983 0a3d 7657 af3d 1a02 d1bb 89c3 9b3d
00000280: 154c 313b 2e4f 3d3d 824d 2e3d 9c79 eb3c
00000290: b23e 923d fb5f 193d ef4f 523c 47d1 903d
000002a0: ebab 3ebd a49c 5b3c 422f a9bd df35 a33d
000002b0: 815d dbb9 55ba c33c d643 803c 90c6 813d
000002c0: 885d a33c b333 e43c 3977 813c 1de1 833d
000002d0: 2b0d 9d3d 5cc7 f0bc 4e82 0d3d e235 843c
000002e0: 57a5 24bc 6a37 b3bd be3f 523d 3290 b3bd
000002f0: 74e2 053c 3958 94ba 7e52 723d e8f5 b3bb
00000300: cf71 74bb b2a9 023c 6c25 063c 3966 e03c
00000310: 52e1 afba 4e5d b1bc bb61 dcbb 7cdc 393d
00000320: 8280 34bd 7e88 9dbc ceac d93b 7c8b 6e3d
00000330: 1068 17bb f75f ae3b a519 0dbd b0f1 e7bb
00000340: 8e05 7dbd 653c 113d e044 2ebd 3d39 38bc
00000350: 28e6 5abd 6283 22bc 1751 d8bc 1de6 80bb
00000360: 28bc 843d 9e4d a4bd a163 ecbb 2c2e 7fbd
00000370: 8188 0f3c cb08 343c a62a 4d3d 7f9c 5a3d
00000380: 5af2 d73d 8f3a 813d 3276 85bd b544 36bd
00000390: 03a7 fa3c 2e17 ad3d 8d3e 20bd 3f34 8839
000003a0: d70e 303d fb2f e83c 91ca bc3d 0eb8 b0bc
000003b0: 8947 01bc 94c9 60bd 06a2 943d 7eac 0a3d
000003c0: 8072 b23d 5179 763d 06c4 4d3d f8f5 273d
000003d0: ca86 803d 52ab 66bc 1a9c 02bd 4535 783d
000003e0: abde d13d 1f88 4dbd 7e98 a9bc 5f5b 8e3c
000003f0: 6dce aebc bbea 17bd 7176 81bc 6da0 87bd
-0.04075224 0.011946082 -0.034076795 0.018198162 -0.05374994 0.006242618 0.051268667 0.0038322073
0.0069665555 0.004559232 0.078940205 0.06713753 0.02200434 0.04935999 0.020665467 0.0632386
0.07520882 0.035480708 0.0052583395 -0.009115085 -0.0061883163 0.096909076 -0.037604198 -0.0032133018
-0.0015491222 -0.020392902 0.022711368 -0.006621421 -0.012746846 0.054204326 -0.0127093755 0.006741444
0.020874731 -0.030744692 -0.005687084 0.067906864 -0.0035464421 0.09212986 0.0058354926 -0.006741048
-0.06396869 0.021191461 -0.06293576 0.0076158578 -0.007910167 -0.017230432 -0.032888267 -0.014627402
0.03690343 -0.06923115 0.0053255605 0.048046734 0.03268199 0.029972814 -0.0042363885 -0.053397827
0.020440618 -0.06553475 0.054697026 -0.026289366 -0.04885077 -0.01872263 0.04218942 -0.037528202
-0.03797027 -0.024362946 -0.00067113084 0.0884258 0.0069292733 -0.038471617 -0.062297042 0.06226315
-0.013208886 0.015425242 0.104180165 0.055056352 0.009766138 -0.0025175735 0.035549603 0.03466704
0.028705835 0.06518322 -0.06413078 -0.000188179 -0.05464747 -0.0671431 -0.03730978 -0.014634386
0.0693296 0.049706373 0.009996856 0.059403405 0.0048203478 -0.037864514 -0.016485061 -0.007561636
0.041736294 0.0046657817 0.016778367 -0.049247045 -0.0012167627 -0.04700406 0.060174774 0.015911419
-0.0010432277 0.020460092 -0.010544101 0.071198136 0.011729853 -0.004432784 0.05058616 -0.06033819
-0.024209267 0.0021148452 -0.058918417 0.024988502 -0.032917634 0.060233474 0.047190476 -0.015799487
0.0080395825 -0.035924092 -0.0686901 -0.07433913 0.042416863 0.022809012 -0.019222047 -0.07735927
-0.048623923 -0.07119242 -0.031817175 -0.017058868 -0.00019963447 0.017833078 -0.045069028 -0.08641958
-0.03259813 0.016131034 0.028782522 -0.0008347698 0.072609045 0.0652641 0.028176876 0.08576814
-0.03782032 0.020275928 0.040904824 0.008620405 -0.04375986 -0.030708514 0.06849578 -0.028230919
0.01565376 0.013068154 -0.01335295 -0.020172779 0.03381673 0.08561604 -0.0063784244 0.07605655
0.0027053405 0.04621809 0.042554386 0.028744511 0.071408644 0.03744505 0.0128364405 0.070711665
-0.046550673 0.013404045 -0.08260967 0.079692595 -0.000418406 0.023892561 0.015657347 0.06336701
0.01994206 0.027856683 0.01580392 0.06439421 0.07668527 -0.029391937 0.034548096 0.016138975
-0.010049186 -0.08750804 0.05133032 -0.087677374 0.008171666 -0.0011317796 0.059160702 -0.005491961
-0.003729928 0.007975029 0.008187633 0.027392494 -0.0013418591 -0.021650936 -0.0067255176 0.045376286
-0.044067867 -0.019230124 0.0066429144 0.05823849 -0.0023102798 0.0053214985 -0.034448285 -0.007078372
-0.061772875 0.035457987 -0.042546153 -0.011244115 -0.05344215 -0.009919019 -0.026405854 -0.0039336816
0.064812005 -0.08022617 -0.007214025 -0.062299892 0.008760572 0.0109884245 0.0500895 0.053371903
0.10544272 0.06309997 -0.065166846 -0.044499118 0.030597216 0.08451687 -0.039122153 0.00025978868
0.042982902 0.028343191 0.09218324 -0.02157214 -0.0078905905 -0.05487974 0.07257466 0.033855908
0.087132454 0.06017429 0.05023577 0.04100606 0.06275709 -0.014078932 -0.03188715 0.060597677
0.10247549 -0.050178643 -0.020702597 0.017377554 -0.021338666 -0.03708909 -0.015803548 -0.06622396

fc3.bias f4 [128]
00000000: 0524 753c 6707 05bd 8217 aebd 2b51 89bc
00000010: 75b1 4a3b 5915 2d3d 3427 473d 4747 87bd
00000020: 55b6 403c b850 19bc 2fe2 db3c bef4 bcbd
00000030: c267 5e3a 363e f53c 281c 423d 0ab5 4e3c
00000040: d131 68bd b568 7b3b dc1c abbc 7843 d33d
00000050: 03b4 363b 12f1 a8bd 9e93 953c d6f8 91bc
00000060: 36d9 12bd a8f0 223b 2e16 1bbd badd b4bd
00000070: f95b d63c 7b26 45bd f681 9b3c 01c0 7fbd
00000080: b6a6 f03e 05b2 733c 4ca6 85bd c05d a0bc
00000090: 46d1 22bd 1180 283d b816 8a3c 89a1 47bd
000000a0: ac23 703c 2736 33bd cb60 243d 5edd 00bd
000000b0: 36e0 74ba 9b5d 33bd 784c fc3b 56e1 d53c
000000c0: 34b0 4c3d d238 81bc fb30 dbba 50ee 6bbb
000000d0: 62ba 653d 8508 f1bc 49f9 b7bd f4a4 93bd
000000e0: b290 ba3c fe69 8fbd 3f37 753d 42bb a7bd
000000f0: 0f5b 83bd fd5c e93c 8674 ed3e b1e5 0e3c
00000100: 1d16 48bd 28af 9d3b fc88 823d a4af 803c
00000110: 4ba3 00bd 747d 60bc eac6 833c 8471 053c
00000120: 065f d6bc 00d1 7fbc df47 24bd 2a4b 2e3c
00000130: b0ab 14bd 8fa1 72bd 8e55 f5bc af0f a9bd
00000140: 88ca 853d 7b8e ec3c e886 3c3d 950e 683d
00000150: 21da 77bd ca8e bb3c 1c13 65bd 9fda 9a3c
00000160: 09e2 74bc 13cf 6e3d 0755 e63c 90b0 d6ba
00000170: db6a b4bb b4dc 793d 0aa0 38bb 82eb 533c
00000180: dad0 603d f5ea acbc 24ac 1f3d a230 62bd
00000190: d024 3ebd 9989 af3e b0e9 dd3b 5a6b 54bd
000001a0: 4bd1 3cbd c373 e0bc 7be2 143c 3243 2a3c
000001b0: 0b02 6fbb ffcd f5bc 7e31 52bd f876 15bd
000001c0: 3b39 b13c 13f8 d43e ca54 62bc 3d0e 943c
000001d0: d528 01bc 7233 1fbd 0af9 74bd 4365 a4bd
000001e0: 6529 43bd 71df 07bd c11c 7a3c dc64 38bd
000001f0: 7624 0fbd ba44 d73c e2f3 61bb 843a 73bd
0.014962201 -0.032477763 -0.085005775 -0.016762337 0.0030928527 0.042256687 0.04862137 -0.06605392
0.011762221 -0.009357624 0.026841251 -0.09226368 0.0008484089 0.029936891 0.047390133 0.012616405
-0.056688134 0.003836197 -0.020887785 0.10315603 0.0027878291 -0.082491055 0.018258866 -0.01781885
-0.03585168 0.002486268 -0.03786295 -0.088313535 0.026166903 -0.0481324 0.018982869 -0.06243897
0.4700219 0.014873986 -0.06525859 -0.019575953 -0.03975036 0.04113776 0.016856536 -0.048738036
0.014656942 -0.043752816 0.04013137 -0.031461112 -0.00093412714 -0.04379044 0.0076995455 0.026108425
0.049972728 -0.015774164 -0.0016722971 -0.00360002 0.05608595 -0.029423008 -0.08983094 -0.07209197
0.022774074 -0.07002638 0.05986714 -0.081900135 -0.064138524 0.028486723 0.46377963 0.008721755
-0.048849214 0.00481214 0.06373784 0.015708752 -0.03140573 -0.013701785 0.01608606 0.00814474
-0.026168358 -0.015613794 -0.040107604 0.010638038 -0.036296546 -0.059236106 -0.029948022 -0.082549445
0.065327704 0.028876534 0.046027094 0.05665453 -0.06051076 0.022895236 -0.055926427 0.018903075
-0.014946469 0.05830295 0.028116716 -0.0016379524 -0.005505902 0.061001495 -0.0028171563 0.012934567
0.054886676 -0.02110813 0.038982525 -0.05522216 -0.046421826 0.34284666 0.0067722425 -0.05186019
-0.046098035 -0.02739895 0.0090872 0.010391997 -0.0036469724 -0.030005453 -0.05131673 -0.03649041
0.021633735 0.41595516 -0.013814161 0.018073196 -0.00788327 -0.03886742 -0.059807815 -0.08027127
-0.0476469 -0.033172075 0.0152656445 -0.045018062 -0.03494688 0.026277889 -0.003447764 -0.059381977

fc4.weight f4 [1, 128]
00000000: c67c a4be 3c47 b93e 8b19 c43e ebaf cabe
00000010: 84e7 d1be 5a48 9ebe 3f59 bebe ac08 ab3e
00000020: 4f54 bebe 10cb a9be 3dc8 bdbe ed25 ce3e
00000030: 0236 b9be 312d c1be 83b1 babe 569b b63e
00000040: 53ba b53e f5a3 8e3e 5852 a53e 5b3f cdbd
00000050: cb0d cfbe ad87 b63e f5c2 5b3e 701a 963e
00000060: f477 ae3e 6668 c1be 4e32 c8be 5ce0 bc3e
00000070: 28a9 be3e 5498 c9be e92f a73e 5a49 b53e
00000080: bb3d 0c3a 96b8 c4be 1c11 af3e 7938 8c3e
00000090: 4d41 afbe 216a bebe 2b70 bb3e 514e c73e
000000a0: 835f cabe 96de 833e 8637 bbbe f146 7f3e
000000b0: b97a 9a3e 46dc a8be 13e3 bcbe ed87 b2be
000000c0: de0a aabe 951a c6be e112 aa3e e22c d4be
000000d0: 270a babe 838b b63e 76eb bd3e 9ff2 ac3e
000000e0: 4ab6 a5be b2b3 c33e 3309 9fbe 6265 b53e
000000f0: a346 cb3e 24fa c0be 7ed8 4d3a 65e7 b0be
00000100: 3797 cb3e 6846 c5be fc64 d1be 95a0 b4be
00000110: 12fc bc3e 863b b03e df2e 5d3e 77ff c5be
00000120: 6863 b6be f4bc dabe 9124 cd3d 694a cc3e
00000130: d15a dbbe ec9b d23d 6b0d 74be 293a c63e
00000140: 6788 27be 0443 d4be 8abe c2be 981a c0be
00000150: c835 c8be 0694 d6be 88e4 ba3e 627e a63e
00000160: 29a6 ae3e 7af7 69be 9619 98be f161 ae3e
00000170: aab6 c6be a9d2 d13d a7f5 b93e b637 ae3e
00000180: 66da bebe aaba 72be d9b9 b2be 9b46 c53e
00000190: 22bd bfbe 5164 07bb c8a7 c7be 2794 b23e
000001a0: 41aa d5be ae72 393e 9dd0 ae3e 78e4 45be
000001b0: 8719 c6be e899 ba3e cf1e a0be c294 c13e
000001c0: 4f6a 973e 8bd7 f3ba ba35 b7be 6409 a8be
000001d0: ee46 a33e 800c b63e bca0 a33e a6eb bc3e
000001e0: b021 c1be 6034 883e 4f0a 8fbe 4eed a93e
000001f0: 34b4 c33e 9ecc bcbe a15f 90be 50c5 bb3e
-0.32126445 0.3618716 0.38300738 -0.3958734 -0.40996945 -0.30914575 -0.37177464 0.33405054
-0.37173697 -0.33162737 -0.37066832 0.4026331 -0.36174017 -0.3772979 -0.36463556 0.35665387
0.35493717 0.27859464 0.32289386 -0.1002185 -0.4044021 0.35650387 0.21461089 0.29317045
0.34075892 -0.37774962 -0.3910088 0.36889923 0.3723843 -0.3937403 0.3265374 0.35407525
0.0005349775 -0.38422078 0.3419274 0.27386835 -0.34229508 -0.37190345 0.36609015 0.38926938
-0.39525995 0.25755757 -0.365658 0.24929406 0.30171755 -0.32980555 -0.36891994 -0.34869328
-0.33211416 -0.38692155 0.33217528 -0.41440493 -0.3633587 0.35653314 0.37093705 0.33778855
-0.32365638 0.38223034 -0.31061706 0.3542891 0.3970233 -0.37690842 0.0007852389 -0.3455154
0.39763805 -0.38530278 -0.40897357 -0.35278764 0.36911064 0.34420413 0.21599911 -0.38671467
-0.35622716 -0.42722285 0.1001674 0.3990052 -0.42842725 0.10283646 -0.23833244 0.38716248
-0.16360627 -0.4145738 -0.38035995 -0.3752029 -0.39103532 -0.41909808 0.3650248 0.32518297
0.34111145 -0.22848311 -0.2970702 0.34059098 -0.38811237 0.10245258 0.3632023 0.3402688
-0.37276 -0.23704019 -0.34907416 0.3853043 -0.37448984 -0.0020659158 -0.38995194 0.34878656
-0.41731456 0.18110153 0.34143534 -0.19325435 -0.3869135 0.36445546 -0.31273505 0.37808806
0.29573295 -0.0018603666 -0.35783178 -0.32819664 0.31890053 0.35556412 0.31958568 0.36898535
-0.37721014 0.2660246 -0.27937552 0.33188862 0.38223422 -0.3687486 -0.2819796 0.36673975

layer_norm1.weight f4 [512]
00000000: aff2 5b3f 4068 603f e9ef 823f ce84 793f
00000010: c309 6f3f 43d4 6c3f ab2a 5c3f cc19 793f
00000020: d59a 653f 6343 7c3f fab0 723f 2525 663f
00000030: 8bff 623f 02b1 653f 0df2 623f d116 623f
00000040: 3994 7c3f c6a3 6b3f 7d61 833f 2478 6e3f
00000050: f582 6b3f a8a3 823f fd1c 673f 62ab 803f
00000060: 3369 7e3f 3ff1 593f 3a24 6c3f 5453 723f
00000070: fc8d 833f b4c7 613f f130 823f 4eaf 553f
00000080: e17a 5d3f a1c0 723f 8f94 893f fc7f 823f
00000090: 46de 833f 369f 803f aee0 6c3f ba1f 5e3f
000000a0: e6d7 633f b7df 6d3f e091 623f 6d6c 6d3f
000000b0: 83bd 633f 5033 7f3f 10f8 653f e2f8 583f
000000c0: bfa5 713f 65cb 863f b4e1 6b3f 72c7 683f
000000d0: 9b5e 803f d247 8b3f 153b 6c3f e880 603f
000000e0: 9d9a 683f 4373 8b3f eeb0 633f fe2e 783f
000000f0: 89d6 923f 2d1b 773f ea67 763f a567 893f
00000100: f1f4 6a3f d928 923f c696 663f fc62 713f
00000110: 599f 813f bdbe 763f 3260 973f eec9 7d3f
00000120: 67e0 883f f34d 6a3f 08c7 733f a0f7 943f
00000130: 824a 763f 8ca7 643f a824 6a3f 6d64 6a3f
00000140: 8d75 803f 6c49 703f 1e8e 6b3f 172b 6c3f
00000150: 7fc5 653f dd7a 823f eac3 7d3f 1ff1 923f
00000160: f53e 523f c574 643f 3e8c 7b3f 1067 843f
00000170: b6d9 8a3f 1dfe 543f 0348 8d3f 7c2c 6b3f
00000180: 09c2 803f 3511 673f 9273 783f 5d68 823f
00000190: f70a 863f 3bdf 8c3f 8141 873f 0518 793f
000001a0: e005 893f e3c9 603f 418a 743f 8718 843f
000001b0: 2f78 8d3f 9cff 623f 4a13 803f e708 633f
000001c0: f581 5e3f 0d06 7d3f 5867 553f 3497 843f
000001d0: 8a85 823f dbf3 643f d318 5b3f 7605 6a3f
000001e0: c207 5f3f fedf 793f a94d 793f 2b29 8a3f
000001f0: e518 693f 9f75 5d3f 251d 5c3f 4f2b 843f
00000200: c3d4 833f 72fa 903f 2e6b 663f 3324 863f
00000210: e1ae 753f d8a5 8b3f 9b14 923f a916 813f
00000220: a25e 893f 9ee2 853f b01e 853f b8cf 773f
00000230: 3b08 6e3f 6e3e 833f 7500 8d3f a5a7 803f
00000240: 6004 8c3f 8c5c 6a3f ef23 793f 49b8 8d3f
00000250: cc77 683f 0d89 7a3f b2f9 7f3f 6920 693f
00000260: 7d65 853f fd79 843f 6aa9 743f b172 683f
00000270: a8b5 8b3f 8852 753f a089 903f 474e 833f
00000280: ab15 853f ee36 6f3f 3396 633f 4b1a 6a3f
00000290: 1ce6 823f f855 923f bb7a 723f d368 6e3f
000002a0: c0c7 843f 4ca8 863f 3ce0 683f 22f8 733f
000002b0: 604d 7a3f ba38 773f 8798 713f 248e 903f
000002c0: 709c 743f b854 553f 2af7 823f 5e75 753f
000002d0: 325a 6b3f c28f 843f 07f2 6a3f 1b94 663f
000002e0: 4cc6 763f 0016 683f 97e0 6f3f 3d95 713f
000002f0: 06ad 8a3f 33d8 653f 115f 663f 9816 693f
00000300: 9b81 813f d742 903f 9de7 7d3f 9934 6c3f
00000310: daeb 833f d4c1 613f e9f1 8f3f 5f4e 843f
00000320: 17a6 683f 6b66 6c3f ce86 753f e351 733f
00000330: fa1a 703f 6ba3 513f 66ff 763f e570 6f3f
00000340: 3280 8a3f be01 803f 3b5e 813f 996a 783f
00000350: 2394 8f3f 607a 8d3f 4ebe 733f b9a2 713f
00000360: cae5 913f 3ad1 743f afe3 7a3f 4220 763f
00000370: a652 6f3f 2508 7a3f 6552 8c3f 6877 6c3f
00000380: 999c 8f3f 2056 863f 9d8c 723f ad89 6a3f
00000390: 9f98 6b3f 8556 7f3f 57ba 823f ca47 683f
000003a0: 1176 653f 6cc6 793f 2f7f 7a3f 5247 563f
000003b0: 27a9 673f d178 6c3f c159 8d3f 9662 6c3f
000003c0: fde5 7f3f 4ad2 833f 0378 873f a794 6e3f
000003d0: 4282 683f 4abd 5e3f 21ee 8c3f 53b0 7a3f
000003e0: 45a4 6d3f 2223 7b3f 7541 883f fe35 8d3f
000003f0: 32d7 773f 2f0e 903f 4c1a 6a3f 404b 8c3f
0.8591718 0.8765907 1.0229465 0.9746827 0.9337427 0.92511386 0.86002606 0.9730499
0.8968938 0.98540324 0.94801295 0.8990043 0.8867118 0.8972322 0.8865059 0.88316065
0.9866367 0.92046773 1.0264126 0.9315207 0.919967 1.0206194 0.9027861 1.0052302
0.9937927 0.8513374 0.9224278 0.946584 1.0277705 0.8819535 1.0171186 0.8347062
0.86515623 0.9482518 1.0748461 1.0195308 1.0302207 1.0048587 0.92530334 0.8676716
0.8900131 0.92919487 0.8850384 0.9274357 0.88961047 0.9968767 0.8983164 0.84754765
0.94393533 1.0530821 0.9214127 0.9092933 1.0028871 1.0881293 0.9227765 0.87696695
0.9086092 1.089455 0.8894185 0.96946704 1.1471721 0.9652584 0.9625231 1.0734755
0.9178 1.1418716 0.9007381 0.94291663 1.0126754 0.96384794 1.1826231 0.99136245
1.0693482 0.9152519 0.9522557 1.1638069 0.9620744 0.89318156 0.91462183 0.9155949
1.0035874 0.9386203 0.9201373 0.9225325 0.8975448 1.0193745 0.99127066 1.1479834
0.82127315 0.89240676 0.9826087 1.0343952 1.084769 0.83200246 1.1037601 0.9186475
1.0059215 0.9026063 0.97051346 1.0188099 1.0472096 1.1005625 1.0566865 0.97302276
1.0704918 0.87808055 0.9552346 1.0319985 1.1052302 0.8867128 1.0005887 0.8868546
0.8691705 0.9883736 0.83360815 1.0358644 1.0197003 0.89434594 0.85584754 0.9141458
0.8712121 0.9760741 0.97384125 1.0793813 0.9105361 0.865076 0.8598197 1.0325717
1.0299305 1.132643 0.90007293 1.0479797 0.9596997 1.0909986 1.1412538 1.008504
1.0732005 1.0459783 1.039999 0.9680133 0.9298131 1.0253427 1.1015764 1.0051161
1.0938835 0.91547465 0.97320455 1.1071864 0.90807796 0.9786537 0.9999038 0.9106508
1.0421597 1.0349728 0.95571005 0.90800005 1.0914812 0.9582906 1.1292 1.0258263
1.0397238 0.9344319 0.8890106 0.9144637 1.0226474 1.1432486 0.9471852 0.931287
1.0373459 1.052011 0.90967155 0.95300496 0.97774315 0.9657093 0.94373363 1.1293378
0.95551205 0.83332396 1.0231678 0.95882213 0.919345 1.0356371 0.91775554 0.9006974
0.96396327 0.9065857 0.9370207 0.94368345 1.0834053 0.8978302 0.8998881 0.910501
1.0117677 1.1270398 0.9918154 0.9226776 1.0306351 0.88186383 1.12457 1.0336417
0.90878433 0.9234378 0.9590882 0.95046824 0.9379116 0.8188998 0.9648346 0.9353164
1.0820372 1.0000532 1.0106882 0.97037655 1.1217083 1.1052971 0.95212257 0.9438892
1.1398251 0.95631754 0.9800367 0.9614297 0.93485487 0.9766868 1.0962645 0.923697
1.1219665 1.0495033 0.9474581 0.91616327 0.92029756 0.99741393 1.0213116 0.9073454
0.8963328 0.9756839 0.97850317 0.83702576 0.9049248 0.9237185 1.1043016 0.9233793
0.9996031 1.029855 1.05835 0.93195575 0.9082376 0.8700758 1.1010171 0.979253
0.9282878 0.98100483 1.0644976 1.1032102 0.96812737 1.1254328 0.91446376 1.0960464

layer_norm1.bias f4 [512]
00000000: e105 aabe 1f17 bcbe aeec 3cbe c5bf 30be
00000010: cbf2 9abe 6063 87be a37f d5be 47cd 3abe
00000020: 6016 a4be 1606 8ebe dae2 96be e491 a1be
00000030: 4568 bebe 22f9 8dbe 915b 90be e11f b0be
00000040: 13ca 8bbe 8fff 1cbe c5aa 5fbe 4b5e 86be
00000050: fa89 b7be 1d3a 47be e262 cfbe b878 6dbe
00000060: 5121 a6be cae6 bbbe 60b5 83be f9ef d1be
00000070: 64cf 4fbe bb3d 7cbe e20d 37be 0ff8 a5be
00000080: a28d a2be daea 92be 2c1b 0fbe 4d15 72be
00000090: 0680 2fbe d5e9 0ebe 3c73 47be d90e 9cbe
000000a0: 9f91 68be c7fb a0be 666c 92be 400b b0be
000000b0: 95c2 c2be 9ef0 5bbe 57aa 8fbe 7290 aabe
000000c0: 7114 75be 866e e2bd 2849 c1be dd1e 95be
000000d0: a617 24be 287b 01be 9a9b 23be 1394 b8be
000000e0: 9cc7 5bbe b097 bbbd 6173 65be 15c0 b5be
000000f0: a9d0 86bd 3c17 96be 2a29 a4be 1936 32be
00000100: 9ed6 48be efba 8ebd 5248 bbbe dd6d 98be
00000110: 9f29 37be 05b5 cbbe 85db 65bd 21d5 54be
00000120: c08a fabd 05e6 b0be e951 9abe 0a25 d7bd
00000130: d335 9fbe 23f0 85be 64af 88be faf0 b4be
00000140: b3cf 73be c3e5 adbe a749 8dbe f910 c0be
00000150: 9c51 9ebe a33e 46be 2928 90be 35bd a7bd
00000160: 5084 cbbe 24c4 c7be 9f6c 84be 4d04 14be
00000170: ef26 cabd c290 bfbe 6616 08be ec7b 70be
00000180: 5c49 82be a17c 93be e4ab abbe 5605 34be
00000190: f4a3 38be d8f0 dcbd e060 14be b87b 97be
000001a0: a578 e6bd 668d b6be 7a1c 45be d116 26be
000001b0: 7cfd debd 399a e3be d43e 65be 6d9f 85be
000001c0: 7955 bdbe 65a7 81be 057e bfbe 2cd7 50be
000001d0: 239e 76bd 624d 65be 6e75 94be d584 84be
000001e0: ef49 adbe 4a89 77be 6f28 37be ed15 5fbe
000001f0: 2a1a 89be a19c b2be c2e7 b1be ea42 13be
00000200: 1391 e1bd bbcb 0cbe 7339 b9be 43a0 6cbe
00000210: 9820 80be 60a1 c3bd c8a2 d2bd b909 3bbe
00000220: 5081 f4bd 8ac2 4abe b499 2abe 1ea4 91be
00000230: db57 85be 376a 2bbe 3658 f3bd 0bab 8ebd
00000240: 6a61 a7bd 3faa 4dbe 91d9 98be b54c d7bd
00000250: 0d62 8dbe 2e6d 97be fb4b 36be d17d b8be
00000260: 2437 1ebe a3c0 56be 6b20 afbe 918c acbe
00000270: dabb 10be d057 22be d60e cabd c36f 6cbe
00000280: 316a 1fbe b8e1 7dbe 7ef2 b3be dfec 84be
00000290: 4949 12be c5b9 51bd 2bb1 7bbe e2d0 98be
000002a0: 3843 15be 4565 9cbe 5460 6fbe 8e83 92be
000002b0: a2e8 96be 2201 71be 633b a8be 1ae3 cabd
000002c0: 5d59 a8be 10eb aebe 48af 8bbe 4e2b 8cbe
000002d0: c092 bfbe c01a 08be 86c0 c7be fa04 aabe
000002e0: 7ec8 d3bd 5bab b6be 5104 6abe f929 7ebe
000002f0: 25da 0bbe 31c1 8fbe 71cd b5be 4b2b b0be
00000300: 1f43 4dbe 984c 83bd 1995 8fbe 72f3 a6be
00000310: e56a 2fbe 474e b2be c35c d3bd 38a8 1fbe
00000320: d20c 5cbe 2993 91be 3094 73be b015 a0be
00000330: 0980 53be c937 bfbe f13a 99be 9d75 a1be
00000340: 717e c4bd 5a82 2ebe bb3f 3dbe 4cc2 b5be
00000350: 4072 bebd 1869 21be e4d7 02be 6640 7ebe
00000360: a3b7 03be 7894 71be 1360 3dbe a2c1 abbe
00000370: 4ead 4abe 93f6 74be b4b3 02be 688e bebe
00000380: fea5 a3bd db6d b9bd 804c 82be 1bf1 b9be
00000390: c70c 77be 72e5 4bbe 1c5c 25be f4af a8be
000003a0: 044d 92be 8903 0abe bf8c 57be c4de a9be
000003b0: c571 a1be 237d d5be d476 eebd 208c 37be
000003c0: 6b9b 0abe a00b 1cbe 1c3d d5bd 7cff 99be
000003d0: ecb9 acbe 7827 a1be 67d0 b6bd d306 a4be
000003e0: c1e9 b0be e8a1 12be 8168 8ebd 1a61 29be
000003f0: 3c56 94be 8ef1 a6bd 7d41 8cbe 1a2a 1cbe
-0.3320761 -0.3673639 -0.18449661 -0.17260654 -0.3026336 -0.26443005 -0.41698942 -0.1824237
-0.3204832 -0.27739018 -0.2946995 -0.31556618 -0.37188926 -0.27729136 -0.2819486 -0.34399322
-0.27302608 -0.15331863 -0.21842487 -0.26243815 -0.35847455 -0.19455762 -0.4050513 -0.23190582
-0.32447293 -0.36699516 -0.25724316 -0.41003397 -0.20293957 -0.24632923 -0.1787639 -0.32415816
-0.31748682 -0.28694803 -0.13975209 -0.23640938 -0.17138681 -0.13956387 -0.19477552 -0.30480078
-0.227118 -0.3144209 -0.28598326 -0.34383583 -0.3803908 -0.21478507 -0.28059646 -0.33313328
-0.23933579 -0.11056237 -0.37751126 -0.2912511 -0.16024646 -0.12644637 -0.15977326 -0.36050472
-0.21462864 -0.091597915 -0.22407295 -0.3549811 -0.065827675 -0.293146 -0.32062656 -0.17403449
-0.1961312 -0.069692485 -0.36578614 -0.2977132 -0.17886971 -0.39786544 -0.056117553 -0.20784427
-0.12233496 -0.3455049 -0.30140617 -0.105051115 -0.31095752 -0.26159772 -0.26696312 -0.353401
-0.238097 -0.33964357 -0.27595255 -0.3751295 -0.30921638 -0.19359832 -0.2815564 -0.08190385
-0.39749384 -0.3901683 -0.2586412 -0.14454766 -0.09870707 -0.3741513 -0.13289794 -0.23484772
-0.25446594 -0.28806022 -0.3352958 -0.1758016 -0.18031293 -0.10788125 -0.1449008 -0.29586577
-0.1125348 -0.35654753 -0.19249144 -0.16219641 -0.10888192 -0.444536 -0.22387248 -0.26098195
-0.36979273 -0.25323024 -0.37400833 -0.20394582 -0.060209405 -0.223928 -0.28995842 -0.25882593
-0.3384547 -0.24173465 -0.17886518 -0.21785708 -0.26777774 -0.34885123 -0.3474713 -0.14380994
-0.11013999 -0.13749592 -0.36176643 -0.2310801 -0.25024867 -0.09552264 -0.10284954 -0.18265428
-0.11938727 -0.19800773 -0.16660196 -0.28445524 -0.2604359 -0.16739736 -0.11882059 -0.069662176
-0.08172877 -0.20084475 -0.2985349 -0.105126776 -0.2761387 -0.29575485 -0.17802422 -0.3603349
-0.15450722 -0.20971923 -0.3420442 -0.33700994 -0.1413416 -0.1585381 -0.09866111 -0.23089509
-0.15567853 -0.24793136 -0.35145944 -0.25961968 -0.14285769 -0.051202554 -0.24579303 -0.29846865
-0.14576423 -0.30546013 -0.2337659 -0.28615993 -0.2947436 -0.23535588 -0.32857808 -0.099065974
-0.3288068 -0.34163713 -0.27282166 -0.2737679 -0.3741665 -0.13291454 -0.3901407 -0.33206922
-0.10340975 -0.3567761 -0.22853209 -0.24820699 -0.13657434 -0.2807708 -0.35508302 -0.3440803
-0.20045136 -0.064110935 -0.2804344 -0.3260761 -0.17130621 -0.34825346 -0.10320427 -0.15591514
-0.21489266 -0.28432587 -0.23786998 -0.31266546 -0.2065431 -0.37347248 -0.2992778 -0.31535044
-0.09594429 -0.17041913 -0.18481342 -0.354998 -0.09299135 -0.15762746 -0.12777668 -0.24829254
-0.1286302 -0.23591793 -0.1849368 -0.33546168 -0.19792673 -0.23922186 -0.12763864 -0.37218022
-0.07990645 -0.090541564 -0.2544899 -0.3631676 -0.24125968 -0.19911745 -0.16148418 -0.32946742
-0.28574383 -0.13477911 -0.21049784 -0.3317777 -0.31532112 -0.41697034 -0.116437584 -0.17924547
-0.1353585 -0.1523881 -0.10412046 -0.30077732 -0.33735597 -0.31475425 -0.08926468 -0.32036456
-0.3455334 -0.14319575 -0.06953526 -0.16540948 -0.28972042 -0.08151542 -0.27393714 -0.15250435
