data/saved_models/discriminator_epoch_5000.pth (torch, 758522 bytes, 14 tensors)

fc1.bias f4 [512]
00000000: b887 78bf fb32 92be dcf4 d6bf 8ed6 26bf
00000010: a40f d6bf e1e6 02bf 87fe 15bf edd5 11bf
00000020: 58c2 59bf 3814 40c0 3a79 80bf 96a2 35bf
00000030: 374d 65bf 1467 92bf e7b2 3cbf cfb7 3dbf
00000040: 89c5 8abf 9e01 b1be 84b0 41bf f1fd 04bf
00000050: 422b 11bf b2fc d0be 6f40 bdbf 4611 24be
00000060: a35c bcbe 9929 40bf 29a4 27bf 787d 86bf
00000070: ee9e 54bf 4e22 c3be 351c e8be da05 32c0
00000080: cdcc 34bf 9846 4bbf 5fff 4fbf 5562 37c0
00000090: 5070 87bf 3d4b 93bf 614d 8abf 7f56 eebe
000000a0: fe6a 09bf f452 b4be 2b6b 0dbf 30d3 14bf
000000b0: 631e 51bf 06a8 e7be 68fc 7fbf 1967 79bf
000000c0: 8924 28c0 f635 53be a345 76bf 3b64 5cbf
000000d0: d2f0 dabf f12f 63bf a8ea 67bf 15e8 85bf
000000e0: 333b 9fbf 96e8 e4bf 0332 76bf 3125 9abe
000000f0: dfb0 1ebf a4f0 37bf 67e0 c3be 59a8 02bf
00000100: c725 b6be 6e52 01bf 0f0d 8fbe 22a9 d5bf
00000110: 85b4 4fbf 8166 07c0 ba5f 7fbf 312c 36bf
00000120: ec58 eabe edbf 27bf e0c9 60bf e51c 06bf
00000130: f15f c4bf bcd2 e0bf 1295 04c0 f432 a1be
00000140: 9dea 03bf 4134 41bf 9b43 e8be daca 50bf
00000150: 4433 67bf 7d00 35bf 11c3 81be c060 6bbf
00000160: bdcd e2bf fedb 2bbf 20b6 b0be d66d d8be
00000170: 4f06 9dbf 0d3b 99bf f7a7 f4be 4490 e4be
00000180: 8a74 f6be 9094 6ebf 335b 19bf b8d2 e0be
00000190: ab63 8fbf 280d d8be 71e0 f7be cc0e 21c0
000001a0: cc77 79bf bb08 27c0 31d6 47bf 2bb8 41bf
000001b0: c984 83bf 9238 6bbf 518c 0dbf 9a81 85be
000001c0: 4de3 3abf 51c9 67bf ce9c a7bf c1b8 91bf
000001d0: eca8 65bf 1f6a e3be c8e7 babe db73 dabe
000001e0: e88d 46c0 b088 a7be 5214 70be d39b 62bf
000001f0: 97e4 8cbf 3a84 79bf 95f4 cdbe a220 4fbf
00000200: c753 d9be 726a 51bf ebc4 cabe 5656 0cbf
00000210: ce4a 1ebf 1cd6 72be da09 7ebf 7001 93bf
00000220: 348f 49bf 56ad 35c0 86a5 2cbf 2233 23c0
00000230: 2850 a4be 94a8 13c0 7ef7 41be 36ce 81bf
00000240: b32b d0be fd88 a7bf f3fb 20bf 4045 93be
00000250: 4c2b a4bf 096b c6be f2c2 c8be 7b66 09bf
00000260: 007b febe ea83 ddbe 6d4a 39be 1006 fbbe
00000270: f40a a4bf 83fe 57bf 62c6 75bf 624c 43bf
00000280: f8bf 44bf e62f 89bf 5bc6 79bf 0410 f8be
00000290: 186d 5fbe 0a55 21bf 7e63 28c0 1d7d 17bf
000002a0: 317b 7abf bfc0 a8bf bfa9 05bf 0361 ccbe
000002b0: 3ad8 68bf b9f3 38bf cb8e b5be 59fb d3bf
000002c0: 3a85 c7be ee04 32c0 eba2 d5be c306 7fbf
000002d0: b656 37c0 8204 36bf 51d2 c4be 0a26 58bf
000002e0: c940 2dc0 9390 83bf 46a0 41c0 a3a3 a5be
000002f0: d899 e2be 4992 e6be 7419 26c0 8c42 04bf
00000300: d47f b2bf 29a6 dbbe bc52 83bf cd78 e8be
00000310: 5072 5abf de63 37bf 83f7 c4bf da88 2ebf
00000320: abd5 30be ea58 7dbf 4cbf 75bf 25cd 30bf
00000330: 5d38 46bf b9ea 50bf a305 33c0 582c 14bf
00000340: efdc 33bf 1abb 47bf 2f48 49c0 7d9b c8bf
00000350: 20a3 debf e6bc 53bf 0ff5 26bf 941b d7bd
00000360: 075b 66be c508 6cbf 7ed5 2ac0 552c 08bf
00000370: a5b3 65bf 8a8b 26bf 39bc fabe 14a0 11bf
00000380: 090e 36c0 cb2f 85bf a256 a4be b80f 84be
00000390: 5992 06c0 846a 1dbf 4462 acbe 88cc eebf
000003a0: 4bc5 33c0 ad2a 82bf 947c edbe f9e8 03bf
000003b0: c9f1 99be 6dee 57bf 1ee6 8abf 9cec 35bf
000003c0: cc93 14bf d561 7fbf d247 c8bf 3719 abbf
000003d0: 6d81 a5be 6bb9 ccbf 2a75 8ebf c8de 2dbf
000003e0: c795 3dbf aee8 47bf 3f89 6cbf 7f5d 2cbf
000003f0: 226e 72bf ab7e 7fbf c92b b4bf c043 83bf
-0.9708209 -0.2855452 -1.6793475 -0.65171134 -1.6723523 -0.51133543 -0.585915 -0.5696705
-0.8506217 -3.001234 -1.0036995 -0.7095121 -0.89570946 -1.1437707 -0.73710483 -0.74108595
-1.0841533 -0.34571546 -0.75659966 -0.51949984 -0.5670663 -0.4081779 -1.4785289 -0.16022214
-0.36789426 -0.75063473 -0.65484864 -1.050704 -0.8305501 -0.3811211 -0.4533402 -2.7816072
-0.70625 -0.7940459 -0.8124904 -2.8653767 -1.058115 -1.1507336 -1.0804864 -0.46550366
-0.5367888 -0.35219538 -0.5524165 -0.58134747 -0.8168699 -0.4524538 -0.99994516 -0.9742294
-2.62723 -0.20626053 -0.9620001 -0.8609044 -1.7104743 -0.8874503 -0.9059243 -1.0461451
-1.2439941 -1.788348 -0.9617006 -0.301065 -0.61988634 -0.71851563 -0.38257143 -0.5103813
-0.35575697 -0.505164 -0.2793965 -1.669224 -0.81134826 -2.1156313 -0.9975544 -0.7116118
-0.45770967 -0.6552723 -0.87808037 -0.5238784 -1.5341779 -1.7564311 -2.0715985 -0.31484187
-0.51529866 -0.7547036 -0.4536408 -0.81559527 -0.903126 -0.7070387 -0.25344136 -0.91944504
-1.7719036 -0.67132556 -0.3451395 -0.42271298 -1.226755 -1.1971146 -0.47784397 -0.44641316
-0.48135787 -0.9319544 -0.59904784 -0.43910766 -1.1202291 -0.42197537 -0.48413423 -2.5165281
-0.9744842 -2.6099079 -0.78061205 -0.75671643 -1.0274898 -0.91883194 -0.5529223 -0.2607544
-0.73003083 -0.9054156 -1.3094728 -1.1384507 -0.8971088 -0.444169 -0.3650496 -0.42666516
-3.1024113 -0.32721472 -0.23445252 -0.8851902 -1.100726 -0.97467387 -0.40225664 -0.8090917
-0.4244673 -0.8180305 -0.3960336 -0.5481924 -0.6183289 -0.23714489 -0.9923378 -1.1484814
-0.78734136 -2.8387046 -0.6744007 -2.549996 -0.32092404 -2.3071642 -0.18942067 -1.0141056
-0.4065834 -1.308868 -0.62884444 -0.2876377 -1.2825713 -0.38753536 -0.3921123 -0.53672
-0.49703217 -0.43264705 -0.18094797 -0.49028063 -1.2815843 -0.8437273 -0.96005833 -0.76288426
-0.7685542 -1.0717742 -0.9756829 -0.4844972 -0.2181896 -0.63020384 -2.6310725 -0.5917528
-0.97844225 -1.3183821 -0.52212137 -0.39917764 -0.90954936 -0.7224689 -0.35460505 -1.656108
-0.3896883 -2.781551 -0.4172586 -0.9961969 -2.8646674 -0.7110063 -0.3844171 -0.84433043
-2.7070792 -1.0278496 -3.0254073 -0.32351407 -0.44257998 -0.45033482 -2.5953035 -0.5166404
-1.394526 -0.42900208 -1.0259624 -0.45404664 -0.8533068 -0.7163676 -1.5388035 -0.6817757
-0.17269008 -0.989638 -0.9599502 -0.69063026 -0.77429754 -0.8160816 -2.797219 -0.57880163
-0.7025899 -0.7801987 -3.1450307 -1.5672451 -1.7393532 -0.8271011 -0.6521768 -0.10503307
-0.22495662 -0.9220088 -2.6692805 -0.53192645 -0.8972724 -0.6505667 -0.48971727 -0.56884885
-2.8446066 -1.040521 -0.32097346 -0.25793242 -2.1026824 -0.61490655 -0.3366872 -1.8656168
-2.8089168 -1.0169274 -0.46384108 -0.51527363 -0.3006728 -0.84348184 -1.0851476 -0.7106416
-0.5803802 -0.99758655 -1.5646918 -1.336707 -0.32325307 -1.5994085 -1.1129506 -0.6791806
-0.7405667 -0.78089416 -0.9239692 -0.67330164 -0.946993 -0.99802655 -1.4075862 -1.0255051

fc1.weight_orig f4 [512, 42]
00000000: 5623 053b 95f4 0cbb fe5a c8bb 446c c43c
00000010: 3770 473a b335 143c 6dce 52bc 5e06 993b
00000020: ae34 013c 2be3 833c 91c3 ef3b bc2e bd3c
00000030: e9c8 843c 10ae 5a3c 7895 23bc 6333 31bc
00000040: 64ed 1a3c 4048 833c 3207 303b 7353 80ba
00000050: c31b 2c3c 2078 c73c 5c77 54bc 88f7 00bc
00000060: 6706 36bc cae7 7b3b ace1 2fbc 0a5e 0e3c
00000070: f703 f53b 33e3 e53b 9622 00bd f9ce 18bc
00000080: 1fb9 0ebc e9dc 923a f8b7 613b 4e7d 653c
00000090: 6a75 a83b a7c0 54bc 74b1 2abc baa9 3d3a
000000a0: 7af2 1abc ec8d 12bb 103d 05bb cbf3 84bb
000000b0: fbac dc3b d3b1 a93c 1b4e ddba ed7b ecbc
000000c0: c16c 0abb f3b5 373c 47de 9e3b 904a 12bb
000000d0: a549 2f3c 2676 40bc fa08 933c 2b30 ccba
000000e0: 51a6 92bb bce9 b7ba fde4 c0bc 9d7b db3b
000000f0: 0b5f 993a ed61 983c 4442 483c 2af3 fb3b
00000100: 2d56 52bc f708 753c 9bfe edbc f988 c73b
00000110: 314d 8a3b 05fc 833c 76e5 0e3c f6b2 363c
00000120: 4e8e 703c 18fc 42bc c0ec a93b 61c4 153c
00000130: f09d 19bc efc3 59bc b5d0 4d3c 0d0e 523c
00000140: 35ab 89bc ec0e b03a 0814 00bc c29f 3fbc
00000150: 63d4 bfb9 efbe 13bc 1b8e 293b 6124 813a
00000160: fc17 80bc 113a d0ba 9e6f fabb cd01 b63b
00000170: 097b c73c 9fe7 d13b c4a5 8d3b 0821 4abc
00000180: 94e7 1fbc 7f03 e73b 9ac0 85bc 8e17 4dbc
00000190: 721b 243b 099a debb 7dd7 aa3c 8006 f4bb
000001a0: 3598 323b 956c 1e3c 0c8d 06bb e53c 8d3c
000001b0: fcae 283d 6a30 e23b 08f0 afbb ff1a 013b
000001c0: 1ff1 9ebb 8556 febb af2f 98bb ce46 65bb
000001d0: 308c 33bc 5723 353c 5252 eabb ab0f 47bb
000001e0: c40b c03b 69fe 643b 4dbc 0f39 6bd5 763c
000001f0: fa1f 17bc eb12 c2bc b9f6 293c 4ba6 1cbc
00000200: 6dd8 c53b 7c34 b73b 6ba4 90bb 3f56 50bc
00000210: eee2 a83c 0896 413c 2dbe 5c3b 3fab f93c
00000220: 3a01 743c 71b4 cc3c c0f6 abbc 9744 893c
00000230: 1350 0f3c 5c14 9bbb fa9d 3a3a 2a43 a0ba
00000240: 0d32 2b3c 4d4b 393c abc7 983c da15 9a3c
00000250: b8b4 173c d2f7 ea3b c596 0abc c73e e1ba
00000260: 7a2b b63b 55fc 123d f839 053c cffb 07bb
00000270: 8c35 d63c acf7 543b 3665 0fbb e8b7 703c
00000280: 510c b5bc 9de1 81bb ccdc 983b cfc2 2bbb
00000290: e72f b13c 141e 823c 40e7 bebc e1c1 e4bb
000002a0: 34f2 2dbb db77 8dbc 3aa7 a93a ebc2 e03b
000002b0: 2107 cdbc 1699 5cba 5a95 abba 5372 e83a
000002c0: a885 ae3b b01d 623b 0c20 3d3c 7fe9 b6bb
000002d0: becd e4ba 986c 933c 5453 c038 aa89 a93b
000002e0: 0429 cabb 6cd9 36bc 6b8e 0f3c b4c1 28bc
000002f0: 2838 413c 9275 b33c cd93 95bb b6cc e03c
00000300: 46f5 70bc a9df 3f3c 1549 4abc 0c46 f83b
00000310: 6b74 233c e048 3f3c e20d c4bb 543b 82bc
00000320: 5373 e4bb 7ee8 fc3a 74b9 783b 5c48 b5bb
00000330: 4855 3f3b 5b63 073b 1879 50bb 9b2e cebc
00000340: b80f a4bb 2dc0 fabc e38c 0b3c 25ca b73b
00000350: fc8f 143b 0560 21bc ca57 01b8 bb8c 0f39
00000360: c4f4 23bb 2d23 16bc ba48 00bc 2026 dcbb
00000370: ae6a 95bc 5c79 ab3c f33e 8b3c 2038 a93b
00000380: 477f cdbb d590 61bc 4cba ad3b 4bdc 31bc
00000390: 5ee3 5cba 46ed ba3b 4cfb 593c 5304 9b3c
000003a0: 6d47 b6bc 81aa 36bb 78a7 97bb 3f6b 4abc
000003b0: ebc2 d4bb 222b 0dbb 3d3c 503c 06cc 083b
000003c0: 9f89 0cbc 144b 22bc 3704 2cbc d029 943c
000003d0: e62c 78bc 9cd9 943b 6efe 523a 8ef4 cb3b
000003e0: 3e49 09bb 4d5d 5bbc 6d83 0a3c 82b7 83bc
000003f0: f60f e7bb 05aa 4a3c 1eb8 1a3c 4fe1 5abc
0.0020315251 -0.0021508087 -0.0061143627 0.023977406 0.0007607969 0.009046006 -0.012866599 0.0046699485
0.007886095 0.016099533 0.0073170145 0.023093574 0.016209083 0.013347164 -0.009984367 -0.010815474
0.009456012 0.016025662 0.0026859757 -0.0009790495 0.010504666 0.024349272 -0.012967911 -0.007871516
-0.011109925 0.0038437718 -0.010734957 0.008689413 0.0074772793 0.0070156096 -0.031282984 -0.00932669
-0.0087111285 0.0011204752 0.003444193 0.014006926 0.00514095 -0.012985385 -0.010418285 0.0007235069
-0.009457225 -0.0022362424 -0.0020330586 -0.0040573827 0.006734488 0.020714676 -0.0016884239 -0.028867686
-0.0021121951 0.011212814 0.004848275 -0.0022322275 0.010698711 -0.011746919 0.017948616 -0.001557832
-0.004475393 -0.001403145 -0.02354669 0.0066980855 0.0011701299 0.018601382 0.01222283 0.0076888995
-0.012837929 0.014955751 -0.02905207 0.0060893265 0.0042206277 0.016111383 0.0087217 0.011151066
0.014682366 -0.011900924 0.0051856935 0.009141059 -0.009376034 -0.013291343 0.012561967 0.012820733
-0.01680527 0.0013432181 -0.007817276 -0.011695804 -0.000365886 -0.00901769 0.0025872055 0.0009852761
-0.015636437 -0.0015886446 -0.0076427003 0.005554414 0.02435066 0.006405785 0.0043227393 -0.012336977
-0.009759802 0.0070499773 -0.016327191 -0.012517823 0.0025040773 -0.0067932648 0.020854706 -0.007447064
0.0027251367 0.009669443 -0.0020530848 0.01724095 0.041182503 0.006902744 -0.00536919 0.0019699929
-0.004850521 -0.007761779 -0.004644356 -0.003498483 -0.010958716 0.011055789 -0.0071509266 -0.003037433
0.0058607776 0.003494168 0.0001370769 0.015065531 -0.009223932 -0.023690661 0.010373765 -0.009561132
0.006037763 0.0055909734 -0.0044141314 -0.012715875 0.020616021 0.011815555 0.003368269 0.030477164
0.014892871 0.024988385 -0.020991683 0.016756339 0.0087471185 -0.0047326516 0.0007118877 -0.0012227048
0.010448945 0.011309457 0.018649897 0.018809248 0.009259395 0.0071706558 -0.008458798 -0.0017184847
0.005559382 0.035885174 0.008131497 -0.0020749455 0.02614858 0.0032496257 -0.0021880395 0.014692284
-0.0221006 -0.003963663 0.004664993 -0.0026208644 0.021629287 0.015883483 -0.023303628 -0.00698112
-0.002654207 -0.017269066 0.0012943514 0.0068591735 -0.025027813 -0.00084151456 -0.0013090775 0.0017734267
0.0053259917 0.0034502558 0.011543285 -0.005582034 -0.0017456335 0.017996117 9.1707945e-05 0.0051738815
-0.00616944 -0.011160236 0.008761982 -0.010300089 0.011793174 0.021906648 -0.0045647384 0.027441364
-0.014706915 0.01171104 -0.012346526 0.0075767096 0.009976487 0.01167509 -0.0059831003 -0.01589743
-0.0069717555 0.0019295362 0.0037952336 -0.0055323076 0.0029195119 0.0020658586 -0.0031810459 -0.025168708
-0.0050067566 -0.030609215 0.008517477 0.0056088143 0.002266883 -0.009849553 -3.0837757e-05 0.00013689969
-0.0025017718 -0.00916366 -0.007829839 -0.006718412 -0.018239345 0.020931892 0.01699779 0.0051641613
-0.006271276 -0.013767441 0.0053017493 -0.010855745 -0.00084262143 0.0057045547 0.013304543 0.01892296
-0.022250855 -0.0027872624 -0.004628118 -0.012354671 -0.0064929626 -0.0021540602 0.012709674 0.002087356
-0.008577733 -0.009905595 -0.010499052 0.018086344 -0.015147423 0.0045425426 0.0008048777 0.0062242215
-0.0020948197 -0.013388944 0.008454186 -0.016078714 -0.0070514632 0.012369637 0.009443311 -0.013359382

fc1.weight_u f4 [512]
00000000: cd8c a63b 0a6e 853b bb0b bab9 c0ec f23b
00000010: 1f06 f63a dadc 033b 2a26 c53a 5759 323b
00000020: 94f5 9e3b 7064 473b 6104 293b 497c 1d3c
00000030: 30b7 cb39 ff7e b73b db65 a63b 141b f03b
00000040: b3a1 923b c3a8 943b 413f d23a 11dc f6bc
00000050: ffa7 013c 895a 563b f571 4e3b b2cf ddb8
00000060: e492 2d3b 2413 0c3b c88b fdb9 de64 f23b
00000070: 3582 b43b e821 d93b 908f 1c3b cb69 313b
00000080: 69dc 12ba e956 173b ff6f cc3b b107 3f3b
00000090: e129 8639 a08d 2abd 5673 0d3b 09d9 8139
000000a0: 3859 cc3b f2ee 573b e458 883b 85dc d53b
000000b0: caf6 143c 4d1b 8f3b 129a 3f3b 7cc0 f53b
000000c0: 9ac9 0a3a 13c8 4fbe b5e3 d83b 4c88 ce3b
000000d0: a77c 3d3b 4219 e23b fd60 333b bb6e ff39
000000e0: 98a2 863b 4275 3c3a 36a3 a53b 87f3 133e
000000f0: a576 a03b 2b3e 543b 4a8f 423a 7ceb b33b
00000100: aa72 8dbd 0900 e33b 6c1f 3f3b 09a4 ad3b
00000110: 0203 e83b 4900 863a e067 cf3a fca5 193c
00000120: 0706 5d3b 4a44 9f3b 94bb 813b 6220 a9b9
00000130: f257 803b ce62 813b c5d4 9b3b 79cb 333d
00000140: 8c7d 9a3b b485 443b c707 1e3c fcb4 2b3b
00000150: 4030 a5ba 9b7a 923b 2144 0c3d 860a 033a
00000160: bc16 f93a 54fd 613a 763b 4a3b 0e75 a33b
00000170: 9661 da3b c380 bb3b 4851 e63a 34f7 eb3b
00000180: 120f c13a 42e0 6c3b 71e9 cd3b 75c6 b23b
00000190: f5c3 353a 0b69 c43b 3e10 693b b756 bf3a
000001a0: 8633 db3b 2c06 993b 0abd e53b 4f36 6c3b
000001b0: 0c70 b63b 5c97 6d3b a39e bebd 2535 983b
000001c0: d1d6 bfba b213 ee3a 9085 8e3b 4a5a 4a3b
000001d0: 03a7 993b b64f 4e3b 2bb1 5b3d 708d dfbd
000001e0: ac39 0a3b f1db 593b f8f2 b03b 183f 9a3b
000001f0: 7c41 463b 9cfc babe 3907 2d3b 6397 b43b
00000200: 3a92 873a b408 30b9 033e ad3b a141 db3a
00000210: 15a8 353b 8109 0e3b 6789 db3b 154d a73b
00000220: c869 2cb9 a98a 393b 9460 ec3b 9823 853b
00000230: cf48 983c 0e2b 9839 ced4 c43a d8b2 eb3b
00000240: c72b db3b 22a2 f23b 6232 1c3b bbca 0f3b
00000250: 254b 033b 80fa cc3a 4a54 9ebc 2f45 f739
00000260: 360a 593e 3668 873b 2b44 3c39 ae2c a9ba
00000270: a383 4c3b 415f a53b cba7 c23a 7b8a aa3b
00000280: 4710 3e3b 5990 693b ff09 013e 9e19 e33a
00000290: a4b5 41be b611 773b 8b59 b63b 02ca bc3b
000002a0: 5d25 623b b07f 8f3a b982 173b 1037 953b
000002b0: d7aa 573b f711 353b 821f d9b9 4418 b23a
000002c0: 5f60 053c a567 843b 2b5f 633b b4ec 2a3c
000002d0: 5d81 5c3b 2e23 703b 791d c2bb e93e 893b
000002e0: 87ef 953b 6eff d43a 458a 123b ade9 5a3b
000002f0: 1cc9 a03b 4757 fa3c bbfa 473a fe1e 133e
00000300: 5f97 d13a 9856 193b 3761 da3b 9d2c 2dbc
00000310: 077d 403d f24d 973a 2e78 6439 0a4a 273b
00000320: b2de 0d3d e852 973a 7994 f93b 6727 ae3a
00000330: f7ff 6f3b a4c3 4e3c e0cd c73b 6f70 013b
00000340: a881 d53b 14a7 dc3b cab1 b13b afe6 9f3b
00000350: 9c45 4c3a 65dc 8f3b 5fc2 af3b d85b 2839
00000360: 6595 ae3a 08d8 be3a 577b 213b 14e6 b23b
00000370: 4be0 bdba 751d 2b3d fd2c 743b dca3 2e3b
00000380: 59e6 6c3b 17a0 ac3b 07bb 913a ba97 513b
00000390: 5050 c83b f476 063c d3a6 813b 9cc1 d73a
000003a0: 688d 073a 91a9 8e3b 40af 0b3c 44a5 0e3b
000003b0: 8477 6d3a cb35 4c3b a1e9 623b a02c 193b
000003c0: 0587 903a 5fcd 0cbd c2c5 823b 753d d339
000003d0: 05a5 7d3b cca1 a13b a983 533b e974 8b3b
000003e0: af0d 063c bca7 d13b 4bd9 a83b 36bb f33b
000003f0: f8cf c93b 475f 493b 4883 ef3b 3e7a af3b
0.0050827027 0.0040719556 -0.00035485424 0.0074134767 0.0018770135 0.0020120651 0.0015041281 0.0027213895
0.0048510525 0.0030424856 0.0025789964 0.009612151 0.00038855663 0.005599856 0.00507806 0.0073274467
0.0044748425 0.0045367195 0.001604058 -0.030134233 0.007913589 0.0032707772 0.003150103 -0.000105767875
0.0026485259 0.0021373713 -0.00048360066 0.007397278 0.005508686 0.0066263564 0.002388928 0.0027071114
-0.00056023017 0.0023092574 0.006238937 0.0029148872 0.00025589674 -0.04163897 0.0021583638 0.000247665
0.0062362216 0.003294882 0.004160987 0.006526532 0.009092042 0.004367268 0.002923612 0.0074997526
0.0005294323 -0.20291166 0.0066189417 0.006302869 0.002891341 0.0068999836 0.0027371042 0.0004871989
0.004108738 0.00071891036 0.0050548567 0.14448367 0.004896956 0.0032385688 0.00074218644 0.0054907184
-0.06906636 0.0069274944 0.0029163016 0.0052990955 0.0070804367 0.0010223474 0.0015823804 0.009377953
0.0033725516 0.0048604356 0.0039591286 -0.0003225832 0.003916734 0.003948546 0.0047555887 0.04389522
0.0047146734 0.002998692 0.009645409 0.0026200404 -0.0012602881 0.004470182 0.03424466 0.00049988215
0.0019003968 0.00086208177 0.0030858195 0.0049883192 0.006664465 0.0057221367 0.0017571831 0.0072011
0.0014729223 0.003614441 0.006283932 0.005455787 0.0006933802 0.0059939674 0.003556266 0.0014597987
0.0066894917 0.004669925 0.0070110606 0.0036043113 0.0055675562 0.0036253547 -0.09307601 0.004645007
-0.0014636164 0.0018163829 0.004349418 0.003087657 0.004689099 0.0031480617 0.053635757 -0.10915649
0.0021091504 0.0033242668 0.005400058 0.0047072284 0.0030251434 -0.3652085 0.002640201 0.0055112108
0.0010343262 -0.0001678791 0.0052869334 0.0016727933 0.0027718593 0.0021673145 0.0066997292 0.0051056244
-0.00016442605 0.0028311408 0.0072136614 0.004063081 0.018589405 0.00029023777 0.0015017034 0.0071929507
0.0066885683 0.0074045816 0.0023833741 0.0021940905 0.0020033803 0.001563862 -0.019327302 0.00047163057
0.21195301 0.004132296 0.00017954472 -0.0012906992 0.0031206391 0.0050467555 0.0014851032 0.0052044964
0.0029001401 0.0035639016 0.1260147 0.001732636 -0.18916947 0.0037699766 0.0055648736 0.005761386
0.0034507134 0.0010948088 0.0023118688 0.004553683 0.0032908225 0.0027629116 -0.0004141294 0.0013587554
0.008140652 0.0040406757 0.0034694176 0.010432411 0.0033646442 0.0036642062 -0.0059239236 0.0041884077
0.004575673 0.001625044 0.0022360247 0.0033403442 0.0049067866 0.030559195 0.00076286093 0.14367291
0.0015990547 0.002339756 0.006664421 -0.010569719 0.046994235 0.0011543615 0.00021788545 0.0025526308
0.034636207 0.0011545094 0.0076165763 0.0013286889 0.0036621073 0.012619887 0.0060975403 0.0019750854
0.0065157004 0.0067337845 0.0054228054 0.0048797945 0.0007792355 0.0043902867 0.005363747 0.00016055943
0.001331967 0.0014560232 0.0024640167 0.0054595564 -0.00144864 0.04177614 0.003725826 0.002664796
0.003614804 0.0052681076 0.001111836 0.0031981305 0.0061130896 0.008207072 0.0039566546 0.0016460898
0.00051709125 0.00435371 0.00852567 0.0021765986 0.0009058642 0.0031159993 0.0034624117 0.0023372546
0.0011026567 -0.034375545 0.0039908597 0.00040290845 0.0038703096 0.004932618 0.003227452 0.00425588
0.008181973 0.0063981693 0.0051528565 0.007438089 0.006158825 0.0030726956 0.007309351 0.0053551486

fc1.weight_v f4 [42]
00000000: e588 513e a021 efbe c888 793e bfde 173e
00000010: d82b a13b dc3b 6d3d dee2 903e 857e 123e
00000020: 2e55 16be 7a19 b5bd 0786 90bd f20d d4bb
00000030: 6b03 18bd 1422 db3d abfa 98bd 1124 4ebe
00000040: b49e 243e a0a1 7ebd 33ac 263d d7ef 4a3e
00000050: ea69 483d 0d81 653e 70b3 623e 6adf 64bd
00000060: f676 56be cb77 263e 00ed 1e3d af51 18bc
00000070: ecca 173e 66dc babb 89ec e6bd 2477 f8bd
00000080: b4c3 11bc 3c4b ae3d 89b2 06be ec07 613d
00000090: 584c d33b 5866 1abd 223e 66be df75 7a3e
000000a0: f74a 303d f94e 1c3e
0.20462377 -0.4670534 0.24368584 0.14831065 0.0049185567 0.057918414 0.28298086 0.14306076
-0.14680931 -0.0884275 -0.07056814 -0.006471389 -0.037112635 0.10699859 -0.07469686 -0.20130946
0.16076165 -0.062165856 0.040691566 0.19818054 0.048929133 0.2241251 0.22138762 -0.055877127
-0.20943817 0.16256635 0.03880024 -0.009296819 0.14823502 -0.005702543 -0.11275584 -0.12132099
-0.008896757 0.085104436 -0.13154043 0.054939196 0.00644831 -0.03769526 -0.2248464 0.24459027
0.043040242 0.152645

fc2.bias f4 [256]
00000000: 76b1 99be 50c8 8fbe ec97 b9be 9e60 63be
00000010: e708 9cbe 77a2 3ebe 655a 4dbe 34bc 3dbf
00000020: 8e7e 5abe 411e 5abe 40ed 77be 981b 21be
00000030: 4b03 9abe ec9b 7ebe 7b76 82be d4c8 f6be
00000040: 93f8 d9be c9fa 95be f211 84be b22e 92be
00000050: d765 49be 5aa1 8dbe 1e0d 34be d0d6 67be
00000060: e221 bcbe b94a 2dbf 2082 41be aeeb 8bbe
00000070: b53c 68be 512f 5abe 66d6 32be 4aa0 44be
00000080: 6482 43be 3273 74be 65a3 b3be 0a20 33be
00000090: bf1c 63be 169c 40bf 8e70 b0be c6a5 12be
000000a0: 0af6 88be cc69 43bf 541d 56be 5260 17be
000000b0: f3e2 84be 32f4 4cbe 5d9e 59be d7a9 4cbe
000000c0: e62b f9be 3aa8 0ebf c8a4 8fbe 8911 96be
000000d0: a546 4dbe 2948 39be 2218 27be 130a 64be
000000e0: c701 c0be a996 5abe 50a7 cbbe 02cb 2dbe
000000f0: 1554 a4be fd63 76be c8fc 7bbe d9cf 81be
00000100: 3a07 cdbe 800b 17bf a550 6ebe 4747 82be
00000110: 79ed debe 7c0a 4dbf 5c01 05be ad3f 60be
00000120: 55dc aabe 99ee 65be 0246 9ebe d860 16bf
00000130: f503 5dbe 1346 6bbe b38b 5fbe d830 7bbe
00000140: 3fea 09bf f465 55be bddb 7fbe 07de c8be
00000150: b68e 79be 3941 bdbe 09c5 6dbe d182 24be
00000160: 2264 9bbe cf2d 43be fb2a 4cbe 53da 46bf
00000170: 5e61 44be 935e 61be f633 1abe a421 9abe
00000180: deb7 8dbe 836c 8fbe 5987 78be f3c5 59be
00000190: ccd7 a5be 78a9 3ebe 7053 8dbe a66a bdbe
000001a0: 9cb5 67be 4183 82be e962 65be b644 4fbe
000001b0: cead 47be 8389 59bf 7e86 91be 32ea 25be
000001c0: 4f4d 7abe dfca 97be b050 92be 4f28 04be
000001d0: ace7 94be 67fe 38be 2a32 90be a241 bbbe
000001e0: 57ab 15be 5832 8fbe 5257 87be ef89 eabe
000001f0: 2604 6fbe 447d 54be b778 51be 2db2 76be
00000200: c530 43be d689 37be 535d cdbe 7ad9 63be
00000210: ff84 dabe bcef 1fbf 4c72 45bf 8f2a 3dbe
00000220: ee70 5dbe 8715 56be 591b 86be 5935 6bbe
00000230: 6aa2 a1be ba19 50be d5a8 3cbe 4b7b 61be
00000240: 6c4d 5bbe 30d3 84be ccf1 2ebe e6d1 cebe
00000250: 4d25 96be 9922 c9be acd6 8ebe 300a 9fbe
00000260: 8078 aabe e855 47be 7bbf 54be 8508 96be
00000270: c22e 37be a96e 7cbe 5802 4cbe aab9 9bbe
00000280: 3c74 8bbe db3b 40be e134 a9be 56e7 21bf
00000290: 3851 48be 6921 80be 04be 9bbe 482f 48be
000002a0: 314a b9be 7ae7 85be 4e51 afbe fcc9 9abe
000002b0: a4db 86bf f849 93be f591 bfbe 6bfc b9be
000002c0: 25a8 49be 8a3b 49be 5924 33be 715f 19be
000002d0: 574c 56be 10d4 b9be 21bd b1be c134 49be
000002e0: 9963 33bf bf59 1bbe e306 96be aa08 21be
000002f0: d817 56be 97cc 8cbe e974 5bbe 6835 81be
00000300: e374 7ebe 61bf c6be c7c0 9fbe 76fa 67be
00000310: 9752 69be bd59 07bf 1d03 7dbe 85e3 fabe
00000320: b6e3 6ebe 1b83 97be 5ed5 1fbe 3e06 3ebe
00000330: 3236 2cbe 83a3 73be 59b7 6bbe a2f4 93be
00000340: 0d4f 49be ce4c 2bbe 9362 89be 9a9b 86be
00000350: db1f ebbe 8828 5bbe 4340 66be ec9b b8be
00000360: 03a7 38be 3bbb 8bbe dbf9 81be c9a2 5abe
00000370: 56d3 65be c8a6 91be 1e2a 22be f858 93be
00000380: 1d52 0fbf 75cb 99be 3408 52be 77aa 82be
00000390: d7f9 90be 55c9 a1be 6755 7fbe 4e0d 87be
000003a0: e155 03bf 815e 80be a534 52be 95f3 92be
000003b0: e755 67be fe87 6cbe 0afc 35be 370e 96be
000003c0: 8910 64be 28c5 5ebe 7dd1 73be ab79 88be
000003d0: 63d9 8dbe 79d7 5dbe 57db 2cbe 251f 84be
000003e0: 3f6c f9be 8e0e eabe 34cd cabe d203 4cbe
000003f0: 6dac 85be f2c8 80be 7ae6 59be 849a 0bbe
-0.30018204 -0.28082514 -0.3624872 -0.22204825 -0.30475542 -0.18616663 -0.20054014 -0.741153
-0.2133734 -0.21300603 -0.24211597 -0.15733182 -0.30080637 -0.24864167 -0.25481018 -0.48200095
-0.4257246 -0.29292896 -0.2579494 -0.2855125 -0.19667755 -0.27662164 -0.17583129 -0.22640538
-0.367446 -0.6769214 -0.18897295 -0.27328247 -0.22679408 -0.21307112 -0.17464599 -0.1920177
-0.19092709 -0.23872069 -0.35085598 -0.1749269 -0.22178935 -0.7523817 -0.34460872 -0.1432105
-0.26750213 -0.7633331 -0.20909625 -0.14782837 -0.259544 -0.20015028 -0.21251817 -0.19986664
-0.48666304 -0.55725443 -0.28055406 -0.29310253 -0.2004648 -0.18093933 -0.163178 -0.22269468
-0.37501356 -0.21346535 -0.39776087 -0.16971973 -0.320954 -0.2406158 -0.24608147 -0.25353888
-0.40044576 -0.5900192 -0.23272951 -0.25445005 -0.43540552 -0.8009412 -0.129888 -0.2189929
-0.33371225 -0.22454299 -0.30912787 -0.5874152 -0.2158354 -0.2297595 -0.21830635 -0.24530351
-0.53873056 -0.20839673 -0.24986167 -0.39231893 -0.24370846 -0.36963823 -0.23219694 -0.16065527
-0.30349833 -0.19060443 -0.19938271 -0.77676886 -0.19177768 -0.22008733 -0.15058884 -0.3010379
-0.27679342 -0.28012475 -0.24270381 -0.21266918 -0.32391202 -0.18619335 -0.2760272 -0.3699543
-0.22627872 -0.25490764 -0.22401012 -0.20241055 -0.19499895 -0.8497545 -0.28422922 -0.1620262
-0.24443553 -0.29646966 -0.28577185 -0.12906002 -0.29083002 -0.18065797 -0.28163272 -0.3657351
-0.14616142 -0.27968097 -0.26433808 -0.4580836 -0.23341426 -0.2075091 -0.20456205 -0.24091406
-0.19061573 -0.17923674 -0.40110263 -0.2225093 -0.42679593 -0.6247518 -0.7712753 -0.18473266
-0.2162511 -0.2090665 -0.2619274 -0.2296957 -0.31569225 -0.20322314 -0.1842378 -0.22019689
-0.21416253 -0.25942373 -0.17084426 -0.40394515 -0.29325333 -0.39284208 -0.27898157 -0.3106246
-0.3329506 -0.19466364 -0.20776169 -0.29303375 -0.1788893 -0.24651588 -0.19922769 -0.30415088
-0.27237117 -0.18772833 -0.33048156 -0.63243616 -0.19562232 -0.2502549 -0.30418408 -0.19549286
-0.36189416 -0.26153165 -0.34241718 -0.30232227 -1.0535779 -0.2876737 -0.37416044 -0.36325392
-0.19693048 -0.19651619 -0.17494334 -0.14977814 -0.20927559 -0.36294603 -0.34714606 -0.1964903
-0.7007385 -0.15170954 -0.2930213 -0.15725961 -0.20907533 -0.2749984 -0.21431316 -0.25236058
-0.24849276 -0.38817886 -0.31201765 -0.22654137 -0.22785412 -0.52871305 -0.24708219 -0.4900171
-0.23329052 -0.29592213 -0.15608737 -0.18557069 -0.16817549 -0.23792844 -0.2301916 -0.28897578
-0.19659062 -0.16728517 -0.2683302 -0.2629059 -0.4592274 -0.2140218 -0.22485451 -0.3605646
-0.1803246 -0.27291283 -0.25385937 -0.2135116 -0.224439 -0.28447556 -0.15836379 -0.28778815
-0.5598467 -0.30038038 -0.20510942 -0.2552068 -0.28315613 -0.31598917 -0.24934922 -0.26377338
-0.51302916 -0.250721 -0.20527895 -0.28701463 -0.22591363 -0.23098752 -0.17771927 -0.2930772
-0.22271933 -0.21754897 -0.23810382 -0.26655325 -0.27704915 -0.21664228 -0.16880547 -0.2580501
-0.48715398 -0.4571423 -0.39609683 -0.19923332 -0.26108113 -0.2515331 -0.21279326 -0.13633162

fc2.weight_orig f4 [256, 512]
00000000: c191 ab3c 93a2 a23b 6bfd b73b 57af 923c
00000010: dc64 9e3c 7057 b23c 55b0 93bb 179a 0fbb
00000020: fd36 a23c 50a0 9dbc f112 6cbb 8530 a9bb
00000030: 6b19 b0bb f63b 013b 6ee1 8fbc 229c 8abc
00000040: 78b2 b83c a0fe 1dbc a7fd 3b3b 8293 febc
00000050: 5a54 3cbc 2a33 babc 16ab c7bb ebbb 29bc
00000060: 793e b93b bd58 9bbb 6642 19bc 431a d6bc
00000070: 6240 b2bc c342 8bbc d4f6 4b3b c50a 9d3a
00000080: a183 a63b 5a49 73bb 81d0 d03c eaa4 00bd
00000090: 78f8 5cbc 0120 05bc 3749 33bc fb27 183c
000000a0: 4c39 083c 81dd 16bc ba9b c53c ab03 9dbc
000000b0: 86de b1b9 3cc7 b9bc 81a1 1b3d d2e3 7dbc
000000c0: 641a 373b a211 c53b 8813 77bc 43f4 22bc
000000d0: 5086 08bd 6fd4 c53c c8ea 563c 89e5 1eba
000000e0: 53fd 9cbc 8956 b9bb 84e1 2d3c 109b d33c
000000f0: 2164 bcb9 72ad 3bbd 508f 943c 4141 94bc
00000100: 1827 223c 9b1d 0dbc 7097 a83c e7f1 72bc
00000110: 6241 9c3c 98a2 923c 29bf dfbc 69fa 31bc
00000120: 5c9b 8cbb 3700 123c 8ca4 a9bb 5dc0 723b
00000130: 5a23 ca3c 1bf6 9dbc 6b85 563b 59ab 493c
00000140: 4afa 16bc 7e04 ed3b d625 7d3c 96f3 91bc
00000150: 2576 d5bb deaf 12bd 9f56 5f3c 74fc 85bb
00000160: 5709 bcbb baa3 63bd ae8f 3b3c a2bd 7db9
00000170: 6807 3a3c 9266 863c f05d f9bb 5a1b 8a3b
00000180: fbc2 b33a 5c04 773c dc22 4fbc b2b4 c9ba
00000190: e7fb e6bb 5712 213d bce5 3fbc b546 803c
000001a0: 4b0b 083d d8af 4e3c 93bb 99bc ac0a 763c
000001b0: 2a68 99bc c92e 0b3c cedf 99bb 2237 44bc
000001c0: 99c1 7f3b 5e43 41bc 8f48 a43c 0bcb ba3c
000001d0: c661 35bc f3db afbc 5689 833b adde 9d3b
000001e0: a607 a8ba 540e 2cbc 354c e4bc 7288 22ba
000001f0: 4d5b 53bb a638 5bbb 006d 1b3c 028e f13c
00000200: cd88 2bbc 3b36 953b 6618 49bc 6e9b 21bc
00000210: ddcd f7ba 7c18 f73c 7a27 14bb e768 873b
00000220: afbd 5ebc a48c ec3c 2c58 c7bc 7535 c6bc
00000230: 5970 b13b b417 abbc 59fc 4f3c 23a0 d03b
00000240: 0df2 923c 3f71 8ebc 641e 203c 5494 00bc
00000250: e6d2 adbc a2d9 3c3b e564 523c 6562 e9bb
00000260: fa80 e23b ac39 3d3d 1b0f 4e3b 4e29 a13b
00000270: d28f 28bd 74c6 aa3c d200 e5bb bc90 3fbc
00000280: 7f30 cc3c b792 1dbc 8f03 05bc 5f1f dd3c
00000290: 4f26 6d3b 29d4 5ebb 89c9 93bc dd75 163c
000002a0: e5ad 143a 4d24 71bc cf9e a1bc 931d 95bc
000002b0: 0e27 3ebd 207e 87bc 1971 46bc 5871 c73c
000002c0: 5744 dfbb c003 a83c dc9d 543b 820a 953c
000002d0: 012b 37bc 58ac 6037 d773 003c 3b6e 2c3c
000002e0: 51fa 0fbc ac4d 67bc 0203 5a3c ab85 25bc
000002f0: 833b 133c 263e bd3b 677a ae3c cbaf c1bb
00000300: 756a 42bc 4a29 873c cae8 44bb 3cd9 943c
00000310: 1101 a8bb 30a8 00bd 3874 a93c 46c7 803b
00000320: 6a0b 00bc 906c 2bbc acba d93c 08ed 4dbc
00000330: a2c3 9b3c 678c b8bc 8ffd 06bc c90a b73b
00000340: f2fa 0dbc edde ccbb 9e14 7bbc 1066 8bbc
00000350: 0f4f 59bc f58f 593c b855 8b3a 7d77 8dbc
00000360: 8659 41bc c6da ac3c b5ee 833c ce66 bb3b
00000370: 9785 063a 30fd 0a3c 52c7 72bc 4191 fe3c
00000380: 9fcd 0e3d a63a 2d3b 8816 453c cb46 333d
00000390: 40de 333c ae97 003d f542 4c3a 80ac 09bd
000003a0: 4683 bbbc 7cce 2d3c 8108 c5bc 120a 4eba
000003b0: 0169 c5bc c29f e9bc 6fe5 e5bb 6511 3bbc
000003c0: ae19 b2bb 00c4 053c c863 cbbb 038f 0ebb
000003d0: 60a9 4b3c 71d5 a23c fbd2 fcbb cc01 29bc
000003e0: 5d5f b4bc 8586 7fbc 82f8 973c 675a 35bc
000003f0: a1a5 1cbd 8d9e 80ba 66ae 0fbd 90b8 4dbc
0.020943524 0.004963228 0.0056149266 0.017905874 0.019335203 0.02177021 -0.0045071044 -0.0021911913
0.019801611 -0.019241482 -0.0036022032 -0.0051632547 -0.005374124 0.0019719577 -0.017563548 -0.016920153
0.022546038 -0.009643227 0.0028685124 -0.031076197 -0.01149472 -0.022729475 -0.006093393 -0.010359745
0.0056531993 -0.004740803 -0.0093542095 -0.02613557 -0.021759216 -0.016999608 0.0031122463 0.0011981359
0.0050816094 -0.0037122578 0.025490047 -0.031407274 -0.013486974 -0.008125306 -0.010942749 0.009286876
0.008314442 -0.009208084 0.024122108 -0.019166788 -0.00033925864 -0.02267801 0.03799582 -0.015496211
0.0027939314 0.006014065 -0.01508034 -0.009945932 -0.033331215 0.024149148 0.0131175 -0.0006061425
-0.019163763 -0.0056560677 0.010612849 0.025830775 -0.00035932756 -0.045819707 0.018134743 -0.018097522
0.009897016 -0.0086130155 0.020580024 -0.014828182 0.019074146 0.017899796 -0.027312832 -0.010862925
-0.004290981 0.008911184 -0.005177086 0.0037040927 0.02467506 -0.019282391 0.0032733332 0.012308919
-0.009214947 0.0072332015 0.015450915 -0.017816346 -0.006514328 -0.03581225 0.013631492 -0.0040889326
-0.005738418 -0.055576064 0.01144783 -0.00024198604 0.011354305 0.016406331 -0.007610075 0.0042146863
0.0013714725 0.015076723 -0.0126425885 -0.0015388934 -0.007049072 0.03932413 -0.011712488 0.015658716
0.033213895 0.012615167 -0.0187662 0.015017193 -0.018726427 0.008495041 -0.004695869 -0.011976035
0.0039025305 -0.011795847 0.02005413 0.022801897 -0.011070674 -0.021467185 0.0040141745 0.004817805
-0.0012819662 -0.010501463 -0.02786837 -0.00062001415 -0.0032250464 -0.0033450513 0.009486437 0.02948666
-0.010469628 0.004553584 -0.012273883 -0.0098637175 -0.0018905957 0.030163042 -0.0022606538 0.0041323784
-0.013595029 0.028875656 -0.024334036 -0.024195412 0.005415004 -0.020885326 0.012694442 0.006366746
0.017937684 -0.017387984 0.009772871 -0.007847864 -0.021218728 0.0028816243 0.012841438 -0.0071223252
0.006912348 0.04619758 0.003144211 0.004918254 -0.041152783 0.020846583 -0.006988623 -0.011692222
0.024925468 -0.009617499 -0.008118524 0.026992498 0.0036186164 -0.003400097 -0.018040435 0.009183374
0.0005671664 -0.014718127 -0.019729046 -0.018202579 -0.046423964 -0.016539633 -0.0121119255 0.024346039
-0.0068135667 0.0205096 0.0032442724 0.018193487 -0.0111796865 1.3391567e-05 0.007840118 0.010524328
-0.008787707 -0.0141176395 0.013306381 -0.01010267 0.008986357 0.005775231 0.0212986 -0.0059108487
-0.011866202 0.01649918 -0.003004598 0.018169992 -0.0051270803 -0.031410396 0.0206853 0.0039300052
-0.007815221 -0.010462895 0.02657827 -0.01256872 0.019014183 -0.022527887 -0.008239164 0.0055860025
-0.008665787 -0.0062521608 -0.01532474 -0.01701644 -0.013263478 0.013278951 0.0010630405 -0.01726889
-0.011801129 0.021100413 0.016105035 0.0057190424 0.0005131601 0.008483216 -0.0148180295 0.031075122
0.034864064 0.0026432662 0.012029298 0.043768685 0.0109782815 0.031394653 0.000779196 -0.033611774
-0.022889744 0.010608312 -0.024051907 -0.0007859777 -0.024097921 -0.028518561 -0.007015876 -0.011417721
-0.00543519 0.008164406 -0.006206963 -0.0021752722 0.012430519 0.019877167 -0.0077155805 -0.01031537
-0.022018129 -0.015596037 0.018551115 -0.011068917 -0.038243894 -0.0009812877 -0.03507843 -0.01255621

fc2.weight_u f4 [256]
00000000: 86f8 f3b9 0eca b13c 08a2 5f3a 0c10 09bb
00000010: 3c06 51bb af5e 3539 f964 343b 0b29 913b
00000020: f64f 623b 1b9b 643b d150 233c 7831 edba
00000030: 82a5 33bc dd16 01ba 7f4c 51bb 6b0a 93b9
00000040: b500 af3c 1404 3fbc cea1 45bb 2a4c a33a
00000050: 0b57 75bd a5ac ad3a d61b 6cbb 7ffc 24bb
00000060: 3249 8eb9 b80e 21bb f9d8 d3b9 fd17 d1ba
00000070: 1c82 9fbc 1847 c0bc 72d1 7d3b 1e8f e33b
00000080: 275b 26b8 f9bd 4dbc 1d92 103b 55d1 a0bb
00000090: c86d 813d 7447 d83d f198 523b 5811 363d
000000a0: d0ad 52bb 6c51 30bb 1263 89bb ae5b 2cbd
000000b0: 33a0 8e3b 76c2 49bb 3dc0 7dbb 73d8 94b8
000000c0: 36e3 2bbb 83c6 cdb9 4459 4cbc 726d e43a
000000d0: 96ea 2a3b b7f5 e23a 343c 4bbc ab72 623b
000000e0: 4972 58bb e607 693b 982d bf3a 0550 55bb
000000f0: 9e5b 0f3a 5f7d 063b 2322 b4bb 7e5e d1bd
00000100: f358 6fbb 1458 293a 8dca 11bb 800e 85bc
00000110: 912b 85bc c8e1 c83c 3e5a 283d 9af3 5f3a
00000120: 05cc c8bb b5ff 153b 5bf4 3b3b c120 ac3d
00000130: ee37 86bd 3f8a bebb 073e 113c b65a 2b3b
00000140: 72cc 4db9 6e22 983b e3ef 62bb cedf 473b
00000150: 8057 06ba 66d1 4fba 8a03 673a c429 823b
00000160: 9448 dd38 463d 62ba 109e 4738 499c 36ba
00000170: e859 d83b c028 6939 4f0a 8f3b ccb9 143b
00000180: ea77 81bd 5ea9 d6bb 4ac6 963b bada abba
00000190: 4630 f4ba 9b85 ccba 1ca9 afbc 9594 223a
000001a0: 4e3f 8138 af51 703b 4439 623b 2900 20bb
000001b0: b07c fdba abf7 bfbe c242 6aba 1f80 05bb
000001c0: d94f e9bb 5e5b ce3a 8739 89ba 2e03 c43c
000001d0: 006b 723b 83c5 0b3e dc2c 78bb 5a1b d9ba
000001e0: 2489 49b8 dfda 413b 3998 c13a ea84 a73b
000001f0: 4901 d33a f711 2e3b 8d33 cbbb e5cb ee3b
00000200: 6d62 8fbb 442b d139 f219 343b 9fcf 993a
00000210: d602 923b b75d 853c 5b07 5ebd 99bd 843b
00000220: a054 69ba 0c38 7b3b 1e0f 1c3c f535 59bb
00000230: 8861 ccbb 35f5 ac39 a7cd 4f3b cc73 aabc
00000240: 3ab4 e73b 9561 c2bb 9707 363b 240e 70b9
00000250: 5197 953a 59c3 ac3a 10f2 24ba 6f81 8dba
00000260: 15f1 1d3e b8b4 433a 3cac 71bc 30e0 16bd
00000270: ad22 83bb 1777 f539 4778 43ba 2446 b539
00000280: 2c96 d3bb 21cb 173c 9b5d 69ba fb3c 44bb
00000290: 09e7 2d3a a9b3 faba 5bdf 133b 1424 f8b9
000002a0: 43b4 b8ba cada 23ba de13 2aba 219d 0fbc
000002b0: 84b3 773d c061 c33c beac 0fbb 79f5 5eba
000002c0: e4ca 44bb a8fc 9fba a549 26bb 09ad 383f
000002d0: 5a18 773b fe37 5839 0d6d b6ba 99e0 d6ba
000002e0: d050 d23e 7d42 1b3c 2a54 90bd 976b d2ba
000002f0: 8b38 f2bb a009 68bb 22eb b2b9 de5a 15ba
00000300: 919c 0cbb 993b 91bb 6203 783b 8419 aebb
00000310: bbb0 22bb 6297 26bb 1858 f1ba 4995 3f3e
00000320: 9149 c0bb 13ab 003b c26b 313c 320a 0ebc
00000330: ea2e b639 22fb 90ba bee2 0b3c ec2a d0bd
00000340: cb77 8d3b 6d0e 3f3a ba5d 3039 0057 dd3a
00000350: ab19 c43a d384 09bb 1490 4fba e385 b638
00000360: f5db 9ebd 0562 bbbb 5404 b6bb 6909 84bc
00000370: 5ed7 f3b6 3b14 e1bb 8553 95bb 66d9 70b9
00000380: 42a2 0abb 4866 473a a0c4 803a 5f11 f7b9
00000390: 7ee1 c6bb 763b 9ebb 82ba 11bb c08d cd3c
000003a0: 72a8 8fb8 3a6e cb3a 017b 723a ee5b bcbb
000003b0: 4772 033b 70b8 883c e248 743b a06d 90bb
000003c0: ddc5 b8bb cc41 123b 7bea e6bb 3177 053c
000003d0: 6ec6 7bbb 56ad d5ba 70a5 48bd 4989 0bbb
000003e0: 3f26 f7ba 4b54 2eba ee05 e0bb 75d0 ef3c
000003f0: 5a47 d23a 8356 283b a165 083b 9ac3 233c
-0.00046533736 0.021702792 0.00085309194 -0.0020914106 -0.0031894585 0.00017296778 0.0027526005 0.0044299415
0.0034532524 0.003488249 0.009967999 -0.0018096408 -0.010964753 -0.00049243664 -0.0031936464 -0.00028045787
0.021362642 -0.011658687 -0.0030156258 0.0012458612 -0.059897464 0.0013250305 -0.0036027334 -0.0025174913
-0.00027138885 -0.0024575423 -0.00040406713 -0.0015952584 -0.01947122 -0.0234714 0.0038729575 0.006944551
-3.9662376e-05 -0.0125575 0.0022059747 -0.004907767 0.06319767 0.105605036 0.0032134617 0.044450134
-0.0032147057 -0.0026904 -0.0041927183 -0.04207962 0.0043525933 -0.0030786074 -0.003871932 -7.097507e-05
-0.0026227958 -0.0003924855 -0.012472454 0.0017427637 0.0026079766 0.001731566 -0.01240449 0.003455321
-0.0033027104 0.0035557686 0.0014585732 -0.0032548916 0.0005468669 0.0020521504 -0.0054972335 -0.10223101
-0.0036521524 0.0006459963 -0.0022245974 -0.016242266 -0.016256126 0.024521723 0.041101687 0.00085430744
-0.0061278366 0.002288801 0.0028679583 0.08404685 -0.065536365 -0.00581482 0.008864886 0.0026146597
-0.00019626485 0.004642776 -0.0034627847 0.0030498388 -0.0005124733 -0.0007927626 0.0008812478 0.003972264
0.0001055162 -0.0008630346 4.7592504e-05 -0.00069660373 0.0066025145 0.00022235792 0.0043652426 0.0022693751
-0.063217 -0.006550952 0.0046012746 -0.001311145 -0.0018630109 -0.0015603782 -0.021442942 0.000620195
6.162991e-05 0.003666978 0.0034518996 -0.0024414158 -0.0019339528 -0.37493643 -0.0008936339 -0.0020370556
-0.0071201143 0.0015743782 -0.0010469415 0.023927297 0.0036990047 0.13649563 -0.0037868535 -0.0016563938
-4.8049857e-05 0.002957992 0.0014770097 0.00511228 0.0016098405 0.0026561 -0.0062012137 0.0072874897
-0.004375747 0.00039895822 0.0027481285 0.001173485 0.0044559045 0.016280038 -0.054206233 0.004050922
-0.0008900855 0.0038332967 0.009525089 -0.0033143733 -0.0062372126 0.0003298909 0.0031708272 -0.02080717
0.007071045 -0.005932043 0.002777552 -0.00022893451 0.0011412894 0.0013180777 -0.00062921736 -0.001079602
0.15423997 0.0007465589 -0.0147505365 -0.036834896 -0.0040019364 0.0004681877 -0.00074565824 0.0003457527
-0.006457111 0.009264738 -0.0008902193 -0.0029943574 0.0006633853 -0.0019127029 0.002256355 -0.00047329126
-0.0014091808 -0.00062505587 -0.0006487946 -0.00876549 0.060473934 0.023850322 -0.002192303 -0.0008505206
-0.0030028159 -0.0012206035 -0.0025373485 0.7213903 0.0037703724 0.00020620224 -0.0013917998 -0.001639384
0.4107728 0.009476301 -0.07047303 -0.0016053793 -0.0073919944 -0.0035406128 -0.00034125993 -0.0005697439
-0.0021455626 -0.0044321534 0.0037843813 -0.0053131003 -0.0024824578 -0.002541982 -0.0018413095 0.18709292
-0.005868145 0.0019633218 0.010828914 -0.008669423 0.000347487 -0.0011061172 0.008537946 -0.10164437
0.004317259 0.00072882214 0.00016819584 0.001688689 0.0014961263 -0.002098371 -0.00079178927 8.7033746e-05
-0.07756797 -0.005718472 -0.005554715 -0.016117768 -7.2670364e-06 -0.0068688667 -0.0045570754 -0.00022969171
-0.0021153842 0.00076064887 0.0009824224 -0.00047124454 -0.006069361 -0.0048288656 -0.0022236411 0.025092006
-6.850147e-05 0.0015520521 0.00092498964 -0.0057482636 0.0020057128 0.01668951 0.0037274887 -0.0044075996
-0.0056388215 0.002231705 -0.007046995 0.008146093 -0.0038417834 -0.0016302268 -0.0489859 -0.0021291545
-0.0018856003 -0.0006650134 -0.0068366444 0.029274205 0.0016042993 0.002568633 0.0020812529 0.0099953655

fc2.weight_v f4 [512]
00000000: 091a afbb 6a93 d639 35e5 80bc 7fc0 c13a
00000010: 0e36 efbb cd85 ccba 19bc 07bb d6bc a0ba
00000020: f8cd 86bb e9e6 1fbc 892b c83a 1491 8cbb
00000030: 43e5 64bb 428f 40ba b39f 0bb8 333c b8bb
00000040: ff8f 90bb b061 79bb ab3c f53a 5fef 17bb
00000050: b563 6238 6539 9fba 905d 4fbc 3daf 2fbb
00000060: a97f 923a caf5 02bb e0dd ddbb 3f13 a1bb
00000070: fe68 82bb 0401 263b a2ea 0e3b 3d1e bcbb
00000080: 9673 92ba 9943 acbb c6b1 8bba 2406 89bc
00000090: 020d 07bc 5c52 163c 8e72 1fbb 316f 93bb
000000a0: 8b42 8eba 9e4c 383a 31be 7bba a3d2 cab9
000000b0: 638e 8abb 51f1 6f3b 4871 3cbb 490f b8bb
000000c0: 0738 59bc 386e a1be 7e26 7dbb 8b2e 05bb
000000d0: ade1 6abc 4a99 ffbb 7137 573a a655 64bb
000000e0: 750c 8abb daf9 88bb 34e4 e2bb 1118 afbd
000000f0: 6a97 e5ba 4ae2 153b 63a6 953a 2b9e 80bb
00000100: 6aa8 173d 5cd5 2ebb cca6 53bb e2ca 0ebc
00000110: b0da 8dbb a63d 32bc 69dd 8eb9 12ee bb39
00000120: be9a 5b3b acce 4ab9 b6ad 133b 790b cc3a
00000130: db98 cabb 90ac fbbb 4857 4ebc 813b 84bd
00000140: 0334 e93a d6e4 493b e589 87bb a0d7 b9bb
00000150: 31df 8bba 9c91 6ebb 3fda 9fbc 0028 0cbb
00000160: c960 9dbb 1587 0ebb bcf8 89ba d394 693d
00000170: 302b d2bb 0497 fbba 1271 93bb 9696 6abb
00000180: d2ad 93ba 5756 02bb 2e8c 96ba 2119 773b
00000190: e4b5 8b3b 091e 29bb db4c 81bb 5228 14bc
000001a0: acbb 4c3a f948 2dbc bce4 aabb 31a3 9d38
000001b0: 108e 27bb 8faa 48ba 992a 753d ba2c dc3a
000001c0: 9710 8139 851c bbba 5bdc 11bb d20d 7fbb
000001d0: 235f 03bb 4dbf 00ba 49d1 1d3d 5f82 45bd
000001e0: 00a2 82bc d04b 52bb 230c d3b8 6bee e0ba
000001f0: 471d b1ba b51c 5cbe 977e 27bb 9068 813a
00000200: 1caa 1a3b 04e0 8bbb 7fbe 1ebb a5dc c8bb
00000210: 0584 ae3a 5d3e 48bb 72a4 b7bb c30e d1bb
00000220: ef0c 30bb 9c46 4fbc ce62 93bb 54bc 71bc
00000230: 12f8 a7bd 68dd 13bc 6e2c 9e3b ce37 e2b9
00000240: 2e72 6b3b a3c8 f2bb 1ea3 5eb9 33c8 0b3b
00000250: 0850 60bb 3f48 24ba 1fbc 1c3e 986a b9bb
00000260: ea70 cabc c83b f63a d364 773a 3f30 b7ba
00000270: 4048 9ebb b476 b3ba e15e 153b a62a aebb
00000280: 0fb8 19bb f9ea 0bbc 15d1 473e 2467 493a
00000290: ef85 5fbe 2c55 d03a a17d 72bc 2ea9 3a3a
000002a0: 063d 68ba b847 eebb ac90 933a 51a7 22bb
000002b0: bcc3 94bb bbc9 293a 5e5b 763a ad4f 2abc
000002c0: 8c05 673d d7aa 54bc ec71 12ba a965 93bb
000002d0: e78b 39bc d37a 463b d1cd 68bd 29d4 bcbb
000002e0: 2a3d 45bc 27a6 a9ba 970a 4ebc 74b2 bab8
000002f0: 3a74 a5bb 4b4f 55bd 05db 0fbb 36c7 3fbe
00000300: 164e abbb 4bb0 25bb c1e8 00bb deda 51bd
00000310: a675 bc3c 31f6 cc3b 46c2 b2bb 63e8 283a
00000320: 8413 13bd 90ee a4bb c68b 0e3b 98c9 6ebb
00000330: cf35 9abb 6c49 f0bd 99e3 43bb 026d 1aba
00000340: 5405 f7ba bb3d 39bb 8fd1 93bc 5b30 14bb
00000350: 26f0 3ebc 1d10 8139 df98 03b9 796d 1bba
00000360: 91a8 19bb df06 3ebb 6b09 62bc 5fbd 7fbb
00000370: eafc 3839 4a99 c3bc b90e 303b e072 83ba
00000380: 07f3 8abc 19c2 90bb d463 5bb9 eb50 c83a
00000390: 1f2d 8fbc 7d89 733b c6af 913b 7d85 b5bb
000003a0: 18d0 0bbc 7609 be3a 7c47 6abb ace0 c6b9
000003b0: 1e91 023b 7de1 39bb a3ca 3cbb e972 eabb
000003c0: 2600 47bb 87d9 183d 420d 9bbb 9d09 2abb
000003d0: 9d71 94bb 7f95 36bc e489 86bb f657 e5b9
000003e0: 838a f3ba ff42 e33a 31d7 57bb be4f d639
000003f0: 75a5 8eba c13a 583a bb97 d0bb 37a4 6bbb
-0.00534368 0.00040927093 -0.015734294 0.00147821 -0.007300145 -0.0015603841 -0.002071148 -0.0012263309
-0.004113909 -0.009759643 0.0015271764 -0.0042897556 -0.003492669 -0.0007345566 -3.3288914e-05 -0.0056224107
-0.004411697 -0.003805261 0.0018710097 -0.0023183448 5.397546e-05 -0.0012147842 -0.012656584 -0.002680733
0.0011176962 -0.0019982927 -0.0067708343 -0.0049156244 -0.003979801 0.0025330195 0.0021807333 -0.0057409094
-0.0011173363 -0.0052570817 -0.0010657839 -0.01672656 -0.008242847 0.009174909 -0.0024329755 -0.004499339
-0.0010853572 0.000703046 -0.0009603231 -0.0003868538 -0.0042283996 0.0036612342 -0.0028754044 -0.0056170565
-0.013257987 -0.31529403 -0.003862768 -0.0020321931 -0.014336032 -0.007800256 0.00082098605 -0.003484109
-0.004212911 -0.0041801753 -0.0069241766 -0.08549512 -0.0017516438 0.0022870474 0.0011417385 -0.003925105
0.037025847 -0.0026677465 -0.0032295464 -0.008715363 -0.004329048 -0.010878956 -0.00027249314 0.00035844796
0.0033508982 -0.00019341212 0.002253396 0.0015567384 -0.0061827726 -0.007680483 -0.012594052 -0.06456662
0.001779199 0.0030806563 -0.0041363114 -0.0056714565 -0.0010671375 -0.0036402708 -0.019513248 -0.0021386147
-0.0048027975 -0.0021747996 -0.0010526399 0.057026695 -0.0064138398 -0.0019194786 -0.004499563 -0.0035795323
-0.0011267012 -0.0019887888 -0.0011485869 0.0037704187 0.0042636264 -0.0025805256 -0.0039459295 -0.009042816
0.0007809948 -0.01057648 -0.0052152555 7.51674e-05 -0.0025566854 -0.000765481 0.059855077 0.0016797998
0.00024617158 -0.0014275467 -0.0022256586 -0.003891815 -0.002004572 -0.00049113185 0.038529668 -0.048220035
-0.015946388 -0.0032088645 -0.00010063525 -0.0017160898 -0.0013512754 -0.21495326 -0.002555763 0.0009873081
0.0023599928 -0.004268648 -0.0024222431 -0.0061298185 0.0013314491 -0.003055475 -0.00560432 -0.0063799336
-0.0026863178 -0.012651112 -0.0044978624 -0.014754374 -0.082016125 -0.009024955 0.004827074 -0.00043147657
0.003592621 -0.0074091717 -0.00021232336 0.0021329045 -0.003422739 -0.0006266869 0.15306138 -0.005658459
-0.024712045 0.0018786127 0.0009437326 -0.001397617 -0.00483039 -0.0013691992 0.0022792148 -0.0053151427
-0.0023455655 -0.008539909 0.19513352 0.00076829107 -0.21828435 0.0015894524 -0.01480046 0.00071205467
-0.0008859191 -0.007271733 0.0011258326 -0.0024818967 -0.004539935 0.00064768986 0.000939777 -0.010394973
0.056401774 -0.0129801845 -0.00055864337 -0.004498203 -0.011324859 0.0030285611 -0.056836907 -0.005762596
-0.012038508 -0.0012943194 -0.012575767 -8.9024106e-05 -0.0050492557 -0.052077573 -0.0021950614 -0.18728337
-0.0052278144 -0.002528208 -0.0019669982 -0.05123412 0.023005318 0.0062549342 -0.005455288 0.000644332
-0.035907283 -0.0050333217 0.0021750792 -0.0036436077 -0.0047061215 -0.11732754 -0.0029890297 -0.0005890877
-0.0018846192 -0.0028265554 -0.018044261 -0.002261183 -0.011653936 0.00024616803 -0.00012550082 -0.00059290935
-0.002344642 -0.0028995795 -0.013796191 -0.0039022786 0.00017641825 -0.023876805 0.0026864244 -0.0010028742
-0.016961588 -0.0044176695 -0.00020922656 0.0015282904 -0.01747757 0.0037160807 0.0044460027 -0.0055395947
-0.0085335 0.0014498669 -0.0035748174 -0.00037932897 0.0019922922 -0.0028363161 -0.0028807304 -0.0071548116
-0.0030365079 0.037316825 -0.004731805 -0.0025945671 -0.0045301453 -0.011144041 -0.0041057933 -0.0004374382
-0.0018580708 0.0017338692 -0.003293466 0.00040876673 -0.001088305 0.0008248501 -0.006365744 -0.0035956034

fc3.bias f4 [128]
00000000: c2e5 b7be 2cb2 113c 411a 1ebe a220 3abe
00000010: 416b dbbe a7c5 e2bd e1d1 36be 87d4 fdbd
00000020: 8e65 b3be fcec 25be ad87 93be f923 fdbe
00000030: e34b ecbe 539f 18be 0fbe 97be b66a e3be
00000040: 633f 6cbe f6bb bebe 55fd ddbe e5c8 1abf
00000050: 5475 f8bd 7c7f 6ebd bbc0 41be 0cd3 90be
00000060: fefa 5cbe 48a4 22bd 7207 b6be 829a 9abd
00000070: b8f3 d4be 2585 9abe b76e a8be ce0b 5abe
00000080: 3818 71be 29dd 03bf 40ee 50be 583c c5be
00000090: 3077 1dbe 42ce 74be a52d 52be de5c 57be
000000a0: 7e44 94be 6c43 89be 2911 07bf 5f3c 09bd
000000b0: fb4c 23bd 5862 37bd 3cb4 1bbf b6dc c4be
000000c0: e050 f7bd 8cd5 0cbf 021d dabd caa6 91be
000000d0: 7aa6 50be f5ac bcbe af76 9fbd 73a6 4ebe
000000e0: 6c62 7abe 9cb5 74bd 3049 8dbe 7662 2abe
000000f0: c404 d7be 9dcf 40be cd72 9ebe 4667 73bd
00000100: 3672 2abf b62e 18be c81d f8bd 661a e4be
00000110: 8fbb 0cbe 3688 81bd 02d8 8abd 351a f5bd
00000120: 7c80 78be 9b42 44be e5b0 6dbe 3b95 47be
00000130: 3ef1 aabe de82 bdbe 1bd7 18bf 75fe b4bd
00000140: ba90 ebbd 0508 02bf 4036 03be 2f89 dcbd
00000150: 6920 bfbe 4326 21be 86a7 80be ce39 d3be
00000160: ab61 88be 881f 28be e9f1 01bf a2d6 00bf
00000170: ddcb 2abe 5800 4fbe e632 54be 7b5e 35be
00000180: af1a 42bd ef5c 89be 7124 01bf 3224 c4be
00000190: c48b bfbe 7b5b a5bd d318 64be 6475 0cbe
000001a0: 60a8 aabe 3876 95bd a4cb 34be a96f 18bd
000001b0: bb82 14be 6226 a6be 40b4 39bf da8d b3be
000001c0: b27b 31be 2345 8ebe 69b1 e5be 2800 a0be
000001d0: b09d 94bd 3294 ebbe 2506 82bd c689 9fbd
000001e0: 6f79 90bd 61b2 b6be 6f6f 03be f4f0 54be
000001f0: 8d03 bebe dbb4 16be b38c 85bd 0bc0 d4bd
-0.3591748 0.008892577 -0.15439703 -0.18176511 -0.42855266 -0.110728554 -0.178535 -0.12394052
-0.35038418 -0.16203684 -0.2881445 -0.49441507 -0.46151647 -0.14904527 -0.2963719 -0.4441735
-0.23071055 -0.37252778 -0.4335734 -0.6046279 -0.121317536 -0.058227047 -0.18921177 -0.28286016
-0.21580121 -0.039707452 -0.35552555 -0.07549001 -0.41592193 -0.30179706 -0.3289697 -0.21293566
-0.23544395 -0.5150934 -0.20403385 -0.385226 -0.15377498 -0.23906806 -0.20525225 -0.2103152
-0.28958505 -0.2680925 -0.5276056 -0.03350484 -0.039868336 -0.044771522 -0.6082189 -0.3844964
-0.120759726 -0.55013347 -0.10650064 -0.28447562 -0.20376006 -0.36850706 -0.07786309 -0.20180683
-0.24451607 -0.05974351 -0.275949 -0.16639122 -0.41995823 -0.18829198 -0.3094696 -0.05942466
-0.6658052 -0.14861569 -0.12115055 -0.4455139 -0.13743423 -0.06324808 -0.067794815 -0.11967889
-0.24267763 -0.19166033 -0.23212011 -0.1949052 -0.33387178 -0.37013906 -0.59703225 -0.08837596
-0.11502214 -0.50793487 -0.12813663 -0.10768353 -0.37329414 -0.15737252 -0.2512781 -0.4125504
-0.26637015 -0.16418278 -0.5075975 -0.50327504 -0.1667933 -0.20214975 -0.20722541 -0.17711823
-0.04738873 -0.26828715 -0.5044623 -0.38308865 -0.3741132 -0.08074089 -0.22275095 -0.13716656
-0.33331585 -0.07297939 -0.17655808 -0.037215862 -0.14502995 -0.3245116 -0.72540665 -0.35069162
-0.17332342 -0.27787122 -0.44861916 -0.3125012 -0.07256639 -0.46011502 -0.06348828 -0.0778995
-0.070544116 -0.35682967 -0.12835477 -0.20795041 -0.37112084 -0.14717428 -0.06520977 -0.10388192
