data/saved_models/discriminator_epoch_3000.pth (torch, 758522 bytes, 14 tensors)

fc1.bias f4 [512]
0	0xbf9afe3b	-1.2108835
1	0xbe967bb7	-0.29391262
2	0xbfcafb8a	-1.5858014
3	0xbf458701	-0.77159125
4	0xbfe2e1ea	-1.7725194
5	0xbf1aadc9	-0.60421425
6	0xbf47077e	-0.7774581
7	0xbf3e24d9	-0.74274975
8	0xbf7fbfea	-0.9990221
9	0xc028b28e	-2.635898
10	0xbf8b2333	-1.0870117
11	0xbf4639a1	-0.77431685
12	0xbf84d413	-1.037722
13	0xbf939ff6	-1.1533191
14	0xbf59b9b7	-0.85049003
15	0xbf755dff	-0.9584655
16	0xbf99a306	-1.2002876
17	0xbec77f63	-0.38964376
18	0xbf692887	-0.91077465
19	0xbea6488d	-0.32477227
20	0xbf320b61	-0.6954861
21	0xbf0ca12e	-0.5493344
22	0xbfbbb601	-1.4664918
23	0xbebf9436	-0.37417763
24	0xbf014a45	-0.5050395
25	0xbf681f34	-0.9067261
26	0xbf371c67	-0.71527714
27	0xbf874a68	-1.0569582
28	0xbf61b053	-0.88159674
29	0xbebef8ea	-0.3729928
30	0xbf3e530d	-0.74345475
31	0xc023ae32	-2.557507
32	0xbf6bc258	-0.9209342
33	0xbf6669f9	-0.9000545
34	0xbf6a5c21	-0.9154683
35	0xc0333c03	-2.8005378
36	0xbf9512bb	-1.1646341
37	0xbeebdc91	-0.46066716
38	0xbf8da17a	-1.1064904
39	0xbee48f50	-0.4464059
40	0xbf1f453b	-0.6221501
41	0xbec81f1a	-0.3908623
42	0xbf238530	-0.63875103
43	0xbf3cd36f	-0.7376012
44	0xbf6035ac	-0.87581897
45	0xbdd0650c	-0.10175523
46	0xbfa99e17	-1.325137
47	0xbf705f2c	-0.9389522
48	0xc0228226	-2.5391936
49	0xbe59617f	-0.21228598
50	0xbf634a14	-0.8878491
51	0xbf84564d	-1.0338837
52	0xbfd3f9b7	-1.6560582
53	0xbf7dee04	-0.9919131
54	0xbf9844cf	-1.1895999
55	0xbf8dbb8f	-1.1072863
56	0xbf8c1fce	-1.0947206
57	0xbfe3dbd9	-1.7801467
58	0xbf861dba	-1.0477822
59	0xbe5ac1b5	-0.21362956
60	0xbf4a6954	-0.7906697
61	0xbf1401e0	-0.5781536
62	0xbf01f466	-0.5076355
63	0xbf0fec00	-0.5621948
64	0xbddd3274	-0.10800639
65	0xbf4f2693	-0.80918235
66	0xbeffb6e9	-0.49944237
67	0xbfec0c98	-1.8441343
68	0xbf78d8bd	-0.97205716
69	0xc001691f	-2.022041
70	0xbf8ee6c4	-1.1164174
71	0xbf7b738e	-0.982232
72	0xbf358a7d	-0.7091444
73	0xbf66519e	-0.8996829
74	0xbf67beaa	-0.90525305
75	0xbf185fe7	-0.59521335
76	0xbfc72498	-1.5558043
77	0xbfd91c43	-1.696175
78	0xbffda22d	-1.9815117
79	0xbe8fc0a8	-0.28076673
80	0xbf3a9816	-0.72888315
81	0xbf4eba92	-0.80753434
82	0xbf0339b5	-0.5125993
83	0xbf76f3d0	-0.9646578
84	0xbf734e8f	-0.95041746
85	0xbf6d7228	-0.92752314
86	0xbe34364c	-0.17598838
87	0xbf8eb1a1	-1.1147958
88	0xbfe64f58	-1.7992964
89	0xbf6f817e	-0.93556964
90	0xbf0ef356	-0.5584005
91	0xbe8a8b2c	-0.27059305
92	0xbf9a3020	-1.2045937
93	0xbfac6465	-1.3468138
94	0xbf04caad	-0.5187176
95	0xbf4c0fa2	-0.79711354
96	0xbf20798c	-0.62685466
97	0xbf96d10d	-1.1782547
98	0xbee60669	-0.44926766
99	0xbf0f77ab	-0.56041974
100	0xbf948254	-1.1602273
101	0xbee77115	-0.45203462
102	0xbf147679	-0.57993275
103	0xc0195c5b	-2.396262
104	0xbf927cc7	-1.1444329
105	0xc0212cef	-2.5183675
106	0xbf4c0fff	-0.7971191
107	0xbf658e12	-0.8966991
108	0xbf8b3b65	-1.0877501
109	0xbf89f2df	-1.0777243
110	0xbedb007f	-0.42773816
111	0xbece5cfe	-0.40305322
112	0xbf6900a4	-0.910166
113	0xbf7fb601	-0.9988709
114	0xbfabf600	-1.3434448
115	0xbfa04f1a	-1.252414
116	0xbf6100e5	-0.8789199
117	0xbf3d271a	-0.7388779
118	0xbe9348a2	-0.28766352
119	0xbeee179b	-0.46502385
120	0xc0372871	-2.8618433
121	0xbe7d1cd1	-0.24718024
122	0xbecdddb4	-0.4020821
123	0xbf53d2e9	-0.827437
124	0xbf8d08ee	-1.101835
125	0xbf2a3339	-0.6648441
126	0xbf160ff7	-0.5861811
127	0xbf6fbe52	-0.9364978
128	0xbec288ab	-0.37994894
129	0xbf6b485f	-0.91907305
130	0xbf11fef3	-0.57029647
131	0xbf1470fb	-0.57984895
132	0xbf6257b7	-0.8841509
133	0xbed9f80a	-0.4257205
134	0xbf79d619	-0.9759231
135	0xbf9cc362	-1.2247126
136	0xbf72476d	-0.9464024
137	0xc03631b5	-2.8467839
138	0xbf7a7ad6	-0.9784368
139	0xc01b321f	-2.4249341
140	0xbe4e8173	-0.20166568
141	0xc01638c4	-2.3472147
142	0xbeb202ae	-0.3476767
143	0xbf95d23e	-1.1704786
144	0xbf3ae9d6	-0.73013055
145	0xbf9d4cf4	-1.2289109
146	0xbf5d932b	-0.86552685
147	0xbea3049b	-0.3183945
148	0xbfb86ea2	-1.4408762
149	0xbea7cf4a	-0.32775337
150	0xbeb6dd6b	-0.35715804
151	0xbe881258	-0.26576495
152	0xbeffc0b3	-0.49951705
153	0xbf0c6193	-0.54836386
154	0xbe919faf	-0.2844214
155	0xbf058f2e	-0.521716
156	0xbfbb5657	-1.4635724
157	0xbf8bab96	-1.0911739
158	0xbf5f6271	-0.87259585
159	0xbf48150d	-0.7815712
160	0xbf8ce0ca	-1.10061
161	0xbf8cc091	-1.0996267
162	0xbf839612	-1.0280173
163	0xbf5e3de5	-0.86813194
164	0xbdfea645	-0.12434057
165	0xbf1e506a	-0.6184145
166	0xc027bff3	-2.6210907
167	0xbf371af8	-0.71525526
168	0xbf815c6e	-1.0106332
169	0xbfab4c3f	-1.3382643
170	0xbf44644a	-0.7671553
171	0xbeffa159	-0.49927786
172	0xbf7f0d64	-0.9962981
173	0xbf7af38a	-0.9802786
174	0xbe9e6a17	-0.30940315
175	0xbfd24cd1	-1.6429693
176	0xbe5ca5a2	-0.21547559
177	0xc02a4ecf	-2.66106
178	0xbef26d3b	-0.4734896
179	0xbf71945b	-0.94367
180	0xc031bc7e	-2.7771297
181	0xbf5ce923	-0.8629324
182	0xbc9dfa96	-0.019284528
183	0xbf73a483	-0.951729
184	0xc0235c9b	-2.5525272
185	0xbf791b22	-0.97307026
186	0xc03c9c67	-2.947046
187	0xbed78df1	-0.4210048
188	0xbeca2973	-0.39484748
189	0xbde1105d	-0.10989449
190	0xc020922f	-2.5089223
191	0xbedac0e5	-0.42725292
192	0xbfb0f49e	-1.3824651
193	0xbf1421c3	-0.57864016
194	0xbf942a7e	-1.1575468
195	0xbeae7595	-0.34074083
196	0xbf349267	-0.7053589
197	0xbf4923d2	-0.7857028
198	0xbfbf5b9e	-1.4949834
199	0xbf556013	-0.8334972
200	0xbe07efa3	-0.13275008
201	0xbf75afe9	-0.9597154
202	0xbf83f05e	-1.0307729
203	0xbf3148b0	-0.6925154
204	0xbf60eeab	-0.8786418
205	0xbf2f8f11	-0.68577677
206	0xc033d5e8	-2.8099308
207	0xbf17b8b5	-0.59266216
208	0xbf5ca843	-0.86194247
209	0xbf7a93ba	-0.9788166
210	0xc03d43fb	-2.9572742
211	0xbfc8312c	-1.5640006
212	0xbfcf3e5b	-1.6190904
213	0xbf5770e2	-0.8415662
214	0xbf5f9045	-0.8732951
215	0xbec39521	-0.38199714
216	0xbf16de08	-0.5893254
217	0xbf7b5c76	-0.9818796
218	0xc028bb79	-2.6364424
219	0xbf2f0eaf	-0.6838178
220	0xbf97de33	-1.1864685
221	0xbeaff899	-0.34369352
222	0xbf169399	-0.58818966
223	0xbf1a79de	-0.60342205
224	0xc02fd980	-2.7476501
225	0xbf782d20	-0.96943855
226	0xbf09537d	-0.5364302
227	0xbe9d40d0	-0.3071351
228	0xbffeb4fc	-1.9898982
229	0xbf7c4bb2	-0.98553
230	0xbf31f5b9	-0.6951557
231	0xbfec94a6	-1.8482864
232	0xc025d75f	-2.5912702
233	0xbfa79a1c	-1.3093905
234	0xbf09ffa3	-0.53905696
235	0xbf48e937	-0.7848086
236	0xbeffedf3	-0.49986228
237	0xbf8063b6	-1.0030429
238	0xbf8bb2de	-1.0913961
239	0xbf4f439c	-0.8096254
240	0xbf35e5a6	-0.7105354
241	0xbf2b9502	-0.6702424
242	0xbfb89c91	-1.442278
243	0xbfb991c4	-1.4497609
244	0xbea79ca1	-0.32736686
245	0xbfd13336	-1.6343753
246	0xbfa2fc66	-1.2733276
247	0xbf4c7d9e	-0.79879177
248	0xbf676c89	-0.90399987
249	0xbf8398ae	-1.0280969
250	0xbf74b4c5	-0.9558833
251	0xbf7c8d6a	-0.9865328
252	0xbf8b4bdb	-1.0882524
253	0xbf7d7560	-0.99007225
254	0xbfa46849	-1.2844325
255	0xbf974061	-1.1816522

fc1.weight_orig f4 [512, 42]
0	0xbb9d6936	-0.004803802
1	0xbc8b36d5	-0.01699392
2	0xbbc6c050	-0.006065406
3	0x3abf2dae	0.0014585757
4	0xba1a43fa	-0.0005884763
5	0xbc61ef76	-0.013790002
6	0xbc77f7d9	-0.015134775
7	0x3c3b36fc	0.0114266835
8	0xb97d043b	-0.00024129536
9	0x37bcb0ac	2.2493616e-05
10	0xbc3c07b3	-0.011476445
11	0x3a1230d0	0.00055767316
12	0x3bd2de16	0.006435166
13	0x3a78eec6	0.0009496029
14	0x3c77fa00	0.015135288
15	0x3cbaceb1	0.022803636
16	0x3c4cb80d	0.012495053
17	0xbaf137f5	-0.0018403517
18	0x3ab8d2b0	0.0014100876
19	0x3bcf7de7	0.0063321474
20	0x3c9c5ad3	0.019086277
21	0x3bdf3478	0.0068116747
22	0x3b312cac	0.0027034683
23	0x3bcfa720	0.0063370615
24	0x3bf96be8	0.0076117404
25	0xbb0db6d0	-0.0021623857
26	0xbc6bc23a	-0.014389569
27	0x3c21949e	0.009862093
28	0xbbd41363	-0.0064720376
29	0xbaeb27e9	-0.0017940971
30	0xbc00bb0c	-0.007857095
31	0xbc18e469	-0.009331801
32	0xbc8df206	-0.01732732
33	0xbc8442e5	-0.016145179
34	0xbc9e92c7	-0.019357098
35	0xbc0370c1	-0.008022488
36	0xbc277b0d	-0.010222209
37	0x3bc938bf	0.006140798
38	0xbc39ceda	-0.011340821
39	0x3bcd0d93	0.0062577217
40	0xbc558d14	-0.013034124
41	0x3c2efd1f	0.010680466
42	0x3c8fb63c	0.01754295
43	0xbc9039db	-0.017605713
44	0x3ca25c3f	0.019819377
45	0x39711e12	0.00022994753
46	0xbcd189db	-0.02557843
47	0xbcd8d4fe	-0.02646875
48	0xba0c7404	-0.0005357864
49	0x3c10e6ae	0.008844061
50	0xbb04f5d5	-0.002028813
51	0xbcd75c21	-0.026289048
52	0x3c2eae37	0.010661653
53	0x3c0e4ec5	0.008685772
54	0x3b5dd479	0.0033848567
55	0x3bb0694a	0.005383645
56	0xbcb0a6c1	-0.02156389
57	0xbc7a3125	-0.015270506
58	0x3ba5216a	0.0050393837
59	0x3b9e2cf4	0.004827136
60	0x3c264cca	0.010150144
61	0x3c8c95bd	0.017161245
62	0xbcf0fafe	-0.029416557
63	0x3b8c1fd0	0.0042762533
64	0x3caa7743	0.020808822
65	0xba221419	-0.00061828044
66	0xbd46cbb2	-0.048534103
67	0xbbda8e7d	-0.006669818
68	0x3b8868da	0.00416289
69	0xbb676da5	-0.0035313156
70	0xbc885b6d	-0.016645158
71	0x3bf2afb4	0.0074061994
72	0x3cdb37d1	0.026760014
73	0xbc56fc2e	-0.013121648
74	0xbbcf127f	-0.0063193436
75	0x3cf37478	0.029718623
76	0x3d0011a2	0.031266816
77	0xba1a5ff1	-0.000588893
78	0x3aacef1d	0.001319382
79	0xb8d61350	-0.000102079124
80	0xbcd4309f	-0.02590209
81	0xbc81acfc	-0.015829556
82	0x3b1e7935	0.0024181132
83	0xbb8db222	-0.0043242136
84	0x3b868cf0	0.0041061565
85	0xbbf503c4	-0.0074772555
86	0x3c525ecb	0.012839983
87	0x3ba3c87e	0.0049982658
88	0xbb96fdee	-0.0046079075
89	0xbc1e1b7b	-0.009650107
90	0xbb741bb4	-0.0037247958
91	0x3c8544aa	0.016268093
92	0xbc25ea7f	-0.010126709
93	0x3af451e6	0.001864013
94	0xbc6c9bcb	-0.014441441
95	0x3c9a3e13	0.018828427
96	0xbc55f7e8	-0.013059594
97	0x3b148356	0.002266129
98	0xbb85d3db	-0.004084093
99	0x3c9155ce	0.01774111
100	0xbc7ee1a9	-0.015556731
101	0xbb9a6e6f	-0.0047128717
102	0xbac36d28	-0.001490985
103	0x3b917dc2	0.0044400403
104	0x3b0cf5a5	0.002150872
105	0x3bd25929	0.00641932
106	0x3a082dfa	0.00051948393
107	0x3b57be41	0.0032919797
108	0x3c29656c	0.010339122
109	0xbc644da7	-0.013934529
110	0xbb85adbb	-0.004079548
111	0x3b2fd53d	0.002682998
112	0xbbe83d41	-0.00708738
113	0x3c2151dd	0.009846178
114	0xb98af656	-0.00026504946
115	0xbc77a093	-0.0151139675
116	0xbc590887	-0.013246662
117	0x3a888fd0	0.0010418836
118	0xbc7d5e04	-0.01546431
119	0xbb0d9d70	-0.0021608733
120	0x3a0fd23c	0.00054863445
121	0xbc6351f4	-0.01387452
122	0xbb21d93e	-0.0024696137
123	0x3cf2f3e0	0.029657304
124	0x3b2baf64	0.002619707
125	0x3c74e89e	0.014948038
126	0xba6b437d	-0.0008974595
127	0xbb37ff4f	-0.002807576
128	0x3c2ea77b	0.010660048
129	0xbc6da328	-0.0145042315
130	0x3b26b14b	0.0025435265
131	0xbc1dad08	-0.009623773
132	0xbbd67002	-0.006544114
133	0xbc805943	-0.015667563
134	0x3ac589b0	0.0015070941
135	0x3b5034c2	0.0031769727
136	0xbb601ffe	-0.0034198756
137	0x3cc06883	0.023487335
138	0xbc15a3c7	-0.009133286
139	0x3c93102b	0.017952045
140	0x3a89c6eb	0.0010511553
141	0xbbbe9c38	-0.0058169626
142	0x3c3f792e	0.011686606
143	0xbbbe3148	-0.0058042146
144	0x3bf789db	0.0075542754
145	0xbbec0c2c	-0.0072035994
146	0x3c000da7	0.007815755
147	0xbcb53ead	-0.022124613
148	0x3ca345af	0.019930689
149	0xbc7bb27d	-0.015362379
150	0x3cec1f81	0.028823616
151	0xbc781b03	-0.015143159
152	0xbbc4fc23	-0.0060115024
153	0x3bcc5051	0.0062351604
154	0x3b2a6dcd	0.0026005388
155	0x3b789eab	0.003793637
156	0x3bb2442f	0.005440257
157	0x3ce059e5	0.027386615
158	0xbba5e714	-0.005062947
159	0xbb4bee92	-0.003111754
160	0x39f72843	0.0004714151
161	0x3bdd624a	0.0067561017
162	0xbc577134	-0.013149548
163	0xbc4ac681	-0.012376429
164	0xbc59452b	-0.01326112
165	0xbbe1de14	-0.006892929
166	0xbbb487fb	-0.005509374
167	0xbcae4ce8	-0.021276906
168	0xbade87a8	-0.0016977685
169	0x3be96793	0.0071229427
170	0xbc0ef315	-0.008724947
171	0x3c6d1431	0.014470146
172	0x3ba21bf4	0.00494718
173	0x3b6f0c1e	0.0036475728
174	0xbc56c1e3	-0.01310775
175	0x3ccf54c2	0.02530897
176	0xbbed7322	-0.007246391
177	0x3b023875	0.0019870077
178	0xbbe8f160	-0.0071088523
179	0x3c03adb9	0.008037024
180	0x3c61ff68	0.013793804
181	0xbabb7334	-0.0014301301
182	0x3bbd143f	0.005770236
183	0x3cf16aad	0.029469812
184	0xbc00c7c9	-0.0078601325
185	0xb9925075	-0.00027907235
186	0xbc47fa5e	-0.012205688
187	0x3bc8a4b1	0.0061231484
188	0x3b2b1c35	0.0026109342
189	0xbc017aa7	-0.007902778
190	0xbcdcebea	-0.026967961
191	0x3c2440f9	0.010025256
192	0xbc7e5e4a	-0.01552541
193	0xbb1a3058	-0.002352735
194	0x3b1f2b9d	0.002428747
195	0x3b82005f	0.0039673294
196	0xbc00ec96	-0.0078689065
197	0x3ba7711d	0.0051099197
198	0x3c233131	0.009960459
199	0xbc360210	-0.01110889
200	0x3c0a20e0	0.00843069
201	0xbbeb4b41	-0.007180602
202	0xbb2333f1	-0.0024902786
203	0xbb4d7366	-0.00313493
204	0x3c1d22be	0.009590803
205	0xbab21d41	-0.0013589041
206	0x3c0b11f5	0.008488168
207	0x3c4c2945	0.012461011
208	0xbbb97d08	-0.005660657
209	0xb895b0c6	-7.1378e-05
210	0xbc11ac43	-0.008891168
211	0x3b94ca46	0.0045407144
212	0x3c61078c	0.0137347095
213	0xbbe17dee	-0.006881467
214	0xbc5c2590	-0.01343669
215	0x398997bf	0.00026243736
216	0x3c316926	0.010828292
217	0xbc457e51	-0.012054042
218	0xbc9db199	-0.019249724
219	0xbcb8158e	-0.022471216
220	0xbc97f50d	-0.018549467
221	0xbc147ff2	-0.009063708
222	0xbc7e8bed	-0.015536291
223	0xbb89a202	-0.004200221
224	0xbb0482b2	-0.0020219502
225	0x3cab589d	0.020916278
226	0xbac134ac	-0.0014740429
227	0x3cce9640	0.02521813
228	0xbc1c7c89	-0.009551176
229	0x3b071b0f	0.0020615493
230	0x3a988407	0.0011636027
231	0x3c6afde1	0.014342756
232	0x3ca519d5	0.02015392
233	0xbc6385eb	-0.013886909
234	0x3c416878	0.011804692
235	0xbc7ecbae	-0.015551491
236	0xbcb0bdf5	-0.021574954
237	0xbcba01cb	-0.022705933
238	0xbc3e8b70	-0.011629924
239	0x3ca27040	0.019828916
240	0x3cbb28ef	0.022846667
241	0x3b70889f	0.0036702526
242	0xbc1ccb72	-0.0095699895
243	0x39ab94c8	0.00032726512
244	0x3c1dfe42	0.009643139
245	0x3d058ed8	0.03260693
246	0x3c200aa2	0.00976816
247	0xbc439eee	-0.011939747
248	0x3b9ac911	0.004723676
249	0x3c850eff	0.016242502
250	0x3b76b74d	0.0037645877
251	0x3cf779df	0.03020948
252	0xba007352	-0.00048999966
253	0xbc157b62	-0.009123655
254	0x3bb5dc52	0.005549946
255	0xbcf40346	-0.029786717

fc1.weight_u f4 [512]
0	0x3ac25ca4	0.0014828634
1	0xbac85629	-0.0015284467
2	0xb8f14248	-0.00011504121
3	0xbaabee8b	-0.0013117356
4	0x3b3bb5c5	0.0028642279
5	0xbac5ae4c	-0.0015081852
6	0xb7e827f6	-2.7675163e-05
7	0xbafd67c8	-0.0019333297
8	0xb6c1b447	-5.7728353e-06
9	0xb9a8d70b	-0.00032203677
10	0x3b9e1685	0.004824462
11	0x3b376c41	0.0027988108
12	0xba492298	-0.00076726964
13	0xbaa7157f	-0.0012747495
14	0x3a65758a	0.00087531714
15	0x3b16c19d	0.0023003586
16	0xba81e67d	-0.000991061
17	0x3ab9f4a7	0.0014187292
18	0x3b4efabe	0.003158256
19	0xbc867b67	-0.016416265
20	0xb943fcbf	-0.00018690804
21	0xbab1e671	-0.0013572705
22	0x3b88aaed	0.0041707666
23	0xb9ed46c0	-0.00045256875
24	0x3a538579	0.00080689
25	0xba64a51f	-0.0008722115
26	0xba29366b	-0.0006454947
27	0xbaab0682	-0.0013048204
28	0x3b12d90f	0.002240721
29	0xb96ca8a1	-0.00022569533
30	0xbb0cb46e	-0.002146985
31	0xba7bcced	-0.00096054265
32	0xba51775f	-0.0007990505
33	0xbb2b3bca	-0.0026128166
34	0x3b147c46	0.002265708
35	0xbb23ff9c	-0.0025024181
36	0xba8e1ff6	-0.0010843265
37	0x3e3353fc	0.17512506
38	0x3b3b3a6f	0.0028568765
39	0xbb946877	-0.0045290547
40	0xba757360	-0.00093632005
41	0xb9abae98	-0.00032745744
42	0x3aba2590	0.0014201868
43	0x3a15f349	0.0005720151
44	0x3ada930e	0.0016675906
45	0x3d97bf8e	0.07409583
46	0xb935e3a5	-0.0001734631
47	0x3a09db0d	0.00052587764
48	0xbb195d46	-0.0023401543
49	0xbc59c756	-0.013292154
50	0xbac30ad8	-0.0014880551
51	0x3a52ff53	0.00080489105
52	0x3b094aaa	0.0020949044
53	0x3b080816	0.0020756773
54	0x3797a8db	1.8079232e-05
55	0x3a7dcec5	0.0009681995
56	0xbb099670	-0.0020994209
57	0x3a8382e5	0.0010033516
58	0x39f60c8d	0.00046930127
59	0x3d878ead	0.0661901
60	0x3abd53b6	0.0014444503
61	0x3a94426f	0.0011311303
62	0x3ab139b1	0.0013521222
63	0x3a95e415	0.0011435772
64	0xbdd492c3	-0.10379555
65	0x3b692194	0.0035572993
66	0x3b43acf9	0.0029857738
67	0x3a9efe96	0.0012130316
68	0xbb1b1023	-0.0023660741
69	0x3b49cf91	0.0030793885
70	0xb8a46ed3	-7.840772e-05
71	0xbb970d70	-0.004609756
72	0xbb380a3e	-0.0028082277
73	0xbb22f2c8	-0.0024863947
74	0xbaa7219c	-0.0012751105
75	0x3b234463	0.0024912588
76	0x3a08281e	0.0005193966
77	0x3ae28198	0.0017281054
78	0x3b9dafba	0.004812208
79	0x3b6cccba	0.0036132769
80	0x3b18962f	0.0023282876
81	0x3a73ff5b	0.0009307765
82	0x3ab06276	0.0013457078
83	0x39b965d2	0.00035361812
84	0x3aaf5c81	0.0013379009
85	0x39606c8e	0.00021402744
86	0xbad79d1e	-0.0016450023
87	0x3aa7d5af	0.0012804772
88	0x3a8bffa7	0.0010681049
89	0x3a93fccf	0.0011290553
90	0x3b40deb4	0.0029429616
91	0x3c8ad7d2	0.016948614
92	0x3b100dc4	0.0021980861
93	0x3b4f2bfd	0.0031611912
94	0x3aabde9c	0.0013112607
95	0xbaf52cc0	-0.0018705353
96	0xba2847e7	-0.00064194057
97	0x3b2700fe	0.002548277
98	0xb9af727b	-0.00033463896
99	0x3ace2fc9	0.0015730794
100	0x3b3d1442	0.0028851186
101	0xba8d4c8f	-0.0010780263
102	0x398592a0	0.0002547698
103	0xb9b55ecc	-0.0003459364
104	0xbaa753b1	-0.0012766031
105	0x3b44cdcf	0.0030029898
106	0xba9e63f4	-0.0012084232
107	0x3b32afe9	0.0027265495
108	0x39d78301	0.000411056
109	0xbb805537	-0.0039164084
110	0x3dbbbfad	0.09167419
111	0x39b9c440	0.00035432167
112	0x3b208f9c	0.002449966
113	0xb983f931	-0.0002517193
114	0x398b0b74	0.0002652068
115	0x3a4a3408	0.0007713442
116	0xbad4114f	-0.0016179475
117	0x3b1b912e	0.0023737657
118	0xbd48e695	-0.049048025
119	0x3d5d9e10	0.05410582
120	0xba4b4c27	-0.0007755183
121	0x3b0285b8	0.0019916128
122	0xbacd1431	-0.0015646276
123	0x3a9c5ca0	0.001192946
124	0xbaf25eb9	-0.0018491364
125	0xbd11c691	-0.03558976
126	0x397d366e	0.00024148237
127	0x3888d174	6.523999e-05
128	0xbb3e3b2f	-0.0029026975
129	0x3ad3fa39	0.0016172595
130	0xbafc969c	-0.0019270959
131	0x3ae71596	0.0017630334
132	0xbb76470d	-0.003757897
133	0xba8ca6a1	-0.0010730812
134	0x3a565fa0	0.00081777014
135	0x3a2a0f7b	0.0006487292
136	0xba8a156e	-0.0010534951
137	0xbb06e6d6	-0.0020584366
138	0x3a9c3d38	0.00119201
139	0x3b7f2678	0.0038932841
140	0x3d0d3785	0.034476776
141	0xbae111b0	-0.0017171409
142	0x3ad75005	0.0016427046
143	0x3b2339b0	0.002490621
144	0x3b4da357	0.0031377876
145	0x39fd18e9	0.0004827448
146	0xbb1650e7	-0.0022936405
147	0xba46ec06	-0.0007588271
148	0x3a678888	0.00088322954
149	0xbb231024	-0.0024881447
150	0xbdbfbbce	-0.09361993
151	0x3d4012b3	0.046892833
152	0xbd27e7c8	-0.04099253
153	0x3aaa4cd1	0.0012992864
154	0x3cab124e	0.020882752
155	0xbb2b10f8	-0.0026102643
156	0x3a1c07dd	0.00059520995
157	0xb9f09419	-0.00045886709
158	0xb98a49a1	-0.0002637627
159	0x3ab60528	0.0013887035
160	0x3a224f1e	0.0006191599
161	0x3aa9589b	0.0012920083
162	0xbaa7b0da	-0.0012793795
163	0xbad6b3db	-0.0016380505
164	0xbd13d005	-0.036087055
165	0x3d8a5b6a	0.06755717
166	0xba9caa8a	-0.001195268
167	0xba98a27c	-0.0011645104
168	0x38dc9bec	0.0001051946
169	0xb988efdc	-0.0002611865
170	0xbabd826a	-0.0014458422
171	0xbbcf183b	-0.006320027
172	0x39ef9827	0.00045698995
173	0xba177d37	-0.00057788513
174	0x3a01cf4c	0.0004951849
175	0xb9d34bf9	-0.0004030166
176	0xbca09c58	-0.0196058
177	0x3b2eaa9d	0.0026651986
178	0x397d05f9	0.00024130185
179	0xb9df1b31	-0.00042554134
180	0x3ae1e454	0.0017234185
181	0x3a06106b	0.0005114141
182	0x3bd1c4b8	0.0064016245
183	0x39054780	0.00012710504
184	0x3b5a9f1d	0.0033359
185	0x3ab454ac	0.0013758144
186	0x3b228c29	0.002480278
187	0x3ab359e3	0.0013683405
188	0xbb5fba47	-0.003413813
189	0x3b0a5f0b	0.002111378
190	0x3b20810c	0.002449098
191	0xbdc8099d	-0.097674586
192	0x3a8d5ec6	0.0010785691
193	0x3a2abbea	0.0006512987
194	0xba4056eb	-0.00073371705
195	0x3e95ecfb	0.29282364
196	0xbc70bd96	-0.014693638
197	0x3ac9a60c	0.0015384569
198	0x3b1207b0	0.0022282414
199	0x38a8d48e	8.050456e-05
200	0xbc5e7fdc	-0.013580289
201	0x3b1ad1be	0.0023623551
202	0xbaad4cb5	-0.0013221713
203	0xb976312b	-0.00023478705
204	0xbb3e4644	-0.002903358
205	0xbe3b59c4	-0.18295962
206	0x3aff79a5	0.0019491209
207	0xbb047ccf	-0.0020215993
208	0xb9d69820	-0.00040930603
209	0x3b2eeb66	0.0026690601
210	0x3b65426c	0.0034982217
211	0x3b257df1	0.002525207
212	0xb9997adc	-0.0002927397
213	0x39a92531	0.00032261902
214	0xbb103699	-0.00220052
215	0xbb1dfb3d	-0.0024106049
216	0xbb2569da	-0.0025240094
217	0x3ab73b97	0.0013979551
218	0xb9a9b61c	-0.00032369874
219	0xbacfee76	-0.0015863914
220	0x3b17abf0	0.0023143254
221	0xbd4cad95	-0.04997023
222	0x3b159015	0.0022821475
223	0x3b05814b	0.0020371254
224	0xbb55a240	-0.003259793
225	0x3b494018	0.003070837
226	0x3b5d5b26	0.0033776253
227	0xbb284057	-0.0025673115
228	0x3a9c9300	0.0011945665
229	0x3b1f4e86	0.0024308278
230	0xbb060be9	-0.0020453876
231	0x3a034483	0.00050074625
232	0x3ae490a6	0.0017438128
233	0x3b18a173	0.002328959
234	0x3b81652a	0.0039488273
235	0xbb2b5a43	-0.002614633
236	0x3b08ce2d	0.0020874843
237	0x3b3fe101	0.00292784
238	0x3adec300	0.001699537
239	0x3ac90e0d	0.001533927
240	0x39976fef	0.0002888436
241	0x3d742fab	0.059615772
242	0x3aace216	0.0013189937
243	0x3a8c34f9	0.001069694
244	0x3a8546b1	0.0010168162
245	0x3b4394e4	0.0029843384
246	0x3b4df007	0.0031423585
247	0xba853305	-0.00101623
248	0xb8caa45d	-9.662726e-05
249	0x3b04e565	0.0020278331
250	0xbb778235	-0.0037766818
251	0xba006712	-0.0004898171
252	0xb92ccd57	-0.00016479693
253	0x383c4ccf	4.4894226e-05
254	0x3a2dd021	0.000663044
255	0xb8bb8b42	-8.942794e-05

fc1.weight_v f4 [42]
0	0x3e1f0d9b	0.15532534
1	0xbca121ae	-0.01966938
2	0xbe610762	-0.21975473
3	0xbe1732a6	-0.14765415
4	0x3da6e935	0.081499495
5	0xbdd33f83	-0.10314848
6	0x3bb55766	0.0055341003
7	0x3d1f0162	0.038819678
8	0x3e406a64	0.18790585
9	0xbd1bc038	-0.03802511
10	0xbe75c65c	-0.2400145
11	0xbd75a1e2	-0.059968837
12	0x3e0278d0	0.12741399
13	0x3e48cbea	0.19609037
14	0xbe068f50	-0.13140607
15	0x3e68f8c1	0.22751142
16	0xbe5dac96	-0.21647868
17	0x3e45d3e7	0.19319116
18	0x3e685ae2	0.22690919
19	0x3e87d333	0.2652832
20	0x3d1b3857	0.037895527
21	0x3e4556c2	0.19271377
22	0x3c38b6f1	0.011274085
23	0x3e3a3ce6	0.18187293
24	0x3e50871f	0.20364045
25	0x3d3de805	0.04636385
26	0x3d8c997f	0.068652146
27	0x3dbc1d0e	0.09185229
28	0xbdcf0741	-0.101088054
29	0x3e095fd2	0.13415459
30	0x3dc70341	0.097174175
31	0xbcc1728f	-0.023614196
32	0x3e084c39	0.13310327
33	0x3d19e726	0.037573956
34	0xbe1b7b79	-0.1518382
35	0x3dcf4b29	0.101217575
36	0x3db4fe25	0.08837537
37	0x3e72fe29	0.23729767
38	0x3e150eff	0.14556502
39	0xbe0afdaf	-0.13573335
40	0x3e3d0a29	0.18460907
41	0xbea3655f	-0.31913278

fc2.bias f4 [256]
0	0xbec77c09	-0.3896182
1	0xbe6c2f21	-0.23064853
2	0xbf232f95	-0.6374448
3	0xbeb330e6	-0.34998244
4	0xbea47d87	-0.3212702
5	0xbed2eb0f	-0.4119496
6	0xbebd9345	-0.3702642
7	0xbf402d5d	-0.7506922
8	0xbe4ca4bb	-0.19984715
9	0xbecae718	-0.39629436
10	0xbea6ab62	-0.3255263
11	0xbe5890a1	-0.21148922
12	0xbe4b2c76	-0.19841179
13	0xbe1934ed	-0.14961596
14	0xbea566eb	-0.32305083
15	0xbf24ae36	-0.64328325
16	0xbebd0694	-0.3691908
17	0xbe4661c6	-0.19373235
18	0xbe3145fa	-0.1731185
19	0xbe90852a	-0.28226596
20	0xbe8496ab	-0.258962
21	0xbe82600f	-0.25463912
22	0xbe853f15	-0.2602469
23	0xbe593701	-0.21212389
24	0xbea66e46	-0.32506007
25	0xbf21f201	-0.63259894
26	0xbeb9a432	-0.36258084
27	0xbec81eea	-0.39086086
28	0xbe215291	-0.15754153
29	0xbe90bcd9	-0.2826908
30	0xbe68db74	-0.22739965
31	0xbe9a1974	-0.30097544
32	0xbe98fd1d	-0.2988061
33	0xbe090135	-0.13379367
34	0xbe4515c6	-0.19246587
35	0xbe34fe42	-0.17675117
36	0xbe7dfad7	-0.24802719
37	0xbf159eb9	-0.58445317
38	0xbee5f89b	-0.44916233
39	0xbe52ec2b	-0.20597903
40	0xbe993ea7	-0.29930612
41	0xbf2d675f	-0.67735857
42	0xbeb7bb12	-0.3588491
43	0xbe94894f	-0.29011008
44	0xbedcd14b	-0.43128428
45	0xbe8db475	-0.2767674
46	0xbedb88a0	-0.42877674
47	0xbe9d0cdd	-0.30673876
48	0xbe92805e	-0.2861356
49	0xbf0bf6d6	-0.54673517
50	0xbe40ed52	-0.1884053
51	0xbeb88786	-0.36040896
52	0xbe2d0ffa	-0.16900626
53	0xbea90657	-0.3301265
54	0xbe39e507	-0.18153773
55	0xbea5b231	-0.32362512
56	0xbe5a296e	-0.21304867
57	0xbef52a28	-0.47883725
58	0xbef6a29f	-0.48170945
59	0xbe8f1ec9	-0.27953175
60	0xbec4a7d7	-0.38409302
61	0xbe95ff2c	-0.29296243
62	0xbe8a19b1	-0.26972726
63	0xbe5b1240	-0.2139368
64	0xbf066811	-0.5250254
65	0xbf0927de	-0.5357646
66	0xbe9069cf	-0.28205726
67	0xbe862828	-0.26202512
68	0xbe9eff39	-0.31054094
69	0xbf3cb15a	-0.73708117
70	0xbe724139	-0.23657693
71	0xbeaeeede	-0.34166616
72	0xbe70152b	-0.23445575
73	0xbe44f9e6	-0.19235954
74	0xbe7bae4a	-0.24578205
75	0xbeda705c	-0.42663848
76	0xbe9ed809	-0.31024197
77	0xbe5c7c52	-0.215318
78	0xbe6be490	-0.23036408
79	0xbeaf5529	-0.3424466
80	0xbf171386	-0.59014165
81	0xbe906707	-0.28203604
82	0xbeb8bd34	-0.3608185
83	0xbea18ceb	-0.31552824
84	0xbec5aaaf	-0.38606784
85	0xbf0d8e7a	-0.55295527
86	0xbf07d3e3	-0.5305769
87	0xbe83fcdb	-0.2577885
88	0xbe9780a0	-0.2959032
89	0xbea70902	-0.3262406
90	0xbe9e3c16	-0.30905217
91	0xbf4260ca	-0.7592894
92	0xbe5c0ff5	-0.21490462
93	0xbe5302e0	-0.20606565
94	0xbe54bc8b	-0.20775048
95	0xbea2cd0c	-0.31797063
96	0xbe22a52d	-0.15883322
97	0xbec834b6	-0.39102715
98	0xbec53774	-0.3851887
99	0xbea7c354	-0.3276621
100	0xbeee0729	-0.46489838
101	0xbe57e449	-0.21083178
102	0xbe3b189f	-0.18271111
103	0xbedfeca2	-0.43735224
104	0xbe3f9977	-0.18710886
105	0xbeb3fb64	-0.35152733
106	0xbe8fc4d0	-0.28079844
107	0xbea03e4c	-0.3129753
108	0xbe8cad9a	-0.27476197
109	0xbf14d882	-0.58142865
110	0xbe4c3970	-0.19943786
111	0xbea49761	-0.32146743
112	0xbe938ac1	-0.28816798
113	0xbe9737a6	-0.29534644
114	0xbed7248c	-0.4202007
115	0xbe519f51	-0.2047093
116	0xbf00a417	-0.5025038
117	0xbe09afa4	-0.13445908
118	0xbe3a16c5	-0.18172748
119	0xbec01980	-0.37519455
120	0xbeb2acbf	-0.3489742
121	0xbe9b673a	-0.30352193
122	0xbeec7713	-0.46184596
123	0xbe8d6c6c	-0.27621782
124	0xbed9c9a6	-0.42536658
125	0xbec2baed	-0.38033238
126	0xbe30ceb2	-0.17266348
127	0xbeb14f62	-0.34630877
128	0xbed3e7c8	-0.41387773
129	0xbe7a813a	-0.24463359
130	0xbea17b5b	-0.31539425
131	0xbec60d93	-0.3868223
132	0xbe44f7b3	-0.19235115
133	0xbe46f959	-0.19431056
134	0xbebc0c70	-0.3672824
135	0xbe3bdc89	-0.18345846
136	0xbe2f39ff	-0.17111968
137	0xbe33ba55	-0.17551549
138	0xbe977ad9	-0.29585913
139	0xbe398b61	-0.18119575
140	0xbecec48d	-0.4038433
141	0xbe891c8f	-0.267796
142	0xbe4ff813	-0.20309477
143	0xbe384844	-0.17996317
144	0xbe96570a	-0.2936328
145	0xbed1a426	-0.40945548
146	0xbe5152cd	-0.20441742
147	0xbec5a0c5	-0.3859922
148	0xbeedc650	-0.46440363
149	0xbf0bd4cc	-0.5462158
150	0xbe8cc686	-0.2749521
151	0xbe840848	-0.25787568
152	0xbe8a150c	-0.26969182
153	0xbec67d84	-0.38767636
154	0xbe9bda34	-0.30439913
155	0xbec57773	-0.38567695
156	0xbeace1b3	-0.33765945
157	0xbe9af65a	-0.30266076
158	0xbe8e9faf	-0.27856204
159	0xbe8b2b5b	-0.27181515
160	0xbeb6d3dd	-0.35708514
161	0xbe2efbae	-0.17088196
162	0xbeb147fe	-0.34625238
163	0xbf459c67	-0.77191776
164	0xbe9e07da	-0.30865365
165	0xbee3ba3d	-0.44478026
166	0xbf045ffd	-0.51708966
167	0xbe35f84f	-0.17770503
168	0xbe8ac698	-0.2710464
169	0xbec83892	-0.3910566
170	0xbec22b49	-0.3792365
171	0xbe271826	-0.16317806
172	0xbeb8b767	-0.36077425
173	0xbe282b7e	-0.16422841
174	0xbeef5142	-0.46741682
175	0xbe46e58f	-0.19423507
176	0xbe60d528	-0.21956313
177	0xbe975da4	-0.2956363
178	0xbe8d933d	-0.27651396
179	0xbe0a3b23	-0.13499121
180	0xbec667f3	-0.38751182
181	0xbedb1c8b	-0.42795214
182	0xbecc762b	-0.39933905
183	0xbe6bd0dc	-0.23028892
184	0xbf5db0db	-0.86597985
185	0xbe1bdabb	-0.15220158
186	0xbe97f1b0	-0.2967658
187	0xbe3009c6	-0.17191228
188	0xbe295e8d	-0.16539975
189	0xbecec2f2	-0.40383106
190	0xbed81ba4	-0.42208588
191	0xbe33f170	-0.1757257
192	0xbec7eb67	-0.39046785
193	0xbf105e6b	-0.5639407
194	0xbed9de92	-0.4255262
195	0xbe803a63	-0.25044546
196	0xbe952a46	-0.29133815
197	0xbf03b594	-0.5144894
198	0xbed84587	-0.42240545
199	0xbeba1d8f	-0.36350676
200	0xbe40e2af	-0.18836473
201	0xbe07dec1	-0.13268568
202	0xbea843df	-0.32864282
203	0xbd9fb824	-0.07798794
204	0xbe9ed59a	-0.3102234
205	0xbe4610c1	-0.19342329
206	0xbe6fbbef	-0.23411535
207	0xbe8acbb1	-0.2710853
208	0xbed9f080	-0.425663
209	0xbe9c70b9	-0.3055475
210	0xbe54ffa1	-0.2080064
211	0xbee9373c	-0.45549953
212	0xbf23a38c	-0.6392143
213	0xbe2817a6	-0.16415271
214	0xbdff2651	-0.1245848
215	0xbe8f1515	-0.27945772
216	0xbe61ff54	-0.22070056
217	0xbeb6f50a	-0.35733825
218	0xbe17f6f0	-0.14840293
219	0xbe23a070	-0.15979171
220	0xbeddf9dc	-0.4335469
221	0xbead05b1	-0.33793405
222	0xbe4d00cd	-0.20019837
223	0xbe55c328	-0.20875227
224	0xbedef025	-0.4354259
225	0xbecfec41	-0.40609935
226	0xbe9775e5	-0.29582134
227	0xbe984e10	-0.29747057
228	0xbe7261eb	-0.23670165
229	0xbebcb0af	-0.3685355
230	0xbee68589	-0.45023754
231	0xbeb6cfe9	-0.35705498
232	0xbf1b3f88	-0.60643816
233	0xbe5dc24a	-0.21656147
234	0xbedda0b6	-0.43286675
235	0xbec7fa6d	-0.39058247
236	0xbea4401b	-0.3208016
237	0xbec9b584	-0.39396298
238	0xbe88b9e9	-0.26704338
239	0xbe8a09a2	-0.26960474
240	0xbea6bd31	-0.32566217
241	0xbebfa64b	-0.3743156
242	0xbe2fd6aa	-0.17171732
243	0xbe2b6e9c	-0.16741413
244	0xbe666b25	-0.2250181
245	0xbdcc5394	-0.09976879
246	0xbdc79c6c	-0.09746632
247	0xbe0e9036	-0.139222
248	0xbed6a694	-0.41923964
249	0xbf0949c7	-0.536282
250	0xbed72efa	-0.42028028
251	0xbeb91a8d	-0.3615307
252	0xbea98c74	-0.3311497
253	0xbe9af3ee	-0.3026423
254	0xbe6e79fd	-0.23288722
255	0xbe8bd66a	-0.27312022

fc2.weight_orig f4 [256, 512]
0	0x3c56d277	0.013111702
1	0xbcc0e080	-0.02354455
2	0x3c5b1366	0.013371324
3	0xbced0fde	-0.02893823
4	0xba87f068	-0.0010371329
5	0x3c6a4302	0.0142982025
6	0x3ceea429	0.029131012
7	0xbbaea5c1	-0.005329818
8	0x3c609b16	0.01370885
9	0xbce87d2a	-0.028379995
10	0xbb84cf40	-0.0040530264
11	0x3b5578c7	0.003257321
12	0xba9f062b	-0.0012132576
13	0xbcc4b606	-0.024012577
14	0x3c137ab7	0.0090014255
15	0x3d1880fb	0.03723238
16	0x3cfa04de	0.030519899
17	0x3cc24b02	0.023717407
18	0xbcfaeb6e	-0.03062984
19	0x3b1f0072	0.002426174
20	0xbca6d521	-0.0203653
21	0x3befa131	0.0073129167
22	0xbd1bf3a0	-0.038074136
23	0xbc9f4860	-0.01944369
24	0x3b5b9ea6	0.003351131
25	0xbadf3038	-0.001702792
26	0xbcccf1cc	-0.025017641
27	0xb9aef5fe	-0.00033371145
28	0x3b0c6e07	0.0021427886
29	0xbc471ad0	-0.012152389
30	0xbbcb260a	-0.006199603
31	0x3ce3babf	0.027799008
32	0xbd09073a	-0.033454157
33	0xbc0bd0e2	-0.008533688
34	0x3c2870ca	0.010280797
35	0xbb238a05	-0.0024954092
36	0x3b80e1d9	0.003933173
37	0x3c1a8ac0	0.009432495
38	0xbbf09bd4	-0.007342795
39	0xbc1ce576	-0.009576192
40	0xbcb8a1f0	-0.022538155
41	0x3c94b4f1	0.018152686
42	0xbbf6aa00	-0.00752759
43	0xbd19b00d	-0.03752141
44	0xbcc7f47b	-0.02440857
45	0x3c168759	0.009187543
46	0xbb2a2930	-0.002596449
47	0xbc754403	-0.014969829
48	0xbbf758df	-0.007548436
49	0xbc785ba9	-0.015158572
50	0xbd0a3880	-0.03374529
51	0xbc468a6a	-0.012117961
52	0x3c3c563b	0.011495168
53	0x3bb90154	0.0056459103
54	0xbce53eed	-0.027984107
55	0x3d0333cc	0.03203182
56	0xbc680f19	-0.014163756
57	0x3c31130a	0.010807762
58	0xbc25a8e2	-0.010111066
59	0x3c51ed84	0.012812976
60	0xba0e0aa3	-0.0005418455
61	0xbc96972a	-0.018382628
62	0x3b74e0e3	0.0037365488
63	0xbbb078ad	-0.0053854794
64	0x3b0ecfbe	0.0021791304
65	0xbc930316	-0.017945807
66	0xbb60f1be	-0.0034323777
67	0xbc49dfad	-0.012321395
68	0x3d05f15d	0.032700885
69	0x3cce299b	0.025166323
70	0x3c2dfa29	0.010618725
71	0xbccad491	-0.024759563
72	0x3c891b04	0.016736515
73	0xbcdb28ab	-0.02675279
74	0xbd29a33e	-0.041415446
75	0x3c8576db	0.016292026
76	0x3a3a158b	0.0007098547
77	0xbc0c8de0	-0.0085787475
78	0x3bb0ab33	0.0053915023
79	0xbcb09af2	-0.021558259
80	0xbd1a75b8	-0.03770992
81	0xbc5f0f38	-0.013614468
82	0xbd0c0558	-0.034184784
83	0x3c10b344	0.008831803
84	0xba847424	-0.0010105413
85	0xbbe5de25	-0.007015007
86	0x3ce3f2e1	0.027825775
87	0x3b57821c	0.0032883948
88	0xbabebf56	-0.0014552872
89	0xbc0d67e2	-0.008630725
90	0xbd20dbc3	-0.03927208
91	0x3cd9e5ef	0.026598899
92	0xbd0cf42d	-0.03441255
93	0xbc47ea7f	-0.012201904
94	0x3c91e143	0.017807608
95	0xbc55e3dd	-0.013054815
96	0x3bda0e33	0.0066545247
97	0xbc9fee8a	-0.019522924
98	0xbbe82e0c	-0.0070855673
99	0x3c852fb2	0.016258094
100	0x3bcfec9d	0.006345345
101	0xbbf12b4c	-0.0073598977
102	0xbd0681d9	-0.032838676
103	0x3ca809ae	0.020512428
104	0x3a930930	0.0011217948
105	0x3bcaf9f7	0.006194349
106	0x3cf1ea5a	0.029530693
107	0xbc05d206	-0.008167749
108	0xb963be7a	-0.00021719365
109	0x3c7bf11f	0.015377312
110	0x3c33db40	0.010977566
111	0xbc11b09e	-0.0088922065
112	0x3cf138ec	0.029446088
113	0x3c3a8f72	0.011386739
114	0x3c8a41aa	0.016877014
115	0xbc2a0439	-0.010376983
116	0x3c64d595	0.013966938
117	0xbb9d1111	-0.0047932942
118	0xbb7c205e	-0.003847144
119	0xba81115d	-0.0009847094
120	0xbbf6b31d	-0.007528676
121	0xbc1127d5	-0.008859594
122	0xbbd7a9da	-0.006581527
123	0xbc30d174	-0.010792125
124	0x3cb2b14e	0.021813061
125	0x3c0ce19e	0.008598713
126	0xbc3d024f	-0.011536195
127	0xbc82141f	-0.015878735
128	0xbbb346a6	-0.0054710684
129	0xbcf13639	-0.0294448
130	0xbc579054	-0.013156969
131	0xbb379d8f	-0.0028017496
132	0x3ce0a504	0.027422436
133	0x3c0f33b7	0.008740357
134	0x3ae7792a	0.0017660011
135	0xbd178b18	-0.036997885
136	0x3a1f3964	0.00060739205
137	0xbd105f73	-0.035247277
138	0xbc3bd343	-0.011463943
139	0xbbbc9376	-0.0057548834
140	0xbc898aa4	-0.016789742
141	0x3c8cffbf	0.017211793
142	0x3bc02144	0.0058633406
143	0xbc873566	-0.016504955
144	0xbc897fdd	-0.016784603
145	0xbb54d843	-0.0032477535
146	0x3ccfacfa	0.025351036
147	0xba00e2a1	-0.0004916583
148	0x3ce0d182	0.027443651
149	0x3c58d2e7	0.013233877
150	0x3bfa6783	0.007641734
151	0x3b9c87f5	0.0047769495
152	0x3cecb5e0	0.028895319
153	0xbc24be15	-0.010055085
154	0xbce9b8b6	-0.02853046
155	0x3b32450a	0.0027201795
156	0x3c088346	0.008332079
157	0xbcfbbe9d	-0.03073054
158	0xbc38bd58	-0.011275612
159	0x3c6a9bdf	0.014319389
160	0x3b47d26c	0.0030490411
161	0x3c25b63e	0.010114251
162	0x3c661783	0.014043692
163	0x3cb1bfd8	0.021697924
164	0x3b3c8580	0.0028766096
165	0xbc7f3be2	-0.015578242
166	0x3ca9a86e	0.020710196
167	0x39360f24	0.00017362513
168	0x3b3615f3	0.002778408
169	0xbc1113f8	-0.008854859
170	0x3cdc59c4	0.026898272
171	0xbc313cb5	-0.010817696
172	0x3a9ae574	0.001181765
173	0x3c04a413	0.008095759
174	0x3c146f70	0.009059772
175	0x3c26bcc4	0.010176841
176	0x3ca6d146	0.020363461
177	0x3b9b5a0a	0.004740958
178	0xbc364c69	-0.011126616
179	0x3c3b3f3e	0.011428652
180	0x3c991856	0.018688362
181	0xbbd312b4	-0.0064414386
182	0xbbd79f9e	-0.006580307
183	0x3ca0d68d	0.019633556
184	0xbbcf9b94	-0.006335685
185	0x398ca84a	0.00026828266
186	0x3a6f9133	0.0009138763
187	0xbd4b4483	-0.049625885
188	0xbcc48e5a	-0.02399366
189	0x3bc7070b	0.0060738376
190	0x3c993da1	0.018706145
191	0xbc04d1d6	-0.008106669
192	0xbc85fc55	-0.016355673
193	0xbc7b65bc	-0.01534408
194	0x3c4db2a5	0.012554799
195	0xbc092106	-0.00836969
196	0x3be7e919	0.007077348
197	0xba87ad11	-0.001035126
198	0x3c3e3fe0	0.011611909
199	0xbc02413c	-0.007950123
200	0xbc23f584	-0.010007266
201	0x3d06fa6a	0.032953657
202	0x3b29bc71	0.0025899673
203	0xbc6f98cd	-0.014623833
204	0x3c8fda88	0.017560259
205	0xbbf6eba4	-0.007535415
206	0xbcc5fd9a	-0.024168778
207	0x3cd5e6eb	0.026111087
208	0x3ccaa489	0.02473666
209	0xbc69af53	-0.014262992
210	0x3cbd72fc	0.023126118
211	0x3b1b4959	0.0023694842
212	0xbb456ac2	-0.0030123447
213	0xba864bb3	-0.0010245949
214	0x3cbbb264	0.022912212
215	0x3cb24568	0.021761611
216	0x3b2f4f92	0.0026750308
217	0xbca8e3b6	-0.020616394
218	0x3d1c05b7	0.038091388
219	0x3c0539da	0.008131469
220	0x3cb71ae6	0.022351693
221	0x3bd7bf1f	0.0065840627
222	0xbb945a42	-0.004527361
223	0xbc594960	-0.013262123
224	0xbb476287	-0.0030423717
225	0x3cb33569	0.021876054
226	0xbc1646b0	-0.009172127
227	0xbd3036c5	-0.043020982
228	0xbcddf1aa	-0.027092773
229	0xbce02a84	-0.027364023
230	0x3892a638	6.992783e-05
231	0x3c3c7324	0.011502061
232	0xbc308464	-0.010773752
233	0xbbb8eb06	-0.0056432514
234	0x3cb1bd34	0.021696664
235	0xbb09a91e	-0.0021005343
236	0x3ccecfbb	0.025245538
237	0x3d03f491	0.03221566
238	0x3c5ce99b	0.01348343
239	0xbc5fd538	-0.013661675
240	0x3ce2ad3f	0.0276705
241	0x3c0d04c8	0.008607097
242	0xbd05ae93	-0.03263719
243	0x3c100326	0.008789813
244	0x3d2f4419	0.042789552
245	0xbb557666	-0.0032571792
246	0xbc6e77e7	-0.014554954
247	0xbc9ce69b	-0.01915293
248	0xbc2491ab	-0.010044496
249	0xbc557b86	-0.013029939
250	0xbad49502	-0.0016218724
251	0x3c98a21b	0.018631985
252	0xbc50e011	-0.012748734
253	0xbc6f3c73	-0.014601815
254	0x3cc1fb43	0.023679381
255	0x3c64d25b	0.013966168

fc2.weight_u f4 [256]
0	0x3bcc7ef1	0.0062407185
1	0xbd307a63	-0.043085467
2	0x3bf4853c	0.007462172
3	0x3c80f83d	0.01574337
4	0x3bfd321e	0.0077269217
5	0xbbf1a956	-0.0073749227
6	0xbbe36953	-0.006940046
7	0xbb0c6a32	-0.0021425602
8	0xbaa14618	-0.0012304215
9	0xb9b76d0d	-0.0003498573
10	0xbc9c3dfe	-0.019072529
11	0xbc04fcd1	-0.008116917
12	0xbc0ba425	-0.008523022
13	0x3b321038	0.0027170312
14	0xbd394c92	-0.04523904
15	0x3a23dea6	0.0006251134
16	0xbc7ea1fd	-0.015541551
17	0x3973b15f	0.00023240362
18	0x3bb83a9d	0.0056222216
19	0x3beff55a	0.0073229494
20	0xbba616cd	-0.005068636
21	0xbb95b96d	-0.0045692236
22	0x3b833d3d	0.004005103
23	0x3b048701	0.002022207
24	0x3e4cf9f0	0.20017219
25	0xba8dae0c	-0.0010809316
26	0xbb9071ed	-0.0044081123
27	0x3b53f276	0.0032340563
28	0x3b1a4e7e	0.002354532
29	0xbbd18d8a	-0.0063950466
30	0xbb33117b	-0.0027323652
31	0x3c35a9da	0.011087859
32	0xbb1f2a2b	-0.0024286609
33	0xbd933c70	-0.07189262
34	0x3bafcdc2	0.0053651044
35	0x3c1738fa	0.009229893
36	0xbd256f64	-0.040389434
37	0xbdd8292e	-0.105547294
38	0x3a11ac2d	0.0005556967
39	0xbba02fa9	-0.004888494
40	0x397fb206	0.00024385014
41	0x3a45dd07	0.0007547889
42	0x3ac1451d	0.0014745329
43	0xbbfdca92	-0.0077450955
44	0xbb9f155c	-0.004854841
45	0x3ba3fc83	0.005004467
46	0x398a1725	0.00026338655
47	0xbade1931	-0.0016944763
48	0x3d92f0bb	0.07174822
49	0x3bd268f2	0.006421202
50	0x3b2deb40	0.0026537925
51	0x3bb980c8	0.005661104
52	0xbcff8e13	-0.031195676
53	0xbbb05529	-0.0053812456
54	0x3c17f80b	0.009275447
55	0x3bbdb248	0.005789075
56	0x3a97c4e0	0.0011579059
57	0x3b4cd001	0.003125191
58	0x3b8b579f	0.0042523886
59	0x3b09a657	0.0021003687
60	0x3b8d1afa	0.0043061944
61	0xbb000218	-0.0019532498
62	0xbce15983	-0.027508503
63	0xbb91052d	-0.004425666
64	0x3bad3889	0.0052862805
65	0x3b8537c5	0.004065486
66	0x3c9f6752	0.019458447
67	0xbaadc69c	-0.0013258043
68	0xbe052b6f	-0.1300485
69	0xbd0dd390	-0.03462559
70	0x3de2057e	0.11036204
71	0xbb88db7b	-0.0041765547
72	0xbc05a2ae	-0.008156462
73	0x3ab14949	0.0013525869
74	0x3b23456c	0.0024913205
75	0xbdbf1479	-0.09330077
76	0x3e0ad49f	0.13557671
77	0xbac3aae3	-0.0014928248
78	0x3b855fc3	0.0040702536
79	0x3b73229a	0.0037099482
80	0x3c091d42	0.008368792
81	0xbc340ba4	-0.0109891035
82	0x3c40c7fe	0.011766432
83	0x3ace7289	0.0015750687
84	0x3b6fbde0	0.003658168
85	0x3baf01c9	0.005340789
86	0x3bcac16e	0.0061876094
87	0xbb7ee618	-0.003889447
88	0xbb9e9fb2	-0.0048408145
89	0xbc21c928	-0.00987462
90	0x3b316833	0.0027070164
91	0x39484319	0.00019098482
92	0xbc1ec2bd	-0.009689984
93	0x3c60e8fd	0.013727424
94	0x3d80c650	0.06287825
95	0xbcc15514	-0.023600139
96	0xbe1b034c	-0.15137976
97	0x3be955d9	0.0071208295
98	0xbbfcc633	-0.007714057
99	0x3baca6a2	0.0052688876
100	0x3ba78e1a	0.0051133754
101	0x3c9b01d7	0.018921776
102	0xbd2f17f1	-0.04274744
103	0x3bc3fd54	0.005981127
104	0xba81378b	-0.0009858472
105	0x3bcb71a6	0.0062086163
106	0x3bc03f94	0.005866954
107	0xbb35864f	-0.0027698462
108	0x3ba77096	0.005109857
109	0xbf1004d9	-0.56257397
110	0x3e86a838	0.26300216
111	0x3c4da255	0.01255091
112	0xbc03dff7	-0.008049003
113	0x3bde1e78	0.0067785345
114	0x3a7fb222	0.0009754022
115	0x3ddee61f	0.10883736
116	0xba24d8a8	-0.0006288388
117	0x3de1d54f	0.110270135
118	0xbb55f956	-0.0032649837
119	0xb9dda1e6	-0.00042273029
120	0x3d005269	0.031328592
121	0xba0b4fc1	-0.00053143135
122	0x3c045316	0.00807645
123	0xbc0890dc	-0.008335318
124	0xbbfa780e	-0.007643706
125	0x3b147d0f	0.0022657549
126	0x3cbf8a8f	0.0233815
127	0xbc0f11f0	-0.008732304
128	0x3c89ddbe	0.016829368
129	0x3b02693f	0.0019899157
130	0xb962dceb	-0.00021635338
131	0xbb821250	-0.003969468
132	0x3d88f785	0.066878356
133	0x3d397f21	0.045287255
134	0xbe07b5e4	-0.1325298
135	0xbca8ae6a	-0.02059098
136	0xbcd686ae	-0.026187267
137	0xbc8602d6	-0.016358774
138	0xb9ac43c1	-0.00032856877
139	0xbd78a046	-0.060699724
140	0x3c25f79d	0.010129836
141	0x3af12470	0.00183977
142	0x3ed3ef3f	0.41393468
143	0xbc0f43fa	-0.008744234
144	0x3c3ac2aa	0.011398951
145	0xbbd85f7c	-0.0066031795
146	0x3bd25898	0.0064192526
147	0x3c89576b	0.016765317
148	0x38d0308c	9.9272555e-05
149	0xbb0f9569	-0.0021909124
150	0x3bd11fca	0.0063819634
151	0x3b7ebb21	0.0038868862
152	0x3d876674	0.06611338
153	0xbabdfc07	-0.0014494666
154	0x3c715828	0.014730491
155	0x3bea9298	0.0071585886
156	0xbb57cf19	-0.0032929836
157	0xbbd1358c	-0.006384557
158	0xbb0d1608	-0.0021528024
159	0xbc839f85	-0.016067276
160	0x3b020c57	0.001984378
161	0xbba8721a	-0.005140555
162	0x3c390b26	0.011294162
163	0xbbdd46ae	-0.0067528104
164	0x3b2937af	0.0025820544
165	0xbb592fe2	-0.0033140113
166	0xba6459de	-0.0008710901
167	0x3b37dac4	0.0028053978
168	0xbb84c67c	-0.0040519815
169	0xb83c8b86	-4.4952634e-05
170	0xbbc7c556	-0.0060965223
171	0x3e8bc164	0.27295983
172	0xbdf3e88a	-0.11909588
173	0xbe02f8a3	-0.1279016
174	0x3ac11227	0.0014730141
175	0xbc66d007	-0.0140876835
176	0x3a8713ee	0.0010305622
177	0xbb24cae1	-0.002514534
178	0xbb8303e8	-0.0039982684
179	0xbbabe4f6	-0.0052458
180	0x3c133f52	0.008987265
181	0xbb23fab5	-0.002502126
182	0x3c1d7808	0.009611137
183	0x3bb5d7b5	0.005549396
184	0xbdc39c3b	-0.09551283
185	0x3b1efad7	0.00242584
186	0x3e0644d6	0.13112196
187	0xbd1de4ab	-0.038548153
188	0x3b8902a6	0.004181224
189	0xb9bce1c1	-0.00036026354
190	0xba8b201d	-0.0010614429
191	0xbc08a916	-0.0083410945
192	0xbb218987	-0.0024648623
193	0x3bae4091	0.0053177555
194	0xbc432204	-0.011909965
195	0x3b7de8f0	0.0038743578
196	0xbc4ae867	-0.012384511
197	0xbae295f3	-0.001728712
198	0xbbbe1e41	-0.0058019464
199	0x3e00b698	0.12569654
200	0x3affbcc1	0.0019511209
201	0x3cff6c43	0.031179553
202	0x3ba5dc31	0.0050616493
203	0xbb574eee	-0.0032853442
204	0xbbd75852	-0.006571808
205	0x3a9e5bc2	0.0012081789
206	0x3b0a4f22	0.0021104296
207	0xbd3adba8	-0.045619637
208	0x3bc3880c	0.005967146
209	0x3b0f6b3f	0.0021883992
210	0x3c1033b7	0.008801392
211	0xbb978ea7	-0.00462516
212	0x3a10cfc3	0.0005524123
213	0x3c82508b	0.015907547
214	0x3c3cb040	0.011516631
215	0xbd895645	-0.06705908
216	0xbdfe6ac3	-0.12422707
217	0x3c442ee2	0.011974068
218	0x3caf41ef	0.021393744
219	0x3d71278a	0.058875598
220	0x3b735631	0.0037130232
221	0x3b1facdb	0.0024364504
222	0x3c081d27	0.008307732
223	0x3b15a4da	0.0022833855
224	0x3c2878a5	0.01028267
225	0x3ae82118	0.0017710058
226	0xbb3bb116	-0.0028639487
227	0x3c01cb0a	0.007921943
228	0xbadfd341	-0.0017076508
229	0xbb8d6d15	-0.004315982
230	0xba2c296a	-0.00065674505
231	0x3d4b74b6	0.04967185
232	0x3b903a0d	0.0044014514
233	0xbb80c167	-0.0039293054
234	0x3c05b253	0.008160192
235	0x3bafa427	0.0053601447
236	0xbb9939ea	-0.0046760933
237	0x3b8b6d49	0.004254971
238	0x3c0a7b16	0.008452198
239	0x3c0e9002	0.008701326
240	0xbd87d181	-0.066317566
241	0x3ba5b830	0.0050573573
242	0xbbfb499c	-0.007668687
243	0x3e1001ed	0.14063235
244	0xbc0ca1f8	-0.008583538
245	0xbb67fd10	-0.003539864
246	0x3a5f4efb	0.0008518544
247	0xbc477235	-0.012173225
248	0xbc77278f	-0.015085115
249	0x3a5e48de	0.0008479486
250	0x3bdf5d07	0.0068165096
251	0x3e043a69	0.12912907
252	0x3a61e11f	0.00086166145
253	0x3bb93366	0.005651879
254	0xbb3dd702	-0.0028967266
255	0x3abe0d5a	0.0014499829

fc2.weight_v f4 [512]
0	0xbb9bb326	-0.004751581
1	0xbc2a35b7	-0.010388783
2	0xbc4b7720	-0.012418538
3	0xbc25559e	-0.0100912135
4	0xbbbea515	-0.005818019
5	0xbc3e2397	-0.011605165
6	0xbc31aa52	-0.01084383
7	0xbb9dc7d2	-0.00481508
8	0xbc3616c7	-0.011113829
9	0xbc5b01ba	-0.013367111
10	0xbc30a73e	-0.010782061
11	0xbbbbf2b5	-0.00573572
12	0xbae4c654	-0.0017454126
13	0xbc40d417	-0.011769316
14	0xbb8e80d7	-0.004348855
15	0xbc033196	-0.008007428
16	0xbb841e5b	-0.004031939
17	0xbc1c21a1	-0.009529502
18	0xbbd3ed64	-0.006467508
19	0xbda6e530	-0.08149183
20	0xbc228eca	-0.009921739
21	0xbab4ed12	-0.0013803563
22	0xbc53350d	-0.012891066
23	0xbafefaf1	-0.0019453448
24	0xbbc72e40	-0.0060785115
25	0xbba5eed4	-0.005063871
26	0xbbbcd65e	-0.0057628592
27	0xbbe7623c	-0.007061271
28	0xbca417fe	-0.020030972
29	0xbb447a46	-0.0029980107
30	0xbbdbeccc	-0.006711578
31	0xbb02b5fb	-0.0019944895
32	0xbb493529	-0.0030701852
33	0xbb9579e2	-0.0045616487
34	0xbbb50fb4	-0.0055255536
35	0xbc4bba21	-0.012434513
36	0xbc355449	-0.011067458
37	0xbd3fe931	-0.046853248
38	0xbc0f5ef0	-0.008750662
39	0xbb2b91f5	-0.0026179526
40	0xbc1e71ea	-0.009670714
41	0xbb099308	-0.0020992178
42	0xbbd4d2bb	-0.0064948476
43	0xbbcec4a1	-0.006310061
44	0xbbc60ac1	-0.0060437624
45	0xbd56565e	-0.05232846
46	0xbbe9fc6d	-0.007140687
47	0xbc39ffdd	-0.0113525065
48	0xbb47a96a	-0.003046597
49	0x3de8845f	0.11353373
50	0xbc21f9b7	-0.009886197
51	0xbc34d72f	-0.011037632
52	0xbc45762a	-0.012052098
53	0xbbb02dd4	-0.005376557
54	0xbc81d52e	-0.015848722
55	0xbc15d1db	-0.009144272
56	0xbc3a02de	-0.011353223
57	0xbc4b29b1	-0.012400077
58	0xbc6422e3	-0.013924333
59	0x3d183394	0.037158564
60	0xbc04476b	-0.008073668
61	0xbc0229ce	-0.007944537
62	0xbade7074	-0.001697077
63	0xbb954bfa	-0.0045561763
64	0x3d13ec69	0.03611413
65	0xbbe8a25b	-0.0070994324
66	0xbc37e2b9	-0.0112234885
67	0xbb433e5c	-0.0029791808
68	0xbc022132	-0.007942485
69	0xbb998d1d	-0.0046860115
70	0xbbf9f625	-0.0076282197
71	0xbab72a74	-0.0013974444
72	0xbb803925	-0.003913062
73	0xbc5587ea	-0.013032893
74	0xbc46904b	-0.012119363
75	0xba04a5ff	-0.0005060136
76	0xbbc3aee2	-0.0059717754
77	0xbb9d451d	-0.0047994987
78	0xbb3258fa	-0.0027213679
79	0xbc4214e4	-0.011845801
80	0xbc4f1b92	-0.012640851
81	0xbc66cdd9	-0.014087164
82	0xbb4ba4f7	-0.0031073669
83	0xbbad87d3	-0.0052957325
84	0xbc1d0396	-0.0095833745
85	0xbba48a5f	-0.005021378
86	0xbb9080cb	-0.0044098846
87	0xbc30452a	-0.0107586775
88	0xbc76598b	-0.015035997
89	0xbc01e23d	-0.007927475
90	0x3ad004b2	0.001587054
91	0xbda61cb7	-0.08110946
92	0xbc349fdb	-0.011024441
93	0xba801156	-0.0009770792
94	0x3a539097	0.0008070557
95	0xbc15948a	-0.009129653
96	0xbc2693d6	-0.010167083
97	0xbbff0257	-0.0077822614
98	0xbc154d2e	-0.009112639
99	0xbc3ca9b9	-0.011515074
100	0xbc1facb6	-0.009745767
101	0xb9bbb6d6	-0.00035803643
102	0xbc401027	-0.011722601
103	0xbc02f738	-0.007993512
104	0xbc4576cd	-0.01205225
105	0xbc54d387	-0.012989885
106	0xbb895c9f	-0.0041919495
107	0xba98e48f	-0.0011664795
108	0xbbf98bac	-0.007615527
109	0xbbbf4b67	-0.005837846
110	0xbd2e1916	-0.042504393
111	0xbac43580	-0.0014969558
112	0xbbf00e00	-0.0073258877
113	0xbbcd111f	-0.0062581445
114	0xbb67d1d0	-0.003537286
115	0xbc542079	-0.012947195
116	0xbbd3791b	-0.006453646
117	0xbc5c2d55	-0.013438542
118	0xbc1cec4d	-0.009577823
119	0x3d035570	0.0320639
120	0xbca5420e	-0.020173099
121	0xbd99b817	-0.075058155
122	0xbba6d7f2	-0.0050916607
123	0xbb2a2d89	-0.0025967082
124	0xbbf4a0ae	-0.0074654436
125	0xbe91a75b	-0.28447995
126	0xbbeac502	-0.0071645984
127	0xbc0452b9	-0.008076363
128	0x3954bf35	0.00020289126
129	0xbbb87091	-0.0056286533
130	0x3a5693b8	0.0008185464
131	0xbae5c977	-0.0017531355
132	0xbc41910e	-0.011814369
133	0xbbe6ac9e	-0.0070396205
134	0xbaac97d4	-0.0013167807
135	0xbc74d968	-0.014944412
136	0xbc0ab60b	-0.008466254
137	0xbae1cd79	-0.0017227373
138	0xbc3fb7dc	-0.01170155
139	0xba91adf2	-0.0011114462
140	0x3d9c8395	0.07642285
141	0xbbf46b36	-0.0074590696
142	0xbada19c6	-0.0016639761
143	0xbbf7a122	-0.0075570503
144	0xbc382e79	-0.011241549
145	0xbb89844f	-0.0041966806
146	0xbc05cc13	-0.008166331
147	0xbba21d23	-0.004947321
148	0xbba207b0	-0.004944764
149	0xbbaafe23	-0.0052182837
150	0xbd4b1732	-0.049582668
151	0xbd92bb4c	-0.0716463
152	0xbc5191b6	-0.012791088
153	0xbb8a97f1	-0.0042295386
154	0xbc6fe067	-0.014640904
155	0xbb9f713f	-0.004865795
156	0xbb7e971a	-0.0038847388
157	0xbbbbcb13	-0.0057309954
158	0xbc30cd1b	-0.010791088
159	0xbc0353c3	-0.008015576
160	0xbc8f0914	-0.017460383
161	0xbbaadf9f	-0.005214646
162	0xbc759daa	-0.014991203
163	0xbc338bdc	-0.010958638
164	0x3c58303f	0.0131950965
165	0xbd488917	-0.048958864
166	0xbbb93b58	-0.0056528263
167	0xbb8c4729	-0.004280944
168	0xbbff4c2c	-0.007791063
169	0xbc1fe2f9	-0.009758704
170	0xbc846aa4	-0.016164131
171	0xbc21fcbe	-0.009886919
172	0xbc59c480	-0.013291478
173	0xbba6908d	-0.0050831498
174	0xbaa4da48	-0.001257726
175	0xbc3ffd40	-0.011718094
176	0xbc3d946c	-0.011571031
177	0xbabb1879	-0.0014274261
178	0xba8b772f	-0.0010640378
179	0xbc3a2703	-0.01136184
180	0xbc53ad80	-0.012919784
181	0xbb44dbfb	-0.0030038345
182	0x3e74f8e0	0.23923063
183	0xbb2b4f9d	-0.0026139983
184	0xbc079340	-0.008274853
185	0xbbf331bc	-0.0074217003
186	0xbc29f4bf	-0.010373293
187	0xbb9c8f76	-0.004777844
188	0xbb6c247e	-0.0036032493
189	0x3e858a59	0.26082113
190	0xbc30fe75	-0.010802855
191	0xbe90e17a	-0.28297025
192	0xbc6ae81b	-0.014337565
193	0xbbd5a8c2	-0.0065203616
194	0xbc31eb41	-0.010859312
195	0xbe894f7f	-0.26818463
196	0xbe881bfc	-0.2658385
197	0xbc16d3c2	-0.00920576
198	0xbc85368f	-0.016261367
199	0xbc20519d	-0.009785083
200	0x3c53ec03	0.012934688
201	0xbc8839cd	-0.016629124
202	0xbbd193a8	-0.006395776
203	0xbbddd9fc	-0.0067703705
204	0xbbfb2b76	-0.007665093
205	0xbe2ca72b	-0.16860645
206	0x39224a4b	0.000154772
207	0xbbf580dc	-0.007492168
208	0xbc4e3fb8	-0.012588434
209	0xbc84f6e9	-0.016231017
210	0xbbe74429	-0.007057686
211	0xbbffd9c0	-0.0078079402
212	0xbc7eb8b8	-0.01554697
213	0xbc81a495	-0.01582555
214	0xbb9ec818	-0.0048456304
215	0x3ba302fb	0.0049747205
216	0xbb9e4f79	-0.004831251
217	0xbc057d55	-0.008147557
218	0xbc20fead	-0.009826344
219	0xbc44ca8e	-0.012011183
220	0xbb9e8bc3	-0.0048384382
221	0x3c6e3393	0.014538663
222	0xbc1f983e	-0.009740887
223	0xbad02b70	-0.0015882086
224	0xbb2c91ac	-0.0026331944
225	0xbba6e72c	-0.005093476
226	0xbbc89490	-0.0061212257
227	0x3b1b30b4	0.0023680152
228	0xbc27fc59	-0.010253035
229	0xbc5d1751	-0.013494329
230	0xbc0ccb16	-0.008593341
231	0xbc37e052	-0.011222916
232	0xbc18f160	-0.009334892
233	0xbc2a93bd	-0.0104112
234	0xbb6c1e16	-0.0036028675
235	0xbb955b17	-0.004557978
236	0xbc045861	-0.008077712
237	0xbc28d00e	-0.01030351
238	0xbc00fc86	-0.007872706
239	0xbb83bae8	-0.0040200837
240	0xbb28646e	-0.0025694626
241	0x3d8e3a96	0.06944768
242	0xbc4f737d	-0.012661812
243	0xb98b8fb1	-0.00026619204
244	0xbb24b7cf	-0.0025133973
245	0xbc0a2ff9	-0.008434289
246	0xbc0514f8	-0.008122675
247	0xbb898971	-0.0041972925
248	0xbbd50c32	-0.006501698
249	0xbba1a49c	-0.004932953
250	0x3b7e7929	0.0038829541
251	0xbbf69b2c	-0.007525822
252	0xbc15fe01	-0.0091547975
253	0x3a51f57a	0.0008009296
254	0xbbc51f27	-0.0060156765
255	0xbb096525	-0.0020964828
