data/saved_models/discriminator_epoch_0.pth (torch, 757672 bytes, 13 tensors)

fc1.weight f4 [512, 42]
00000000: 7cfc e4bc 6a10 b6bc 19f5 15bd cc8b aa3d
00000010: 68f8 12be 734e 06be d985 e0bd ae54 c13d
00000020: cf1d 03be d54f 8b3c bda0 0dbe b4f4 083d
00000030: 7349 00be 7b6d 09be 0e8b eebd 0c25 0ebb
00000040: da23 babd fa24 8c3d 0db3 533c 2699 803d
00000050: 22a0 d43d 5a40 a63b c3ab 023d ec8f 093e
00000060: cb95 92bd 72b1 f73d 7fcb 23bc b18b 973d
00000070: c738 bebd a7e2 843c 68a7 dfbd 3fd4 1fbe
00000080: ff93 6f3d cf05 233d 6221 d03d d03a 983d
00000090: 3667 163d e712 11be cccf e33d 94f1 9ebb
000000a0: 9115 bcbc 07b8 08be 5ddf 50bd 880b 7d3d
000000b0: 9bd3 163c fb12 563d ec7f d6bd 8a92 eebd
000000c0: 16cb 003e 6ff6 e73d ec07 ab3d 1559 1a3e
000000d0: da0c 11be 8d6a 6b3c b0fb acbc ef02 96bd
000000e0: 622a 04be 67bf 32bd 07bd d53d a117 133c
000000f0: 2d6d a9bd 6af8 ffbd fc11 b23c 8ef4 e4bd
00000100: be74 edbd 8295 333d af9f 823d 2dc4 dc3d
00000110: b031 d03d 2a98 3b3d 6b2e 8d3d a32f c4bd
00000120: 45d0 b0bd ee29 833d 856b cabd 652b 1c3e
00000130: de9d 543c 4805 323d fbf9 cdbd da74 a5bd
00000140: e1a3 003d 7d95 693d 6ec1 203e 2b59 b53d
00000150: 38f5 a13d 9629 e83d 0e7e 01be 9ed9 e23b
00000160: 4719 ef3c 40a0 823d 7b7b d1bd 3caf a03c
00000170: 51ba da3d 96bf 153e 73a2 173d 894f 1e3d
00000180: 4ef3 0d3e a083 c7bd e324 16be 5cb9 1c3d
00000190: 3baa 5cbd 9337 4f3d d3d6 d53d 1dc9 df3d
000001a0: a31f 0e3e deb6 eb3a 8e71 8dbd 281f 1b3e
000001b0: 0f51 2a3d 761c 15be 867c c53d ba52 5b3c
000001c0: a23d 8ebd f3da f63c 8484 3ebd ad47 753d
000001d0: 8693 123e b616 ddbd f7ec 933d 893d b6bd
000001e0: 5cd4 d4bd d374 043e a243 f63d 9373 983d
000001f0: 3002 a43d a9e0 ffbd 8a4f 413d 265c 953d
00000200: 1f40 5ebd 0807 2bbd da96 083e b02e ddbd
00000210: 5f2a 18be df40 8c3c 19ad 073e 8216 1abe
00000220: 5ea0 dcbd 4dd0 d0bd 1169 813d 3bdc fc3d
00000230: ac17 b1bd fe6e 8d3d 3877 ae3c a08a b7bd
00000240: 380d 653d f8a8 21bd a182 b43d cb54 123e
00000250: 5cd0 6abd 5d76 8ebd a414 05be c8a6 abbd
00000260: 2419 a8bd e9bb ea3b 93cc 11be c711 203e
00000270: 9991 1c3e e12d 09bd 5055 95bc fc18 f1bd
00000280: 4ad6 373c e116 dc3c 04d8 12be 4946 623c
00000290: 041d be3d 4c04 08be 701c c0ba ec5c 92bd
000002a0: 0f78 db3d b8bf 1dbe 39c9 cb3d 2248 64bc
000002b0: 5b3b 143e b83a d63d f4e4 e1bd c0c5 8a3d
000002c0: 6364 6a3d d2ba c93c 85b6 7f3d 7110 143e
000002d0: 2e8c bcbd c3d0 5bbd efd9 183e ff13 06be
000002e0: e08b 21bd f139 01be 79eb 89bd 3a48 fe3d
000002f0: 455b 893d 1e59 de3d 75d6 1b3d 7b9f 1bbe
00000300: 94b1 ca3c 8581 7fbc 7f87 a9bd 8220 13bd
00000310: c013 34bd 27cf c13d e7e4 cbbd 1059 f9bb
00000320: f6c9 00bd 8ea7 d1bd fbb1 743c 8bd5 7f3b
00000330: 6520 11be 99a7 c5bd 2aca 92bd 4bb2 32bd
00000340: 123e c8bd a140 05be 5ee3 d2bc 2877 efbd
00000350: e800 8ebd 303f a63c 58f3 3e3c 1203 a0bd
00000360: bd4c f3bd 6b7b 0abe ac8d 9f3d 31f4 d1bc
00000370: 43e7 b93d 80fb d6bd 074d b5bd 1b02 cdbd
00000380: e134 a1bd b514 07be 44bc 01be 3f47 abbd
00000390: d607 4bbb d319 e33d 51aa 543d 9733 9cbd
000003a0: 09c3 c53d d14f b43d 3dc1 04be 3f72 023e
000003b0: 1f40 1e3d 738e 953d aea2 ed3b ba19 dc3c
000003c0: ccf7 193c 5cdf 69bd bad8 0f3e 0cc8 53bd
000003d0: cd34 d3bd d047 99bd 5781 1fbc 1dec a1bd
000003e0: 7122 913d 645f d4bd cbaa 11be 7a22 983d
000003f0: dbdf 153d 1558 c9bd 07bc ccbd ea1d b9bd
-0.027952425 -0.022224624 -0.036610696 0.083274454 -0.14352572 -0.13115864 -0.109630294 0.094399795
-0.1280434 0.01700584 -0.13830848 0.033436492 -0.12528019 -0.1342067 -0.11647616 -0.0021689562
-0.090888694 0.0684299 0.012921107 0.06279211 0.103821054 0.0050735893 0.031902086 0.13433808
-0.07157477 0.12094392 -0.009997248 0.07399691 -0.09288173 0.016221358 -0.10920602 -0.15608309
0.05849075 0.03980046 0.10162617 0.074330926 0.036719523 -0.14167367 0.111236185 -0.0048505757
-0.022959502 -0.13351451 -0.050994266 0.061778575 0.009205724 0.052264195 -0.10473618 -0.11649044
0.12577471 0.113263 0.0835112 0.15073045 -0.14165059 0.014368665 -0.021116108 -0.07324778
-0.12906793 -0.043639567 0.10436445 0.008977802 -0.08272777 -0.12498553 0.021737091 -0.111794576
-0.115945324 0.043843754 0.063781135 0.10779605 0.10165727 0.04579941 0.06893619 -0.095793985
-0.08633474 0.06404482 -0.09883789 0.15250929 0.012977092 0.043462068 -0.100574456 -0.08078928
0.031406287 0.05702733 0.15698788 0.08854898 0.079081 0.11336057 -0.12645742 0.0069229146
0.029186858 0.063782215 -0.1022863 0.019614808 0.10680068 0.14623865 0.037020158 0.03865007
0.13862345 -0.09741902 -0.14662509 0.03826271 -0.053873282 0.05059011 0.10441365 0.10927031
0.13879256 0.0017983576 -0.069064245 0.15148604 0.04158121 -0.14561638 0.096428916 0.013386423
-0.06945349 0.0301337 -0.046513095 0.05988281 0.14314088 -0.107953474 0.07222932 -0.08898456
-0.10392067 0.1293519 0.12024619 0.07443919 0.0800823 -0.124940224 0.047194995 0.072929665
-0.05426037 -0.041754752 0.13338795 -0.107999206 -0.14859913 0.017120777 0.13249625 -0.15047649
-0.10772775 -0.1019598 0.06318868 0.12346693 -0.08647093 0.06905936 0.021297082 -0.089619875
0.05592081 -0.03946778 0.08813978 0.14290158 -0.057327613 -0.0695617 -0.12996155 -0.083814204
-0.0820792 0.007163514 -0.14238195 0.15631782 0.15289916 -0.03349102 -0.018229157 -0.117723435
0.011220524 0.026866378 -0.14340216 0.013810703 0.09282878 -0.13282889 -0.0014656913 -0.0714663
0.10716259 -0.15405166 0.099504896 -0.013933213 0.14475767 0.104604185 -0.110299975 0.06775999
0.057224642 0.024625216 0.062429924 0.14459397 -0.09206425 -0.053665888 0.14926885 -0.13093565
-0.039440036 -0.12619759 -0.06734366 0.1241612 0.067068614 0.108568415 0.03804632 -0.15197556
0.024742879 -0.015594845 -0.08277797 -0.035919674 -0.043964148 0.09463339 -0.09955769 -0.007609494
-0.031442605 -0.10237037 0.014935012 0.0039037194 -0.14172514 -0.09651107 -0.07167466 -0.043627065
-0.09777464 -0.13012935 -0.025743183 -0.11692649 -0.069337666 0.020293802 0.011654697 -0.078130856
-0.11879871 -0.13523643 0.07790694 -0.025629135 0.09077313 -0.104971886 -0.088525824 -0.10010167
-0.07871414 -0.13191493 -0.12669474 -0.083631985 -0.0030980012 0.1108891 0.05192024 -0.076270275
0.09656341 0.08804286 -0.1296434 0.12738894 0.03863537 0.07302561 0.007252059 0.026867736
0.009397458 -0.057097778 0.14047518 -0.05170445 -0.10312805 -0.074844 -0.009735427 -0.07906363
0.07086647 -0.10369757 -0.14225309 0.07428451 0.03659044 -0.098312534 -0.09996801 -0.09038909

fc1.bias f4 [512]
00000000: 1ac2 d5bc 44ab 033e 1035 6f3d b273 ac3d
00000010: c3c8 e4bd e341 e83d ce6f b73d f6a5 1a3e
00000020: f89f e03d 41f6 5dbd 4363 dbbd 8103 f2bc
00000030: 5790 da3d 00f8 883d 2eab 8d3d aa7b 633d
00000040: 03e0 1a3e d234 24bd ae81 623d a7b8 d33d
00000050: 21fd 0f3d 3707 39bd f279 193e 84ef 80bd
00000060: 399b 763d e5d5 38bb 25b0 433d eb91 193d
00000070: 7d04 073e 6b25 643d 6eab 863d 95f9 0c3e
00000080: a757 3db9 9382 ff3d 6eaa e03d f7a5 98bd
00000090: 097e 8c3d 9d0e 9a3d 204b 07be bfac eabc
000000a0: cc16 81bd 0d4f df3d 2865 0f3e 0f7f 8b3c
000000b0: f1e9 2a3c 5da5 5d3d c539 903b 46c3 5c3c
000000c0: 00b9 08be 943b 1bbe ddfd 393d 45bc 263d
000000d0: 40e3 d33b f1f3 a13d 6001 9dbc 13de 1b3d
000000e0: 01e9 723d 798d febd c4e4 9cbc def6 c63c
000000f0: 145b 23bb 4472 8c3d b630 723d 45d6 b0bd
00000100: 47f9 5fbd ab1c a0bc 5dc9 12bd 9900 a53b
00000110: b704 b7bd 59e1 3f3d 27f5 3dbb 79b5 bf3d
00000120: 07be adbd ddd4 95bd 058b 1d3e 12b2 84bd
00000130: 2ffc e5bd 25e1 c53c 3623 9bbb 389e e4bd
00000140: 0407 ad3d 5ac4 7e3c c7e4 1a3d 1da1 c7bd
00000150: 6962 1d3e aec0 eb3d b860 adbd f4fb 0abe
00000160: c777 133e c340 f03d a161 793d 4a32 c0bd
00000170: 11fe 00be c8e3 0b3e ec42 1dbd 56fc 9d3d
00000180: 354c b5ba 50c1 003e 2512 6b3d 5b3f eb3d
00000190: a21d b8bc c54d 5b3d f3fc c6bd 1f4c eabd
000001a0: 339b d3bd fb20 e4bc 95e2 963d 17ee 813b
000001b0: 5286 19bd a4e5 90bd 1153 c9bd b8f1 de3d
000001c0: 6253 1d3e 9e71 9f3d 903c cdbd 17f4 c23d
000001d0: 7b88 bcbd c8e2 233d fa7c ae3d e1d9 d2bd
000001e0: d2ae 5cbc 7dc8 3cbd d6fe 1ebd bfeb df3d
000001f0: 9ed0 183d c0a5 ec3d 9804 b6bc 381a c9bd
00000200: fb85 0abe 7226 b13d 1694 78bd 01eb 87bd
00000210: 8c23 fa3b 8b40 18bc ff0d b83d 0d7d a9bc
00000220: b598 09be c4d0 afbd e320 75bd 37d2 623d
00000230: dcf6 ddbd 8990 cf3d 9b39 043e 3eb4 5a3b
00000240: 5073 b63d 2db3 65bd 9750 58bd ed95 8a3d
00000250: 1790 cf3d 8d90 0abe 0d6d e0bd a5d2 633d
00000260: f9b4 fb3d 097c 9ebd 6e68 6bbd 9616 50bd
00000270: 6030 ebbd 0de3 febd c552 0b3d 59af fd3c
00000280: 5bc6 c2bd 8e05 94bd 5b0a c83d 13c6 643c
00000290: 574a 923c b6c1 16be caca 533d 8428 8cbd
000002a0: 7750 4abc 6157 013e 612f 933d c335 dcbd
000002b0: 70eb d1bd 8a17 043e 5b92 923d fd96 43bb
000002c0: c770 0dbe 84a4 eabd acf8 e23d eee3 953d
000002d0: befc 0d3e 7c89 063b 88f3 0fbe cce7 31bd
000002e0: 1834 2dbd 170e 54bc d04c debd 3d6f 873c
000002f0: 931f fdbd 5ece fdbd 5981 9fbd 0649 7ebc
00000300: a3fb adbc 9793 c33d 142c 4cbd 17e3 a8bd
00000310: e89d b0bd 684a 6c3d fbe3 caba 3680 9cbd
00000320: 34c0 fdbd f064 32bd 3e44 aa3d 46b6 fa3c
00000330: 2226 db3d f5fe 8e3d 1f44 39bd 77d2 a63d
00000340: 46f7 92bc 7b08 d0bd fb79 843b 10af 193e
00000350: 33b2 d5bd 07c3 cd3d 2e44 36bd fade 463d
00000360: 1d52 eb3d 96a3 df3d a2f7 c2bc 0f50 a83c
00000370: b119 bdbc 7368 a43d d8e4 e13d caaa 18be
00000380: 3ae6 01bd 4662 d13d 30a9 9abd 6b80 5bbd
00000390: c8df adbd afdb 09be 2f03 f8bd fa33 e23b
000003a0: 4f98 6ebd f223 423c 8bec afbd 550a 8cbd
000003b0: c533 0a3e 9bc8 833d bc90 e53d 863a 27bd
000003c0: 8347 dfbd c870 02bd e697 a0bd 4ddf 43bd
000003d0: ff5d fa3d 9817 2f3b cb64 6bbd a1a6 cebd
000003e0: e01c ff3d 4162 3bbd 540e b3bd 9773 dd3d
000003f0: 3002 763d 40a2 a93d 8411 30bd 5290 37bd
-0.026093531 0.12858301 0.058400214 0.08420505 -0.11171105 0.11340692 0.08956872 0.15102372
0.109680116 -0.054189924 -0.10712292 -0.029542686 0.10672062 0.06687927 0.069174156 0.055537857
0.15124516 -0.040089436 0.055299453 0.10337954 0.035153512 -0.045172896 0.14987925 -0.06295684
0.060206626 -0.0028203663 0.047775406 0.037492674 0.13185306 0.055699747 0.06575666 0.13767083
-0.00018057098 0.12476077 0.10970007 -0.0745353 0.06859977 0.075223185 -0.13212252 -0.028646825
-0.06303176 0.109037496 0.14003432 0.01702836 0.010431753 0.05411278 0.004401418 0.013474291
-0.13351822 -0.15159446 0.04540812 0.04070689 0.0064662993 0.07907856 -0.019165695 0.038053583
0.05930424 -0.124293275 -0.019152053 0.024287637 -0.0024926113 0.06857732 0.059128486 -0.08634619
-0.05468109 -0.01954492 -0.035836566 0.0050354716 -0.08936446 0.046845768 -0.0028985234 0.09360785
-0.084835105 -0.07315991 0.15385063 -0.06479277 -0.11229741 0.024155209 -0.004734422 -0.1116299
0.08448604 0.015549744 0.037815835 -0.09747527 0.15369572 0.1151136 -0.08465713 -0.13572675
0.1440116 0.11731102 0.06088412 -0.09384592 -0.12596919 0.1366111 -0.0383939 0.07714145
-0.0013831916 0.12573743 0.05739035 0.114866935 -0.022475068 0.053540964 -0.09716215 -0.114403
-0.10332336 -0.027847758 0.07367436 0.00396515 -0.037481613 -0.070750505 -0.09830297 0.10885948
0.1536384 0.07785343 -0.10021317 0.09519213 -0.09205719 0.040011197 0.08519931 -0.10295463
-0.013469415 -0.046089638 -0.03881725 0.10933637 0.037308328 0.11555052 -0.022218987 -0.09819454
-0.13527672 0.08649911 -0.0606881 -0.0663662 0.007633632 -0.009292732 0.089870445 -0.020689512
-0.1343716 -0.08584741 -0.059845816 0.055376258 -0.108381 0.1013499 0.129126 0.0033371593
0.08908713 -0.05607908 -0.05281123 0.06766877 0.10134905 -0.13531704 -0.109583 0.05562081
0.12290377 -0.077385016 -0.05747264 -0.05080279 -0.11483836 -0.1244565 0.034014482 0.030967401
-0.095104896 -0.07227622 0.097676 0.01396324 0.017857714 -0.14722332 0.051707067 -0.06843665
-0.012348286 0.12630989 0.07186771 -0.10752442 -0.10249984 0.12899604 0.07156821 -0.0029844635
-0.13812552 -0.1145716 0.11082587 0.07318865 0.13865945 0.0020528724 -0.14057744 -0.04343395
-0.04228601 -0.012942812 -0.108544946 0.016532535 -0.12359538 -0.12392877 -0.07788343 -0.01552034
-0.021238154 0.09549635 -0.049846724 -0.08246439 -0.08623868 0.057688147 -0.001547932 -0.07641642
-0.123901755 -0.043553293 0.083137974 0.030604493 0.10700633 0.06982223 -0.04523098 0.08145612
-0.017940175 -0.101578675 0.0040428615 0.15008187 -0.104343794 0.10046964 -0.044498615 0.04855249
0.11490271 0.109198734 -0.023799721 0.020545987 -0.02308354 0.080277346 0.110299766 -0.14908901
-0.0317137 0.10223822 -0.07551801 -0.053589266 -0.084899485 -0.13462709 -0.12109982 0.0069031687
-0.05825072 0.01184939 -0.08590039 -0.06837908 0.13496311 0.06434747 0.112092465 -0.040827297
-0.10902312 -0.031845838 -0.07841472 -0.047820378 0.122249596 0.0026716944 -0.05746917 -0.10090376
0.12456679 -0.045748 -0.08742967 0.10813063 0.06006068 0.082829 -0.042985454 -0.04481537

fc2.weight f4 [256, 512]
00000000: 6987 22bd bdb7 c03c 6135 ca3c 48de 013d
00000010: a22d 81bc cd05 373d e4ce 41bc ba8a 2a3c
00000020: 4266 2f3c 37a1 f0bc f829 323c be1d 9fbb
00000030: 9eb6 d73c ece7 933b 8447 743c 266d 033d
00000040: 8295 00bd e6c0 db3a c30d 803c 24f9 65bc
00000050: ff84 143d 1e06 ccbc 5592 46bc 580f 1ebd
00000060: cb08 9f3c 9526 b6bc 1bc7 223d bcf0 97bc
00000070: e8f1 97bc da73 5b3c e003 243d cfe4 643c
00000080: 98a0 ef3c 7464 01bd dd35 a0bc 5e1b e63c
00000090: 27d0 2a3d 7bdf 82bc 2469 2e3d cb99 013d
000000a0: 2a1b b63b 720f 0c3d 1e55 1e3d 8b4e a33c
000000b0: b81a c5bc 30a0 90bc 3dd7 f93c 9771 04bd
000000c0: 9313 a13c 5543 f4bc acc6 64bb 104a 333d
000000d0: 4cf6 073d 1228 7d3c be8d 013b 2035 24b7
000000e0: ef92 03bd e4a8 1a3d 2369 d4bc e186 7cba
000000f0: f924 193c 4c49 c23c 877c 343d ce4f dbbb
00000100: 71d7 0bbd 9c68 7d3b 2b4b 493d c2dd bbbc
00000110: 6ed8 95bb 2ac3 033d 38b6 c1bb d258 cf3c
00000120: 747c fb3c 36db dabc d0bd b8bc f46e 0a3d
00000130: c81a 33bd 7277 d33c f2c1 033d da0d 413c
00000140: faca 023d 20d1 0bbd fc8f 0ebc 458b be3c
00000150: fa2c aa3c b586 883c 07f2 9dbc f8b4 3b3a
00000160: 6d6b 5cbc 62cc 2cbc b5a4 393d 0948 063d
00000170: 1d48 1dbb 7b7b 233b 5bac 07bc 48a8 9ebc
00000180: ea11 e8bb a125 973b 48bd f4bc e95f 0e3d
00000190: 5fa2 9cbc 7790 0bbb 51b6 4c3b a651 be3c
000001a0: 1aa8 08bd a415 04bd 57cc eabb 9b9f 2bbc
000001b0: ca9d 04bd 0ab6 073c e4ca 733c 4cb8 12bd
000001c0: a616 283d 246d db3c 038e babc 1cf3 1dbd
000001d0: ab61 3e3d dcd0 74bc cd98 55bc b9cf 6f3c
000001e0: f8ad 1a3d 098a 5f3a b94b 1e3d 07c2 133d
000001f0: 1464 0e3d 8039 473c 8ce7 da3b 844e 3a3c
00000200: 6c5c b63b e92e 40bc 4f52 973b d915 12bd
00000210: ba28 d739 8cc1 f83b 4b45 323c 9d01 053c
00000220: 6e9d c7bc 91a1 1ebd 5739 a1bc 1583 eebc
00000230: 1a83 32bb 41b4 efbc f7ba 8bbc 2bd9 023d
00000240: a685 e5bc 7c45 a5bc aa15 0cbd 5145 f1bc
00000250: a6d0 283d 7615 44bb 2046 823b a5d0 bd3c
00000260: 44d3 e8bc 51f7 67bc 735f 15bd ba1d 003c
00000270: 2240 413d c1d4 b13b 9627 1c3c 3b1a 3f3d
00000280: d64e 89bc 660b 833c 7da0 0ebc 3f9a eebc
00000290: b034 2d3c 3042 babc 3b44 393c 0692 2f3d
000002a0: 4990 b2bc ed50 4ebc c47e 81ba 4064 cdbc
000002b0: f6f9 a73c 5021 c3bc 91ca aebc f26a 12bb
000002c0: c4b4 9bbb 80a7 f5bc 28be cfbc b77c 0fbd
000002d0: add5 313d 7c55 0fbc a2ef b1bc 190b 7739
000002e0: 4632 2e3c dc78 dd3c 0617 353d 3b7c 5a3b
000002f0: e4c8 eeba 8bd9 a2bc 1bdd febc 0ff4 213d
00000300: e3d1 59bc 380b 70b9 be47 22bd 361a 2bbd
00000310: be1f abbc 8b0e b4bc b986 0cbd 2dd3 cf3b
00000320: 84a6 e03c 6fb0 903b 8504 13bd 1ab0 483c
00000330: 456a 05bd 754b 423d 6a05 49bc 4fc0 f13b
00000340: 4596 f63c 1069 3b3d eda2 4b3c 8cd6 ec3c
00000350: d402 0dbd e57a fd3c 2621 e9bc edce 193d
00000360: e15d 853c 203c 0e3d f04d fcb9 2e54 00bd
00000370: d418 033d 3552 da3c c8fe 843c c5c7 11bd
00000380: 8129 a43c f9a9 053d 999f acbc 13cf d1bc
00000390: 2781 043d 457b 30bd 6ef8 a13c 85e0 993b
000003a0: b3d1 293d 3005 2a3d 128f 92bb c64c f8bc
000003b0: 8c63 313d 7863 123d 1c4c fbbc d113 88bc
000003c0: bf70 373c d294 32bb 96b6 2e3c 244e a9bc
000003d0: 316d adbc b799 9bbc 4616 c7ba 0d4f 2f3d
000003e0: 8512 f0bc 2efa 1abd e950 04bd 928f 213d
000003f0: 7294 a9bc 214a c73c afe1 be3c 7726 c5bc
-0.03967992 0.023525113 0.024683656 0.031706125 -0.01576883 0.044683266 -0.011829112 0.010409052
0.0107055325 -0.029373748 0.010874264 -0.0048558405 0.026332196 0.004513731 0.014909629 0.032086514
-0.03139258 0.0016765862 0.015631562 -0.014036451 0.036259647 -0.02490526 -0.012119849 -0.03858885
0.019413373 -0.022235194 0.039740663 -0.018547408 -0.018547967 0.01339432 0.040042758 0.013970568
0.029251382 -0.03158994 -0.019556934 0.028089222 0.041702416 -0.015975704 0.04258074 0.03164081
0.0055574374 0.034194417 0.038655393 0.019934913 -0.024060592 -0.017654508 0.030498141 -0.03233489
0.019662654 -0.029817263 -0.0034908457 0.043771803 0.03319387 0.015451448 0.0019768323 -9.787531e-06
-0.03212255 0.037758723 -0.02592904 -0.00096331356 0.009347194 0.023716591 0.04406407 -0.006692863
-0.034141008 0.0038667088 0.04914395 -0.02293289 -0.0045729196 0.032168545 -0.0059116147 0.025310908
0.030698992 -0.026715856 -0.022551447 0.03379722 -0.043726712 0.025813792 0.032167383 0.011783088
0.031931855 -0.034134984 -0.008701321 0.023259768 0.0207734 0.016665796 -0.019280447 0.00071604503
-0.013453347 -0.010546776 0.045323092 0.03278354 -0.0023999282 0.0024945426 -0.008280839 -0.019367352
-0.0070822136 0.00461264 -0.029875413 0.034759436 -0.019120393 -0.0021295825 0.0031236599 0.023232292
-0.03336344 -0.0322472 -0.0071654725 -0.010475065 -0.032377042 0.008283148 0.014879916 -0.03582029
0.041037224 0.02678544 -0.022772795 -0.038561925 0.046479862 -0.014942374 -0.013036919 0.014636927
0.037763566 0.0008527344 0.038646434 0.03607371 0.03476341 0.012159705 0.0066804346 0.011371259
0.0055652168 -0.011729934 0.0046179662 -0.035665367 0.0004103834 0.007591432 0.010880779 0.00811806
-0.02436706 -0.0387283 -0.019680662 -0.02911524 -0.0027238787 -0.029260756 -0.017056925 0.03194539
-0.02801783 -0.020174734 -0.034200348 -0.029451998 0.041214608 -0.0029920018 0.0039756447 0.023170779
-0.028421052 -0.014158086 -0.03646798 0.007819587 0.047180302 0.0054269736 0.009530922 0.046655875
-0.016761225 0.015996646 -0.008705256 -0.029126285 0.010571644 -0.022736639 0.011307771 0.04286387
-0.021797316 -0.012592536 -0.0009879698 -0.025072217 0.020504933 -0.023819596 -0.021336826 -0.0022341576
-0.0047517736 -0.029987097 -0.025359228 -0.035031047 0.043416668 -0.008748408 -0.021720711 0.0002355989
0.010632103 0.02703517 0.04421141 0.0033338207 -0.0018217829 -0.019879123 -0.03111129 0.039539393
-0.01329467 -0.00022892363 -0.0396192 -0.041773044 -0.02088916 -0.02197959 -0.03430817 0.006342313
0.02742315 0.004415564 -0.035892982 0.012249017 -0.03257205 0.047435243 -0.012269357 0.0073776613
0.030100951 0.045754492 0.012428981 0.028910898 -0.034426525 0.03094239 -0.02845819 0.037550855
0.016280117 0.03472531 -0.00048123254 -0.03133028 0.0320061 0.026650527 0.01623477 -0.035590906
0.020039322 0.0326328 -0.021072196 -0.025611436 0.03234973 -0.04308631 0.01977178 0.0046959543
0.04145975 0.041508853 -0.0044726217 -0.030310046 0.043307826 0.035739392 -0.03067594 -0.016611012
0.011196314 -0.0027249348 0.010663649 -0.020667143 -0.02117023 -0.018994195 -0.0015189133 0.042799998
-0.029305706 -0.037836246 -0.032303724 0.03944356 -0.020700667 0.02432734 0.023300974 -0.024066193

fc2.bias f4 [256]
00000000: 7430 e8bc 977d d6bc 158a 323d 4587 e6ba
00000010: 486d e33c 84e2 37bc 5039 5839 26f1 15bd
00000020: 63a8 35bb 2a88 993c 40c7 973c cda4 cabc
00000030: 1723 27bd f249 ab3c 5594 f9bc bb3b 1d3d
00000040: 769e 8a3c 2559 1abd 4e3a 023d 2d2d 6bbc
00000050: 6bcf dcbc b733 03bd 674f eebc 4a50 163d
00000060: 2c20 eb3c 0012 b43c 9124 8fbc 366f 123c
00000070: f62e fd3b b42c f9bc bcf6 823c 580b 1d3d
00000080: f241 fc3c f3dd 793c b4d5 c13b 990b 4c3d
00000090: 2f45 7abc 8363 2b3d 0e6e fcbc dd60 2cbd
000000a0: c6e6 e0bc 4150 4bbc b932 273b f8de 5ebc
000000b0: 677f 03bd e4a5 033d 92c9 52bb e449 1fbd
000000c0: 86af 443b 6df5 ccbb 9d58 ad3c b5cb 0ebd
000000d0: b949 60bc 2e10 cb3c 0b5a 843b fdb3 1abd
000000e0: e6be b6bc 6e49 55bc 1638 8d3c cbe7 e43c
000000f0: c246 ebbc e3e4 e6bb 513d 39bb aaa0 f93c
00000100: 7f57 2b3d 1545 b3bc 7189 d9bb 6897 dbbb
00000110: f401 14bd c9eb 5fbc dd59 f33b 9734 793c
00000120: ba25 08bd 4f04 d93c c898 d53c f5ab e93b
00000130: ba2c 0dbd ab70 293d 4bb1 3f3d 56a7 ee3c
00000140: ddc8 a6bc a09a cebb 3003 46bc ccc4 bcbc
00000150: 57b2 10bd d7d8 36bd e727 0dbd 23fa b93c
00000160: b1b3 9fbc 758b 683c 0673 ffba 3cd6 0ebd
00000170: 6a16 c83c 9151 66bc 69f7 62bc 7278 22bc
00000180: 25cf cd3c f2f1 85bc ed09 8a3c cc4b 37bd
00000190: f909 1f3d 91d5 1e3d eb55 303c 692a 62bc
000001a0: 2063 f13c a92d 063d 907c e13c 8148 f4bc
000001b0: d647 83bc fd27 03bd c7cb a03a fdd4 fc3a
000001c0: fbca 1cbc 1d32 af3c 4348 fabc b86c 13bc
000001d0: a3c2 12bd d810 b43c bd4b ac3c 8531 c43c
000001e0: 70f7 04bc 37a3 6dbc b851 cdbc 789d 95bb
000001f0: 2a79 b2bc 224b c73b 7e79 ea3c 0b8d debc
00000200: 2688 21bd 07c2 0f3d 6586 11bd bf86 863b
00000210: 0e9c 1ebd 8e40 cfbc 3c91 2ebb 8a0b e63c
00000220: 67e7 803c d5d1 5a3c e142 0b3d c963 f83c
00000230: b890 153d 9c6e d5bc 99b5 db3c c195 d33b
00000240: 9ce4 983c 38b5 1e3d e82f d53b f2e6 14bc
00000250: d4ac 14bb 9eea 1a3d 5b29 d5bc d2d9 d8bb
00000260: c947 9c3c 4984 ffbb 99a0 303d ef1c b33c
00000270: fece 123d 32e2 023c 6e30 de3c eb69 293a
00000280: ef35 6fbc dc41 49bb ecfe c83c 5981 23bd
00000290: fe6c 33bc 5620 363b 3cc8 093d b2f1 0c3c
000002a0: 2736 c73c 7b11 103d fc3a 63bb bbe4 2ebc
000002b0: 4a20 85bb 6405 ec3c dc33 a3ba 0554 013d
000002c0: 1656 243d de2f e93b 0198 9f3c adfd 1bbd
000002d0: 776e 193c c46c 253d 0691 3abc 21c8 cdba
000002e0: 7eb4 043d bffe 20bc 062c f1bc 51b7 d3bc
000002f0: 7db2 c2bc 3ec5 febc 58e1 4b3c 8a54 c03c
00000300: 46ac debb ffd5 bb3c 0c69 083d 28b0 28bd
00000310: 4a7c 21bd e168 3fbb e5a9 853c a124 313d
00000320: 71f6 68bc a736 7fbc 723f d23c 4ecb ffbc
00000330: 394c 8f3a 1cff 173d ed6a adbc 772f d3bc
00000340: 1712 2fbc 144d 64bb 762e 0a3d 2e40 843c
00000350: bf76 bd3c e6e3 5cbc 3a88 43bc 75a7 2dbd
00000360: e873 123d f89d 263d 94fa 503c caa3 9d3b
00000370: c5d7 90bc 2927 003d 799a 083c 177a f5bc
00000380: 6518 c5bc e2ab 89bb 9ff6 9c3c 1c70 663c
00000390: 8dd8 e63c 2d4b 27bd 30b9 9d3c 9cfc 40bd
000003a0: 637d eb3c 088b c03c 1b83 20bd 8c7b 5d3c
000003b0: 326b 023d 335e 203d a033 83bc 1131 95bc
000003c0: 55cc 063c e596 1e3d 8bae 1f3d df0a dabc
000003d0: 307c 19bc ae15 14bd bfe7 ddbc b805 1a3d
000003e0: ebfe 88bc 9c57 2ebd c118 e3bc 7b25 14bd
000003f0: 9cee d4bc ab12 183d 2e0e 0ebd 157e 06bd
-0.028343417 -0.026182933 0.043588717 -0.0017587921 0.02776207 -0.011223439 0.00020620716 -0.03660693
-0.0027718775 0.018741686 0.018527627 -0.024736786 -0.04080495 0.020909283 -0.030466238 0.03838704
0.016921263 -0.03768267 0.031793885 -0.014354032 -0.026954373 -0.03203174 -0.029090596 0.036697663
0.028701864 0.02198124 -0.01747349 0.008937648 0.0077265454 -0.030416824 0.015986793 0.038340896
0.030793164 0.015250671 0.005915368 0.049815748 -0.015275284 0.04184295 -0.030814197 -0.042084564
-0.027453791 -0.012409271 0.002551241 -0.013602965 -0.032103922 0.032140628 -0.0032163602 -0.038888827
0.0030011847 -0.006254843 0.021160418 -0.03486224 -0.013689452 0.024787989 0.0040390543 -0.037769306
-0.022307824 -0.013017995 0.017238658 0.027942559 -0.028720263 -0.0070463284 -0.0028265307 0.030472118
0.04183149 -0.021883527 -0.0066386987 -0.0067013986 -0.036134675 -0.013667055 0.007426484 0.015210292
-0.033239104 0.026491312 0.026073828 0.0071310946 -0.034466483 0.041367214 0.04679994 0.029132526
-0.020359451 -0.006305054 -0.012085721 -0.023043059 -0.035326328 -0.04464039 -0.034461882 0.022702282
-0.019494863 0.014193405 -0.0019489236 -0.03487228 0.02442475 -0.014057533 -0.0138529325 -0.009916412
0.025123188 -0.01635072 0.016850436 -0.04475002 0.03882787 0.03877789 0.010762672 -0.013804057
0.029466212 0.03275839 0.027525216 -0.029819729 -0.016025465 -0.032020558 0.0012267762 0.001928955
-0.009569879 0.0213862 -0.030552035 -0.008998089 -0.03583015 0.021980688 0.021032209 0.023949394
-0.008115634 -0.0145042455 -0.02506338 -0.004565891 -0.021786291 0.0060819546 0.028622385 -0.027166864
-0.039436482 0.03509715 -0.03552856 0.0041054185 -0.038723044 -0.025299337 -0.002663686 0.028081674
0.015735341 0.013355692 0.033999328 0.030321019 0.036514968 -0.02605372 0.026819991 0.006457061
0.018663697 0.038747042 0.006505955 -0.009088265 -0.0022686021 0.037821405 -0.026020696 -0.006617763
0.019077199 -0.007797752 0.043121908 0.021864383 0.035841934 0.0079884995 0.027122702 0.00064626214
-0.014600261 -0.0030709421 0.024535619 -0.039918277 -0.010951279 0.002779027 0.033638224 0.0086025465
0.024317814 0.03517292 -0.0034672609 -0.010674651 -0.004062687 0.028811164 -0.0012451368 0.031574268
0.04012116 0.007116302 0.01948166 -0.03808372 0.009364716 0.04038693 -0.011387115 -0.0015699902
0.032398693 -0.009826361 -0.029439937 -0.025844248 -0.02376675 -0.031099912 0.012443863 0.023477811
-0.006795439 0.02292919 0.033303306 -0.04118362 -0.039425172 -0.00292068 0.016316364 0.043247823
-0.014218912 -0.015576995 0.025665019 -0.031224873 0.001093275 0.037108526 -0.02116915 -0.025779469
-0.010685465 -0.0034835981 0.033735715 0.016143885 0.023127912 -0.01348207 -0.011934334 -0.042396028
0.035755068 0.040677994 0.012755055 0.004810785 -0.017681012 0.031287346 0.00833761 -0.029965444
-0.024059484 -0.004201398 0.019160567 0.014064815 0.028179431 -0.040843178 0.019253343 -0.047115907
0.028746312 0.023503795 -0.039187532 0.013518225 0.03184051 0.039152335 -0.016015828 -0.018211873
0.0082274275 0.038718123 0.038984817 -0.026616512 -0.0093679875 -0.036153488 -0.027088044 0.03760311
-0.016723117 -0.04256402 -0.027721765 -0.036168557 -0.025992684 0.03712718 -0.03468149 -0.032835085

fc3.weight f4 [128, 256]
00000000: c4aa bdbc 48e3 183c 1e76 b4bc 0a63 ddbc
00000010: dd83 fabb fe20 293c 2a03 b93c 9a59 0c3d
00000020: dc4a e1bc ebdb ca3c 7baf c83c c290 163d
00000030: 3f86 0dbd 7bb3 0ebc 90fd 29bc 43d6 48bd
00000040: 8e12 0f3d d0bc 74bb 1292 7f3d 6255 9fbb
00000050: 7cb5 653d 1a79 883d 90d2 3b3c c90f 5e3d
00000060: 95a4 e93c cb96 8cba 5486 a23c 7191 483d
00000070: 796d 583c ffb3 04bc 1c2e 723d 59e4 003d
00000080: 8246 60bd 7354 0bbd 2b19 663c 9770 9e3c
00000090: 0075 ffbc 78e6 7ebd 6a9c 2cbd 7dc5 4e3d
000000a0: 2d38 7bbc 20ef 39bd 946d 13bd a13c 323d
000000b0: 340b 59bc 1f77 053d 9c56 2bbd e792 3fbd
000000c0: 048a fd3c e2ab f1bc d8be 763d 34e1 263d
000000d0: f7a5 2b3d 78aa 153d 4134 36bd 56a4 6bbd
000000e0: 5170 80bd a6d8 09bd 8b5f d8bb 13b2 293a
000000f0: 950b 57bc 2765 54bc 6bf5 5fbd 4941 05bd
00000100: 470b 98bc 5dc7 693d 59e9 95bb ec6d 4ebd
00000110: 4f2c c03a d673 09bd 6cec e5bc 2eca 34bd
00000120: ddac 483c bed1 323a 96b0 17bd b47c ae3c
00000130: 2420 06bd f27b d5bc e97c 00bd 58ef 67ba
00000140: eb31 08bd 0ddb 683d 6cad 7b3c eefb 1ebd
00000150: 9737 24bd 3bef bb3c b56c e73c 9b16 03bd
00000160: bd8b 263d a018 493c faed 1c3d 66bd 9abb
00000170: 16dc db3c 367c 493d 8bd1 1e3d dc8f 2d3d
00000180: e387 403d 2d8b 183d 8d38 40bd f92d fa3c
00000190: 778e a4bc d91e fabc 436e 76bc b74c 603d
000001a0: e6d3 ab3c fff5 703d d093 98bc 8223 bebb
000001b0: 3686 2bbc 1f88 a1bc 496f c73a 34a1 7f3d
000001c0: 156f 16bd e398 3ebd 8d5f 29bc 105b d2b9
000001d0: 872a 5fbd f079 303d 5ed6 143d 7470 0ebd
000001e0: 07a3 4a3d 3446 b2bb 243a 57bd 62b1 803d
000001f0: 0faa 3c3d ec2f 64bd b99b 5abc 53d9 26bd
00000200: 02cb f63c a811 7a3d 6d55 6dbd 42cc f23c
00000210: b928 64bc a724 95bc a7c6 6cbd bf70 6b3c
00000220: dfe5 5fbd 9d6c 1abd 47bd 7bbd aee8 1dbc
00000230: 6055 63bd 47dd 473d 706d 113d a37d 17bd
00000240: 5f9f 963b 52cb 5dbd 1764 033d 6413 cc3a
00000250: 5686 63bd 802b cbbc bce3 bebc 1c5f 0ebc
00000260: 743a 083d bcf4 143d d6a3 073d 159e 023d
00000270: da55 09bd 9474 75bd 7b3b 413d 89e4 2abd
00000280: 1ba1 163d 84ac de3b 898d bdba 27a8 623d
00000290: 58e7 27bd 2764 513d dd15 8a3b 6b1a 59bc
000002a0: 7978 dcbc 0ee2 323c be49 13bd 68da 24bd
000002b0: 1365 73bc b738 3ebd 2582 793d 9243 8ebd
000002c0: 4a71 c0bc c400 043d 9a4b 81bd 098f 71bd
000002d0: dc61 c53c 1f08 db3c 9240 b23b 8f01 6e3d
000002e0: f2dd 2bbd 16de 9a3c 9bb9 05bd f9fe 993c
000002f0: 074e 553d 2a0e 203c 7bd6 1bbc 3b93 833d
00000300: da51 44bd 484f cc3c 45aa 2f3d e990 c73c
00000310: 067c ffbc 5513 44bc 4ffd 063d 4ce3 91bc
00000320: 863b c1bb b8e8 cdbb ad66 2abd c0f1 e7bc
00000330: f591 313d 3d75 193d 09cc 763d 989b c6bc
00000340: 4bfb 003d 408e 03bd dc7e 4fbd a466 823d
00000350: f27f 713d 20f3 ff3b ffbd 3abb 2f05 dbbc
00000360: 9b2b 743d 2c68 513d e755 6d3d 539b fd3c
00000370: 64b3 e7bc a148 3abd a6a7 71bd 5245 e3bb
00000380: a763 68bd dd0c 543d 3452 68bd 8a01 703d
00000390: 6045 39bd 6a20 863c 07ca fa3b 8f53 1c3a
000003a0: c1fd 0cbd 14c1 ef3c dfdb e23c 8db7 d2ba
000003b0: 56a1 3abd 4a36 4cbc 5061 e337 fc93 513d
000003c0: b2d7 23bb d835 063d b0a0 84bd b7f2 cebc
000003d0: 22ac fdbb 5822 7ebd 8c6c 82ba f85f 97bc
000003e0: fe4c 96bc 7840 2cbd ad05 ea3a a7fb a53c
000003f0: 5a5f 85bd 8c8b 803c a244 253d f4eb 82bc
-0.023152716 0.009331532 -0.022028979 -0.027024765 -0.007645114 0.010322807 0.022584517 0.03426514
-0.027501516 0.024763068 0.024497738 0.036759146 -0.034551855 -0.008709784 -0.010375395 -0.04903246
0.034929805 -0.0037343986 0.062395163 -0.0048624733 0.05608128 0.06663723 0.011463776 0.054214273
0.028520862 -0.0010726092 0.019839443 0.04896683 0.013209694 -0.008099555 0.059126005 0.03146777
-0.05475474 -0.034016084 0.014044086 0.019340796 -0.03118372 -0.06223151 -0.042141356 0.05048131
-0.015333218 -0.045394063 -0.035993174 0.04351485 -0.0132473 0.032584306 -0.041830644 -0.046770956
0.0309496 -0.029500905 0.060240597 0.040742114 0.041906323 0.036539525 -0.044483427 -0.05752977
-0.06271423 -0.033653878 -0.0066031865 0.00064733735 -0.01312532 -0.01296357 -0.05467741 -0.032532964
-0.018560065 0.057074893 -0.0045749363 -0.0503978 0.0014661642 -0.033557735 -0.028066836 -0.044138126
0.012248245 0.0006821415 -0.03703364 0.021299697 -0.032745495 -0.026060078 -0.031369124 -0.00088476157
-0.03325073 0.056849528 0.015361171 -0.038814478 -0.040092077 0.022941222 0.028250078 -0.03200398
0.04066061 0.012273937 0.03831289 -0.004722285 0.026838344 0.049190722 0.038774054 0.042373523
0.04700459 0.037242103 -0.04692893 0.0305395 -0.020087464 -0.030532287 -0.015040937 0.05476066
0.020975064 0.05882835 -0.01862517 -0.0058025727 -0.01046901 -0.019718228 0.0015215661 0.062409595
-0.03672703 -0.046532523 -0.0103377225 -0.00040122168 -0.054483917 0.04308504 0.03633725 -0.034775212
0.04947188 -0.005440498 -0.05254568 0.06283833 0.046060618 -0.055709764 -0.013342791 -0.0407346
0.030126099 0.061051995 -0.057942796 0.029638413 -0.013925725 -0.018205954 -0.057806637 0.0143701425
-0.05466258 -0.037701238 -0.061459806 -0.009637995 -0.05550134 0.04879501 0.03550476 -0.03698505
0.0045966352 -0.05414898 0.032077875 0.0015569744 -0.055548035 -0.024801016 -0.023301952 -0.008689668
0.03325887 0.03636621 0.03311523 0.03188904 -0.03352914 -0.05992563 0.047175866 -0.041721854
0.036774736 0.006795468 -0.0014461736 0.055336144 -0.04099211 0.051120903 0.004214032 -0.013250927
-0.026912915 0.010918153 -0.035958998 -0.04024735 -0.014855641 -0.046440806 0.06091513 -0.06946482
-0.02349152 0.032227293 -0.06313248 -0.0589743 0.024094515 0.02673727 0.0054398263 0.058106955
-0.04195971 0.018904727 -0.03264771 0.018798338 0.052076366 0.009769002 -0.009511585 0.06424566
-0.047929622 0.024940148 0.04288699 0.02436109 -0.031187069 -0.0119675 0.032956418 -0.017808579
-0.0058969883 -0.0062838458 -0.041601826 -0.028313518 0.043352086 0.037465323 0.060253177 -0.024244115
0.03148965 -0.032118082 -0.050658092 0.063672334 0.05895991 0.007810965 -0.0028494594 -0.02673587
0.059611898 0.051124737 0.05794325 0.030957853 -0.028283782 -0.04547942 -0.058997773 -0.006935754
-0.05673566 0.05177008 -0.05671902 0.058595218 -0.045232177 0.016372878 0.007653478 0.0005963379
-0.034421686 0.029266872 0.027692733 -0.0016076431 -0.04556402 -0.012464115 2.7105823e-05 0.05116652
-0.002500039 0.032766193 -0.06475961 -0.02526222 -0.007741467 -0.06204447 -0.0009950562 -0.018478379
-0.01834726 -0.04205367 0.0017854475 0.020261599 -0.065123275 0.015691541 0.040348656 -0.015981652

fc3.bias f4 [128]
00000000: cc03 00bd 4e55 8f3c e4de 76bd ad47 423c
00000010: 828c 193c d7b1 7b3b 111d 42bd 6736 163d
00000020: 7241 b03c a491 ecbc d59f 2f3a f8d3 8f3c
00000030: 0404 7d3d 9ba6 74bd 2636 0d3d 8f11 26bd
00000040: b668 6dbd ead7 433d 5c57 2bbd ffac e2bc
00000050: 8380 58bd 6ca2 1cbc 063e 8b3d 80f2 e63c
00000060: 8934 31bd 2f60 bc3c 9735 2f3c 733e 5abd
00000070: 6ec7 89bb cc25 473d 1842 123d 4274 d13c
00000080: 77b6 24bc e8a0 303d da50 3b3a 62cb 3abd
00000090: c79d 473c 1811 913d f0d3 05bd 2d85 d2bc
000000a0: f666 efbc ad8b 4b3d 5a1f 753d 4913 5ebd
000000b0: 10e3 f7bc 60a8 4dbd a896 243d 2355 57bc
000000c0: fad3 543d 5e09 43bd 6972 853d 2c17 26bd
000000d0: 9646 0fbd 1279 21bd 8ef1 1a3d 7b21 9fbc
000000e0: c025 f23c 87de d73c 62dc 113d 0fca 24bd
000000f0: 40b2 5aba 9e58 d4bc fbf7 b73c 30cc ea3b
00000100: e135 7f3d 1777 593d 5aba d6bc 7c07 2b3d
00000110: ce0f dabc 7507 303d 24f3 523d a5cd aabc
00000120: a1ff 753c e296 46bb b44b e33b 41bf 07bd
00000130: 2f0a 68bd 9f64 90bd 3404 3f3d 5e58 51bd
00000140: 3074 473c d846 a33c 1cc9 3b3d 7a6f 2dbd
00000150: 4073 1f3d 1a71 85bc c288 b0bc 62b9 cdbc
00000160: 26ae b83b fe7f 36bd ff13 57bd 51e7 3ebc
00000170: 2ade 8c3d f3c0 593c 7623 123c 817a 0ebd
00000180: ea68 34bb b5d2 d3bc bb8b 20bd 3a84 babc
00000190: 7abf d33b 9b8c 933c d4d3 d5bc a11f c0ba
000001a0: c606 1c3d e1b0 3f3d 9919 41bc 26c1 29bd
000001b0: 6bc2 9639 a857 ffbc e508 3bbd de5a 04bd
000001c0: b04c 153d 7bd0 333d 14f5 bbbb caa9 5c3d
000001d0: 4cd1 0dbd 4243 b43c 6a48 1fbd c464 493d
000001e0: ccdc b53a c4a4 533d dd47 a73c e98e 673d
000001f0: 4317 81bd e35a 12bc f822 1b3d 343d 61bc
-0.03125362 0.017496731 -0.06027116 0.011857909 0.009371879 0.0038405561 -0.047391 0.036672976
0.021515582 -0.02887804 0.0006699537 0.01755713 0.061771408 -0.0597292 0.034475468 -0.04054409
-0.05796119 0.047813334 -0.04183136 -0.027670382 -0.052856933 -0.009560209 0.067989394 0.028191805
-0.043262992 0.022995083 0.010693929 -0.053282212 -0.004204682 0.04862003 0.035707563 0.025568131
-0.010053269 0.043122202 0.00071455317 -0.045604117 0.012183613 0.070833385 -0.032672822 -0.025698269
-0.0292239 0.049693752 0.059844352 -0.05421761 -0.030259639 -0.050209403 0.04018274 -0.013142857
0.05195997 -0.047616355 0.06515963 -0.040549442 -0.034979425 -0.039422102 0.03782802 -0.019425144
0.029559016 0.026351226 0.035610564 -0.04023176 -0.00083426014 -0.025921162 0.022457113 0.0071654543
0.062307242 0.05309209 -0.026211906 0.041755185 -0.026618864 0.04297586 0.05150141 -0.020850012
0.01501456 -0.0030302336 0.0069365148 -0.03314138 -0.056650337 -0.07050442 0.046634868 -0.051109664
0.012173697 0.019931242 0.04584609 -0.04234264 0.03892827 -0.016289283 -0.021549586 -0.025112811
0.0056359945 -0.044555657 -0.052509304 -0.01165183 0.06878312 0.013290632 0.008919587 -0.034784798
-0.0027528354 -0.025857309 -0.039195757 -0.022768129 0.006462035 0.018011382 -0.026101984 -0.0014657864
0.038092397 0.046799544 -0.011785888 -0.041443966 0.00028755082 -0.031169727 -0.04566278 -0.03231322
0.036450088 0.043899994 -0.0057360027 0.05387286 -0.03462343 0.022004727 -0.03888742 0.049168363
0.0013875007 0.051670805 0.02042001 0.056532774 -0.06303265 -0.008932802 0.037875146 -0.013747502

fc4.weight f4 [1, 128]
00000000: f6e5 bebd 58a0 a9bd ef3e 80bd 6a98 21bc
00000010: 2c6f ca3c 4670 d6bc 6cd5 85bd 908f 9f3d
00000020: 3c81 2bbd 9de5 a33d dc58 abbc 92cb 14bd
00000030: d19f 03bd 6713 c53d 9a3a 943c 6cdd c13d
00000040: 37c9 fabc bd25 babd 61f7 5b3d 355a a3bd
00000050: 60f3 303d 1cc2 00bd d418 28bd e76a 3e3d
00000060: 2b62 61bd 7e08 053d 78e3 6f3d c1db e83c
00000070: dd93 4b3d 0d60 53bd 89cd bbbd 57fe 353d
00000080: 3ce0 b1bd bd5a 9cbd 8e2e 553c cb86 bdbd
00000090: cdf9 a4bd d4c5 8e3b ebef c83d beab 8abd
000000a0: f6e9 213d adb3 243d bf31 5dbc e3c7 12bd
000000b0: fa60 6c3d 8cf7 af3d 073d 79bb 9d16 abbd
000000c0: b5a2 223a 6bc1 33bd 7638 84bc 3c8f 463c
000000d0: 5c52 1fbd b7df 72bd d4ed a43d 6575 8bbd
000000e0: e2be 59bd a632 c5bd 3aaa a13d 944d a33c
000000f0: d3b9 8eb9 0b60 9f3d 2f4b c43c 9c29 c83d
00000100: 3921 27bc 346c b7bd 89a9 833d c14d 88bc
00000110: c52f 993d acca 91bd 902f fb3c 1541 923d
00000120: f7c1 abbd b190 12bb ee0a 793d 4001 bd3d
00000130: 6bbd 683d a241 b83d 5cba 8bbd 9875 3ebd
00000140: 6c49 b73d 4fa2 783d 1141 113c 89a7 61bd
00000150: 02a3 87bd 30c4 823d c22c 78bd 6b00 0a3d
00000160: 6e2d a13d 917a 713d aa78 ddbc fa49 503d
00000170: 8500 e13b 11e8 a2bd 585c b9bd ac3a 3b3d
00000180: 58e9 0bbd 9284 9cbd b30c 803d 2b7e 0cbd
00000190: b0a7 483d 9ac7 703c 6097 a43d f81f 8b3d
000001a0: c8e2 3fbd 7725 9e3d b485 063d bba6 79bd
000001b0: 2fe3 bfbd eb38 913d 30bf 39bd 79c4 9bbd
000001c0: 3e44 90bd a5cb 88bd b84c a2bd 2549 0fbd
000001d0: 3a5d 063d 82e7 98bc 1b12 ff3c 8f96 97bd
000001e0: a7a3 11bd 93a8 b13d 40dc 2fbd 83d5 8bbd
000001f0: d078 bf3d 5d97 273d 1324 cc3d e32a 05bd
-0.09321205 -0.08282536 -0.06262004 -0.0098629985 0.024711214 -0.026176583 -0.065348476 0.07791054
-0.041871294 0.0800278 -0.020916395 -0.036326952 -0.032134835 0.09622841 0.01809435 0.09466061
-0.030613525 -0.09089229 0.053702716 -0.0797619 0.04320085 -0.031435117 -0.041039303 0.04648867
-0.05502526 0.032478802 0.05856654 0.0284251 0.04970156 -0.051605273 -0.09170062 0.04443201
-0.086853474 -0.076344945 0.013011588 -0.09254225 -0.08055458 0.004357079 0.09811386 -0.067710385
0.039529763 0.040210415 -0.01350063 -0.035835158 0.05770967 0.08592138 -0.003803076 -0.083539225
0.0006204055 -0.04388563 -0.016140204 0.012119111 -0.038896903 -0.059295382 0.080531746 -0.068095006
-0.053160556 -0.09628801 0.07893796 0.019934453 -0.000272228 0.077819906 0.023961632 0.09773561
-0.010200792 -0.08956185 0.06428821 -0.016638638 0.074798144 -0.07118735 0.030662328 0.0714132
-0.08386605 -0.0022364075 0.06080144 0.09228754 0.056821268 0.089968935 -0.068226546 -0.046498865
0.08949551 0.060701665 0.008865611 -0.055091415 -0.06622888 0.06385076 -0.06058956 0.033691805
0.07869993 0.05895478 -0.027035076 0.0508518 0.006866517 -0.079544194 -0.09050816 0.04571025
-0.03415808 -0.07642473 0.06252422 -0.03430001 0.048988044 0.014696026 0.08036685 0.06793207
-0.046847135 0.077219896 0.032842353 -0.060950022 -0.09369504 0.07090934 -0.045348346 -0.076058336
-0.07044266 -0.06679467 -0.07924789 -0.034981865 0.03280375 -0.018665079 0.031136563 -0.07401764
-0.03555646 0.08674731 -0.042934656 -0.068278335 0.09349215 0.040915836 0.09967818 -0.032511603

layer_norm1.weight f4 [512]
00000000: 577a 7f3f 8615 7f3f 20c6 803f 0659 803f
00000010: 1e1a 803f 9a05 7e3f 8977 7d3f 8cb7 7e3f
00000020: 7fb1 7f3f e68b 803f 7c35 803f 8e35 803f
00000030: 8397 803f f782 803f 27be 7e3f e6b7 7f3f
00000040: bc8c 7e3f 338d 803f 578e 7d3f c2ee 7f3f
00000050: d0a8 7e3f 8556 813f 5af0 7f3f 80b7 7e3f
00000060: a1db 7f3f 9b46 7f3f d64f 7e3f e4bb 7e3f
00000070: c5ff 7e3f 3412 7f3f 7116 803f 1e59 803f
00000080: ac7b 803f 7ef4 7e3f 22e2 7d3f cf85 803f
00000090: 3182 7f3f a453 803f 2f91 803f 7be2 803f
000000a0: 3f92 803f 601c 803f a93d 7e3f a7df 7d3f
000000b0: af66 7f3f fb41 7e3f 170d 803f f520 7f3f
000000c0: 47ae 803f 2d73 803f e2f3 7e3f 13c3 7f3f
000000d0: 2a1e 7f3f 9c13 803f 945d 7f3f 0ecc 7e3f
000000e0: b1c0 7d3f 435b 803f 2f10 803f 112f 803f
000000f0: 102a 803f 9023 7f3f 0225 803f 7e8e 803f
00000100: e866 803f e953 7f3f f9dc 803f dec0 7e3f
00000110: fa1b 803f 0033 813f b687 803f 0a05 803f
00000120: eb06 803f ff07 7f3f c90c 803f 6a9f 803f
00000130: 5fe7 803f 9246 803f 9642 803f 128d 803f
00000140: aecc 7e3f 723f 7f3f dc2d 7f3f 1a8c 803f
00000150: 1b98 7f3f dbc6 7f3f 335e 803f 0787 803f
00000160: 46e6 7f3f b423 7f3f e42b 803f 8b99 7e3f
00000170: b18f 7e3f 470c 7e3f cd4d 7f3f 2d29 7e3f
00000180: b41e 803f 9a72 803f 763e 7f3f 44b6 7f3f
00000190: 2196 7e3f 1714 803f 1b86 803f 51fc 803f
000001a0: 1043 803f 0d34 803f 569d 803f 8003 7f3f
000001b0: dd44 803f b093 7f3f 7d6d 803f d23f 7f3f
000001c0: f704 7f3f c17c 7e3f 02dc 803f a503 7f3f
000001d0: 5813 813f 24bf 803f 081a 803f 66da 7f3f
000001e0: 8a36 7e3f bb45 803f 17ba 7e3f b67f 7d3f
000001f0: 6ecb 7f3f d1c2 7e3f f624 803f ce3d 803f
00000200: 2931 803f 258f 7e3f 5702 813f 0325 7f3f
00000210: 5877 803f ebfd 803f 7572 7e3f d055 803f
00000220: 6b8d 7f3f c238 803f 08bd 803f ac4b 7e3f
00000230: c45e 803f be54 803f 5b83 7f3f a90d 803f
00000240: 41df 7f3f a987 803f ab25 7e3f 2b8c 803f
00000250: a9bd 7f3f ae97 803f aff4 803f 6ee1 7e3f
00000260: 92d4 7f3f 2d96 803f 6ad3 7f3f 9d8b 7f3f
00000270: d303 803f 6114 813f d150 803f ddcb 7f3f
00000280: 1dc4 803f a797 803f 755e 803f 1229 7f3f
00000290: 20e9 7f3f 8306 803f 1188 7e3f 06f2 7e3f
000002a0: 8453 803f a3c4 7f3f db3a 7f3f ef92 803f
000002b0: 0c30 803f 7aa7 7f3f 4df1 7e3f aacc 7f3f
000002c0: 2383 7e3f a4fc 7f3f b4f3 7e3f c689 7e3f
000002d0: 2777 7f3f d025 803f 6b13 803f 6b91 7e3f
000002e0: cebc 7f3f fc87 803f 8bb4 803f 7467 803f
000002f0: 9e26 803f 3d1c 803f 8651 7f3f bd82 803f
00000300: e9fe 7f3f f970 803f a42c 803f 404d 7f3f
00000310: 9578 7f3f 6862 7f3f 6ff8 7f3f 4fbb 803f
00000320: bb01 813f 2b9a 803f f0a4 7f3f 2746 803f
00000330: 7385 803f d3bc 7e3f d6b0 803f bba9 7f3f
00000340: 5f80 7f3f 2f22 813f d0a6 7f3f e506 803f
00000350: 9d15 803f f0a9 7e3f 56c7 7f3f cd8d 803f
00000360: dec1 7e3f 1246 7f3f a1de 803f 9bb9 7e3f
00000370: f4bd 7f3f 27ec 7f3f 7c32 7f3f b768 803f
00000380: 3b3d 7f3f ddc7 7f3f 2940 803f 7cb1 803f
00000390: 7742 803f a27f 803f 923f 803f 795e 803f
000003a0: 8d02 803f 21b3 7e3f 3e9a 803f 4c0f 7f3f
000003b0: f64f 803f 0790 803f dbfc 7f3f 8bbe 7f3f
000003c0: 1caf 803f e62f 803f d30a 803f 2f80 803f
000003d0: 8221 813f 8287 803f 6801 803f 3717 803f
000003e0: 7ec0 7d3f d97b 803f 7f41 803f 6237 803f
000003f0: b740 803f 4997 7e3f 16b7 7f3f b615 803f
0.9979605 0.9964222 1.0060463 1.0027168 1.000797 0.992273 0.9901052 0.9949882
0.9988021 1.0042694 1.0016322 1.0016344 1.0046238 1.0039967 0.995089 0.9988998
0.99433494 1.004309 0.9904532 0.9997369 0.9947634 1.0104529 0.9997612 0.9949875
0.999445 0.9971711 0.9934057 0.9950545 0.99609023 0.9963715 1.0006849 1.0027196
1.0037742 0.99591815 0.99173176 1.0040835 0.9980803 1.0025525 1.0044307 1.0069116
1.0044631 1.0008659 0.99312836 0.9916939 0.9976606 0.9931943 1.0003995 0.99659663
1.0053185 1.0035149 0.99590886 0.99907035 0.996554 1.0005984 0.99752164 0.9953011
0.9912215 1.0027851 1.0004939 1.0014364 1.0012836 0.9966364 1.0011294 1.0043485
1.0031404 0.9973741 1.0067436 0.9951304 1.0008538 1.0093689 1.0041416 1.0001538
1.0002111 0.99621576 1.0003902 1.0048649 1.0070609 1.0021536 1.002032 1.0043051
0.99531066 0.99706185 0.9967935 1.0042756 0.9984147 0.99912804 1.0028747 1.0041207
0.99960744 0.99663854 1.0013394 0.9945304 0.99438006 0.99237484 0.9972809 0.9928158
1.000937 1.0034974 0.9970468 0.9988749 0.9944783 1.0006131 1.0040926 1.0077001
1.0020466 1.0015885 1.0048015 0.99614716 1.0021015 0.9983473 1.0033413 0.9970676
0.9961695 0.9940911 1.0067141 0.99614936 1.0084028 1.0058331 1.0007944 0.99942625
0.9930197 1.002128 0.995027 0.99022996 0.99919784 0.99516016 1.001128 1.0018861
1.0015002 0.9943717 1.0078839 0.9966585 1.0036421 1.007749 0.993934 1.0026188
0.9982516 1.0017321 1.0057688 0.99334216 1.002892 1.0025861 0.9980981 1.0004169
0.99950033 1.00414 0.99276227 1.0042776 0.99898773 1.0046289 1.0074672 0.9956273
0.9993373 1.004583 0.9993197 0.9982241 1.0001167 1.0084344 1.0024663 0.99920446
1.0059849 1.0046281 1.0028826 0.99672043 0.99965096 1.0001987 0.9942637 0.9958805
1.0025487 0.9990942 0.9969918 1.004484 1.0014663 0.99864924 0.99586946 0.9992167
0.9941885 0.99994874 0.9959061 0.99428976 0.9979119 1.001154 1.0005926 0.9944064
0.9989747 1.0041499 1.0055097 1.0031571 1.0011785 1.0008618 0.9973377 1.0039898
0.9999834 1.0034477 1.0013623 0.9972725 0.9979337 0.9975953 0.99988455 1.0057162
1.0078653 1.0047048 0.9986105 1.0021409 1.0040725 0.9950687 1.0053966 0.99868363
0.99805254 1.0088557 0.9986391 1.0002104 1.0006596 0.99478054 0.9991354 1.0043274
0.9951457 0.99716294 1.0067941 0.9950196 0.9989922 0.99969715 0.9968641 1.0031956
0.99702805 0.9991434 1.001958 1.0054164 1.0020283 1.003895 1.00194 1.0028831
1.0000778 0.9949208 1.0047071 0.99632716 1.0024402 1.0043954 0.999952 0.9990012
1.0053439 1.0014617 1.0003303 1.0039119 1.0088351 1.0041354 1.0000429 1.0007085
0.99121845 1.0037795 1.0019988 1.0016901 1.0019749 0.9944959 0.9988874 1.0006626
