data/saved_models/discriminator_epoch_9000.pth (torch, 758522 bytes, 14 tensors)

fc1.bias f4 [512]
000000 df b5 5b bf 2a 60 b1 be 91 14 de bf 39 13 c6 be
       -0.8582439 -0.3464368 -1.7350026 -0.3868654
000010 2e bf cc bf 31 fd c2 bd de 16 bb be 02 e7 43 bf
       -1.5995843 -0.09520949 -0.36540884 -0.76524365
000020 d4 95 6e bf 55 84 5f c0 30 dd 30 bf 15 19 da be
       -0.9319737 -3.492452 -0.69087505 -0.4259726
000030 03 5a 47 bf 55 31 9b bf 57 cb 26 bf 7e e0 ed be
       -0.7787172 -1.212443 -0.6515402 -0.46460336
000040 97 b9 79 bf c1 03 2c be b7 d6 37 bf 7c 63 2d bf
       -0.9754881 -0.16798307 -0.71812004 -0.67729926
000050 6e 19 06 bf 08 0f 96 be a1 e1 c6 bf 8c 75 48 bf
       -0.5238255 -0.29308343 -1.5537606 -0.7830436
000060 64 85 fb bc b1 d9 89 bf f2 72 28 bf 7f af 6e bf
       -0.030703254 -1.0769559 -0.6580039 -0.93236536
000070 f4 ef 39 bf 45 07 63 be eb 3f 16 be e5 70 3d c0
       -0.72631764 -0.22170742 -0.1467282 -2.9600155
000080 1b 4f c9 be 9f a8 48 bf 6c df 60 bf 8b 84 39 c0
       -0.39318165 -0.78382295 -0.87840915 -2.8987148
000090 c8 2b 3d bf fe a8 b7 bf 94 71 68 bf 2a d2 f9 be
       -0.7389493 -1.4348447 -0.90798306 -0.48793155
0000a0 25 e8 e5 be b8 ee bd be 95 b7 c0 be 2e a0 99 be
       -0.44903675 -0.3709619 -0.37640062 -0.3000502
0000b0 eb c7 50 bf af 36 2c be 68 09 41 bf 2c 93 38 bf
       -0.8155505 -0.16817735 -0.7540498 -0.72099566
0000c0 8f e7 2d c0 f7 af 16 bf 9b fd 34 bf e4 f4 30 bf
       -2.7172582 -0.5886225 -0.7069947 -0.69123673
0000d0 9c 12 ea bf a8 8c 26 bf c1 76 28 bf d3 8b 5d bf
       -1.8286929 -0.65058374 -0.65806204 -0.8654148
0000e0 d6 00 87 bf 61 af f7 bf 3a 1f 30 bf 54 4d ca be
       -1.054713 -1.9350396 -0.6879765 -0.39512122
0000f0 df 58 0a bf b9 25 20 bf 99 f0 6d be af 15 00 bf
       -0.54041857 -0.6255756 -0.23236312 -0.50033087
000100 f2 cd 09 bf 16 9d 90 be 84 b7 0b be 49 66 fd bf
       -0.5382987 -0.28244847 -0.13644224 -1.979684
000110 03 e6 21 bf 3f ef 05 c0 89 69 57 bf cc 37 f8 be
       -0.63241595 -2.0927274 -0.8414541 -0.4848007
000120 d7 16 f9 be 8b e8 db be 88 6c 35 bf 3d 69 00 be
       -0.48650238 -0.42950854 -0.7086873 -0.12540145
000130 c0 94 b1 bf a6 e3 d0 bf 96 55 0d c0 33 58 fd be
       -1.387352 -1.6319473 -2.2083488 -0.49481353
000140 96 cd fb be ee a3 e2 be 4b 7b 60 be 76 0f 4d bf
       -0.49180287 -0.44265693 -0.21922033 -0.80101717
000150 c0 74 2f bf 67 41 08 bf 76 8b 8e be 97 44 5a bf
       -0.6853752 -0.53224796 -0.27840775 -0.8526091
000160 e5 e9 07 c0 b8 c6 42 bf e6 2b ac be 4f 02 f4 be
       -2.1236508 -0.7608447 -0.33627242 -0.4765801
000170 0d 4a a3 bf a0 ce 6b bf 76 7d 4f be d5 ba bd be
       -1.2756974 -0.9211216 -0.20262703 -0.37056604
000180 e5 4d 06 bf 65 6c b6 be 9a a6 f9 be 99 e5 07 bf
       -0.5246261 -0.35629573 -0.4875992 -0.53084713
000190 7c dd 5f bf 5a 65 bf be bb 4b 8f be c6 64 3e c0
       -0.87447333 -0.37382013 -0.27987465 -2.9749007
0001a0 43 72 8c bf 07 08 2a c0 80 1f 24 bf 60 90 37 bf
       -1.097237 -2.65674 -0.64110565 -0.71704674
0001b0 25 ea 31 bf 4a ca 78 bf 58 db c3 be 2e 40 69 be
       -0.694979 -0.9718367 -0.38253284 -0.22778389
0001c0 1b 32 eb be 26 18 81 bf 5f fa ad bf e0 7a 83 bf
       -0.45936665 -1.0085495 -1.3592032 -1.0271873
0001d0 9a 0b 42 bf 0b d9 e5 be 02 78 00 bf e7 fb e7 be
       -0.7579895 -0.44892153 -0.5018312 -0.45309374
0001e0 14 d9 5f c0 1a ca bf be 7b 31 d9 bd 88 e8 39 bf
       -3.4976244 -0.3745888 -0.10605141 -0.7262044
0001f0 f9 3e 58 bf bf 8a 96 bf 3e 56 9c be 02 68 32 bf
       -0.8447109 -1.1761092 -0.30534548 -0.69689953
000200 e8 78 99 be 70 f4 0a bf 0a 74 ea be 60 8b 0a bf
       -0.29975057 -0.5427923 -0.45791656 -0.5411892
000210 a9 7b 16 bf 47 47 01 bf 70 b2 6f bf 77 66 a2 bf
       -0.5878244 -0.50499386 -0.9363165 -1.268752
000220 c5 a1 04 bf 1c 6b 3c c0 c0 73 05 bf 5d 74 38 c0
       -0.5180934 -2.9440374 -0.52129745 -2.8821023
000230 f5 85 91 be b0 51 12 c0 44 53 f9 be c8 eb 69 bf
       -0.28422514 -2.2862358 -0.4869634 -0.913754
000240 ee f8 21 be 4c 4a b2 bf 03 5a 04 bf ba 8c f7 be
       -0.15817615 -1.3928924 -0.51699847 -0.48349553
000250 5c d1 a6 bf d4 49 ac be f8 85 87 bf 24 bc c9 be
       -1.3032641 -0.33650076 -1.0587759 -0.39401352
000260 2a 35 eb be 61 7c 81 be 2b d2 3e be d5 f5 28 bf
       -0.45938998 -0.25290206 -0.1863486 -0.6600011
000270 42 3c c3 bf 33 ed 29 bf 1a 8b 8c bf bc 5f e9 be
       -1.5252764 -0.6637756 -1.097995 -0.45580852
000280 50 2e 6e bf 92 c7 85 bf 45 24 96 bf 6d 6a 36 bf
       -0.9303942 -1.0451529 -1.1729819 -0.7125614
000290 d2 cc 3e be d0 d4 22 bf b5 31 22 c0 e2 7c 2f bf
       -0.1863282 -0.63605976 -2.5342839 -0.6854993
0002a0 0d d1 53 bf 56 0b a1 bf ac d9 bf be 19 54 de be
       -0.8274086 -1.2581584 -0.37470758 -0.43423536
0002b0 b8 0e 73 bf 8d 0b 0e bf 22 3e ab be ed 53 b7 bf
       -0.94944334 -0.55486375 -0.3344584 -1.4322487
0002c0 63 e7 af be d4 d6 43 c0 8f 04 b7 be 3e c6 32 bf
       -0.34356222 -3.059987 -0.35745665 -0.69833744
0002d0 99 04 3e c0 ba eb 36 bf ef d9 cf be fc 39 21 bf
       -2.9690306 -0.7145344 -0.40595958 -0.629791
0002e0 9f e4 42 c0 81 8e 76 bf 05 6e 4e c0 e9 b8 88 be
       -3.045204 -0.96311194 -3.225465 -0.26703575
0002f0 64 e5 b3 be d1 c7 c2 be 33 56 29 c0 dd a2 0a bf
       -0.3513595 -0.38043073 -2.6458862 -0.5415476
000300 2c d3 aa bf 93 f1 74 be 70 19 84 bf c3 5e 83 be
       -1.3345695 -0.23920278 -1.0320263 -0.25658235
000310 ab a9 70 bf 7c 63 40 bf d0 3d bc bf 31 6e 1c bf
       -0.9400889 -0.751518 -1.4706364 -0.6110564
000320 c1 63 68 be f9 6f 32 bf f7 33 55 bf 5a 43 1e bf
       -0.22694303 -0.69702107 -0.8328242 -0.6182152
000330 71 1b 4b bf d3 87 24 bf 4f 5e 22 c0 4d 5f 18 bf
       -0.7933875 -0.6426975 -2.5370061 -0.5952042
000340 f3 e4 40 bf ee b1 0d bf f5 66 4e c0 0d 9b aa bf
       -0.7534935 -0.55349624 -3.225034 -1.3328568
000350 88 f7 d5 bf c7 dd 35 bf 50 01 c9 be 4c b0 91 be
       -1.6716166 -0.7104153 -0.39258814 -0.28454816
000360 ff 9d 99 be 66 91 3a bf e1 fd 3b c0 f5 fa 88 be
       -0.30003354 -0.7287811 -2.9373705 -0.26753965
000370 0e 13 68 bf 7b 68 51 bf 72 04 8a be ed b6 d0 be
       -0.90654075 -0.8180005 -0.26956517 -0.4076456
000380 a2 27 3c c0 4c ff 72 bf 14 94 a7 be 47 5a 22 bf
       -2.939919 -0.949208 -0.32730162 -0.63419
000390 9c 73 07 c0 c4 d6 74 be dc 82 0b be 8c 64 01 c0
       -2.1164312 -0.23910052 -0.13624138 -2.021762
0003a0 42 96 3c c0 d7 c4 63 bf 43 19 10 bf f0 8b 2c be
       -2.946671 -0.8897223 -0.56288546 -0.16850257
0003b0 45 a9 88 be 15 83 37 bf 41 7b 4f bf bc 1d 2f bf
       -0.26691642 -0.7168439 -0.81047446 -0.68404746
0003c0 3f 1a cf be 19 82 a0 bf 59 9c bc bf ad c1 96 bf
       -0.40449712 -1.2539703 -1.4735214 -1.1777855
0003d0 bf 2e 0a bf 8b c7 ce bf 6c 48 98 bf af 98 c8 be
       -0.5397758 -1.6154646 -1.1897101 -0.39178988
0003e0 87 cd 03 bf 15 6f 18 bf 48 43 28 bf 69 9a 20 bf
       -0.51485485 -0.595445 -0.65727663 -0.6273561
0003f0 31 44 54 bf cf 53 72 bf ff 93 de bf b3 44 4c bf
       -0.8291655 -0.9465913 -1.7388915 -0.79792327

fc1.weight_orig f4 [512, 42]
000000 3d 04 f0 ba 22 32 cd bb c4 2f 4e bc 45 d9 a3 3c
       -0.001831181 -0.00626208 -0.01258463 0.020001063
000010 16 4a 2b 39 bb 68 37 3b 42 b1 36 3a 54 ca cb bc
       0.0001633543 0.0027986008 0.00069691625 -0.024876751
000020 ce 34 4e 3b ee 85 6e bb f1 c3 11 bc 25 d2 19 3c
       0.003146458 -0.0036395746 -0.008896814 0.009388481
000030 45 2a 72 bc 98 73 9a 3c 83 14 fe 3b 7b c4 9f bb
       -0.014780586 0.018853948 0.00775391 -0.004875717
000040 c8 c5 f8 3b bc 15 c4 bc d3 1e e7 39 fc 38 b2 bc
       0.0075919367 -0.023936145 0.0004408272 -0.021755688
000050 f3 65 42 3b 26 8b 65 3c 6a cd a6 3c 1a f8 cc ba
       0.0029662817 0.014010226 0.020361621 -0.0015637905
000060 b7 86 b9 3b c7 eb 30 bc a4 4c 18 ba fe 21 0a 3c
       0.005661811 -0.010798401 -0.000580976 0.008430956
000070 d4 11 3a bc d9 3b 31 3c c4 6f 85 3b a6 a1 0b bd
       -0.01135679 0.010817491 0.0040721614 -0.034089707
000080 83 70 b1 3c f1 4c 68 bc c0 cb 55 3c f5 12 18 bc
       0.021660095 -0.0141785005 0.013049066 -0.009281863
000090 99 3a f1 ba 89 2d 33 3c 06 f2 33 3c 72 7a 1d bc
       -0.0018404304 0.010936149 0.010982996 -0.009611713
0000a0 60 9d 9c bc cb d6 8e 3b 33 ca aa 3b d9 4e e4 bb
       -0.019118011 0.0043591014 0.0052120923 -0.006967407
0000b0 b4 a9 28 3c d3 a5 22 ba 5f a6 7c 3b 0c 7f 11 3c
       0.010294367 -0.00062045193 0.0038551313 0.008880388
0000c0 dd 9d 14 bb c9 ca bf bb ad 15 18 bc f9 e4 a8 ba
       -0.0022677102 -0.0058530313 -0.009282512 -0.0012885622
0000d0 ee 61 41 3c 7e 22 8b 3c 2b b5 04 3c 6d 19 8a 3c
       0.011803133 0.01698422 0.008099834 0.016857827
0000e0 36 bb 98 bb 5e 22 9e ba d1 a0 35 bb 89 d6 41 ba
       -0.004660989 -0.0012064686 -0.0027714262 -0.0007394334
0000f0 42 6f a6 bb 2e 1f 48 3c ee fb 87 3c c3 01 be 3a
       -0.005079181 0.012214465 0.016599622 0.0014496375
000100 e4 c3 98 3b 62 1f b2 3b b7 2e 50 bc c6 61 ca 3a
       0.004662024 0.00543587 -0.01270645 0.0015440516
000110 07 4d a3 b9 1d cf 96 bb d5 33 2b 3c da a2 bb b9
       -0.00031147173 -0.0046023265 0.010449369 -0.00035788753
000120 8a ae 07 3c 4a c1 4f bc 63 f4 51 3c 2e fd 19 3c
       0.008281359 -0.012680361 0.012814614 0.009398742
000130 ba 68 6d 3c 3e cf cd 3b 9f c4 1f bc 83 fd c1 3b
       0.014490301 0.0062808087 -0.009751468 0.0059201135
000140 56 62 50 3c 87 7b 1d 3b 2a ff 75 ba 34 61 02 bc
       0.012718758 0.0024029927 -0.0009384031 -0.007957745
000150 cd c0 8b 3b 28 88 b2 bb 16 ad 55 bc a2 ac 94 3c
       0.004264927 -0.00544836 -0.013041755 0.018148724
000160 c8 95 17 3c 37 39 b0 bb 45 87 0f bc d3 16 8b 3c
       0.009252019 -0.0053779143 -0.008760278 0.016978657
000170 d3 91 96 bb f7 c6 8b 3c a8 60 53 bc 6a 1b b8 bb
       -0.0045950203 0.017062647 -0.012901463 -0.0056185024
000180 13 61 b9 3b a8 97 6d 3b 6b 77 8d 3b 37 6b c0 ba
       0.005657324 0.0036253724 0.0043172142 -0.001468039
000190 34 3b 65 3b d0 27 af 3a ba 0f c2 3b ac 6f 1e 3c
       0.0034977915 0.0013363305 0.005922285 0.009670179
0001a0 48 05 20 bb 75 29 e3 3c 55 c8 fc b9 37 f9 90 ba
       -0.002441721 0.02772973 -0.00048214445 -0.00110606
0001b0 48 ad 07 3c 8b 3a b4 bb 33 0f 72 ba 01 09 40 3c
       0.00828106 -0.005500143 -0.0009233832 0.011720897
0001c0 10 bf bd bc 6e 24 70 3a fb e8 aa 3c e6 5c 52 3b
       -0.023162395 0.0009160702 0.020863047 0.0032098829
0001d0 c8 14 6a 3a 3d 72 e5 3a 6e e0 71 bb 1c 84 3b 3c
       0.0008929488 0.0017505359 -0.0036907452 0.011445072
0001e0 e5 b1 0a bb 9b 56 1f 3c f5 f1 b9 bb 74 ad fc bb
       -0.0021163162 0.009725238 -0.0056745955 -0.007711107
0001f0 1f dd b8 3c 15 d2 80 bb 22 39 45 3b 94 a7 d8 3a
       0.022566376 -0.0039312937 0.0030093868 0.0016529434
000200 b6 29 d2 bb 39 f9 0a bc 35 dc c0 3b 52 93 59 ba
       -0.0064136637 -0.008482271 0.0058856257 -0.00082998455
000210 88 d9 01 bc 56 20 c1 bb cd ea 38 bb 1a d6 12 3b
       -0.007925399 -0.0058937473 -0.0028216124 0.0022405447
000220 bc 1a 6f 3c d3 cc 8f ba 86 b5 0f bc 1b f2 eb 3c
       0.014593776 -0.0010971077 -0.008771306 0.028801968
000230 06 09 31 3b cc 59 a5 3b 17 d8 1e 3c 1f 0c 8c 3b
       0.0027013435 0.005046105 0.0096950745 0.004273906
000240 7c 16 45 3b e8 bd 11 bc d0 bf c7 ba e0 bc d9 bb
       0.0030073216 -0.008895375 -0.001523966 -0.00664483
000250 07 85 6c 3b 2d c7 2b 3a ad 7a 9e 3b d6 a5 d8 39
       0.0036090033 0.0006552812 0.0048364014 0.00041322288
000260 e0 29 24 3c 71 7d 22 3c f6 81 1f 3c 26 e9 b3 ba
       0.010019749 0.009917603 0.009735575 -0.00137261
000270 db 62 aa 3a 61 50 29 ba 68 14 15 bb 11 7a d3 3c
       0.0012999432 -0.0006458816 -0.0022747759 0.025815042
000280 8e 1b 9c 3b c8 fc 80 3a f8 9f de bb 1b bd 5c 3c
       0.004764027 0.000984096 -0.006793972 0.013472821
000290 8c 62 e1 ba 42 23 05 3c c6 a7 f0 3b c4 1d 48 bb
       -0.0017195507 0.008126082 0.007344219 -0.003053532
0002a0 05 6f 46 bc b1 db a8 bb f0 1c 28 bc 27 17 23 3a
       -0.01211143 -0.0051531424 -0.0102608055 0.00062214065
0002b0 09 ca c7 3b ff 1a 66 3b ce 57 d2 3b da 42 71 ba
       0.0060970825 0.0035111306 0.0064191585 -0.0009203382
0002c0 ea 81 24 bb ec 0f 48 3c a7 4e 63 bb 6a 58 16 bb
       -0.002510185 0.012210827 -0.0034684332 -0.0022940882
0002d0 cc 82 15 bc 0f e0 84 bc ec 5c 45 ba 4c 09 e0 bb
       -0.009125423 -0.01622012 -0.00075288 -0.006837046
0002e0 0d 19 8b 3b 6e 6e 13 3c 8a 54 58 3c 97 b4 2c bc
       0.0042449296 0.008998496 0.013203749 -0.010541103
0002f0 6e 09 e8 bb d6 8e c8 bb 34 45 e3 bb 7b cc a6 bb
       -0.007081202 -0.006120543 -0.00693574 -0.005090294
000300 c1 bf ff 3a e6 e1 36 bc 8c c6 31 3c 54 e7 5a 3c
       0.0019512103 -0.011162257 0.01085056 0.013360817
000310 55 5e ce 39 d5 d6 0c 3c b6 d4 08 3c bd 50 1c bc
       0.00039361665 0.008596142 0.0083514955 -0.009540734
000320 d4 a4 8c 3c c3 11 8b 3c 7f c2 0e bc 3a 8e 70 bb
       0.01716844 0.016976243 -0.008713364 -0.0036705867
000330 3a 74 bd 3b bd 78 8d bb 41 e4 1f bc 69 c7 7f bc
       0.0057816776 -0.0043173716 -0.00975901 -0.015611508
000340 84 9d ae bb 4b cd 91 3a c5 36 ef 3b b4 32 bf bb
       -0.005328836 0.0011123804 0.00730023 -0.0058349017
000350 4b d1 d1 bb 76 b8 58 3c 3b 1e 83 3a 09 59 cd bb
       -0.0064031235 0.013227573 0.0010003516 -0.0062667173
000360 9c 33 6c ba e2 09 2f 3c 97 50 e5 bb a0 28 26 3c
       -0.0009010376 0.010683509 -0.0069981324 0.010141522
000370 ca 49 bd 3a f7 b6 b4 bb 47 1b 48 3c 9d 78 2b 3c
       0.0014441547 -0.005514975 0.012213535 0.010465768
000380 11 60 56 bb cf be 91 3a 72 d1 ba 3b ee 4b b9 3b
       -0.0032711069 0.0011119487 0.0057012374 0.0056548035
000390 bc 26 ba ba 7b fc 34 3c 5e e5 c4 3b fe c5 5b 3b
       -0.0014202218 0.011046524 0.006008788 0.003353476
0003a0 61 c7 85 3c 6a 9f 73 3c a5 4d 96 3b 63 a7 00 bc
       0.016330423 0.01486955 0.0045868927 -0.007852408
0003b0 9c 1d dc bb 8b 3c c0 3b 33 fc 86 bb 87 00 8e bb
       -0.006717397 0.0058665923 -0.00411942 -0.004333559
0003c0 de 3b 90 3a 63 fa e0 b9 7c 76 3f bc 4c 32 9b 3b
       0.001100417 -0.00042911162 -0.011685964 0.0047362205
0003d0 96 bc b7 b9 97 da 07 3c 38 e0 d6 3b 65 57 74 3b
       -0.00035044987 0.008291862 0.0065574907 0.0037283537
0003e0 30 c6 0f bb 58 fc e4 3a ea a3 87 3c f4 c3 81 bc
       -0.0021938197 0.0017470224 0.016557653 -0.015840508
0003f0 eb fc 1a 3c 15 ff c3 3a 26 99 a1 bc 04 58 34 3b
       0.009459714 0.001495334 -0.019726347 0.0027518282

fc1.weight_u f4 [512]
000000 ee a9 16 bb 22 cb e7 b9 8b 99 f9 ba 4e 5a 13 bb
       -0.002298947 -0.000442111 -0.0019042952 -0.0022484246
000010 76 fa e5 ba 0e cd e5 b9 c8 18 22 b9 90 2f 82 ba
       -0.0017545957 -0.0004383106 -0.00015458756 -0.0009932388
000020 78 91 e4 ba 71 3e 36 bb 00 34 b6 b8 0f cf 05 3b
       -0.0017438373 -0.0027808214 -8.688122e-05 0.0020417606
000030 55 1c 23 3a eb 55 ed b8 17 e9 e7 ba 2a 5f cf ba
       0.00062221783 -0.00011317044 -0.0017693368 -0.0015821208
000040 b3 98 c1 ba 2d 9b 84 3b fd 40 2a ba 52 ef f4 ba
       -0.0014770239 0.0040468187 -0.00064946694 -0.0018687046
000050 81 a3 05 bb 17 34 16 3a 15 4b fd ba 03 bb 1c 3a
       -0.0020391645 0.0005729808 -0.0019324744 0.00059787947
000060 71 0e a8 bc c6 ff 9e bb 54 68 4f bb 89 26 e8 ba
       -0.020514699 -0.004852268 -0.0031647878 -0.001771168
000070 f8 15 f8 ba 76 bb 90 b9 86 59 b3 b9 43 91 7a bb
       -0.0018927446 -0.0002760549 -0.0003420824 -0.0038233555
000080 fc 44 cf ba 5a eb 2b 3a a6 db e3 ba 22 0f 35 ba
       -0.0015813406 0.00065582024 -0.0017384186 -0.0006906857
000090 c1 64 1f bb 1f 4d cb 3e c8 91 63 ba 04 95 16 bb
       -0.0024321529 0.39707276 -0.0008681086 -0.0022977004
0000a0 3b 60 13 bb 4d 16 fd ba 14 ee a1 ba 47 75 37 ba
       -0.0022487778 -0.0019309014 -0.0012354278 -0.00069983717
0000b0 ac 5d 28 bb ac b4 81 ba 93 13 09 ba 7e d6 c9 b9
       -0.0025690598 -0.0009895763 -0.0005229052 -0.00038497517
0000c0 c4 45 1e bb 64 c2 a0 3d 86 73 19 bb d8 01 09 3a
       -0.002415047 0.07849577 -0.0023414805 0.000522641
0000d0 1f f3 f4 ba 7e cd ba b7 56 e9 37 bb 43 a0 4d ba
       -0.0018688178 -2.2268618e-05 -0.0028062663 -0.000784401
0000e0 e0 60 23 bb 15 78 f6 ba c0 6b 07 ba 08 16 a9 3c
       -0.0024929568 -0.0018804098 -0.00051658973 0.020640388
0000f0 0f 30 cc ba 34 8f 6f ba fc ae 21 ba 9c dc 9a 3a
       -0.0015578287 -0.00091384654 -0.00061677373 0.0011815014
000100 f3 8c 2a bd 65 5d 15 3a f0 31 24 3b 9f 4a 62 bb
       -0.041638326 0.0005697816 0.002505418 -0.003452934
000110 f8 cb 3e bb ae 71 8f bb bb 77 06 ba bb a2 30 bb
       -0.0029113274 -0.0043775653 -0.00051295356 -0.0026952464
000120 43 23 51 ba 8d ff 3d 38 89 bc c5 ba ef 5c 11 bb
       -0.00079779717 4.529911e-05 -0.0015086095 -0.0022180637
000130 71 f8 ad ba 08 a4 a8 ba 02 59 17 bb 98 24 9c 3c
       -0.0013272894 -0.0012866268 -0.0023093824 0.019060418
000140 aa e0 e6 ba 8e fc 51 bb 84 1c bb ba f1 f0 b7 ba
       -0.0017614563 -0.0032041403 -0.0014275466 -0.0014033598
000150 2a 41 2b ba 36 35 bb ba 69 6d 0d 3c 54 0e 1d bb
       -0.00065328425 -0.0014282826 0.008632042 -0.002396484
000160 0a fa 90 ba 4b ff f4 ba 5f 2c ca 37 b7 17 44 3d
       -0.0011060846 -0.0018691806 2.4100938e-05 0.04787418
000170 3a d4 70 ba b2 4d 61 ba 2f 80 f5 38 1b 48 50 ba
       -0.00091868977 -0.00085946464 0.000117063864 -0.0007945315
000180 4e 5d d0 ba 45 c2 43 3a 60 06 28 3a de 9f 94 ba
       -0.0015896948 0.0007467608 0.00064096414 -0.0011339148
000190 f9 3c 40 bb 03 d6 69 ba e2 13 ea 3a d7 7b 19 bb
       -0.0029333218 -0.0008920135 0.0017858709 -0.0023419762
0001a0 eb 35 93 37 32 7c 34 bb 85 6b 4b ba 3a 98 8a ba
       1.7548873e-05 -0.0027539846 -0.0007759857 -0.0010573932
0001b0 83 0b 91 ba fd df eb ba 1f d8 44 bc 4a 0a 2a bc
       -0.0011066053 -0.0017995831 -0.012014418 -0.01037843
0001c0 54 fd d2 3a b5 0a 06 bb 79 ec 50 bb 17 55 f5 ba
       0.0016097226 -0.002045316 -0.003187923 -0.0018717375
0001d0 9d e2 f7 ba eb ca a6 39 b6 98 e4 ba 92 12 c3 3c
       -0.001891214 0.00031813173 -0.0017440531 0.023812566
0001e0 0c 39 2f 3a b0 62 b0 ba 0d 18 27 bc 4f 8b bc ba
       0.0006684221 -0.0013457146 -0.010198605 -0.0014384779
0001f0 19 4d 92 38 8c d7 6b be a0 35 c3 39 42 db 1e ba
       6.976183e-05 -0.23031443 0.00037233252 -0.00060598936
000200 a2 8b ae 39 7f 7e 57 ba f8 b3 b3 b9 41 a4 79 ba
       0.000332919 -0.00082204485 -0.00034275628 -0.0009523072
000210 27 6c 9d 39 5e 37 17 3c aa c0 1c bb 1b 89 7f bb
       0.00030025953 0.009229509 -0.0023918548 -0.0038991633
000220 4c 5d f7 3a c4 0d 87 bb 12 f9 a7 ba 7a ae 9a ba
       0.0018872409 -0.004121514 -0.0012815318 -0.0011801266
000230 e8 a0 8a bd 59 41 d7 ba 2f cf f6 3c fa ae f1 ba
       -0.06768972 -0.0016422673 0.03012809 -0.0018438988
000240 12 d2 e3 3a e5 0b 2c bb d6 6d 8c ba ca de f9 bb
       0.0017381331 -0.0026252207 -0.0010713886 -0.0076254355
000250 3d c9 10 b9 d5 77 95 b9 77 a9 ef bb 83 de 28 3a
       -0.00013807877 -0.00028508776 -0.007313903 0.0006441848
000260 54 28 9a 3d 26 11 47 ba ae 74 f6 3a 7c 23 df ba
       0.07527223 -0.0007593803 0.0018803084 -0.0017024125
000270 6e e0 3a bb 14 b6 87 ba 41 d6 20 bb 4a b3 83 ba
       -0.0028515118 -0.0010353946 -0.0024541768 -0.0010047939
000280 d8 aa a4 bb ad 22 19 bb 8d 0d b5 bd 59 e7 bf b9
       -0.005025249 -0.0023366616 -0.08840475 -0.00036602726
000290 d5 84 07 bd 8a 6e 42 bb 8d 4c 67 bb d0 f8 5a ba
       -0.033085663 -0.0029667937 -0.003529343 -0.0008353116
0002a0 61 85 14 3a f1 1e 27 bb 8c 61 95 ba 17 b4 a1 bd
       0.0005665627 -0.002550062 -0.0011396869 -0.078956775
0002b0 dd 71 26 bb c0 37 73 b9 5e 4b 84 ba 82 cf 2e bb
       -0.0025397458 -0.00023195054 -0.0010093262 -0.0026673977
0002c0 2a 21 ca 3e 4f 2f 9d ba 19 df af 3a dc 41 b9 ba
       0.39478427 -0.0011992248 0.0013417929 -0.0014134008
0002d0 39 cf 33 bb 17 c6 47 bb ac 6a 35 3e 0b 0e 05 bb
       -0.0027436747 -0.003048306 0.17716473 -0.002030256
0002e0 ee 3d 2d bb 28 61 3a bb d2 cb 59 bb 92 86 53 3a
       -0.0026434618 -0.0028439257 -0.0033233059 0.0008069064
0002f0 dd 63 cc 3a ec 14 39 3a 71 5a 13 bb 9a 42 8e ba
       0.0015593726 0.00070603075 -0.0022484327 -0.0010853589
000300 af 1a 80 bb ec 41 83 ba e0 3e 0e bb 25 4c ab bc
       -0.003909431 -0.0010014153 -0.0021704957 -0.020910332
000310 81 90 1e 3f d0 c3 d0 ba 09 e3 78 bb 44 da 60 ba
       0.61939245 -0.0015927497 -0.003797712 -0.0008577446
000320 41 e1 94 bd 18 21 7f 38 e8 e3 85 bb b3 e0 4e bb
       -0.07269526 6.082756e-05 -0.0040860064 -0.0031567037
000330 0f ba 64 39 bf 20 36 bb ac cc 47 bb 4b 7f e1 38
       0.00021813087 -0.0027790514 -0.0030486984 0.00010752546
000340 5e f7 fb ba e5 10 92 bb c2 eb 67 ba 9a f1 5f ba
       -0.0019223501 -0.0044575804 -0.00088470813 -0.00085427763
000350 74 7e 0e bb 09 8a ae 39 2c 2f 7b 3a 81 43 8f 3d
       -0.0021742852 0.0003329071 0.00095819193 0.06995297
000360 e1 7b 07 3b ce fe 14 bb 5a bd ec ba 05 10 85 3b
       0.0020673203 -0.0022734883 -0.0018061802 0.0040607476
000370 05 86 0c bb f3 65 92 39 17 03 6c 3a bd b1 03 3b
       -0.0021442187 0.00027923248 0.0009003146 0.0020094954
000380 d9 ee 23 bb a8 49 e7 ba 1b ae 50 3d 10 53 83 bc
       -0.002501419 -0.0017645853 0.05094729 -0.016030818
000390 5e fc 46 bb cc ea ff 3a e7 6b 3a 38 c3 f4 21 bb
       -0.0030362825 0.0019524931 4.4446348e-05 -0.002471254
0003a0 6c 61 43 bb c6 9e 80 bb 06 af 22 bb a9 a6 cb 36
       -0.0029812707 -0.0039251773 -0.002482356 6.0692732e-06
0003b0 f4 0b f2 3a a3 a6 83 ba 30 f3 01 bb 01 62 36 bb
       0.0018466697 -0.0010044168 -0.001982879 -0.002782941
0003c0 7a 47 04 bb 5b 3b 0c bd 43 20 0c bb 8a a6 c6 ba
       -0.0020184205 -0.034236293 -0.0021381534 -0.0015155834
0003d0 00 19 60 3c da 6f 1b bb dd 9f 5c bb 8f af 51 3a
       0.013677835 -0.0023717792 -0.0033664622 0.00079988776
0003e0 0c d5 6d ba 4c 32 e0 ba 21 38 38 bb 86 a7 ac b9
       -0.0009072579 -0.0017104833 -0.0028109627 -0.0003293121
0003f0 23 b6 19 ba 40 fa 24 bb 73 b5 58 bb 57 a6 5a b8
       -0.00058636273 -0.0025173575 -0.0033067137 -5.2130166e-05

fc1.weight_v f4 [42]
000000 2e a3 a9 3d 23 e9 62 3e d7 b4 c7 3e eb d1 dc bd
       0.08283077 0.22159247 0.39005157 -0.10782226
000010 01 b4 e4 bd 9f 15 8d be 05 a1 6b 3e 82 8e e3 3c
       -0.111671455 -0.27555558 0.23010643 0.027777914
000020 c0 5b 87 3e 13 3a fd 3d 22 6a a7 bd 50 de 87 3d
       0.26437187 0.123645924 -0.0817454 0.066341996
000030 28 93 41 3b 8e ae 06 bd ff 26 7f bc 49 58 8f bc
       0.0029537175 -0.032881312 -0.015573262 -0.017498152
000040 b9 f7 52 3d da 62 e4 bd fa a1 9a bd e6 78 14 3d
       0.051505778 -0.11151667 -0.07550426 0.03624811
000050 dc cd 26 3e e4 05 2e 3e e5 8d a1 bd 39 80 11 3e
       0.16289467 0.16994435 -0.07888392 0.1420907
000060 c5 7f 07 bc 4c fe b7 bd 1d 32 01 3c a6 ef 60 3e
       -0.008270209 -0.0898405 0.007885483 0.21966419
000070 0c 48 15 3e 0f ea e7 bd 47 b1 96 3e 19 2d a4 3d
       0.14578265 -0.1132394 0.29432127 0.08016414
000080 f0 da 61 be 18 51 df 3c b2 48 13 3d b0 ba c6 3d
       -0.22056174 0.027260348 0.035958 0.097035766
000090 e0 33 78 3e 5e 9b e1 bd 70 59 01 3d 01 17 95 3d
       0.24238539 -0.11015962 0.031579435 0.07279778
0000a0 80 cf a9 be 84 33 97 3d
       -0.33166122 0.07382873

fc2.bias f4 [256]
000000 fd bd dc be 91 cc 1d bf e6 36 4d be b0 dc ab be
       -0.431137 -0.6164027 -0.20040473 -0.3356681
000010 8d 75 b7 be 52 c9 8c be a3 bf a9 be 2b 3b 27 bf
       -0.35831872 -0.27497345 -0.3315402 -0.6532466
000020 01 c4 e1 be 78 1b 85 be 46 bd a3 be 5a 5e 62 be
       -0.44094852 -0.2599752 -0.31980342 -0.22106305
000030 1f 36 4b be ef eb 87 be ad 92 92 be 47 50 04 bf
       -0.19844864 -0.2654719 -0.2862753 -0.51684994
000040 f4 0f dd be be 0e a1 be 61 95 9b be 2a 98 53 be
       -0.43176234 -0.3145656 -0.30387405 -0.20663515
000050 2e e0 77 be c1 b7 85 be 5a ad 98 be 71 1f 2b be
       -0.24206612 -0.26116756 -0.29819757 -0.16711213
000060 ff 09 e6 be 5e 9f 1a bf 52 ff 45 be 8e e0 c9 be
       -0.449295 -0.60399425 -0.19335678 -0.39429134
000070 bd 3a 58 be c6 c5 50 be 9c fa a1 be 33 fc 46 be
       -0.21116157 -0.20387945 -0.31636512 -0.19432144
000080 73 bb 5a be 46 db 96 be 6c ff c8 be b3 d8 8a be
       -0.21360569 -0.29464167 -0.3925737 -0.27118453
000090 5f 3e ba be 89 c5 6a bf ce 4f 9f be e1 2e 95 be
       -0.3637571 -0.91707665 -0.31115574 -0.29137328
0000a0 3f 6e 0e bf 4d 47 53 bf 95 9c 83 be f1 c2 c0 be
       -0.5563697 -0.8253067 -0.257054 -0.37648728
0000b0 19 50 2b be 79 78 86 be 0e c8 78 be 49 4d 01 bf
       -0.16729774 -0.26263788 -0.24295065 -0.5050855
0000c0 73 62 1c be 2b c3 97 be 51 69 1a bf 75 4f e5 be
       -0.1527193 -0.2964109 -0.6031695 -0.44787183
0000d0 52 ec 4d be a1 99 8f be 29 d8 68 be 23 77 3d be
       -0.2010968 -0.28046897 -0.22738709 -0.18502478
0000e0 e0 80 36 bf 7e e5 aa be 26 c0 92 be 33 7b 93 be
       -0.712904 -0.33378214 -0.28662223 -0.2880493
0000f0 4a a0 3b be ce 47 76 be 50 5b 99 be b0 04 a8 be
       -0.18322864 -0.24050829 -0.29952478 -0.32816076
000100 c4 32 17 be b4 94 04 bf 29 73 ac be 06 8a 4a be
       -0.1476546 -0.517894 -0.3368161 -0.19779214
000110 09 a2 08 bf 05 a2 28 bf 4f 59 3c be 21 ab 9c be
       -0.53372246 -0.6587222 -0.18393444 -0.3059931
000120 76 1c 72 be 78 86 8f be b7 74 80 be 18 38 05 bf
       -0.2364367 -0.2803228 -0.25089046 -0.5203872
000130 52 bc 01 bf ca f5 87 be 77 0b 81 be 89 f5 87 be
       -0.5067798 -0.2655471 -0.2520406 -0.26554516
000140 9f 9b 02 bf 80 97 a2 be 55 61 39 be 69 a7 64 be
       -0.5101871 -0.3175621 -0.18103535 -0.22329487
000150 71 12 97 be ad c1 b3 be 65 9c ef be c3 44 47 be
       -0.29506257 -0.351087 -0.46799007 -0.19459824
000160 b7 9f 81 be 39 40 10 be c9 72 2d be 28 9e 29 bf
       -0.25317165 -0.14086999 -0.16938318 -0.6625695
000170 4f 27 3e be ba 3c 18 be 56 be 84 be 24 60 72 be
       -0.18569683 -0.14866915 -0.25926465 -0.23669487
000180 66 aa 6a be 62 ee 93 be cb 1a 9d be 6f 8e aa be
       -0.22916564 -0.2889281 -0.30684504 -0.33311793
000190 be 16 82 be 12 7f 57 be 8c 1a c6 be 53 b2 03 be
       -0.25407976 -0.21044567 -0.3869213 -0.12860994
0001a0 45 d2 74 be 17 96 d4 be a7 6b 3b be 3c 1b a6 be
       -0.23908336 -0.4152076 -0.18302785 -0.32442653
0001b0 41 80 17 be 76 87 3b bf 1b ed 4c be 86 6e 2f be
       -0.14795019 -0.7325357 -0.20012324 -0.17132005
0001c0 78 23 94 be 16 ff 5c be b5 fe 16 be 78 3d 3a be
       -0.2893331 -0.21581683 -0.147456 -0.18187511
0001d0 36 89 77 be ef ff 64 be 75 ac 4d be d3 b5 97 be
       -0.24173436 -0.22363256 -0.20085318 -0.29630908
0001e0 1f aa af be be cf 31 be 9f 7e 63 be 61 0b 90 be
       -0.3430948 -0.17364404 -0.22216271 -0.2813368
0001f0 c5 8f ff be ff 5e 30 be 6e a9 84 be ee f8 6a be
       -0.49914375 -0.17223738 -0.25910515 -0.22946522
000200 52 2a 76 be 67 bb 5a be e3 bc 8a be 98 6d 63 be
       -0.24039581 -0.21360551 -0.27097234 -0.22209775
000210 9b 1c 18 bf da 4e 2d bf 93 80 7c be 2c 55 8f be
       -0.5941865 -0.6769844 -0.24658422 -0.27994668
000220 89 ed 98 be a7 94 b8 be 69 bf 2a be 3c b5 01 be
       -0.29868725 -0.36050913 -0.1667458 -0.12666792
000230 a8 55 6d be 65 de 99 be ae 0e 43 be 37 1f 8a be
       -0.23177207 -0.30052486 -0.19048569 -0.2697694
000240 3a 92 8d be b4 3a 89 be 16 bf 52 be b5 2e 76 be
       -0.27650625 -0.268026 -0.20580706 -0.24041255
000250 dc 38 6d be c9 be bb be 6b ce 5a be 11 11 6a be
       -0.23166221 -0.36668995 -0.21367805 -0.22858073
000260 9f a1 97 be d0 69 88 be 83 93 36 be 35 e4 36 be
       -0.29615495 -0.2664323 -0.17829709 -0.17860492
000270 0a 8e 5d be b6 60 41 be 89 f9 94 be 66 0b a4 be
       -0.21636215 -0.18884549 -0.2909663 -0.32039946
000280 92 45 a0 be 68 fa 13 bf 53 9d c3 be 89 df 0d bf
       -0.31303078 -0.57803965 -0.38205966 -0.5541921
000290 5f 13 8c be 60 e7 67 be 2f ef f8 be 5f 68 95 be
       -0.2735853 -0.22646856 -0.48619983 -0.2918119
0002a0 87 ad ef be 47 c2 69 be b5 a5 a1 be 5d 29 b1 be
       -0.46812078 -0.22828017 -0.31571737 -0.3460187
0002b0 bb 41 68 bf 81 63 04 bf 61 18 89 be 7c 6e 5e be
       -0.90725297 -0.5171433 -0.26776412 -0.21721834
0002c0 89 95 74 be c5 b6 15 be ec 14 a4 be 09 65 2f be
       -0.23885168 -0.14620502 -0.32047212 -0.17128386
0002d0 41 19 79 be aa f6 9d be df d9 bf be 8a 4a fa be
       -0.2432604 -0.30852252 -0.3747091 -0.48884994
0002e0 10 ef 05 bf 60 45 91 be 81 45 6f be 17 be 1f be
       -0.52317905 -0.2837324 -0.23366357 -0.15599857
0002f0 ff cd ad be d4 ab 71 be 7f 0f 2f be cc 5f 4f be
       -0.33946225 -0.23600703 -0.17095755 -0.20251387
000300 53 ac 80 be d4 16 0f be f4 ee 55 be de 64 1c be
       -0.25131473 -0.13973552 -0.20891935 -0.15272853
000310 4f d8 b6 be 5e 17 8a be 5e cd cb be f6 2b dd be
       -0.35711905 -0.26970953 -0.3980512 -0.43197602
000320 cd 88 42 be bd f3 7a be b1 10 5d be a7 d6 de bd
       -0.18997498 -0.24507041 -0.21588399 -0.108807854
000330 20 bc a4 be 38 16 6f be d8 77 5b be 93 50 5d be
       -0.32174778 -0.2334832 -0.21432436 -0.21612768
000340 bd 7f ad be 23 75 92 be 85 e7 99 be 27 8e 6c be
       -0.3388652 -0.28604993 -0.30059448 -0.23101102
000350 76 f5 d7 be 37 c2 52 be ff 04 81 be 33 d6 ad be
       -0.4217946 -0.205819 -0.25199124 -0.33952484
000360 a3 b2 79 be c9 03 81 be 6e bc 4a be 25 6a 25 bf
       -0.24384551 -0.251982 -0.19798443 -0.6461509
000370 8a dd c3 be b3 b8 ba be ee e7 c1 be d4 b1 5d be
       -0.38254958 -0.3646904 -0.3787226 -0.21649867
000380 fa 65 bf be 86 55 83 be ea 9e 5f be aa b9 a9 be
       -0.3738249 -0.25651187 -0.21837965 -0.33149463
000390 be 6a b8 be 3f 17 ff be 05 76 58 be 14 70 26 bf
       -0.36018938 -0.49822423 -0.21138771 -0.6501477
0003a0 b2 f4 6d be 51 58 c3 be 3a 41 87 be 77 74 c3 be
       -0.23237875 -0.38153318 -0.2641695 -0.38174793
0003b0 91 ee a3 be 99 3a 10 be 2d 84 ca be 21 54 23 be
       -0.3201795 -0.14084853 -0.39553967 -0.15950061
0003c0 ad 7d 49 be 1f ea 8f be 3d e0 9f be 14 4a 4a bf
       -0.19676848 -0.28108308 -0.31225768 -0.79019284
0003d0 fb 3a 7d be 12 c8 6f be 04 28 6b be f7 9f d1 be
       -0.2472953 -0.23416165 -0.22964483 -0.40942356
0003e0 3a 25 89 be ee a7 9c be 1e ee a0 be 9b 77 12 bf
       -0.26786214 -0.3059687 -0.3143167 -0.57213753
0003f0 e9 6a 75 be 7e 11 29 be 96 93 7c be 0a dd 6c be
       -0.23966564 -0.16510579 -0.24665675 -0.23131195

fc2.weight_orig f4 [256, 512]
000000 ca 36 09 3c 5d f3 ab 3c a3 43 38 3c d7 ef 93 3c
       0.008374879 0.020990068 0.011246595 0.0180587
000010 f9 db 4c bc fd 5e cd bb 96 78 01 3c 2f 84 8c 3c
       -0.012503617 -0.006267427 0.007902285 0.017152874
000020 75 35 5e 3c 81 ee 82 bc e1 c7 0e bc f7 0b af 3a
       0.01356255 -0.015982868 -0.008714647 0.0013355006
000030 59 36 56 3c 53 96 57 bc 9c c6 63 3b c7 9a 9c 3b
       0.013074481 -0.013158399 0.0034755832 0.004779193
000040 65 4f da 39 3a 11 83 bc bb d8 72 3c 3b 4c 76 bc
       0.00041639354 -0.015999425 0.01482218 -0.015032823
000050 65 a8 6f bc ff 12 0e bb a1 5a 9b 3c 94 a6 d3 bc
       -0.014627551 -0.0021678803 0.018964114 -0.025836267
000060 20 ac 02 3b 7a 51 5e 3c 9b 8c 61 bc 6d 4b 8c bc
       0.001993902 0.01356923 -0.013766433 -0.01712581
000070 6f 3c df bc 26 46 d1 bc 17 f4 a4 3b 51 c0 39 3c
       -0.027250497 -0.025546145 0.0050339806 0.011337356
000080 66 36 91 3b c3 64 e7 bc 5f 0b 38 3b 1d cd c5 3c
       0.0044315336 -0.02824629 0.002808295 0.024145657
000090 83 98 f1 3c 41 58 0e 3c e5 6e 4f bb bb 6f 24 3b
       0.029491669 0.008688034 -0.0031651792 0.002509101
0000a0 3b 54 49 bc 28 8a 58 3c 3b 50 36 3b 0e 54 0e bc
       -0.0122881485 0.013216533 0.0027818817 -0.008687032
0000b0 9f c8 bc bb 37 c0 2d bc 6b ce c9 bb cc 07 94 b9
       -0.0057612206 -0.01060491 -0.00615864 -0.0002823457
0000c0 89 4f d2 3b 8c e5 68 bc 30 ff b3 bb 33 eb 1d 3c
       0.0064181727 -0.0142148845 -0.005493067 0.009638595
0000d0 92 04 e3 bc 1b 4e 84 bc 14 e6 c7 bb 87 f3 b3 3c
       -0.02771214 -0.016150525 -0.0061004255 0.021966709
0000e0 b9 27 2f bc 55 2b 8d 3b c1 b4 2a 3c 6f 1c bb 3d
       -0.010690623 0.004308144 0.010419072 0.09136283
0000f0 b1 1d af bc 46 18 8d 3c 5b 80 ba bb a2 11 78 3c
       -0.021376463 0.017223489 -0.0056915707 0.015140923
000100 e6 ed f1 bc 30 f8 5f 3c 8b 18 2b 3c 47 4c 4d 3c
       -0.029532384 0.013670012 0.010442863 0.012530393
000110 6a 71 8e bb 17 17 c7 bb 2c 29 58 bc 52 7b 17 3b
       -0.004347016 -0.0060757506 -0.01319341 0.0023114276
000120 8f 4f 94 bb 71 b8 fc ba f1 18 ab 3c 21 54 ff bb
       -0.0045260857 -0.0019281042 0.020885916 -0.0077920114
000130 bf 26 83 3c 60 90 b1 bc e9 ee 83 bb 5e 35 19 bd
       0.016009687 -0.021675289 -0.004026283 -0.03740441
000140 83 16 ca 39 51 f9 5c 3c fb 13 dd 3b 81 9d 5c 3c
       0.00038545215 0.013487176 0.0067467666 0.013465286
000150 f2 f3 95 bc 66 67 f5 bb f2 89 b5 bc 25 df ec bb
       -0.018304799 -0.0074891327 -0.022160504 -0.0072287493
000160 b7 7b 51 3c cb 98 8d bb 61 2e 5d ba f1 b3 fd 3c
       0.012785844 -0.004321193 -0.0008437392 0.030969592
000170 b8 dd bc bb 82 81 23 3a 7d ca 59 3c 4f 7a 10 bc
       -0.0057637356 0.0006237255 0.013292906 -0.008818223
000180 09 28 f7 ba 90 75 46 bc b9 c5 f3 3b bc dc 31 3c
       -0.0018856536 -0.01211299 0.007439342 0.01085585
000190 40 c9 76 3c 07 4c ae 3b ab ee 9d bb 9d c1 10 bd
       0.01506263 0.0053191218 -0.004819711 -0.035340894
0001a0 d2 7e e7 bc 1f 53 50 bb a3 29 f8 3b ef f8 33 3b
       -0.028258715 -0.0031787825 0.007573323 0.0027461608
0001b0 50 0a af 3c 77 eb 84 3c 35 3b af bb de d9 b2 bd
       0.021367222 0.01622556 -0.005347634 -0.08732961
0001c0 5c 86 c7 bc 5a 1c 0c 3c ff 56 e3 3c f3 be 3b bb
       -0.02435606 0.008551681 0.027751444 -0.002864775
0001d0 4b 4e 15 3c 79 cd 1e bd b2 55 db ba 4a 2c 97 bc
       0.009112905 -0.038770173 -0.0016733913 -0.018453736
0001e0 df 4e 27 bc c7 ad 29 3b 22 2a 34 bd 5e ed 5c 3c
       -0.010211675 0.0025890933 -0.043985493 0.013484327
0001f0 96 0f 3c bc 86 75 bb 3b ed 59 94 ba 1c 6f 8e bc
       -0.011478325 0.005720797 -0.0011318304 -0.017386965
000200 aa e2 04 3c 78 12 e3 39 82 f8 f3 3b 43 68 0f 3b
       0.008110682 0.00043310574 0.007445396 0.0021882213
000210 d9 34 15 bb a9 71 7e 3d 41 12 b7 bc 93 84 2f bc
       -0.0022767095 0.062120114 -0.022347571 -0.0107127605
000220 dd 53 04 3b a1 c7 c4 3c ef 10 13 bc d3 99 c6 bb
       0.0020191588 0.024020972 -0.008976205 -0.0060608177
000230 db 09 ed 39 65 aa da 39 4e ad 69 bb e6 40 cf 3c
       0.00045211505 0.00041707154 -0.0035656276 0.0252995
000240 d7 4a be bb 87 49 90 3c bf 5f 92 bc 2b 8f 80 bd
       -0.0058072614 0.017613186 -0.01786792 -0.06277307
000250 7a d0 d3 3b 49 b0 98 3c a5 b5 bb 3c 96 44 65 3c
       0.0064640613 0.018638747 0.022913763 0.013993403
000260 9b 38 3f bc 03 25 db 3b 65 d8 7d 3b da e2 78 3b
       -0.011671211 0.0066877618 0.0038733718 0.003797701
000270 9d 09 a4 3c ac e3 07 bc d9 25 67 3c f1 e5 4c 3c
       0.020024115 -0.008294027 0.014108145 0.012505994
000280 2d 8a b8 3c ca 4b 1c 3c 60 cc 21 3b 3b 89 f0 3b
       0.022526825 0.009539554 0.0024688467 0.007340578
000290 44 5c 3b 3d 1c a5 0a 3c 10 2d 41 3d b7 2e 27 bc
       0.04574229 0.008462217 0.047162116 -0.010204009
0002a0 c5 96 a5 bb 00 cc 08 3c e5 17 1c bc 1d 40 8d bb
       -0.0050533735 0.008349419 -0.009527181 -0.0043106214
0002b0 d3 9a 12 3d 96 4e fa bb 4b 28 27 3b 2a 47 a4 3c
       0.035792183 -0.0076387627 0.0025506194 0.020053465
0002c0 c7 73 9c 3b fa 8f 0e 3d a0 63 5e 3c 65 cf c0 3c
       0.004774544 0.034805275 0.013573557 0.023536393
0002d0 28 e0 0f bc c3 5f 88 bc a6 c7 b9 bc 7b f7 b9 bc
       -0.00878147 -0.016647225 -0.022678208 -0.022701016
0002e0 25 13 ff 3b f4 c0 b8 3c d7 59 ef ba 31 e9 d4 bb
       0.0077842646 0.022552945 -0.0018261027 -0.006497525
0002f0 d3 8d 31 bc 86 9d c3 b9 2f 43 bc bc d9 87 18 bc
       -0.010837036 -0.00037310662 -0.022981254 -0.009309732
000300 4e c1 22 bc 66 fa c0 bb b6 6e 58 bc c2 f8 99 3d
       -0.009933783 -0.005889225 -0.013209989 0.0751815
000310 67 5f e3 bb 17 b5 31 bc af e2 45 3c d9 a2 0f bc
       -0.006938863 -0.010846398 0.012077971 -0.008766853
000320 b9 f5 48 bd f7 c9 66 bc df 88 9b bc 71 4c 04 3c
       -0.049062464 -0.014086238 -0.018986164 0.008074866
000330 5a 91 f6 3b 0f 6b 04 bc 89 60 e1 3b c2 23 a5 3b
       0.0075246515 -0.008082165 0.006877963 0.005039663
000340 4e c9 b3 bc 7b e1 69 3c f7 54 72 3c f9 93 a9 3c
       -0.021946575 0.01427495 0.014790765 0.020700442
000350 e6 5e 90 bc e7 40 b3 3a 16 27 25 3c 77 d7 85 bb
       -0.017623376 0.0013675959 0.01008012 -0.0040845233
000360 db e2 00 3c 9c 32 7c 3c 53 7e db bb bb ed 0e 3c
       0.007866587 0.015392926 -0.0066984086 0.008723672
000370 28 bc f5 3a fb d1 89 ba bf b9 a1 3c a5 2e dc ba
       0.0018748092 -0.001051485 0.019741891 -0.0016798569
000380 b0 7f 84 bc 20 d0 13 3c 7b eb c8 3b 32 fe 1a be
       -0.016174167 0.009021789 0.006131587 -0.1513603
000390 59 54 e0 bc 39 f7 43 bb cb d9 a9 bc b8 01 f1 3c
       -0.02738397 -0.0029901995 -0.020733735 0.029419765
0003a0 9e 97 64 3b fb 99 b1 3b a6 ce 28 bb 21 9f 91 bc
       0.003488041 0.005419967 -0.0025757938 -0.017776074
0003b0 6f 3b 8d bb 04 ef 8d 3b 64 b9 b0 b9 fb d6 47 3c
       -0.0043100636 0.0043314714 -0.00033707463 0.012197251
0003c0 7a f4 f6 bb 88 25 49 3b 01 44 c4 3c ff b4 a5 3b
       -0.007536468 0.0030692536 0.023958208 0.005056977
0003d0 55 8c 7a bc b2 18 56 bb 01 c8 91 3c b3 8f 56 3b
       -0.015292247 -0.0032668528 0.017795565 0.003273946
0003e0 77 98 8b bb f1 80 89 3c 61 78 00 3d 88 0e 28 bd
       -0.0042601186 0.016785117 0.031364802 -0.041029483
0003f0 f5 1e 01 bc 8c f8 c5 3c a7 e8 52 bc d7 57 8d 3b
       -0.007880916 0.024166368 -0.012872851 0.00431345

fc2.weight_u f4 [256]
000000 69 b2 3c 3c 0a 2a f7 3b 0a f8 5b 3b 83 d2 70 3a
       0.011517146 0.0075428532 0.003356459 0.0009186642
000010 b9 e4 61 ba d6 72 d2 bb 64 64 da ba 1e 12 7e ba
       -0.0008617151 -0.006422381 -0.0016661999 -0.0009692031
000020 1b 21 44 b9 c0 14 76 bb ff 4c 0d bb 44 13 02 bc
       -0.0001870435 -0.003754899 -0.0021560786 -0.007939164
000030 30 cf dc 3a 40 be 8e bb 38 ec 91 37 0a 37 20 ba
       0.0016846415 -0.0043561757 1.7395345e-05 -0.0006111717
000040 c1 d0 c1 ba ff 80 1a 3a 4a e4 32 3a e4 f4 0a bb
       -0.0014786945 0.00058938557 0.0006824179 -0.0021203095
000050 7b 78 1f 3b 2c 9c 66 3b e8 bb 40 3c 5c 11 86 3c
       0.0024333287 0.00351883 0.01176355 0.0163657
000060 a5 bd f5 ba 5d 34 c0 3b 3b ef 09 3c 86 8e d6 3b
       -0.0018748535 0.005865617 0.008418853 0.006547752
000070 92 79 72 ba ac c4 0c bc 81 45 45 3a 27 13 b8 ba
       -0.0009249683 -0.008591812 0.00075253105 -0.0014043794
000080 a3 3d 81 3a b5 6f 3c bb f3 28 c6 bb a4 1c 81 3c
       0.0009860288 -0.0028753106 -0.006047362 0.015760727
000090 74 97 55 be 76 b6 53 bb 3e 3f a3 bb 64 8e 8f bb
       -0.20858556 -0.00323048 -0.0049819043 -0.004380988
0000a0 76 f8 0d 3c 77 07 67 3a c5 59 68 bb 68 9b 4b bb
       0.008665195 0.0008813063 -0.0035453897 -0.003106797
0000b0 ae f1 7b 3b 6c e0 7c bb d2 63 b7 ba 3d a2 57 3a
       0.0038443613 -0.0038585914 -0.0013991541 0.00082257745
0000c0 56 fd 07 bc 10 59 9d bb 44 51 40 3b 30 92 84 bb
       -0.008300146 -0.004801877 0.0029345313 -0.004045747
0000d0 6d 82 e6 3b 86 b2 f4 3c cd 38 46 3c e5 db 3a bd
       0.007034591 0.029870283 0.012098503 -0.045619864
0000e0 80 70 97 3b f8 a7 96 3a 26 c4 cb bb e0 8d 23 bb
       0.0046215653 0.001149415 -0.006218451 -0.002495639
0000f0 63 7c 97 3d a4 63 1f 3b c1 b7 84 3c c1 4e c7 3a
       0.07396772 0.0024320865 0.016200902 0.0015205966
000100 ae 48 bc ba d4 d8 b5 bb da 9e 56 bd c2 e8 d6 ba
       -0.0014364922 -0.0055495296 -0.052397586 -0.0016396272
000110 49 8b 3f bb a4 78 c0 3e d3 f3 9d 3c 2c dc 4a bb
       -0.0029227308 0.37592041 0.019281304 -0.0030953987
000120 cb 83 d0 bc d2 a7 90 bb af fa c9 3a 85 8b e2 3d
       -0.025453469 -0.004414537 0.0015409793 0.110617675
000130 4d fc 0c bc 8f e0 45 bb 0b 9d 45 bb a6 3f 1d bb
       -0.008605075 -0.0030193662 -0.003015342 -0.0023994236
000140 56 15 ec 3b d4 8d bd bb 0f d4 a4 3d ba 3c 9f 3a
       0.007204692 -0.0057847295 0.080482595 0.0012148835
000150 8f 29 8d bb 53 24 97 3a 82 aa 90 3b 5a 3a b9 bb
       -0.0043079327 0.0011531211 0.0044148574 -0.005652708
000160 4d 10 a3 bb 4c 9f ea ba a9 74 2b 3b 7c 05 f3 3b
       -0.0049763084 -0.0017900257 0.0026162064 0.0074164253
000170 f1 16 c1 3b 12 8c aa bb af a3 14 bc d5 b1 2f bc
       0.0058926274 -0.005204686 -0.009072228 -0.010723551
000180 7c 2f 9c 3a ea c0 c9 bb c0 13 20 3b 00 6d 31 bb
       0.0011916007 -0.0061570304 0.0024425834 -0.0027073026
000190 1b 69 65 3a 81 ca a1 3c 16 78 e9 3d 66 db fc 3b
       0.00087513187 0.019749882 0.11399858 0.007716584
0001a0 c4 60 c9 bb e4 7a f6 ba ad 07 9d b8 e9 87 4b 3d
       -0.0061455686 -0.0018804935 -7.487773e-05 0.04969016
0001b0 cc cd f3 bb 14 8f 3e 3f 92 e8 8c 3c 4f d6 8a 3b
       -0.0074403044 0.7443707 0.017200742 0.0042369734
0001c0 82 7c 4c 3b 45 e4 18 bb 12 a9 dd 3c f6 33 8c 3d
       0.0031202142 -0.0023329419 0.027058158 0.06845848
0001d0 e9 c3 82 3b 38 47 15 bd 44 59 03 3c 30 6d a9 ba
       0.0039906395 -0.036444873 0.008016888 -0.0012926217
0001e0 78 f7 41 3b 5c 5d d3 39 ff be 5a bb 08 14 02 bb
       0.0029596966 0.00040314614 -0.0033378003 -0.0019848365
0001f0 f9 fe 0c 3c b2 8d 24 bc 68 07 c3 ba d4 02 64 b9
       0.008605712 -0.010043548 -0.0014879527 -0.00021744828
000200 51 32 96 3b 95 8e 09 3d 9c 73 39 bb c7 14 cc ba
       0.004583635 0.033583242 -0.0028297668 -0.0015570157
000210 de 19 4f bb f5 8a 38 3b 4f 93 21 39 31 3f cb 3a
       -0.0031601111 0.0028158997 0.00015409033 0.0015506503
000220 5c e4 c0 3a 28 91 c5 3b 3e b3 21 bb df 0d 0a 3e
       0.0014716494 0.006029267 -0.0024673487 0.13481854
000230 71 69 3b 3b b1 50 19 bc 14 ed 9c bb 0b ab 75 bb
       0.0028596784 -0.009357617 -0.004789004 -0.0037485983
000240 ae 51 22 bb bd 9d 49 3b 8f 7d 50 3a df 4a cd bb
       -0.0024767923 0.0030764185 0.000795328 -0.006265029
000250 c4 e1 a0 ba 0a e2 93 bb e7 bb bd ba 25 54 2f bb
       -0.0012274315 -0.00451303 -0.0014475555 -0.0026753035
000260 24 eb 78 3c e1 6c 25 3c a3 d6 33 bd 99 d1 a0 bb
       0.015192781 0.01009676 -0.043905865 -0.0049077985
000270 b0 8e b6 3a ec f9 0f ba d5 2a e2 3a ee 54 e5 39
       0.0013928022 -0.00054922584 0.0017255197 0.0004374156
000280 19 5b f4 3b d7 95 ec 3b 56 fa b2 3b 19 f4 c9 3b
       0.0074571487 0.0072200107 0.0054619713 0.006163132
000290 6f a3 12 3a 76 e1 4d bb ec b3 57 3b ad b0 82 3c
       0.00055938115 -0.0031414903 0.0032913638 0.015953386
0002a0 39 16 ae bb ed 63 25 3c d4 e0 38 bb ec c1 eb 3b
       -0.0053127077 0.010094625 -0.002821018 0.007194748
0002b0 f6 cf 43 3e 67 96 10 bb c2 ac 7d 3b da f2 e9 3c
       0.191223 -0.0022062303 0.0038707708 0.028558183
0002c0 fd 04 1d bc 7f 44 32 bc 5c a9 cf bb 86 de a0 3c
       -0.009583709 -0.010880589 -0.006337328 0.019637357
0002d0 4f 9a 82 3a e1 5c 20 3c bd 7a e8 ba 45 fe 09 3b
       0.00099642 0.009787769 -0.0017736774 0.0021056097
0002e0 bf 23 87 3e 6f 14 a9 3b 83 0c 04 be ee 19 25 bd
       0.2639446 0.0051599066 -0.12895398 -0.04030793
0002f0 ff 6c dd 3b 75 e3 ae ba ea 60 4f bd d3 cb 10 ba
       0.006757378 -0.0013342934 -0.050629534 -0.0005523536
000300 1a 0f 2a ba 0d bd 5d 3c 98 12 35 3b 53 dc 59 bd
       -0.00064872357 0.013533843 0.002762949 -0.053188633
000310 61 92 3a 3c 0a d4 07 ba 5c 00 05 ba e7 41 72 3b
       0.0113874385 -0.00051814376 -0.0005073601 0.003696555
000320 eb 3a c5 bc 05 45 ee 3b 17 3a 40 bd 3a 21 b2 bd
       -0.024075946 0.0072714114 -0.0469304 -0.08697744
000330 d5 98 6e 3b 06 79 71 3a 84 76 ca bb 6e 41 c4 bd
       0.0036407013 0.00092114543 -0.006178679 -0.09582792
000340 c4 21 32 bb 5d fa e0 3a c6 d7 d1 3a 1b 51 e7 3a
       -0.002718077 0.0017164458 0.001600974 0.0017648073
000350 84 a9 37 bb 00 17 d9 3a 2c e9 81 bb ba ae 16 3a
       -0.0028024623 0.0016562641 -0.003964564 0.0005748082
000360 19 b5 a3 3c 01 21 ee ba ab 24 20 be ca fb 6c 3b
       0.019983815 -0.0018167795 -0.15638988 0.003616082
000370 ee 6b 06 bb a2 a9 c5 bb 77 91 49 bb 84 37 9e ba
       -0.0020511108 -0.0060321847 -0.003075687 -0.0012070988
000380 f7 76 8b ba 36 8b 87 bb 36 08 77 3c b2 e7 59 bb
       -0.0010640313 -0.0041364683 0.015077641 -0.0033249673
000390 cf 59 c4 bb 2d 23 b4 3a a4 4b a2 bb 6d 37 48 bc
       -0.0059921513 0.0013743393 -0.0049528647 -0.012220246
0003a0 41 f8 84 3b bc 0f 54 bb aa 09 11 3c 5d 6b 3f b9
       0.0040579145 -0.0032358011 0.008852402 -0.00018255175
0003b0 15 e6 90 bb cf 62 51 bd ed fc 06 bc 32 f2 8a bb
       -0.004421959 -0.05111962 -0.008239013 -0.0042402977
0003c0 7e 7d 92 ba ee a9 4d b8 8d 8e 3b 3a 18 43 16 3d
       -0.0011176316 -4.9034068e-05 0.00071547256 0.03668508
0003d0 c9 54 0e 3c aa c7 20 bb 9b 3f dc 3b d7 50 89 3b
       0.008687207 -0.0024533072 0.0067214496 0.004190545
0003e0 14 fb db bb d1 22 ba 3b a9 fe 03 bb 95 de 9d 3b
       -0.0067132805 0.00568042 -0.0020140803 0.0048177936
0003f0 bf a6 bf b9 d5 d3 c3 ba 46 a9 38 bb ee d1 8e 3a
       -0.00036554594 -0.001494045 -0.0028177067 0.0010896304
