data/saved_models/discriminator_epoch_4000.pth (torch, 758522 bytes, 14 tensors)

fc1.bias f4 [512]
0	0xbf8f781c	-1.120853
1	0xbebca12b	-0.3684171
2	0xbfd5661c	-1.6671786
3	0xbf330ce7	-0.6994156
4	0xbfd8ff23	-1.6952862
5	0xbeee984f	-0.46600577
6	0xbf389516	-0.7210249
7	0xbf0355ac	-0.513026
8	0xbf70f189	-0.94118553
9	0xc03cf04a	-2.952166
10	0xbf8a62fd	-1.0811459
11	0xbf350082	-0.707039
12	0xbf7273a7	-0.9470772
13	0xbf8cc660	-1.0998039
14	0xbf55499a	-0.8331543
15	0xbf349a30	-0.7054777
16	0xbf81137e	-1.0084074
17	0xbe8640a2	-0.26221186
18	0xbf4088b1	-0.75208575
19	0xbe9b9f48	-0.3039496
20	0xbf18734f	-0.59550947
21	0xbedf4058	-0.43603778
22	0xbfc3a677	-1.5285176
23	0xbe724bf7	-0.23661791
24	0xbec99a98	-0.39375758
25	0xbf62951e	-0.88508785
26	0xbf0d61d6	-0.5522741
27	0xbf79536c	-0.97392917
28	0xbf60866a	-0.877051
29	0xbea14276	-0.31496018
30	0xbf1bb093	-0.60816306
31	0xc02ee88f	-2.7329443
32	0xbf32f37a	-0.69902766
33	0xbf44d3ad	-0.7688549
34	0xbf525763	-0.8216459
35	0xc0367e8c	-2.8514738
36	0xbf822fd7	-1.017085
37	0xbf74028f	-0.95316404
38	0xbf8cc446	-1.0997398
39	0xbee02061	-0.43774703
40	0xbf0b6da3	-0.5446417
41	0xbea3ac48	-0.31967378
42	0xbf07f250	-0.53104115
43	0xbf2d81f0	-0.67776394
44	0xbf4a3867	-0.78992313
45	0xbecfe704	-0.40605938
46	0xbf8d436a	-1.1036198
47	0xbf693056	-0.9108938
48	0xc028bf99	-2.6366942
49	0xbe4f7494	-0.20259315
50	0xbf752478	-0.9575877
51	0xbf5e52d7	-0.86845154
52	0xbfe45f30	-1.7841549
53	0xbf5b1b1d	-0.85588247
54	0xbf84e622	-1.0382731
55	0xbf7fe6f9	-0.9996181
56	0xbf8fd771	-1.1237622
57	0xbfeee49c	-1.8663516
58	0xbf79e69a	-0.97617495
59	0xbe68a54b	-0.22719304
60	0xbf17e746	-0.5933727
61	0xbf1b113f	-0.6057319
62	0xbeb07b95	-0.34469286
63	0xbed8e858	-0.42364764
64	0xbebe6217	-0.37184212
65	0xbf0cb97a	-0.54970515
66	0xbe5c2ecc	-0.21502227
67	0xbfe69de7	-1.8016938
68	0xbf487fbb	-0.783199
69	0xc006441a	-2.0979066
70	0xbf848d65	-1.035565
71	0xbf5ca211	-0.86184794
72	0xbf1bf352	-0.6091815
73	0xbf34190b	-0.7035071
74	0xbf5dd655	-0.8665517
75	0xbf0c18aa	-0.54725134
76	0xbfc2ff32	-1.523413
77	0xbfe891a7	-1.816945
78	0xc0079997	-2.1187494
79	0xbe900e54	-0.28135931
80	0xbf0b864d	-0.545018
81	0xbf42843c	-0.75983024
82	0xbee46689	-0.44609478
83	0xbf737678	-0.95102644
84	0xbf5c0534	-0.8594544
85	0xbf4c7269	-0.79862076
86	0xbd579567	-0.052632716
87	0xbf7a18b7	-0.9769396
88	0xbfe1991f	-1.7624854
89	0xbf39e094	-0.72608304
90	0xbedc3f8a	-0.43017226
91	0xbe820327	-0.2539303
92	0xbf94c7d2	-1.162348
93	0xbf9a50e4	-1.2055936
94	0xbee33247	-0.44374296
95	0xbf1e44ea	-0.61823905
96	0xbef73d93	-0.48289165
97	0xbf8281bc	-1.0195842
98	0xbeeb1485	-0.45914093
99	0xbeb1fc4c	-0.347628
100	0xbf8f152b	-1.1178335
101	0xbe8ebd03	-0.2787858
102	0xbeb533b2	-0.35391003
103	0xc0213d19	-2.519354
104	0xbf83e691	-1.0304738
105	0xc027ea50	-2.6236763
106	0xbf1beac0	-0.60905075
107	0xbf482494	-0.78180814
108	0xbf85c391	-1.0450307
109	0xbf757321	-0.958788
110	0xbe807640	-0.25090218
111	0xbe885418	-0.26626658
112	0xbf36ff4e	-0.71483314
113	0xbf5faf1f	-0.8737659
114	0xbfaf9f60	-1.3720512
115	0xbf9c7e5c	-1.2226062
116	0xbf4d4050	-0.8017626
117	0xbf23ca4b	-0.6398055
118	0xbe44ab10	-0.1920588
119	0xbec7038f	-0.38869902
120	0xc0410fb3	-3.0165832
121	0xbe744f20	-0.23858309
122	0xbea45b67	-0.32100984
123	0xbf37d3ff	-0.71807855
124	0xbf6bfb4b	-0.9218032
125	0xbf5ee5c2	-0.8706933
126	0xbed8bb10	-0.42330217
127	0xbf59fbcf	-0.85149854
128	0xbea66b22	-0.3250361
129	0xbf537bd3	-0.82610816
130	0xbeacb0f3	-0.33728752
131	0xbefcd238	-0.49379134
132	0xbf26c6dc	-0.65147185
133	0xbeb778e9	-0.35834435
134	0xbf7c049a	-0.9844452
135	0xbf8bbda9	-1.0917255
136	0xbf53998a	-0.82656157
137	0xc0324231	-2.78529
138	0xbf3f84c2	-0.7481195
139	0xc01d7cb5	-2.4607365
140	0xbe98c16c	-0.2983507
141	0xc013d466	-2.3098388
142	0xbe1df3c8	-0.15425026
143	0xbf89dd67	-1.0770692
144	0xbf157e30	-0.5839567
145	0xbfb04eeb	-1.3774084
146	0xbf2c1bf6	-0.67230165
147	0xbe458832	-0.19290236
148	0xbfa664ac	-1.2999473
149	0xbe9b67cf	-0.30352637
150	0xbeddea1c	-0.43342674
151	0xbee05f02	-0.43822485
152	0xbee0ef82	-0.4393273
153	0xbf0de673	-0.5542976
154	0xbda4058f	-0.08008873
155	0xbed210d3	-0.4102846
156	0xbfb331c2	-1.399956
157	0xbf5e951e	-0.86946285
158	0xbf7bb6c9	-0.98325783
159	0xbf429b01	-0.7601777
160	0xbf5ed72d	-0.8704708
161	0xbf96c54e	-1.1778963
162	0xbf86ac73	-1.0521377
163	0xbf27f1ae	-0.6560315
164	0xbe7380d9	-0.2377962
165	0xbf1fa4e9	-0.6236101
166	0xc02685fc	-2.6019278
167	0xbf0f32ff	-0.5593719
168	0xbf7bd417	-0.983705
169	0xbfa55626	-1.2916915
170	0xbf2c9fec	-0.6743152
171	0xbea79360	-0.32729626
172	0xbf7cffc0	-0.98827744
173	0xbf606be1	-0.8766461
174	0xbec09ac3	-0.37618074
175	0xbfd02a05	-1.6262823
176	0xbeaf1630	-0.34196615
177	0xc031c5ab	-2.7776897
178	0xbee476b7	-0.44621822
179	0xbf860528	-1.0470324
180	0xc0349b51	-2.8219798
181	0xbf2e69fc	-0.6813047
182	0xbebf3ba6	-0.37350196
183	0xbf5f44a4	-0.8721411
184	0xc02823a2	-2.6271749
185	0xbf82a3cc	-1.0206237
186	0xc045005e	-3.0781474
187	0xbea69e9e	-0.3254289
188	0xbead488a	-0.33844405
189	0xbeccf388	-0.4002955
190	0xc02c6a66	-2.693994
191	0xbf164f7a	-0.5871502
192	0xbfabc8e4	-1.3420682
193	0xbefe2569	-0.49637917
194	0xbf8c4f28	-1.0961657
195	0xbedf8743	-0.43657884
196	0xbf45c5d1	-0.7725497
197	0xbf39f37f	-0.7263717
198	0xbfc33f69	-1.5253726
199	0xbf206745	-0.62657577
200	0xbe3308ac	-0.17483777
201	0xbf6fa064	-0.9360411
202	0xbf7227a3	-0.9459173
203	0xbf19b79c	-0.6004579
204	0xbf468033	-0.77539366
205	0xbf18c2dc	-0.5967233
206	0xc0367b12	-2.8512616
207	0xbf0ddc61	-0.55414397
208	0xbf49e8c0	-0.78870773
209	0xbf5ab4c1	-0.8543206
210	0xc04531fc	-3.0811758
211	0xbfc4471d	-1.5334202
212	0xbfe335dd	-1.7750813
213	0xbf4ccd5d	-0.8000086
214	0xbf39359b	-0.7234742
215	0xbe2c6e04	-0.16838843
216	0xbea422e3	-0.32057866
217	0xbf69f73d	-0.9139288
218	0xc032a265	-2.7911618
219	0xbefbc3d0	-0.4917283
220	0xbf889eaf	-1.0673426
221	0xbf2d077f	-0.67589563
222	0xbf0eb97f	-0.55751795
223	0xbf1cfd3d	-0.6132391
224	0xc03b622b	-2.9278667
225	0xbf823321	-1.0171853
226	0xbeb78c6f	-0.3584933
227	0xbe643291	-0.22284915
228	0xc00275d1	-2.038441
229	0xbf4dc158	-0.80373144
230	0xbef33fe9	-0.47509697
231	0xbfe9489f	-1.8225287
232	0xc029fbea	-2.6560006
233	0xbf98e2f1	-1.1944257
234	0xbeaefacc	-0.34175718
235	0xbf1df401	-0.61700445
236	0xbe8f941f	-0.28042695
237	0xbf762996	-0.96157205
238	0xbf99c870	-1.2014294
239	0xbf216dbb	-0.6305806
240	0xbf2beaf5	-0.6715539
241	0xbf80a79b	-1.0051149
242	0xbfbaf7e4	-1.46069
243	0xbfb00bda	-1.3753617
244	0xbe9758b9	-0.29559878
245	0xbfd4beec	-1.6620765
246	0xbf98b4b6	-1.1930149
247	0xbf25a359	-0.64702374
248	0xbf4591b8	-0.77175474
249	0xbf5c5f8e	-0.86083305
250	0xbf6c3972	-0.92275155
251	0xbf345c70	-0.7045355
252	0xbf6f8341	-0.9355965
253	0xbf6a624f	-0.91556257
254	0xbfa74f65	-1.3071104
255	0xbf7c1b88	-0.9847951

fc1.weight_orig f4 [512, 42]
0	0x3c46d5d1	0.012135939
1	0xbc65123e	-0.0139814
2	0x3bcebd09	0.006309156
3	0x3bd0a620	0.00636746
4	0x3c8a99e5	0.016919086
5	0x3b70b8ee	0.003673132
6	0xba46e025	-0.0007586501
7	0xbc2a4948	-0.010393448
8	0x3c3991d8	0.011326276
9	0xbbda27eb	-0.0066575906
10	0xba0f6457	-0.0005469969
11	0xbc13d1dd	-0.009022203
12	0x3ca19ca3	0.01972801
13	0x3c1bf256	0.009518227
14	0x3b852da8	0.0040642805
15	0xbc03d531	-0.008046434
16	0x3c26d555	0.010182698
17	0xbbba8fbd	-0.0056934045
18	0x3c16efbc	0.009212431
19	0x3c46e981	0.012140633
20	0xbb9c31d3	-0.0047666817
21	0xbb187fbb	-0.0023269493
22	0x3c7de33f	0.015496074
23	0xbc53858a	-0.012910256
24	0x3b8f67e5	0.004376399
25	0x3b60706f	0.0034246703
26	0xbbd22e95	-0.0064142444
27	0xbb0ec417	-0.002178436
28	0x3ba18540	0.0049292147
29	0xbb5072f5	-0.00318068
30	0xbac52b21	-0.0015042761
31	0x3a734dd8	0.0009281314
32	0xbcb12d46	-0.021628033
33	0xbc5f7928	-0.013639726
34	0x3c832533	0.016008949
35	0x3b6792fd	0.0035335415
36	0x3baa74eb	0.005201926
37	0xb88890fb	-6.51199e-05
38	0x3b59c113	0.0033226653
39	0x3c3a8176	0.011383405
40	0x3c117f1d	0.008880404
41	0xbbf725ce	-0.0075423485
42	0x3c46e502	0.012139561
43	0xbc9444da	-0.018099237
44	0xbbe72022	-0.007053391
45	0x3c502199	0.012703323
46	0x3c6461d9	0.013939344
47	0x3b85bd4b	0.0040814034
48	0x3b4660e7	0.003027016
49	0x3bfd53e4	0.007730948
50	0xbbe4a1b5	-0.006977285
51	0xbb50c3d0	-0.0031854995
52	0x3b327943	0.0027232922
53	0xbc01e2e3	-0.007927629
54	0xbb69804f	-0.0035629456
55	0x3ae6a8f1	0.0017597956
56	0xbc2f7def	-0.010711177
57	0x3b585725	0.0033010927
58	0xbb9f8c0f	-0.004868991
59	0x3bc43cb3	0.005988681
60	0x3c274841	0.010210098
61	0x3c659a4a	0.014013836
62	0xbcc7fab3	-0.024411535
63	0x3bf9911a	0.0076161744
64	0x3c078b4a	0.008272955
65	0xbb1b1eb4	-0.0023669424
66	0x3b569d56	0.0032747588
67	0xb9b1a27f	-0.0003388114
68	0xb9c44de1	-0.00037442058
69	0x3c22dfa3	0.009941014
70	0xbc8a8ab8	-0.01691185
71	0x3c29a3a6	0.010353958
72	0xbb6f894b	-0.003655034
73	0xbb88465b	-0.0041587777
74	0xbcfdc9ba	-0.03097998
75	0xbbed2159	-0.0072366414
76	0x39c3e0b3	0.00037360712
77	0xb8cc78b6	-9.749962e-05
78	0xbb21eadf	-0.0024706644
79	0xbafb0f7d	-0.0019154396
80	0x3a94b6a1	0.0011345932
81	0xbc03d368	-0.008046009
82	0x3a9e1dee	0.0012063363
83	0x3ac6475e	0.001512747
84	0x3bed88d6	0.007248978
85	0xbadbc1fd	-0.0016766187
86	0x3c91e649	0.017810004
87	0xba4b9bc9	-0.0007767049
88	0x3d0808c0	0.03321147
89	0xbc380307	-0.0112311905
90	0xbc3a7f16	-0.011382839
91	0xbc2ef641	-0.010678829
92	0x3ccebb5e	0.025235828
93	0xbc80fb3a	-0.015744794
94	0xbc411b09	-0.011786231
95	0xbb567bce	-0.0032727602
96	0x3c865372	0.016397212
97	0xbc0f981a	-0.008764291
98	0x3cc5c3fd	0.024141306
99	0xba9ec34d	-0.0012112648
100	0x3c988271	0.018616887
101	0xbc221326	-0.009892261
102	0x3cde33a3	0.027124232
103	0xbc3b96fd	-0.011449573
104	0x3b50d46e	0.00318649
105	0x3b2522df	0.0025197787
106	0x3cbffb6a	0.023435313
107	0xbcf61e42	-0.030043725
108	0xbc4a33f3	-0.012341487
109	0x3c59bbea	0.013289431
110	0xbc244824	-0.010026965
111	0x3cb15029	0.021644669
112	0x3c251edc	0.010078158
113	0xba305029	-0.0006725812
114	0xbc042bbe	-0.00806707
115	0xbc3fc1de	-0.011703936
116	0xbc17c5c3	-0.009263459
117	0xbcc1c3a1	-0.023652853
118	0xbcb0d116	-0.021584075
119	0x3bbeb3e4	0.0058197845
120	0xbc36755f	-0.011136382
121	0xbc49e91a	-0.012323642
122	0x3ca9cb71	0.020726891
123	0x3c0a5d70	0.008445129
124	0xba38e5a0	-0.000705326
125	0xb8dc61e4	-0.00010508651
126	0xbbbd3a66	-0.005774784
127	0x3923c8b2	0.00015619656
128	0xbbee047f	-0.0072637196
129	0xbc80d239	-0.015725242
130	0x3bbb377d	0.005713402
131	0xba38fad4	-0.0007056419
132	0xbbf16420	-0.007366672
133	0x3a8335ee	0.0010010579
134	0xbb448b92	-0.0029990417
135	0x3a249207	0.0006277863
136	0xbb923722	-0.0044621387
137	0xbccc713c	-0.024956338
138	0xbc354de4	-0.011065934
139	0xbc1d0190	-0.009582892
140	0x3c70c607	0.014695651
141	0xbcc0d6fd	-0.023540014
142	0x3b847a34	0.004042888
143	0x3c0cd60b	0.008595954
144	0xbced44b3	-0.028963422
145	0x396005cf	0.00021364469
146	0xbc7bc685	-0.015367155
147	0x3c1ce1f0	0.009575352
148	0xbb80a8dc	-0.0039263796
149	0x3bda73a0	0.0066666156
150	0x3cf5ed8d	0.0300205
151	0xbbee572b	-0.007273575
152	0xbc3dc375	-0.011582245
153	0x3c2235ae	0.009900494
154	0x3b9079e5	0.004409062
155	0x3b3c7890	0.0028758384
156	0xba693c37	-0.00088972173
157	0xbb8a014e	-0.0042115813
158	0xbc23a6f3	-0.009988534
159	0xbbdf7e82	-0.006820501
160	0x3b9b3edb	0.0047377176
161	0x3bb49560	0.005510971
162	0x3b39876a	0.0028309473
163	0xbb0a577e	-0.0021109278
164	0xbbf32c2d	-0.0074210376
165	0xbb898a17	-0.00419737
166	0xbba40fe5	-0.0050067776
167	0x3ccb797f	0.024838207
168	0xbcdb6566	-0.026781749
169	0xbb07d3c7	-0.0020725594
170	0x3c7af890	0.015318051
171	0xb84ac750	-4.8346177e-05
172	0x3bfaf914	0.007659087
173	0xbb524e6d	-0.0032090202
174	0xbc988c14	-0.018621482
175	0xbb72dd6f	-0.0037058254
176	0xbc3e66fe	-0.011621235
177	0x3bd79715	0.0065792897
178	0xbca39d5c	-0.019972496
179	0x3b65760c	0.0035012988
180	0xbbe8b896	-0.0071020825
181	0x3bdbb821	0.0067052995
182	0x3cfad247	0.030617846
183	0xbc998eaf	-0.018744795
184	0xb9d65527	-0.00040880704
185	0x3b68ad65	0.0035503742
186	0x3cc33766	0.023830127
187	0xbbf84cc8	-0.0075775124
188	0x3a813b55	0.0009859601
189	0xbb2bbcdd	-0.00262051
190	0x3bc44fa8	0.005990941
191	0x3bb279a5	0.00544663
192	0xbbb39878	-0.005480822
193	0xbc2ff0ff	-0.01073861
194	0x3bd4c83a	0.0064935954
195	0xbbf2b9c9	-0.007407401
196	0xbc8d71d0	-0.017266184
197	0xbd055523	-0.032551896
198	0xbcb5f56c	-0.022211753
199	0xbca2c99e	-0.01987153
200	0xbc1d54e2	-0.009602757
201	0xbb2962ad	-0.002584617
202	0xbc26ba88	-0.010176308
203	0xbc620b62	-0.013796659
204	0x39ea99ff	0.00044746694
205	0x3a1af5d2	0.0005911264
206	0x3c595bed	0.013266546
207	0x3becbb6c	0.007224491
208	0xbc1b3619	-0.009473347
209	0xbc520552	-0.012818651
210	0x3bc187b1	0.0059060683
211	0x3cbd4b20	0.023107111
212	0xbc76a73e	-0.015054522
213	0x3bc95a48	0.0061447956
214	0xbc5304ff	-0.012879609
215	0xbc1d7f90	-0.009612933
216	0x3c1b044c	0.009461474
217	0x3b217e45	0.0024641913
218	0x3c0242ec	0.007950526
219	0xbcd14fad	-0.025550688
220	0x39e6edd0	0.00044046203
221	0x3b61c20c	0.0034447936
222	0x3c39e27f	0.011345505
223	0xbbb2a1f0	-0.0054514334
224	0xbcadcc0a	-0.021215457
225	0x3c5a1b15	0.013312121
226	0x3b283a36	0.0025669462
227	0xbca33a51	-0.019925268
228	0xbca5d9cf	-0.02024546
229	0xbb0c72ff	-0.0021430848
230	0xbba3fc95	-0.0050044754
231	0xbc562078	-0.013069265
232	0xbc252455	-0.010079463
233	0x3b1c6d4c	0.0023868857
234	0x3a2f4af0	0.0006686887
235	0xbb47ba47	-0.003047602
236	0xbc06ea20	-0.008234531
237	0xbbd77715	-0.006575475
238	0xbc35ae72	-0.011088954
239	0x3cff77ee	0.031185117
240	0xbbdd935f	-0.006761953
241	0x3d00c7ea	0.031440653
242	0x3c8e71c7	0.017388238
243	0x3c0ae7c6	0.008478111
244	0x3c9673b7	0.018365724
245	0x3d26e26e	0.040743284
246	0xbc843c4b	-0.016142031
247	0x3a07fb4a	0.00051872863
248	0x3c10b114	0.008831281
249	0xbb944f01	-0.0045260196
250	0x3cd593c4	0.026071437
251	0x3bd091a3	0.0063650175
252	0xbc3e3879	-0.011610144
253	0xbb8a84cb	-0.004227256
254	0x3c43744e	0.011929585
255	0xbbc016f5	-0.0058621117

fc1.weight_u f4 [512]
0	0xba008ba9	-0.00049036235
1	0x38417c72	4.6130684e-05
2	0x3b12a359	0.0022375195
3	0xba93e0f9	-0.0011282257
4	0xbadd1b3f	-0.0016869082
5	0x3b81c133	0.0039597987
6	0x3a8d2eef	0.0010771434
7	0x3a29f58a	0.00064834266
8	0x3b7e3523	0.0038788996
9	0x393607a5	0.0001735972
10	0x3b1379f4	0.002250311
11	0x3b04e6a2	0.002027907
12	0x3acac017	0.0015468624
13	0x3a3b78a6	0.0007151462
14	0xbb3208d8	-0.0027165916
15	0xb9aca966	-0.00032932608
16	0xba911804	-0.0011069779
17	0x3a7c6430	0.0009627966
18	0x3afcb9e6	0.0019281476
19	0xbe077da0	-0.13231516
20	0xb9df7bb9	-0.00042626055
21	0x3b3648d1	0.0027814398
22	0x3b40ca6f	0.0029417535
23	0x3a98647c	0.0011626626
24	0xbaaeab16	-0.0013326134
25	0x3abe5a04	0.0014522676
26	0x3a6160fd	0.0008597521
27	0x3a6291a1	0.0008642916
28	0x3a969909	0.00114897
29	0x3b08fc68	0.00209024
30	0x3a8bd2b5	0.0010667654
31	0x3a9a5388	0.0011774162
32	0x3ac5c1fb	0.0015087718
33	0x3aadf662	0.001327228
34	0xba6e5c4d	-0.00090927334
35	0x3ad2a836	0.0016071859
36	0xbafbc5e9	-0.0019208762
37	0xbd1d4f77	-0.03840586
38	0xb960ca65	-0.00021437703
39	0x3baf8a73	0.0053570806
40	0x3914091b	0.00014117772
41	0xbacdf12d	-0.0015712135
42	0xba2d7c37	-0.0006617936
43	0x38a2285b	7.732279e-05
44	0x39469bef	0.00018940841
45	0xbce93d9e	-0.028471764
46	0xb8ef49a6	-0.00011410126
47	0x3b3b7fa1	0.0028610008
48	0x3b259dd1	0.0025271068
49	0xbbc3113b	-0.0059529818
50	0xbb05c8db	-0.0020413909
51	0x3abae50a	0.0014258933
52	0xbb80423e	-0.0039141467
53	0x3929e409	0.00016202046
54	0x3b222b36	0.0024744994
55	0x3aaf591b	0.0013377996
56	0x3b2c579a	0.0026297332
57	0x399cbf68	0.00029897247
58	0xba8827bd	-0.001038782
59	0xbe0f5eea	-0.1400105
60	0x3a814dc5	0.0009865096
61	0x3b068952	0.0020528627
62	0x3b2a5ef2	0.0025996533
63	0xba8b0dd2	-0.0010608977
64	0xbd28a934	-0.04117699
65	0x3b4e90df	0.0031519455
66	0x3b3bbb14	0.0028645443
67	0xba39386c	-0.00070655975
68	0x39635734	0.00021680893
69	0x3b0757ed	0.0020651773
70	0x3b7fece4	0.003905111
71	0xba498321	-0.0007687081
72	0x3acc39d7	0.0015581202
73	0x398531ed	0.00025404934
74	0x3b2565e9	0.0025237745
75	0xb8992668	-7.302762e-05
76	0xbab4df42	-0.0013799446
77	0xb826d650	-3.977708e-05
78	0xb84b5b55	-4.848403e-05
79	0x3e8c541e	0.27407926
80	0xbb102a4b	-0.0021997865
81	0xb9603737	-0.00021382874
82	0x3aebfbc0	0.0018004104
83	0x3a93b7a4	0.0011269939
84	0x3adfb7ca	0.0017068323
85	0x3b936604	0.004498245
86	0xba76a902	-0.00094093394
87	0xb9da2dc2	-0.00041614292
88	0xbb0a4246	-0.002109663
89	0x3ab870d9	0.0014071717
90	0xba91d5ab	-0.00111263
91	0xbdc76927	-0.09736853
92	0xbb04920e	-0.0020228657
93	0x39c7de5a	0.00038121903
94	0x3aa2f891	0.0012433698
95	0x3ab5fdd1	0.0013884847
96	0x3b0adb36	0.0021187789
97	0xb9bca89a	-0.00035983772
98	0x3ae24179	0.0017261944
99	0xbb46baaf	-0.0030323674
100	0xb998b6f8	-0.00029128022
101	0x3b434266	0.0029794215
102	0x3a3b7d65	0.0007152169
103	0x3b9d5d49	0.00480238
104	0x3a5d9008	0.0008451943
105	0x3ad8e446	0.0016547523
106	0x3b508625	0.0031818238
107	0x3a722876	0.00092375965
108	0xba7c891e	-0.0009633469
109	0x3ad6bea2	0.0016383717
110	0x3dc9d0cf	0.0985428
111	0xbb367c96	-0.0027845255
112	0x3a7a00e4	0.0009536876
113	0x3aafd3d8	0.0013414575
114	0x3b7b0592	0.003830288
115	0x3ae69511	0.0017592033
116	0x39ade458	0.0003316726
117	0x3a2d8ebb	0.0006620695
118	0xbbd51a7a	-0.0065034004
119	0x3e0f7678	0.14010036
120	0xba258f93	-0.0006315645
121	0xbcaff358	-0.02147834
122	0xbb170b8c	-0.0023047654
123	0xb911856a	-0.00013877978
124	0xbb03c5b5	-0.0020106856
125	0xbe7b591c	-0.24545711
126	0x3b1508fb	0.0022740948
127	0xb97bbdb7	-0.000240079
128	0x3b57b212	0.0032912535
129	0x3aecf8a2	0.001807947
130	0x3b1ba559	0.0023749678
131	0xba2e0b9c	-0.0006639303
132	0x3ad3f9f4	0.0016172514
133	0x3a14c32c	0.0005674835
134	0xbb8473a6	-0.0040421067
135	0x3b371173	0.0027933985
136	0x3a04e059	0.0005068831
137	0x399f7a36	0.00030417898
138	0xbad444c8	-0.0016194815
139	0x3ae65e0c	0.0017575636
140	0x3d90e07e	0.070740685
141	0xb83af582	-4.4574503e-05
142	0x3ae63b9f	0.0017565376
143	0x399fa078	0.00030446402
144	0x3b89dea4	0.004207449
145	0x3b25000c	0.002517703
146	0x3a55c2e9	0.0008154349
147	0x3b81bb5a	0.0039591016
148	0x3b4ba456	0.0031073294
149	0x3ab5c308	0.0013867328
150	0xbdfad33d	-0.12247322
151	0x3954da6d	0.00020299265
152	0xbdbecb90	-0.0931617
153	0x3b1562c4	0.0022794465
154	0x387ad5ae	5.980365e-05
155	0x3b06ddf5	0.0020579074
156	0xb9aebfac	-0.00033330673
157	0x3a810106	0.0009842224
158	0x3b443a6d	0.002994205
159	0x3b4fdc99	0.003171718
160	0x3b60a3ec	0.0034277393
161	0xb991323c	-0.00027693983
162	0xbd12b95d	-0.035821307
163	0xba845beb	-0.0010098194
164	0xbd6d1262	-0.05787886
165	0xba4b2055	-0.00077486533
166	0xbb3d737b	-0.0028907943
167	0x3ac1184f	0.0014731976
168	0xba041a00	-0.00050392747
169	0x3a61e027	0.000861647
170	0x39b5afa8	0.00034653884
171	0x3b3866c6	0.002813743
172	0xbad6628b	-0.0016356272
173	0x3b53859a	0.0032275678
174	0x3a928900	0.0011179745
175	0xbab68c40	-0.0013927296
176	0xbdaddab0	-0.08488977
177	0xbafe8250	-0.0019417498
178	0x3b7cf98c	0.003860089
179	0xba8f6543	-0.0010940213
180	0xbaaf76ce	-0.0013386847
181	0x3ad94860	0.0016577356
182	0xbc667833	-0.014066744
183	0x39d3fe0f	0.00040434345
184	0x3af6e262	0.0018835778
185	0xb9faef85	-0.00047862172
186	0x3b18d60c	0.0023320941
187	0xbac19707	-0.0014769741
188	0x3aa6baae	0.001272043
189	0x3e333618	0.17501104
190	0x3af67eff	0.0018806158
191	0x3dce1f83	0.10064604
192	0x3b352ae3	0.002764397
193	0x3b3994b2	0.002831739
194	0xbabf7016	-0.0014605548
195	0xbd6eeb42	-0.058329828
196	0x3d8ab037	0.067718916
197	0x3ad138cf	0.0015962365
198	0x3b1b4523	0.0023692332
199	0x39d341ff	0.00040294227
200	0x3aee6ac0	0.0018189773
201	0x38cb941f	9.707384e-05
202	0xb7de3079	-2.6487034e-05
203	0x3a54c342	0.0008116254
204	0x39d1ad91	0.00039992903
205	0xbdffe8da	-0.12495585
206	0xbb14d44e	-0.0022709551
207	0x3b2f5ae7	0.0026757063
208	0x3b471eaf	0.003038328
209	0xbac4615e	-0.0014982631
210	0x3ace06f9	0.0015718631
211	0x3a1e56ed	0.00060401746
212	0x3891db0d	6.95494e-05
213	0x3af89c05	0.0018967396
214	0x3b09bef5	0.002101836
215	0xbae02bfa	-0.001710295
216	0x3ac34d1c	0.00149003
217	0x3a4719b3	0.0007595077
218	0x3a818b23	0.0009883385
219	0xba46bc7d	-0.00075811875
220	0xbaa6b088	-0.0012717405
221	0x3de89e2a	0.113582924
222	0x3b01983f	0.0019774584
223	0xbb22460f	-0.0024760996
224	0x3acf75b2	0.0015827923
225	0x3aaa1e52	0.0012979007
226	0xba088bb1	-0.0005208804
227	0x3ae48210	0.0017433781
228	0xba2807db	-0.0006409862
229	0xba72e2ce	-0.0009265364
230	0x3a04b5b1	0.00050624745
231	0x388c73ca	6.6972876e-05
232	0xbad239cb	-0.0016038952
233	0xb9a6aa09	-0.00031788673
234	0x3b14d99e	0.0022712718
235	0xba66a1fa	-0.000879794
236	0x3ab92779	0.0014126144
237	0xb9db65a2	-0.00041846657
238	0xba4560b2	-0.00075293623
239	0x3abdea20	0.001448933
240	0x3a722b61	0.00092380313
241	0x3c8011f0	0.015633553
242	0x3a173ceb	0.00057692704
243	0x3a1c90cc	0.0005972504
244	0x3a3f1c99	0.0007290333
245	0x387cbd5b	6.0257833e-05
246	0xbaa12c25	-0.0012296481
247	0xba023dac	-0.0004968296
248	0xba30ce83	-0.000674464
249	0xbb59be7c	-0.003322511
250	0x3b0953fc	0.00209546
251	0xbb2c48ff	-0.0026288626
252	0x3a9939dd	0.0011690218
253	0x39d15a98	0.00039931084
254	0x3a44263d	0.00074825046
255	0x399b2d79	0.00029597784

fc1.weight_v f4 [42]
0	0x3d77afa1	0.060470227
1	0x3e1c1b15	0.15244706
2	0x3d55f04f	0.05223113
3	0x3efb1066	0.4903595
4	0x3ee041df	0.43800256
5	0x3cae6964	0.021290489
6	0x3ec1bb4f	0.37838218
7	0x3e4751bd	0.19464774
8	0xbdfe2ce7	-0.12410908
9	0x3d1595ff	0.03652
10	0x3d383b5f	0.044978496
11	0x3de0f79d	0.109847285
12	0xbd4118a5	-0.047142643
13	0xbd9c25d0	-0.076244
14	0x3dfe2fcc	0.1241146
15	0xbdbe35fa	-0.09287639
16	0x3df08787	0.117446
17	0xbbe7874f	-0.0070656906
18	0xbda98ea9	-0.082791634
19	0xbe3b237f	-0.1827526
20	0x3e4a4695	0.19753487
21	0x3cc8f643	0.02453149
22	0xbb9cdf94	-0.004787395
23	0x3d173fe1	0.036926154
24	0xbdf21737	-0.11820834
25	0x3d8715ca	0.06595953
26	0xbd9d88ee	-0.07692133
27	0xbd6e88b8	-0.058235854
28	0xbd2f23ff	-0.042758938
29	0xbd834290	-0.0640918
30	0xbd08b65d	-0.03337704
31	0x3e159636	0.14608082
32	0x3d1e87f2	0.038703866
33	0x3dd05e01	0.1017418
34	0x3dbbbd76	0.09166996
35	0x3d8425f5	0.06452552
36	0x3c2dde4f	0.0106120845
37	0xbe588ee4	-0.21148258
38	0x3c80435b	0.015657118
39	0xbd285fe6	-0.04110708
40	0x3b973e72	0.0046155984
41	0x3e88bf1c	0.26708305

fc2.bias f4 [256]
0	0xbeae8151	-0.34083036
1	0xbe39ddcf	-0.1815102
2	0xbf0fc7c7	-0.5616421
3	0xbee5ae4e	-0.44859546
4	0xbe850b3c	-0.25985134
5	0xbe65a2e0	-0.22425413
6	0xbe62eaf7	-0.22159944
7	0xbf420a54	-0.7579701
8	0xbe594387	-0.21217166
9	0xbe798933	-0.24368744
10	0xbe64dac7	-0.22349082
11	0xbe756cdb	-0.23967306
12	0xbe49f05f	-0.197206
13	0xbe55d276	-0.20881066
14	0xbe980db7	-0.29697964
15	0xbf108b52	-0.56462586
16	0xbec91fda	-0.39282113
17	0xbe49cefe	-0.19707868
18	0xbe3b2983	-0.18277554
19	0xbe98a7bd	-0.29815474
20	0xbe1ca807	-0.15298472
21	0xbe943f21	-0.28954414
22	0xbe2113e5	-0.15730245
23	0xbe4626f0	-0.19350791
24	0xbeac3f94	-0.33642256
25	0xbf3f9f42	-0.74852383
26	0xbe78690b	-0.2425882
27	0xbe7d2237	-0.24720083
28	0xbe5f24c9	-0.21791376
29	0xbe5f1f3e	-0.21789262
30	0xbe3488f7	-0.17630373
31	0xbe524666	-0.20534667
32	0xbe92dcd1	-0.28684095
33	0xbe7abbad	-0.24485655
34	0xbead81ae	-0.33888
35	0xbe8c6f34	-0.2742859
36	0xbe960bbd	-0.2930583
37	0xbf38239c	-0.71929336
38	0xbedf8f61	-0.43664077
39	0xbe8e762f	-0.27824542
40	0xbe82d38c	-0.25552022
41	0xbf47dfd0	-0.78075886
42	0xbe9182d7	-0.28420135
43	0xbe2de45a	-0.1698164
44	0xbe427cb1	-0.18992878
45	0xbe203a8f	-0.15647338
46	0xbe5b070c	-0.21389407
47	0xbe2f2104	-0.17102438
48	0xbf012a49	-0.5045515
49	0xbf1a25e7	-0.60214084
50	0xbe2003e4	-0.15626484
51	0xbe8fc4e2	-0.28079897
52	0xbe77b357	-0.24189506
53	0xbe74202a	-0.23840395
54	0xbe48e025	-0.19616754
55	0xbe61bf2c	-0.22045583
56	0xbeb6f450	-0.3573327
57	0xbe94f698	-0.29094386
58	0xbee4de9c	-0.44701087
59	0xbe687938	-0.22702491
60	0xbeb1aaff	-0.34700772
61	0xbe874437	-0.2641923
62	0xbe5b2cc4	-0.21403795
63	0xbe4b1ec5	-0.19835956
64	0xbec50bfa	-0.384857
65	0xbf281d95	-0.6567014
66	0xbe6cb8e6	-0.23117408
67	0xbe73118c	-0.23737162
68	0xbeeba8e8	-0.46027303
69	0xbf19aeef	-0.6003255
70	0xbe2b2e7a	-0.16716948
71	0xbe8d701e	-0.276246
72	0xbea7d182	-0.3277703
73	0xbe9d573f	-0.30730626
74	0xbe480af6	-0.19535431
75	0xbf0c54c4	-0.5481684
76	0xbe67ac2c	-0.22624272
77	0xbe3ebfeb	-0.18627898
78	0xbe679e54	-0.22618991
79	0xbe8c66ec	-0.27422273
80	0xbf1da45b	-0.6157891
81	0xbea9a425	-0.33133045
82	0xbe41b975	-0.18918402
83	0xbe846265	-0.2585632
84	0xbe908fb9	-0.28234652
85	0xbec10a33	-0.37703094
86	0xbe9ccdd1	-0.30625775
87	0xbe525c32	-0.20542982
88	0xbea34d6b	-0.31895003
89	0xbe54490a	-0.20730987
90	0xbe2478a4	-0.16061646
91	0xbf6756d2	-0.9036685
92	0xbe6e9ca6	-0.23301944
93	0xbe55eb0c	-0.20890445
94	0xbe2643f5	-0.16236861
95	0xbeb7c63b	-0.35893425
96	0xbe453a7e	-0.19260594
97	0xbe76624a	-0.24060932
98	0xbe87890d	-0.2647175
99	0xbe50bd81	-0.2038479
100	0xbed2de0d	-0.41185036
101	0xbe8c469e	-0.27397627
102	0xbe801f92	-0.25024086
103	0xbef724ef	-0.48270366
104	0xbe74a03b	-0.23889248
105	0xbe40e344	-0.18836695
106	0xbe82f221	-0.25575355
107	0xbe5f16aa	-0.2178599
108	0xbe8d3a98	-0.27583766
109	0xbf2b67cb	-0.6695525
110	0xbe126728	-0.14297163
111	0xbe78ebde	-0.24308726
112	0xbe53b217	-0.20673405
113	0xbe837385	-0.25674072
114	0xbe84971d	-0.2589654
115	0xbe2b7f30	-0.16747737
116	0xbe8e0a03	-0.27742013
117	0xbe78868c	-0.24270076
118	0xbe25587b	-0.16147034
119	0xbea52304	-0.32253277
120	0xbe4272b3	-0.18989067
121	0xbe965fc5	-0.2936994
122	0xbec967f3	-0.3933712
123	0xbee02bd1	-0.4378343
124	0xbeb65780	-0.35613632
125	0xbe60c9d6	-0.21951994
126	0xbe252482	-0.16127208
127	0xbe8d2560	-0.27567577
128	0xbe4c936b	-0.1997811
129	0xbe7d087b	-0.24710266
130	0xbe65f0ca	-0.22455135
131	0xbe61a340	-0.22034931
132	0xbead3fdd	-0.33837786
133	0xbe893f4b	-0.268061
134	0xbf1ac31c	-0.60453963
135	0xbde83453	-0.11338105
136	0xbe795d03	-0.24351887
137	0xbe651d75	-0.22374518
138	0xbe57b1f4	-0.21063977
139	0xbe4b9422	-0.19880727
140	0xbeaa1ec1	-0.33226588
141	0xbe685548	-0.22688782
142	0xbea5e38e	-0.32400173
143	0xbe2da56b	-0.16957633
144	0xbdded5a2	-0.10880591
145	0xbe811cdf	-0.2521734
146	0xbe447eca	-0.19188991
147	0xbed9e507	-0.42557546
148	0xbe8d7efd	-0.27635947
149	0xbf11aa7a	-0.5690075
150	0xbe94448f	-0.28958556
151	0xbeadd51e	-0.33951658
152	0xbe4774ae	-0.19478104
153	0xbea25b45	-0.31710258
154	0xbe57cdd6	-0.21074614
155	0xbe48f8cb	-0.19626157
156	0xbe4455ef	-0.19173406
157	0xbe2ca23a	-0.1685876
158	0xbe61f074	-0.22064382
159	0xbe8b912b	-0.27259192
160	0xbe95d041	-0.29260448
161	0xbe4eb1f5	-0.20185073
162	0xbea7dc20	-0.3278513
163	0xbf4379f2	-0.7635795
164	0xbe86422a	-0.26222354
165	0xbec2666d	-0.3796877
166	0xbecc65a2	-0.3992129
167	0xbe5cbb2f	-0.2155578
168	0xbe4539f6	-0.19260392
169	0xbe883acd	-0.2660736
170	0xbec92129	-0.39283112
171	0xbe765591	-0.24056078
172	0xbf5097e5	-0.8148177
173	0xbe4cafe7	-0.19988976
174	0xbef62fa2	-0.48083216
175	0xbeac7bd4	-0.33688223
176	0xbe860469	-0.2617524
177	0xbe9a63fd	-0.3015441
178	0xbe541a44	-0.20713145
179	0xbe3ebedd	-0.18627496
180	0xbe7709b8	-0.24124801
181	0xbebc690c	-0.36798894
182	0xbec88e19	-0.39170912
183	0xbe2e6325	-0.17030008
184	0xbf38085c	-0.71887755
185	0xbe5e25e4	-0.21694142
186	0xbe8f5df9	-0.28001383
187	0xbe06924d	-0.13141747
188	0xbe743a31	-0.23850323
189	0xbea584b8	-0.3232782
190	0xbe72d1f5	-0.23712905
191	0xbe891e55	-0.26780954
192	0xbe8caa48	-0.27473664
193	0xbee98730	-0.45610952
194	0xbec1a82b	-0.37823614
195	0xbe822545	-0.2541906
196	0xbe7a0fed	-0.24420138
197	0xbf18c1cf	-0.5967073
198	0xbe7fd167	-0.24982224
199	0xbe9c2ad5	-0.30501428
200	0xbe3a407c	-0.18188661
201	0xbe9b937f	-0.30385968
202	0xbe2c34eb	-0.16817062
203	0xbe137637	-0.14400564
204	0xbe867a6b	-0.26265272
205	0xbe4188e8	-0.18899882
206	0xbe578d2a	-0.21049944
207	0xbef0b5ba	-0.47013646
208	0xbe9c0e27	-0.30479547
209	0xbe811a7c	-0.25215518
210	0xbe9f9853	-0.31170902
211	0xbeb7e027	-0.35913202
212	0xbf0bde16	-0.5463575
213	0xbe3c62af	-0.1839702
214	0xbe498619	-0.1968006
215	0xbe9b3bc9	-0.3031905
216	0xbe2be9e9	-0.16788448
217	0xbe87b3c0	-0.26504326
218	0xbe9101da	-0.28321725
219	0xbeb25a32	-0.3483444
220	0xbeb4ce03	-0.35313424
221	0xbe9d9985	-0.3078119
222	0xbe39e8e7	-0.18155251
223	0xbe8f56e9	-0.27995995
224	0xbf02577f	-0.5091476
225	0xbe875072	-0.26428562
226	0xbe7c7927	-0.24655591
227	0xbebfbb18	-0.3744743
228	0xbe1be7b0	-0.152251
229	0xbeaae8d8	-0.3338077
230	0xbe83e0e7	-0.25757524
231	0xbe1d6b29	-0.1537291
232	0xbf147963	-0.5799772
233	0xbe963cf5	-0.29343382
234	0xbe787ce9	-0.242664
235	0xbe82344d	-0.25430527
236	0xbe662741	-0.22475912
237	0xbe3d756e	-0.18501827
238	0xbde99fb5	-0.11407415
239	0xbe54cddd	-0.20781656
240	0xbe8a1f71	-0.26977113
241	0xbe941695	-0.2892348
242	0xbe6835ca	-0.22676769
243	0xbe969187	-0.29407904
244	0xbecd8f27	-0.4014828
245	0xbe8707e2	-0.26373202
246	0xbe296477	-0.1654223
247	0xbe39a9d8	-0.18131196
248	0xbf1d2b32	-0.61394036
249	0xbf1122cf	-0.5669374
250	0xbebeb64e	-0.37248462
251	0xbecbfefc	-0.39842975
252	0xbebc3610	-0.36759996
253	0xbe4de72d	-0.20107718
254	0xbe3f9f39	-0.18713082
255	0xbe46961d	-0.19393201

fc2.weight_orig f4 [256, 512]
0	0x3ce95acb	0.028485676
1	0xbba6f419	-0.0050950167
2	0x3c325e6f	0.010886773
3	0xbc480059	-0.012207114
4	0x3cfda062	0.030960266
5	0xbcb94f75	-0.022620896
6	0x3c58f58d	0.013242138
7	0xbaa76189	-0.0012770157
8	0xbb573374	-0.0032837065
9	0x3b973252	0.004614153
10	0x39e9fadc	0.00044628128
11	0xbb599d8b	-0.0033205475
12	0xbad848cc	-0.0016501187
13	0xbc2906fb	-0.010316606
14	0xbbbe5533	-0.0058084964
15	0x3bc7376b	0.0060796044
16	0x3ba307cb	0.004975294
17	0x3c9ad6f3	0.018901324
18	0xbc2c3a75	-0.010511984
19	0xba7df832	-0.0009688168
20	0x3c133491	0.008984701
21	0xbc254223	-0.010086569
22	0xbc047e50	-0.008086756
23	0xbbc4c3b4	-0.006004775
24	0xbcfdae65	-0.030966947
25	0x3cb0694b	0.021534583
26	0xbb2fe811	-0.0026841203
27	0x3b9f0304	0.0048526544
28	0x3be095a9	0.0068537784
29	0xbc423a74	-0.011854757
30	0xbbae9a4d	-0.0053284527
31	0x3b8439ea	0.004035224
32	0xb9281dac	-0.00016032782
33	0x3c7cbf27	0.015426434
34	0xbc7cbd4c	-0.015425991
35	0x3bc00554	0.00586001
36	0xbc31f1a0	-0.010860831
37	0xbbec994e	-0.007220424
38	0xbc496895	-0.012293001
39	0x3c6a28cd	0.014291954
40	0x3c16ee59	0.0092121
41	0x3c4f8921	0.012666971
42	0x3aac35ff	0.0013138651
43	0xbc8f2f10	-0.017478496
44	0xbc38d78f	-0.011281862
45	0x3c4bdbf5	0.012442579
46	0x3c47bce5	0.012191032
47	0xbcc6a679	-0.024249302
48	0x3a855e92	0.0010175279
49	0xbc25f019	-0.0101280445
50	0xbbf1b22e	-0.007375977
51	0xbb658258	-0.0035020318
52	0xbbece737	-0.0072297114
53	0x3b8f5e42	0.00437525
54	0x3b87df9e	0.0041465303
55	0x3c95c4d2	0.018282328
56	0xbb98378b	-0.004645293
57	0x3c169901	0.009191752
58	0xbc79195e	-0.015203802
59	0x3ab23630	0.0013596471
60	0x3c7fc18f	0.015610113
61	0x3b9ffa54	0.0048821364
62	0x3c02bdd6	0.007979831
63	0xbc26b618	-0.0101752505
64	0x3c5c12a3	0.013432178
65	0x3c152806	0.009103781
66	0x3ca012d7	0.019540234
67	0xbaac2b21	-0.0013135412
68	0x3bb2571c	0.005442513
69	0xbc358b03	-0.011080506
70	0xbc85c04d	-0.016327048
71	0xbb4cbfa8	-0.0031242166
72	0x3bd29ca8	0.0064273663
73	0x3ca07159	0.019585298
74	0xbbd002ae	-0.0063479757
75	0xbccfabb8	-0.025350437
76	0x3ca0f4b2	0.01964793
77	0x3c0c9242	0.008579792
78	0x3c5787a2	0.013154896
79	0xbbdc7429	-0.0067277146
80	0xbbab4684	-0.005226912
81	0xbc212284	-0.009834889
82	0xbc906cc4	-0.017629988
83	0xbca2b79f	-0.019862948
84	0xbd072d5a	-0.033002235
85	0xbc9dfa0e	-0.019284274
86	0xbc1af72b	-0.0094583435
87	0xbc057ead	-0.008147878
88	0x3c6ff6e1	0.014646263
89	0x3c767d85	0.015044575
90	0x3a2675f5	0.00063499744
91	0x3c6a4299	0.014298105
92	0xbbac367b	-0.005255518
93	0xbae19658	-0.0017210944
94	0xbbb3bbe3	-0.0054850443
95	0xbcd20b15	-0.02564005
96	0x3cc742a0	0.024323761
97	0xbba9d263	-0.0051825508
98	0x3ccf7d90	0.025328428
99	0xbaec0e94	-0.0018009716
100	0xbc408cd7	-0.011752329
101	0xbc524bad	-0.012835425
102	0xbd2fd325	-0.042925972
103	0x3c90193c	0.017590158
104	0x3bcf8699	0.006333184
105	0x3c8ac963	0.016941732
106	0x3bfea93d	0.0077716396
107	0xbc830a30	-0.015996069
108	0xbd37b105	-0.044846553
109	0x3d07a9ff	0.033121105
110	0xbaa089ea	-0.0012248133
111	0x3cc645a7	0.024203135
112	0x3c39ff8b	0.01135243
113	0xbb196e96	-0.0023411862
114	0x3b34bde4	0.0027579004
115	0xb78ea49a	-1.7004368e-05
116	0x3bb2cce4	0.005456554
117	0x3aae3485	0.0013290799
118	0xbbe9c824	-0.0071344543
119	0x3c3e77f8	0.0116252825
120	0xbca3e339	-0.02000581
121	0x3c785786	0.015157586
122	0x3b8ae634	0.004238868
123	0x3bc1e656	0.0059173508
124	0xbc91cdda	-0.017798353
125	0xbc016041	-0.007896484
126	0x3ca448fe	0.020054337
127	0xb989bf32	-0.00026273128
128	0xbc729e69	-0.014808276
129	0xbcc80de5	-0.024420688
130	0xbbfdf6b1	-0.007750355
131	0xbc2979aa	-0.010343948
132	0xbb95e52d	-0.004574439
133	0x3c3fd759	0.011709058
134	0x3c939fee	0.018020596
135	0x3c2b0b28	0.010439672
136	0xbb7592b2	-0.003747147
137	0x3b334b0b	0.0027357962
138	0x3b07ee70	0.0020741485
139	0xbc3fb550	-0.011700943
140	0xbac829ed	-0.0015271284
141	0x3a2e929e	0.0006659421
142	0xbcc6df38	-0.02427636
143	0xbc24e5b0	-0.010064527
144	0xbb82ff79	-0.00399774
145	0xbb663b19	-0.003513044
146	0x3c82fb48	0.01598896
147	0x3bf22760	0.007389948
148	0x3a74cf94	0.0009338793
149	0xbc2dc5b6	-0.01060622
150	0xbc168bb6	-0.009188583
151	0xbc976ba7	-0.01848395
152	0xbc5956e8	-0.013265349
153	0x3b0001f9	0.0019532426
154	0x3cc8739f	0.024469195
155	0xbb85519e	-0.0040685674
156	0xbc7f85c0	-0.015595853
157	0xbc89c80e	-0.016819026
158	0xbc785019	-0.0151558155
159	0xbb85bca0	-0.0040813237
160	0x3bfcb299	0.00771172
161	0xbcbfe876	-0.023426276
162	0xbaff5096	-0.0019478973
163	0x3c35532a	0.011067191
164	0x3bbfcf0a	0.0058535384
165	0x3c979f40	0.018508554
166	0xbb2d7cbb	-0.002647205
167	0x3b92df12	0.0044821585
168	0xbca3293b	-0.019917121
169	0xba07ce62	-0.0005180595
170	0xbc5d1810	-0.0134945065
171	0x3d04ff44	0.032470003
172	0xbc98c270	-0.018647403
173	0xbcf6ed00	-0.030142307
174	0xbc8908b3	-0.01672778
175	0x3cb889fa	0.02252673
176	0xbbeefdc4	-0.007293435
177	0xbbea2710	-0.00714577
178	0xbd046e57	-0.03233179
179	0x3b8ff08f	0.0043926905
180	0x3a69db40	0.00089209154
181	0xbcc241e0	-0.023713052
182	0x3c29ed5d	0.010371533
183	0x3c5cdc2d	0.013480228
184	0xbbc82904	-0.006108405
185	0xbb77296d	-0.00377139
186	0x3be245ae	0.006905279
187	0x3d38e23f	0.04513764
188	0xba68396b	-0.00088586536
189	0x3bf45593	0.0074564903
190	0x3ae5d1ef	0.0017533879
191	0xbba31b1d	-0.0049775974
192	0xbc671c22	-0.0141058285
193	0x3b528cf0	0.0032127462
194	0xbcbf8f92	-0.02338389
195	0x3b21816a	0.0024643787
196	0xb9c0eea7	-0.00036798904
197	0xba66a05e	-0.00087977
198	0x3c903b19	0.017606305
199	0xbc277c9f	-0.010222583
200	0xbc14bc46	-0.009078091
201	0x3c5f69f7	0.013636104
202	0xbcc7d9c6	-0.024395835
203	0xbc412c3a	-0.01179033
204	0x3ca2dd20	0.019880831
205	0xba3892e6	-0.00070409325
206	0x3cbe0c8d	0.023199344
207	0x3b8d40dc	0.0043107104
208	0xbc31e4a0	-0.010857731
209	0x3b5cda8b	0.0033699598
210	0x3c3d3ec7	0.011550612
211	0xbc96cc7c	-0.018408053
212	0xbb5dfbd7	-0.0033872032
213	0x3c940ee9	0.018073516
214	0x3cf27578	0.02959703
215	0x3d11a4ca	0.035557546
216	0xbcb37432	-0.021905992
217	0x3c98a89a	0.018635083
218	0x3c20c68a	0.00981296
219	0x3cba6f45	0.022758136
220	0x3be37763	0.0069417222
221	0xbaca5ada	-0.0015438453
222	0xbafdcc4f	-0.0019363257
223	0x3d328bc6	0.04359033
224	0xbc0627e3	-0.008188221
225	0xbceea853	-0.029132998
226	0xbb77cd6d	-0.0037811652
227	0xbccfee18	-0.025382087
228	0xbcbc0be2	-0.022954885
229	0xbc4ab045	-0.0123711275
230	0x3ce55239	0.027993308
231	0x3c87f8a3	0.016598051
232	0x3c9efb33	0.01940689
233	0xbb9d229a	-0.0047953846
234	0xbbbf4ff5	-0.005838389
235	0xbc7d1986	-0.01544798
236	0xbcf4d56c	-0.029886924
237	0x3b3ea4a3	0.002908983
238	0x3c95c192	0.018280778
239	0x3bcb49a8	0.006203849
240	0x3c525685	0.012838011
241	0x3cd5c43b	0.026094547
242	0x3be63ba3	0.007026152
243	0x3b336f76	0.0027379668
244	0x3b91b15c	0.0044461917
245	0x3c89bc7e	0.016813513
246	0x3c5200f2	0.012817608
247	0xbd0692c8	-0.032854825
248	0xbbfe3098	-0.0077572577
249	0xbbd110b7	-0.0063801664
250	0xbcaad135	-0.02085171
251	0x3c6c4dec	0.014422875
252	0xbcd348bb	-0.025791517
253	0xba565a7c	-0.00081769354
254	0x3cc0988a	0.023510236
255	0xbc570168	-0.013122894

fc2.weight_u f4 [256]
0	0xbc3c1b73	-0.011481154
1	0xbc31c29a	-0.010849619
2	0x3bb3cb2c	0.0054868665
3	0xbbc61752	-0.0060452605
4	0xbb821d34	-0.0039707664
5	0xba1cd1db	-0.00059821986
6	0x3b1bc0e5	0.0023766097
7	0x3bc5193e	0.006014972
8	0xbc2dd00e	-0.010608686
9	0xbbcfae8a	-0.0063379453
10	0x3c63185b	0.013860787
11	0x3c0f4b05	0.008745913
12	0xbd3895e9	-0.04506484
13	0xbc8d1afb	-0.01722478
14	0xbd0722ee	-0.032992296
15	0x3bb57293	0.00553734
16	0xbcb966d9	-0.02263205
17	0x3c218ecd	0.0098607065
18	0xbcd57d54	-0.026060738
19	0x3aaf2296	0.0013361748
20	0xbafdf374	-0.0019374923
21	0xbc3b25ed	-0.011422616
22	0xbd4e47f4	-0.05036159
23	0xbb587789	-0.0033030233
24	0xbd0a1673	-0.033712815
25	0xbbc37ba4	-0.005965667
26	0xbc04c348	-0.008103199
27	0x3c185692	0.009297984
28	0xbd596ab1	-0.053080264
29	0xbbd23619	-0.0064151403
30	0x3addba7b	0.0016916537
31	0x3902790a	0.00012442857
32	0x3b7598ae	0.0037475037
33	0x3bafee48	0.0053689815
34	0x3bd4e8df	0.006497487
35	0xbc2c1d27	-0.010504997
36	0x3dce9b12	0.10088171
37	0x3d510f7f	0.05104017
38	0x3b58608f	0.0033016538
39	0xb6efde7f	-7.148657e-06
40	0x3b46f6e6	0.0030359565
41	0x3af3c73c	0.0018598805
42	0xbb377fef	-0.0027999838
43	0x3d9bb10c	0.076021284
44	0x3b5f6791	0.003408883
45	0xb8866b07	-6.409553e-05
46	0xbc63a9ba	-0.013895446
47	0xbb822dc8	-0.0039727427
48	0xbd0bdf48	-0.034148484
49	0xbb89a654	-0.004200736
50	0x3c0f3a34	0.008741904
51	0x3c362d99	0.01111927
52	0x3ab638c8	0.001390242
53	0x3b5c4575	0.0033610736
54	0xbc099631	-0.008397625
55	0x3c2cf2ad	0.010555905
56	0x3c2d7fe3	0.010589573
57	0xbc5d5094	-0.013507981
58	0x3b8d82c2	0.004318566
59	0xbaa538f9	-0.001260548
60	0x3bf76bf5	0.0075507113
61	0x3a831443	0.0010000545
62	0x3d578a7f	0.052622315
63	0xbc198196	-0.009369275
64	0x3a5cd0ad	0.0008423429
65	0xbbbaa427	-0.005695838
66	0xbc42caac	-0.011889141
67	0x3c11e9ec	0.008905869
68	0x3d545507	0.0518389
69	0x3e12dc0c	0.14341754
70	0xbe0ded36	-0.1386002
71	0x3b5c6e9c	0.0033635264
72	0xbce27962	-0.02764577
73	0xbc4fd77c	-0.012685653
74	0xbb817aea	-0.00395142
75	0xbda8cd20	-0.082422495
76	0x3e4e13de	0.20124766
77	0x3bb08369	0.005386759
78	0xbd837645	-0.064190425
79	0xbb8422f0	-0.004032485
80	0xbbd6161a	-0.0065333964
81	0xbb4fbea5	-0.0031699326
82	0x3c08dcb5	0.008353402
83	0xbc3d9608	-0.011571415
84	0xbc002eec	-0.007823687
85	0x3b0f970c	0.00219101
86	0x3c6f42b9	0.01460331
87	0x3b5d0c63	0.0033729307
88	0xba824465	-0.0009938596
89	0xbc60c62d	-0.013719124
90	0xbc364a1a	-0.011126066
91	0x3a933ce9	0.0011233363
92	0xba73f3ac	-0.00093060243
93	0x3c66da37	0.014090112
94	0xbbef410e	-0.0073014563
95	0xbb0df8cd	-0.002166319
96	0xbbb8d180	-0.0056402087
97	0xbc339ec1	-0.010963143
98	0xbc295a25	-0.010336434
99	0xbbe46507	-0.006970051
100	0xba2e817f	-0.00066568697
101	0xbac76e52	-0.0015215373
102	0x3b63ba0a	0.003474834
103	0x3b5d6e41	0.003378764
104	0xbc27d43f	-0.0102434745
105	0x3c06895a	0.008211458
106	0xbc018e2e	-0.007907433
107	0xbb2b7d64	-0.0026167268
108	0x3958282f	0.00020614335
109	0x3ed32b65	0.41244045
110	0xbf2af141	-0.66774374
111	0xbb9362b4	-0.0044978503
112	0x3beea314	0.007282624
113	0x3bdf8bef	0.0068221013
114	0xbc163f7a	-0.009170407
115	0xbd7044b9	-0.05865929
116	0x3b24927f	0.0025111733
117	0xbc08f417	-0.008358977
118	0x3d07de79	0.03317115
119	0x3b2073be	0.002448305
120	0x3aca016f	0.0015411804
121	0x3bf08503	0.007340075
122	0x391b856d	0.00014831657
123	0xbcf6434c	-0.030061387
124	0xbb88a6be	-0.004170268
125	0xbcdb9c26	-0.026807856
126	0xba697009	-0.0008904939
127	0x3c0500c5	0.008117859
128	0x3c28899f	0.010286718
129	0x3c66c76c	0.014085632
130	0xba2fe938	-0.00067104725
131	0x39f76922	0.0004718984
132	0xbd15d641	-0.03658128
133	0x3d4021fc	0.04690741
134	0xbe202da5	-0.15642412
135	0xbc2411bf	-0.010013997
136	0xbc29182a	-0.010320703
137	0xba910014	-0.0011062645
138	0x3c44d54a	0.012013743
139	0xbae114c6	-0.0017172329
140	0xbc3ede25	-0.011649643
141	0xbc8b15ad	-0.01697811
142	0xbda4c301	-0.080450065
143	0x3c9650a5	0.018349001
144	0xbca718e2	-0.020397607
145	0xbadc2e04	-0.0016798382
146	0xbbb37a6b	-0.00547724
147	0x3d0d0a91	0.034433905
148	0x3bb4e98d	0.0055210055
149	0xbb2cf23c	-0.00263895
150	0x3ba919da	0.0051605524
151	0x3d18d192	0.037309237
152	0x3da888a1	0.08229185
153	0x3ba90493	0.005158016
154	0xbbe66d50	-0.007032074
155	0x3b3c6bbd	0.002875074
156	0xbb6c4fb1	-0.0036058242
157	0x3cc14f74	0.023597457
158	0xbbc0d565	-0.0058848136
159	0x3df173b3	0.11789646
160	0xbafd0dc3	-0.001930647
161	0x3bc94fc3	0.0061435415
162	0xba8646a3	-0.001024444
163	0x3b18f9a6	0.0023342161
164	0xbc628e82	-0.013827922
165	0xbb42a8c9	-0.0029702655
166	0x3bbc4553	0.005745569
167	0x3c136a52	0.008997517
168	0x3afe18bb	0.0019386032
169	0x3aab40ee	0.0013065615
170	0x3c43687a	0.011926765
171	0x3e2d7040	0.16937351
172	0xbd47c1f3	-0.04876895
173	0xbdbf96dd	-0.09354947
174	0x3b8110fe	0.003938793
175	0x391133ad	0.00013847528
176	0x3b9b2f99	0.0047358987
177	0x3b0ef66f	0.0021814366
178	0xb944fdf6	-0.00018786624
179	0xbbb30c14	-0.0054640863
180	0x3adc7067	0.0016818166
181	0x3c4e6a8d	0.012598646
182	0x3ba5a1e5	0.0050546997
183	0xbd28a34a	-0.04117135
184	0x3dc06bd5	0.09395567
185	0xbc0f364f	-0.0087409755
186	0x3dfaf594	0.122538716
187	0xbc2b56b0	-0.01045768
188	0xbbfb84b2	-0.0076757306
189	0x3bd455de	0.0064799627
190	0xbc4c6751	-0.012475804
191	0xbba54a5a	-0.005044264
192	0xbc0541ac	-0.008133333
193	0x3b7f40fe	0.003894865
194	0x3bedac0f	0.007253177
195	0x3bcd7a18	0.006270658
196	0xba3cf5d4	-0.0007208262
197	0xbb2887ee	-0.0025715786
198	0xbc073de4	-0.008254502
199	0x3e82e60f	0.25566146
200	0xbc22427f	-0.009903549
201	0xba30bad7	-0.00067417085
202	0x3c16268e	0.009164466
203	0x3c0b3948	0.008497544
204	0xba1de219	-0.0006022766
205	0x3bb37225	0.0054762536
206	0xbd0aa160	-0.033845305
207	0x3c30ec5a	0.010798538
208	0xbb43047e	-0.0029757316
209	0xbb9435a1	-0.0045229946
210	0xb7a5e228	-1.9774845e-05
211	0xbb381115	-0.0028086354
212	0x3b8790a8	0.0041371174
213	0xbb5ead7e	-0.003397792
214	0xbb98396a	-0.004645516
215	0xbde6b108	-0.11264235
216	0x3d92cc57	0.07167881
217	0xbc3fd171	-0.01170765
218	0xba6d2e5c	-0.00090477406
219	0x3e0f640e	0.14003012
220	0x3b19e134	0.0023480179
221	0xbafa15b7	-0.0019079958
222	0xbb568bbe	-0.0032737101
223	0x3c3b83f5	0.011445035
224	0xbc301985	-0.010748272
225	0xbc0dc9f7	-0.008654109
226	0xbc34b22c	-0.011028808
227	0xbcd7bb0a	-0.026334304
228	0x3ac9ce86	0.0015396632
229	0xbbf308f5	-0.0074168392
230	0xba544d93	-0.00080987177
231	0x3c873da2	0.016508881
232	0x3bd2bd43	0.006431253
233	0xbc609220	-0.013706714
234	0xbc56ec08	-0.013117798
235	0x3b847918	0.004042756
236	0xbb2d931e	-0.0026485394
237	0x39dc7d30	0.00042054942
238	0xb7c36bcc	-2.3296008e-05
239	0xbaa57771	-0.0012624097
240	0xbbc29d76	-0.005939181
241	0x3bceecf9	0.0063148704
242	0x3c0009be	0.007814823
243	0x3dc84c5f	0.09780192
244	0x3bafaa4b	0.0053608767
245	0xb933a2e2	-0.00017131449
246	0x3c27ee04	0.010249618
247	0xbc4cca89	-0.01249946
248	0x3ba00443	0.0048833205
249	0xbb097c7f	-0.0020978746
250	0x37b212a4	2.1227934e-05
251	0x3c972e51	0.018454703
252	0xbbcae8df	-0.006192311
253	0xbc6a61db	-0.014305557
254	0xbc1123a4	-0.008858595
255	0x3b9418a8	0.004519541

fc2.weight_v f4 [512]
0	0x3abb0668	0.0014268877
1	0x3ba9bbc0	0.0051798522
2	0x3b354704	0.0027660737
3	0x3c183c31	0.0092916945
4	0x3735b0bf	1.0829593e-05
5	0x3b9ef6ae	0.004851184
6	0x3c5b9b94	0.013403792
7	0x3af7bb96	0.001890051
8	0x3bc50dd0	0.0060136095
9	0x3b86d584	0.0041148085
10	0x3b4da081	0.0031376185
11	0x3c0f460d	0.008744729
12	0x3ba5da7c	0.0050614458
13	0x3b112e46	0.0022152825
14	0xbb9b544d	-0.004740274
15	0x37ce9b36	2.462939e-05
16	0x3b812150	0.0039407387
17	0x3b5a3662	0.0033296575
18	0x3c026c5d	0.007960406
19	0xbe20121b	-0.15631907
20	0x3b603448	0.003421085
21	0x3c50cfcf	0.012744858
22	0xbb091ddb	-0.0020922336
23	0x3b9c9def	0.0047795693
24	0x3a3a40f9	0.00071050186
25	0x3c2751ce	0.010212375
26	0x3b8a978f	0.004229493
27	0x3b9b283a	0.00473502
28	0xb89b4633	-7.4040516e-05
29	0x3c6b9712	0.01437928
30	0x3b037366	0.0020057797
31	0x38e146ed	0.00010742047
32	0x3b4aecd2	0.003096391
33	0x3acc6d22	0.0015596489
34	0x3a579a33	0.00082245766
35	0xbb20e3be	-0.0024549807
36	0x39664bce	0.00021962749
37	0xbe01f8c3	-0.12692551
38	0x3be52503	0.0069929375
39	0x3c4699ee	0.012121661
40	0x3b22bab6	0.0024830527
41	0x3c3f2440	0.0116663575
42	0x3c0812da	0.008305276
43	0x3bb0fc93	0.005401203
44	0x3b4a90ef	0.003090914
45	0x3c7ab57d	0.015302059
46	0x3b651ebc	0.0034960946
47	0x3c13550b	0.008992444
48	0x3c214658	0.009843431
49	0xbb2ccc7c	-0.0026367
50	0x3c55f5b6	0.01305907
51	0x3b8ebd53	0.0043560653
52	0xbbfe8bf9	-0.007768151
53	0x3c5fa813	0.013650912
54	0x3c2688aa	0.010164419
55	0x3be8cde4	0.007104622
56	0x3c0b1c27	0.008490599
57	0xbab14a47	-0.0013526165
58	0x3be61202	0.0070211897
59	0xbc0fc044	-0.008773867
60	0x3c04524a	0.00807626
61	0x3c3b4663	0.011430356
62	0x3b9d3db9	0.0047986177
63	0x3be55951	0.0069991727
64	0xbcb23fa3	-0.02175886
65	0x3baf4c92	0.005349704
66	0x3b3e28a4	0.0029015923
67	0x3bf8d953	0.0075942664
68	0x3b66c58a	0.0035212957
69	0x3bdff534	0.0068346504
70	0x3c09fa08	0.0084214285
71	0x3c3dd49c	0.011586335
72	0x3c408465	0.011750315
73	0x3b89e49f	0.004208162
74	0x3c0ab802	0.008466722
75	0x3c15a7e1	0.009134264
76	0x3c07c3fa	0.008286471
77	0x3a8105b7	0.0009843622
78	0x3baa3a90	0.0051949695
79	0x3dfe74ec	0.12424645
80	0x3bda8c66	0.006669569
81	0x39bc200c	0.0003588203
82	0x3bd6072b	0.006531616
83	0x3bbe8f65	0.005815434
84	0x3bb06b47	0.005383882
85	0x3c13c0d3	0.009018141
86	0x3baf916a	0.005357911
87	0x3b30d6b2	0.0026983437
88	0x3ae74525	0.0017644508
89	0xbb7baa0e	-0.003840092
90	0x3b95866a	0.0045631425
91	0x3dbd4beb	0.09242996
92	0x3bab5ab6	0.0052293194
93	0xbb110548	-0.0022128392
94	0x3a79b65d	0.00095257704
95	0x3c27842f	0.010224386
96	0x3be7f147	0.007078323
97	0x3b51904d	0.003197688
98	0x3bc667a5	0.006054836
99	0x3bfbe832	0.007687592
100	0x3c1ec399	0.009690189
101	0x3c31a736	0.010843089
102	0x3c4adc8d	0.012381685
103	0x384f9e34	4.9499984e-05
104	0x3c095343	0.008381668
105	0x3bd6543e	0.006540804
106	0x3b8076a6	0.003920394
107	0x3c4e02ef	0.012573942
108	0x3b53c478	0.003231315
109	0x3b57d00c	0.0032930402
110	0x3e8a5a4b	0.27022013
111	0x3c25721c	0.010098007
112	0x3bec8cc9	0.0072189313
113	0x3bb03a55	0.0053780475
114	0x3b37ab27	0.0028025599
115	0x3b5d2b27	0.0033747645
116	0x3b97407d	0.004615842
117	0x3bcd475f	0.0062646116
118	0x3c681c3e	0.01416689
119	0x3e841bb5	0.2580239
120	0x3c745878	0.014913671
121	0x3d604c93	0.054760527
122	0x3bb680b1	0.0055695404
123	0x3b7738d0	0.0037723072
124	0x3bcec550	0.0063101426
125	0x3eca6639	0.39531115
126	0x3bb952c5	0.005655619
127	0x3c1582dc	0.009125438
128	0x3c07883a	0.008272225
129	0x3b838460	0.004013583
130	0x390903c5	0.00013066742
131	0x3c194bed	0.009356481
132	0x3bc51e43	0.0060155704
133	0xbace4eb5	-0.0015740009
134	0x3b4da626	0.003137955
135	0x3bca863e	0.0061805537
136	0x3c01b70a	0.007917175
137	0x39962d3e	0.00028643938
138	0x3a92295c	0.0011151242
139	0xbb732413	-0.003710036
140	0x3a81259f	0.0009853131
141	0xba8d5033	-0.0010781348
142	0x3c4f7896	0.012663027
143	0x3bc75f61	0.006084368
144	0x3c2605c3	0.01013321
145	0x3b68fa8a	0.0035549724
146	0x3c1e59ab	0.009664933
147	0xbbc66d5b	-0.0060555167
148	0x3b987f05	0.004653814
149	0x3b738333	0.0037157058
150	0x3cf249dc	0.029576235
151	0x3c05e179	0.008171433
152	0x3e1d2c87	0.15349017
153	0x3c218ad4	0.009859759
154	0x3aeab096	0.001790541
155	0x3c0bfadb	0.008543695
156	0x3a331d3c	0.00068326644
157	0x3b0556af	0.0020345857
158	0x3b47d7f3	0.0030493706
159	0xb9be9897	-0.00036353312
160	0x3bdacba7	0.0066771093
161	0xb9e33bbb	-0.00043341317
162	0x3c453684	0.012036923
163	0x3af1c62b	0.00184459
164	0xbce0720a	-0.027398128
165	0xbc27526e	-0.010212524
166	0xbb46682d	-0.0030274496
167	0x3b9a3896	0.0047064526
168	0x3b432d57	0.0029781663
169	0x3b154f72	0.0022782949
170	0x3be8ce1b	0.007104648
171	0x3c1612af	0.009159728
172	0x39a9eb77	0.00032409627
173	0x3c7f28a1	0.0155736515
174	0x3c366c95	0.011134286
175	0xb90ea70a	-0.00013604402
176	0x3d9df7c5	0.07713274
177	0xbc09408d	-0.0083772065
178	0x3b89da5d	0.004206939
179	0xba1696ef	-0.0005744537
180	0x3a9e61e4	0.0012083617
181	0x3c00e4b3	0.007867026
182	0xbd35e2f8	-0.044405907
183	0x3c23ba6c	0.009993177
184	0x3aaf78c2	0.0013387429
185	0x3b94b5f0	0.00453829
186	0xbac9ecea	-0.0015405689
187	0x3bca93be	0.006182163
188	0x3b9c423d	0.0047686384
189	0xbd8e570f	-0.06950199
190	0x39aed903	0.00033349553
191	0xba0e216b	-0.000542185
192	0x3c17f905	0.0092756795
193	0x3c12b1f7	0.008953563
194	0x3b2f1e8b	0.0026721086
195	0xbe663910	-0.22482705
196	0x3c7f8e98	0.015597962
197	0x3bc0270c	0.0058640298
198	0x3bb837d1	0.005621888
199	0x3ba68fdb	0.005083067
200	0x3d5373e9	0.051624212
201	0x3bf16cc5	0.0073677027
202	0x3c0c0402	0.008545877
203	0x3c2a0526	0.010377204
204	0x3bbf5afe	0.0058397045
205	0xbc99cc37	-0.018774135
206	0xbb4561ce	-0.003011811
207	0x3c66d318	0.014088415
208	0x39e910cb	0.00044453735
209	0x3b13ac72	0.0022533205
210	0x3bf76827	0.0075502577
211	0x3ab4da68	0.0013798
212	0x3ae9a65b	0.0017826067
213	0x3bbc2873	0.0057421266
214	0x3c088021	0.00833133
215	0xbba3eddc	-0.0050027203
216	0x3c1b116c	0.009464603
217	0x3c5695e6	0.013097262
218	0xba234798	-0.0006228625
219	0x3badf9ba	0.0053093107
220	0x3c0f9d7d	0.0087655755
221	0xbcff1805	-0.031139383
222	0x3c123795	0.008924385
223	0x3963b200	0.00021714717
224	0xba83f9f5	-0.0010069
225	0x3ae51d9d	0.0017480139
226	0xbaf78405	-0.0018883949
227	0x3bf5e344	0.007503899
228	0x3bd48c40	0.0064864457
229	0x3b91bd99	0.0044476506
230	0x3b9eef4f	0.004850305
231	0xbac7be21	-0.0015239158
232	0xba48d74c	-0.0007661476
233	0x3bff3eba	0.00778946
234	0x3ab3f7da	0.0013730482
235	0x3b61e655	0.0034469564
236	0xba8a530c	-0.0010553314
237	0x3b2c8706	0.0026325597
238	0xba827f98	-0.0009956239
239	0x3c22c01c	0.009933498
240	0x3be0a030	0.0068550333
241	0xbea89b8f	-0.32931182
242	0x3b1534a2	0.0022766967
243	0xba7800ac	-0.00094605493
244	0x3c0f5d34	0.008750249
245	0xb9b74fe2	-0.00034963997
246	0xbb78148b	-0.0037854041
247	0x3b99d4fe	0.00469458
248	0x3b736a07	0.0037142055
249	0x3b53d331	0.0032321925
250	0x3bf08ef9	0.0073412624
251	0x3b783495	0.0037873138
252	0x3bfb9e6e	0.0076787984
253	0x3b47e417	0.0030500942
254	0x3b3ef43f	0.0029137281
255	0xb9220c52	-0.00015454114
